ga_weights/ga2/Hopper-v5/SAC/weights7.pt (torch, 281441 bytes, 6 tensors)

fc1.weight f4 [256, 11]
00000000: 31c6 053e 20a4 2a3f 4d02 a43e 2e01 d03e
00000010: c5bf 3abe 6960 ecbe 5946 81bf bcb6 22be
00000020: 9099 2ebf 144f 163f 87ae 373f d247 59bf
00000030: 2518 fcbe 530d 8a3f 3f12 c8be 96f8 01c0
00000040: 0a4d 5fbe 8986 68be d2db 433e b2af cebe
00000050: 60c6 4abf 9808 a6be 59f0 68bd 5aee 86be
00000060: 3c3d 193f 487f 8bbe fc69 19bf 6489 2bbf
00000070: 4ab4 b5bf 8bfa 813e d21c d4be 40cc 11bf
00000080: 072c b13e c81d ce3e b3de f1be 8f64 f9be
00000090: 3076 03bf edca 723f 3076 583f 3d31 d2be
000000a0: a2ab 943f c98b 71be b402 febe 0dd1 a1be
000000b0: 3e5b 60bf ec78 0d3f 1772 553e 2a59 b03f
000000c0: 32c1 873e 8675 453e a4a5 103f d0d3 15be
000000d0: 1314 543f 79f6 16be 8874 6cbc fc4b 29be
000000e0: 4434 f63d 0b46 1ebf fae3 2dbf 2666 5abe
000000f0: ba31 6a3f 887a 1ebf 88b5 2a3f 16c7 72be
00000100: 1aa0 a13f 70ad 203f 78ce 343e 7937 64bf
00000110: 3846 a2be 6201 513e 7412 2cbc ee00 643f
00000120: 7aaa 043f b1a0 97be 266f a0be 560f fcbd
00000130: e52b 0c3f dfc8 a33f abcd 1abe 3f3a 713f
00000140: 340d 43bf 8ff6 5b3d 400e e2be 0525 e73e
00000150: 9ed2 493f 12d7 1a3f 5aea 0abe 4053 06bd
00000160: 90de 393e 9706 c0be c753 ea3e 1215 0dbf
00000170: 0290 483d 8f23 e5bd 64e0 063e 32fe 9cbd
00000180: ec45 a43e 02cd 0f3f 4c95 103f f916 ac3e
00000190: 09fd c8be 76d6 9c3e b361 6b3d 9062 993e
000001a0: 2136 f83e 2217 b1bc 6863 e23e 5487 a43e
000001b0: e799 62bd e12b 79bf 6487 0b3e 3890 4dbf
000001c0: 9cb7 14bd f273 cf3e af40 793f e170 483f
000001d0: 6478 68be 1440 82bd 10dc e63e 5253 053f
000001e0: 3c9a b83d 31aa f73e c4ca 84be 580c 643e
000001f0: fa4f 0c3f fdc4 db3f afd4 5e3d d46a dabe
00000200: f2f4 e2be 4070 c53e 9928 b73e 9d38 b2bf
00000210: e0d9 333f aab0 5dbe 03bd 02bf 839e 73bf
00000220: d4fa 8fbf e3e2 033f 4194 d2be a66f a8bf
00000230: b48a c4bc b205 37be 94df e9be 3317 50bf
00000240: 9985 d53f 9e11 1ebf 410a 6dbe 67ab b63e
00000250: e054 99be 0ea9 9ebe 0d08 c43f 7cd8 cfbe
00000260: f271 97bf f647 88be 4b24 753e 30a5 533f
00000270: 7441 c73e 68f1 b33e 6047 b03e c0e5 37bf
00000280: 90fb 503f a460 07bf 4688 28bf 041c b0be
00000290: 3556 57be 6a45 e8be c108 553f 09df e03f
000002a0: 3c86 d2bd 60f4 20bf 46b6 aebf a081 883f
000002b0: 96b1 76bf 2191 73bf 07e8 363e b8e9 8d3e
000002c0: e70e 6c3f a8bd 2b3e 9194 9f3f b047 fa3e
000002d0: 88b8 5abf b5b4 9f3f d3b8 0dbe 984f 203f
000002e0: 4bcd 1a3f c41c 35bd 85b7 a33e 1a12 87bf
000002f0: 7ec9 a53f b86a ac3e fea6 103f 3134 d5bf
00000300: 0273 4bbf c05a d1bf b8ba de3d 48cc 643e
00000310: 841b 9bbf f618 67bd f561 3cbe 5a0b 183e
00000320: 3099 e6be e402 523e 9869 993f 0be6 96bf
00000330: fa53 9b3f b772 783f a40c 1ebf 2ebd 5fbf
00000340: d232 06bf 550a 053f 8b0d 103f f512 283f
00000350: 3097 30bf 6e16 54bf 3a3d adbc 51b7 67bf
00000360: 4988 203f 1526 903f 7920 1d3f 1ab1 debf
00000370: 72cd 3cbf 95b1 6dbe e8a7 1fbf d85c dcbe
00000380: 6e9a 643f 1e9f d8bd e23e d23d 3fa3 01be
00000390: 2df8 8e3d 9e7b 53bf 9e00 bd3f 8532 05bf
000003a0: 308b 723e b939 a03e a0d4 8f3c bc17 703f
000003b0: 3878 a63e 9701 83be 5e27 dc3e 1ea4 393f
000003c0: e0b6 bd3e e586 8bbf 4670 4d3f c93c 2d3e
000003d0: 6874 94bf 1cce 7d3d debe 8bbe 6a11 5c3e
000003e0: 4b41 12bf 0300 47bf 106c 89be a820 8fbf
000003f0: 92d8 93be b83e 1bbf 6af9 c63e 321e b9bf
0.13063885 0.66656685 0.32033005 0.406259 -0.18237217 -0.46167305 -1.0099593 -0.1589002
-0.6820307 0.58714414 0.7175068 -0.84875214 -0.4923717 1.0785316 -0.3907642 -2.0307975
-0.21806732 -0.22707571 0.19126824 -0.4036842 -0.79208946 -0.32428432 -0.05686984 -0.26353723
0.5985906 -0.27245545 -0.59927344 -0.67006516 -1.4195645 0.25386462 -0.41428238 -0.56952286
0.34603903 0.40257096 -0.4724022 -0.48709533 -0.51352215 0.9484089 0.8455534 -0.4105319
1.1614878 -0.2358848 -0.49611437 -0.31604806 -0.87639225 0.5526264 0.20844303 1.3777211
0.26514584 0.19283113 0.5650275 -0.14631581 0.8284313 -0.1474246 -0.01443208 -0.16532892
0.120216876 -0.6182563 -0.6792599 -0.21328029 0.91482127 -0.6190572 0.66683245 -0.23708758
1.2626984 0.62764645 0.17656887 -0.89147145 -0.31694198 0.20410684 -0.010502446 0.8906392
0.51822627 -0.29614785 -0.313348 -0.123076126 0.5475448 1.2795676 -0.15117519 0.942295
-0.7619202 0.053701933 -0.44151497 0.4514543 0.78837 0.6048442 -0.1356596 -0.032794237
0.18151307 -0.37505028 0.45767042 -0.55110276 0.04896546 -0.11188423 0.13171536 -0.076656714
0.32084596 0.5617219 0.5647781 0.33611277 -0.3925555 0.3063237 0.05746622 0.2995801
0.48478797 -0.021617476 0.44216466 0.32134497 -0.055322554 -0.9733258 0.13625866 -0.80298185
-0.036307916 0.40518147 0.97364324 0.7829724 -0.22702175 -0.06359878 0.4508977 0.5208026
0.09013793 0.48372033 -0.25935948 0.22270334 0.54809535 1.7169491 0.05440205 -0.42659628
-0.44327503 0.38562202 0.3577316 -1.3923527 0.70254326 -0.21649423 -0.5106966 -0.95163745
-1.1248422 0.51518077 -0.41128734 -1.3159072 -0.02399192 -0.17873266 -0.4567839 -0.812854
1.6681396 -0.6174563 -0.23148443 0.35677645 -0.29947567 -0.30988353 1.5314957 -0.40594852
-1.1831648 -0.26617402 0.23939626 0.8267393 0.38917124 0.35145116 0.34429455 -0.71834946
0.81633854 -0.52881837 -0.65832937 -0.34396374 -0.21028979 -0.4536546 0.8321648 1.7568065
-0.102795094 -0.62872887 -1.3649375 1.0664558 -0.96364725 -0.95143324 0.17861949 0.27717376
0.9221024 0.16771567 1.2467214 0.48882818 -0.8543782 1.2477022 -0.13840036 0.6262145
0.604695 -0.044216886 0.31975952 -1.0552399 1.2952116 0.3367517 0.5650481 -1.6656553
-0.79472363 -1.635582 0.108754575 0.22343552 -1.2117772 -0.05642029 -0.18396743 0.1484808
-0.45038748 0.20508915 1.198535 -1.1788954 1.2135003 0.9705004 -0.6173804 -0.8739804
-0.52421296 0.5196889 0.56270665 0.65653926 -0.68980694 -0.82846725 -0.02114736 -0.90514094
0.62707955 1.1261622 0.61377674 -1.7397797 -0.73750985 -0.23212273 -0.6236558 -0.43039584
0.8929814 -0.10577224 0.102659 -0.1265993 0.069809295 -0.826105 1.4765813 -0.5203021
0.23685908 0.3129404 0.017557442 0.93786216 0.32513595 -0.2558715 0.42998785 0.7251605
0.37053585 -1.0900542 0.8024944 0.16917719 -1.1598024 0.06196414 -0.27294058 0.21491018
-0.5713088 -0.7773439 -0.26840258 -1.1181841 -0.28876168 -0.60642576 0.38862163 -1.446234

fc1.bias f4 [256]
00000000: 8884 783e 585a b2be deee 86bf 4541 9ebf
00000010: d7c2 90bf 64e1 b03e a521 f93e 01e9 05bf
00000020: b496 993f bd96 09bf 7002 c93e a8ce c23e
00000030: 250c 22bf baa9 e6be 2a51 e13f 4672 2d3f
00000040: 01c5 1abf 7980 803d 25be 633f f0de c73e
00000050: 9cce be3e c30e d2bf a47d 8b3e 04a0 7b3e
00000060: e478 a23f 1cdb 813f b00b 07be 6c4c 993f
00000070: 8972 fbbe 8208 813d c297 cebe 4a05 03bf
00000080: 59c1 64be 8311 993f 9a61 aa3f 732e 9b3f
00000090: b0c5 6bbc cba6 6abd 00d6 2fbf 6ee1 01bf
000000a0: 439b 863f 2c52 30bf 2da8 0e3e ced4 0fbf
000000b0: 19d3 f53e a4e7 29be 6c9e a6bf bc17 803f
000000c0: fff1 1fbf 733d 3ebf 82dd 953f 80be 1bba
000000d0: 4aec ce3f 64e8 d43e 5c11 28be 2c30 123e
000000e0: fc1c b6bd e17e ef3e 999f 253f ca84 c13f
000000f0: 2a0a 83bf 6026 a33e d511 983f 81ea cbbf
00000100: 0cd7 5cbf 5ad2 e9be c4a9 983f 64c7 643f
00000110: ca2a 85bf ba01 063f a2c4 bbbe 8995 56bf
00000120: 064e fb3e 4cfa 4cbe 5bcb f8be ad5e 1dbf
00000130: 571d 1dc0 c2d5 373f 9685 253e 00af df3d
00000140: 9410 693f 3e09 dfbe b2fc a7be 4a30 10be
00000150: c5f2 65be f461 cabf eb75 5f3f 7f82 72bf
00000160: 3352 0ebf cf1b 653f 9671 0bbf 59d8 8c3f
00000170: 5ecc 4bbf 3284 c43e a4d8 1d3f da46 a9bc
00000180: 1917 aa3e dc61 b23e 6d70 bf3f e7b6 0a3f
00000190: 8de2 28be 5229 76bf 40aa 08bf ec24 a0bd
000001a0: 5c70 0fbf 4235 f0be f01a 273c 68aa f0be
000001b0: bf0b 233f 46b4 ebbc 910c 413f 577d 1a3f
000001c0: 4639 37be 8521 2d3e 0ad7 95bf cf9d 373f
000001d0: fe84 813f 470b 8c3f 0c7e 9bbf 6d81 4c3f
000001e0: 30c9 a43f b136 35bf 88f5 053d 0886 99be
000001f0: 1050 6abc 048a 30bf 55f6 f83e 5c6a 97be
00000200: 3956 e33e 8011 d5bb ad4e 2c3e f04f 0c3f
00000210: 5855 2d3f 9c1b 29be 1359 343f bdfb d4bf
00000220: 4cd1 9fbe f4b2 67bf 694c 8dbf c8bc 4f3f
00000230: 5db0 023f 8397 6dbe c331 a53f 3826 87bf
00000240: a245 3d3f 1fc5 80bf 0a5d b13e 4dea 7cbe
00000250: 3a64 2a3f 6ab4 03be 7f0e b63d f3de 823f
00000260: 5b48 b8be 4913 563f 87b1 adbf ed4f e8bf
00000270: 46e3 c3be fcdc 733d 6f79 3ebe 9422 85be
00000280: 4413 adbe 49ca 9e3f 4eb0 0cbe 8447 633f
00000290: 0307 753e 9017 e5bb 274d 48bf c63e 053f
000002a0: 34cd 4f3e b563 0fbe bb3e 84be 24d0 74bf
000002b0: 07a3 903e f9d6 80bf 04cf 5dbe e3ca 173f
000002c0: 474c 49bf 5434 d0bf 2186 823e 1ad1 b0bf
000002d0: 6291 703f 8e80 5b3d cfc1 1dbf 6fbf ecbd
000002e0: 17f3 42bf 1f35 1bbf 884f 063f 926e 973e
000002f0: 2803 9f3f df41 bb3f 6039 a33c abec 503f
00000300: 5874 7a3d 3801 1c3c 3c68 b03e 7c3a d53d
00000310: 611d 483e 2d54 d73e b85d 903e b26d 4ebf
00000320: 09a7 c1bd b632 bebd d891 a7be 511d 08bf
00000330: 765b 0f3f 4fed 9c3f 2412 c5be 309d b13f
00000340: c9df c63e e436 38bf 205c 0bbf b845 b53e
00000350: 14e6 163f 179c aa3d 9e10 6f3f 1cf0 e5be
00000360: d31b 533f 4d91 f7be e34f fbbe 5098 8cbd
00000370: f003 2f3e 872d 033f fa1e 0c3f 5e7f 653f
00000380: 8208 d63e 08e8 0e3f b335 23be 8918 a6bf
00000390: 525d c13f d3e5 dcbe 9295 3a3e 6508 df3f
000003a0: cc2c 73bf 8379 8abe b7f1 3c3f d290 343d
000003b0: bde4 f0be 24b8 9b3f 1300 d8be 7b3d 35be
000003c0: 89bf cb3e d08c a83f 3a6b 343e c79d 5abf
000003d0: fcfa 13bf 3d2f b1be 0f7d d4be 6f06 7cbd
000003e0: 4b21 f2be 354d 99bf 6d0f 983e a801 b9be
000003f0: 47cb 48bf 4a8d 3fbe 5b8b 233f 9432 023f
0.24269307 -0.34834552 -1.0541646 -1.2363669 -1.130946 0.3454696 0.4865848 -0.5230866
1.1999116 -0.53745633 0.39259672 0.3804829 -0.6329978 -0.45051366 1.7602894 0.6775249
-0.60456854 0.06274504 0.8896201 0.39037275 0.37267005 -1.6410755 0.27244294 0.2457276
1.2693143 1.0144992 -0.13188052 1.1976447 -0.4911082 0.06300451 -0.40350157 -0.51179945
-0.22339381 1.1958469 1.3311036 1.212355 -0.014390394 -0.057287972 -0.68685913 -0.50734603
1.0516132 -0.68875384 0.13931341 -0.5618409 0.48012617 -0.1659227 -1.3017097 1.0007243
-0.6247863 -0.74312514 1.1708224 -0.00059411675 1.616586 0.4158355 -0.16412872 0.14276189
-0.08892247 0.46776488 0.6469665 1.5118649 -1.0237477 0.31865215 1.1880442 -1.593094
-0.86265635 -0.45668298 1.1926808 0.89366746 -1.0403683 0.52346385 -0.36673456 -0.8382192
0.49082965 -0.20017356 -0.48592648 -0.6147259 -2.4549158 0.71810544 0.1616424 0.109220505
0.9104092 -0.4356174 -0.3280998 -0.14080921 -0.2245589 -1.5811143 0.87289304 -0.9473037
-0.55594176 0.8949556 -0.54470193 1.1003524 -0.79608715 0.38382107 0.6165869 -0.020663667
0.33220747 0.34840286 1.4956185 0.54185337 -0.16492672 -0.961568 -0.5338478 -0.07819542
-0.5603082 -0.46915632 0.0101992935 -0.4700501 0.636898 -0.028772485 0.754098 0.60347503
-0.17892942 0.16907318 -1.170625 0.7172517 1.0118711 1.0940942 -1.2147841 0.7988499
1.2873898 -0.7078658 0.03270486 -0.2998507 -0.014301315 -0.68960595 0.48625436 -0.29573333
0.4440172 -0.0065023303 0.16826887 0.54809475 0.6770835 -0.16514438 0.70448416 -1.6639324
-0.31214368 -0.90507436 -1.1038944 0.8114743 0.5105036 -0.23202328 1.2905811 -1.0558538
0.73934376 -1.0060157 0.34641296 -0.24698754 0.66559184 -0.12861791 0.08889484 1.0224289
-0.35992703 0.83623177 -1.3569802 -1.8149391 -0.38259333 0.05953692 -0.1860101 -0.26002944
-0.3380376 1.2405483 -0.1373913 0.88781 0.23928456 -0.0069913343 -0.78242725 0.5204891
0.20293123 -0.14002879 -0.2582911 -0.956301 0.2824938 -1.0065604 -0.21661001 0.59293956
-0.78632015 -1.6265969 0.25492957 -1.3813813 0.93971837 0.053589396 -0.61623853 -0.115599506
-0.76152176 -0.6062793 0.52465105 0.29576546 1.2422838 1.4629477 0.01992482 0.81611127
0.06114611 0.009521775 0.34454525 0.10411546 0.19542457 0.4205641 0.28196502 -0.8063613
-0.094556876 -0.09287016 -0.32728457 -0.53169733 0.55998933 1.2259921 -0.38490403 1.3876095
0.3884261 -0.71958756 -0.54437447 0.35404754 0.5894482 0.08330553 0.9338473 -0.4490975
0.8246433 -0.48353043 -0.49084386 -0.06864989 0.17091346 0.51241344 0.54734766 0.8964747
0.41803366 0.558228 -0.15938453 -1.2976238 1.5106604 -0.43144092 0.18221119 1.7424437
-0.9499023 -0.2704583 0.7380633 0.044083424 -0.47049513 1.216557 -0.42187557 -0.17699234
0.39794567 1.3167973 0.17619029 -0.85397 -0.57804847 -0.34606352 -0.41501662 -0.061529573
-0.47291026 -1.1976687 0.2969927 -0.36134076 -0.78435177 -0.18706241 0.63884515 0.50858426

fc2.weight f4 [256, 256]
00000000: 38ea e8be c77f 283f d7b9 d03e b6bc 3a3f
00000010: 6f70 ddbe 498f febd 82d8 5c3d ffd0 3abf
00000020: a01d 8d3f 4826 d5be 9015 5c3f 184d 8e3e
00000030: b998 17bf 1e0e 29bf 50fb ffbd 6253 74bf
00000040: 0432 31bf 50b9 23bf 511b d83f e8bb febd
00000050: d844 f83c c24c 74bf cb66 0ebf 8e69 59be
00000060: 9e88 533e 0169 93be 629d c7be 695a b13f
00000070: e8e5 413e d17b 45bf a21a 7e3f c536 753e
00000080: ee41 e3be b3b0 94bf 99fb 033f 2a5d 8cbe
00000090: a845 f9be a219 9e3e a8f2 083f 8581 733f
000000a0: 941a 273d 9ecb 473e 9f09 983e dc71 f3be
000000b0: e59c a93f eace 22bf a62f 2ebf 5191 543f
000000c0: 4ac5 d7bf 424f 1c3f e275 8d3f 3f9d 9abf
000000d0: 213f 94bf 9c49 1a3d 1c90 3cbf 1aa7 2bbf
000000e0: 8676 bf3e 02b1 cf3d 374d 6f3f ca07 e13e
000000f0: 33a0 80bf e4d8 873e 8fb5 bbbf 3c43 e03e
00000100: bfa3 1040 b467 7bbf b063 053c 986f a33f
00000110: 5a14 c4be 19e4 6fbf 2c02 ce3e 450c 433f
00000120: 2687 49be da52 66bf f688 973e 76d9 983e
00000130: 27df bc3f c481 23c0 dde2 83be 9ea4 98bd
00000140: 26d9 3bbf 336a 193f 32cb 45bf 8870 8c3f
00000150: cf0a c8be ca3f b2bd 5768 203f 90d4 1f3f
00000160: a1f8 8b3f d27b e8be 69e2 61be 8cc2 3b3e
00000170: f45f 4a3e 62e6 8b3f 67c1 053f 7d58 08bf
00000180: 5e65 b93d 6539 d03e fed7 37bf 58bc 7cbc
00000190: 25fc ef3e ee0d 61be 6eff 9a3e 1e26 92be
000001a0: dc45 45bf e26c cc3d dcea cfbe 79e6 65be
000001b0: 7211 97be 1c40 ffbe be45 0f3f feb0 4b3e
000001c0: fb89 a1be 6952 61be 1c27 303e 9cb9 8a3f
000001d0: 8590 3abf daa4 303f 345d 12bf 2ea2 00be
000001e0: a303 2c3f 265d a1be cfaf 5d3d 34dc 5d3e
000001f0: cedb dc3f ee36 443f d44f 063f 21ea 7b3e
00000200: 8a57 c43d 249e e4be a588 9abf ee23 c83d
00000210: cc12 d83e 0fec cd3e af43 383f 86f9 ae3c
00000220: 8232 f53e bc68 d9be 764d e43e 88b1 80bf
00000230: f4fb 9fbe 2d4b d9bf df72 94be 6ffe 1ebf
00000240: b55c 253d a530 69be 9690 d93f 3eda 2fbe
00000250: f3e7 c0be addc 92bf 12c7 253f 0896 b6be
00000260: e28f 603f 7e2d ebbd ba2d 4abf 555f c1bf
00000270: fdc8 4ebf 0e7a 3cbf 6738 0f3f 5133 83bf
00000280: ec42 91bd 0f59 c33e 0c79 0ebf 2e9d 1d3e
00000290: 5acc c73e 2eaf 2bbf 20f6 43bd 03d8 1f3f
000002a0: b46f 26be f848 143f 006f 733e df30 61bf
000002b0: 5274 91bf 18b5 d43d 79b6 0dbf 7a98 38bf
000002c0: 81e5 66bf ab76 e23e 80bb 50bf 9ea4 d6be
000002d0: c77c 4f3e 301b f3bf 3756 7e3e fa3b 23bf
000002e0: 74cb 663e 6867 fbbd 7129 973e 7527 8a3e
000002f0: 1616 f63e 826e 9cbf 047f c3be 25a2 f3be
00000300: fc6c 493f 2f34 e93d e0f4 6abe dfb6 18bf
00000310: f07f 5fbf e70f 25bf 32ec 773f 9217 ef3e
00000320: a182 d73e 06a6 9cbe 8e60 3fbf 8aaf 5c3f
00000330: 9444 60bd dcfc 4f3f 24a8 583f cb96 203f
00000340: 83ba c43e 4a7d be3e ecb7 b7be 7a27 e93e
00000350: 2a91 78bf de23 853e 347d eb3d b9e5 903d
00000360: 8047 aabd 0e0d 8abe ffcb 613e b28e e33d
00000370: 0d1b 293f 8dca 993f ac17 9fbf 1d80 97bf
00000380: 88d7 743e a298 d23e b104 553f 86d7 773f
00000390: 5fbf 5dbf 37a8 8d3e 0fdc ae3e 1ccc 1a3e
000003a0: b2c1 3a3d a770 d33d 3d9e eabe 6b60 9d3f
000003b0: 8139 e53d d909 093f d0c7 e23c 91f4 403f
000003c0: 80a0 fabb f0f4 83be 9472 24be fa58 793e
000003d0: ade8 1abf e7e1 6f3f 796b bfbf 6e64 883e
000003e0: e288 f93d 7047 0fbf 294e 143e 13ee 903e
000003f0: a074 f4bf af1e d5be 48f2 a8be 6c03 343d
-0.45491195 0.6581997 0.40766785 0.729442 -0.43249843 -0.12429673 0.053917415 -0.7297515
1.1024666 -0.4163077 0.859704 0.27793193 -0.5921741 -0.66037166 -0.12499106 -0.9543973
-0.6921694 -0.6395464 1.6883336 -0.12438184 0.030306265 -0.95429623 -0.556256 -0.21231672
0.20657584 -0.2879105 -0.3898726 1.3855716 0.18935359 -0.77142054 0.9925939 0.23946674
-0.44386238 -1.1616424 0.5155578 -0.2741483 -0.48685956 0.3087893 0.53495264 0.95119506
0.04079683 0.19511268 0.2969484 -0.47547805 1.3251005 -0.63596976 -0.68041456 0.83034235
-1.6857083 0.6105844 1.10516 -1.2079238 -1.1581765 0.037667856 -0.73657393 -0.6705185
0.37395114 0.101411834 0.93477196 0.43951255 -1.0048889 0.26532662 -1.4664782 0.43801296
2.2599943 -0.98205113 0.008141443 1.2768431 -0.38296777 -0.93707424 0.40236032 0.76190597
-0.19680461 -0.8997017 0.2959668 0.2985341 1.4755601 -2.5547953 -0.2575902 -0.07453273
-0.7337822 0.5992767 -0.77263176 1.0971842 -0.39070746 -0.08703573 0.6265921 0.6243372
1.093525 -0.45406967 -0.22059025 0.18335932 0.19763166 1.0929682 0.52248234 -0.5326002
0.090525374 0.4066879 -0.7181395 -0.015425764 0.4687206 -0.2197797 0.30273002 -0.28544706
-0.7705972 0.09981705 -0.4060887 -0.224512 -0.29505497 -0.498536 0.55965793 0.19891736
-0.31550583 -0.22004093 0.17202419 1.0837893 -0.7287677 0.69001544 -0.57173467 -0.12561867
0.6719305 -0.3151638 0.054122742 0.21666032 1.7254579 0.76646316 0.5246556 0.24601032
0.09587009 -0.44651902 -1.2072951 0.09772478 0.4220184 0.4021916 0.71978277 0.021359216
0.47890097 -0.42462718 0.44590348 -1.0054178 -0.31246912 -1.6976067 -0.2899389 -0.62106985
0.040371615 -0.22772463 1.6997249 -0.17173097 -0.37676963 -1.1473595 0.6475688 -0.3566134
0.8771955 -0.11483286 -0.78976023 -1.5107218 -0.80775434 -0.7362374 0.5594544 -1.0250036
-0.070928425 0.38153884 -0.5565345 0.1539199 0.39023095 -0.6706418 -0.047842145 0.6243898
-0.16253549 0.5792384 0.23772812 -0.87965196 -1.1363623 0.103861034 -0.55356556 -0.7210766
-0.90193945 0.4423116 -0.815361 -0.41922468 0.20262443 -1.8992672 0.24837576 -0.6376339
0.22538549 -0.122755826 0.29523805 0.26983228 0.48063725 -1.2221224 -0.38182843 -0.47584644
0.7868192 0.11386906 -0.22944975 -0.5965404 -0.8730459 -0.6447739 0.9684478 0.4669767
0.4209185 -0.30595416 -0.74756706 0.8620535 -0.0547529 0.8124521 0.8463156 0.6273009
0.38423547 0.37204963 -0.3588251 0.4553793 -0.970965 0.26003927 0.1149849 0.07075066
-0.08314419 -0.26963085 0.22050475 0.11111201 0.660569 1.2014939 -1.2429099 -1.1835972
0.23910344 0.41132075 0.83210284 0.9681324 -0.86620134 0.276674 0.34152266 0.15116924
0.04559488 0.10324221 -0.4582385 1.229505 0.111926086 0.5353065 0.027683169 0.7537318
-0.0076485276 -0.2577281 -0.16059333 0.24350348 -0.60511285 0.93704075 -1.4954673 0.26639122
0.121843114 -0.5596838 0.1448294 0.28306636 -1.9098091 -0.41624972 -0.32997346 0.043948576

fc2.bias f4 [256]
00000000: 5545 4a3f ef2f eabe 77c5 40bf 5244 853e
00000010: 9adc 383e 7f2b 59bf e08a 47bf d8db d3bf
00000020: 7a98 943f 3ee6 10bf 2849 413d a0c0 bc3f
00000030: a0c5 0d3d c8ca 75bf 9cf2 3b3f cef7 4e3f
00000040: 5c1c 2f3f 4108 5cbf 0ebc b3bf 2527 55bf
00000050: de60 44bf fb09 833f c2d2 b0be 6e45 b63f
00000060: 55bb 723e 1039 653f 54de b3be 31f3 a83e
00000070: b262 8dbf 6756 4cbf 814c 6c3f f487 34be
00000080: 20c4 62be d046 b0be a80b a73f 88d4 5dbf
00000090: 676d af3e bffb 4bbf 4357 a3bf 0e20 89bf
000000a0: 2625 003f bebf 383f 74a8 ec3d 3dba 3e3f
000000b0: 686d 4b3f 8080 dcba 3cb0 16bf a65a dc3e
000000c0: d260 3abf 7c38 953e d038 40be c3f6 793e
000000d0: 1af9 1a3e c108 49bf 5f0c 8d3e 6996 68bf
000000e0: 6f71 70be 9d1e 47bf 49f6 273f 26f8 293f
000000f0: 4e8f 31bf 4654 903e 9a56 6e3e e38b f63f
00000100: e329 3abe d676 3ebf 3426 b0be a39a 8abf
00000110: f530 833e 1ead 3a3f bc82 a3bf 8200 96bd
00000120: 5b48 96be b342 123f 2aae 2bbf 7688 03bf
00000130: f4c3 6abe e75c 203f b9b6 45bf bc5c 99bf
00000140: d983 8c3f d519 39bf f10a b43f fce1 a93f
00000150: fe8f 80be 1363 4cbe 6bca 073f e8e2 1ebf
00000160: b674 d43c 187b 4e3f 6c4f ac3e c2a1 0f3d
00000170: 9040 6b3f f52b 113e 11c3 07bf 1831 383d
00000180: 76e4 a43f e9b8 3ebf 5a0e 91bd 8b20 83be
00000190: 9af7 9c3f fb9d f6be d6fd 933d 164a 003f
000001a0: 6148 a5bf 4223 19bf 932d 6a3f 8b04 e73e
000001b0: 8218 46bf c02a 40be afd3 b03e c6ed 9a3e
000001c0: 4cf1 25be 1010 8f3f d0ed c3bd 898c 6c3f
000001d0: b2bd 043f f9e6 8abe 9d2e 6c3f 80ee 673e
000001e0: e47b 0b3f f230 6f3f e292 9bbf 701c 143f
000001f0: 94ca f8be d800 78be ce33 b33f 361b aa3d
00000200: f266 68bd e8b7 4dbf a3b0 40bf 99ca 0340
00000210: 1667 b0be 70d9 9a3f b6fe 9ebe f724 52bf
00000220: 5646 b3be 8a21 bd3e 06a7 bd3d 3fe6 d13e
00000230: 84ce 073e 46c4 e83e 97cc b23e 9ea9 52bf
00000240: cd0b 243f 6acc 15bf 4f79 88bf 9117 233e
00000250: 1faf bebd cb80 443f 39d6 02bf f3b5 2b3f
00000260: af26 fc3e e95e 2cbf 4240 08bf 127b 223f
00000270: 2bec 673f 0920 0940 b788 513f d40c 1bbd
00000280: a974 0dbf 8bed df3f a608 dabe d0e5 9ebe
00000290: eae5 75bf f081 5dbf 7791 9a3f a083 afbf
000002a0: 6e52 b53f f584 9c3f 65ae e7be db65 7ebf
000002b0: 21dd a6be 28be d1be 38e8 19bf a802 aabd
000002c0: 1785 34bf d754 85bf a2cf ec3d e68b e4bd
000002d0: 4e5f 57bf dc66 423f 7233 fc3e d1aa 90bf
000002e0: e27e b9bd e0b4 883d 2473 98bf 48a2 58bf
000002f0: 0e75 8cbf 0ef1 243e 7afa b6be a071 a73b
00000300: aa5c a53f 025b 093f d1e5 e33e 2296 fdbe
00000310: f893 8d3f 40cf 84be c09a 7e3f 0e12 4b3f
00000320: bdb3 bdbf 2daf 503f 282f 823e 6052 9f3c
00000330: e2eb c0bd 459f 42bf 0395 b3bd 72bc 49be
00000340: 3207 cfbd 5a88 693d 3653 e63e 7d44 103f
00000350: 443e a0bc b650 71bf 29c4 98bf de2f c2be
00000360: 55d6 0e40 f232 a03e 8a29 18bf 9299 23bf
00000370: 568b 1440 df5f f0be 61da eb3e 6e1b d1bf
00000380: 1685 2d3f 4f80 4f3f 53cf 91be 0f7a b33e
00000390: 7848 58bc 75c1 843e a773 ae3e aa4e 28bf
000003a0: 1a37 0d3f 960c dc3f 0e15 6bbe 2a93 1cbf
000003b0: 5202 603e 2c18 f33c 8a39 f2be 7d70 87bf
000003c0: e546 99bf 90d8 e33c 172a 323f cf00 0ebf
000003d0: c88a 8bbf 9e59 bd3e 81e7 a0bf cc90 483f
000003e0: c29d 993e ef4c f93f 4ada f4be 3def 3c3f
000003f0: fedb 99be 8096 72bc 1a98 183f aa69 a63e
0.7901204 -0.45739695 -0.7530131 0.26028687 0.18052903 -0.84831995 -0.7794628 -1.6551466
1.1609032 -0.5660132 0.047188908 1.4746284 0.034612298 -0.96012545 0.7341707 0.8084687
0.6840265 -0.85950094 -1.4041765 -0.83262855 -0.7671031 1.0237421 -0.34535795 1.4239938
0.23704274 0.89540195 -0.3513056 0.3299804 -1.1045744 -0.7981934 0.92304236 -0.17629987
-0.22145128 -0.34429026 1.3050432 -0.8665242 0.34263155 -0.7968101 -1.2761005 -1.0712907
0.50056684 0.72167575 0.115555674 0.7450293 0.79463816 -0.0016822964 -0.5886266 0.4303791
-0.72803986 0.29144657 -0.18771672 0.24410538 0.15134087 -0.7852898 0.275485 -0.9085451
-0.23480771 -0.7778109 0.65610176 0.6639427 -0.6935929 0.28189296 0.23275223 1.926144
-0.18180041 -0.7440008 -0.34404147 -1.0828441 0.2562329 0.72920406 -1.2774272 -0.073243156
-0.29352078 0.57133025 -0.6706263 -0.513801 -0.22926313 0.6264176 -0.7723194 -1.1981425
1.0977737 -0.7230504 1.4065839 1.327209 -0.25109857 -0.19959669 0.5304324 -0.6206498
0.025934558 0.80656576 0.33654344 0.035066374 0.9189539 0.14176925 -0.5303202 0.044968694
1.2882221 -0.745009 -0.070828155 -0.25610766 1.2263062 -0.48167405 0.0722615 0.50113046
-1.2912713 -0.59819424 0.9147579 0.45120654 -0.77381146 -0.18766308 0.34536502 0.30259532
-0.16205329 1.1176777 -0.095668435 0.9240194 0.5185195 -0.27129343 0.92258626 0.22649574
0.5448592 0.9343406 -1.21542 0.5785589 -0.48592055 -0.24219072 1.4000185 0.08305971
-0.0567388 -0.80358744 -0.75269526 2.0592406 -0.34453648 1.2097607 -0.31053704 -0.82087654
-0.350146 0.3693965 0.09260373 0.40995976 0.13262373 0.45462245 0.34921715 -0.82290065
0.64080507 -0.58515036 -1.066202 0.15926959 -0.093107454 0.7675902 -0.5110813 0.6707451
0.49248263 -0.6733232 -0.5322305 0.6346904 0.9059474 2.1425803 0.81849235 -0.03785403
-0.55256134 1.7494367 -0.42584723 -0.31034708 -0.96053946 -0.86526394 1.2075642 -1.3712044
1.416578 1.2228075 -0.4525024 -0.9937417 -0.32590583 -0.4096539 -0.6011996 -0.08301288
-0.7051558 -1.0416516 0.1156304 -0.11159496 -0.841298 0.759382 0.49258 -1.1302129
-0.09057404 0.06675124 -1.1910138 -0.8462262 -1.0973222 0.1610758 -0.35737973 0.0051099807
1.2918904 0.5365449 0.44511274 -0.49528605 1.1060781 -0.2593937 0.9945488 0.79324424
-1.4820477 0.815173 0.25426602 0.01944846 -0.09419991 -0.76024276 -0.08768656 -0.19700792
-0.10108794 0.0570148 0.4498536 0.56354505 -0.01956094 -0.9426378 -1.1934863 -0.37927145
2.2318318 0.31288868 -0.59438384 -0.63906205 2.3210044 -0.46948144 0.46065047 -1.6336496
0.677812 0.8105516 -0.28478488 0.3505406 -0.013200872 0.25928846 0.3407261 -0.6574503
0.55162203 1.7191341 -0.2295725 -0.61162055 0.21875885 0.029674612 -0.47309524 -1.0581204
-1.197476 0.027813226 0.69595474 -0.55469984 -1.0901728 0.36982435 -1.2570649 0.7834594
0.30003172 1.9476603 -0.4782279 0.7380255 -0.30050653 -0.01480639 0.5960709 0.3250249

fc_mean.weight f4 [3, 256]
00000000: d3a1 14bf 45fa 2abe 1004 27bf c1e2 75bf
00000010: 2ffa 37bf f5f2 36bf 5d22 043e 6c7a e83e
00000020: d690 77be 5e87 0dbf 599a a63f a252 143e
00000030: 9dba 1ebf 8cf8 243f 2801 9a3e 4ab3 543f
00000040: d85a b8bf 09f1 bbbc cac2 9cbf ec3a 49be
00000050: d063 983f c537 f63e 3a41 b1bf 5abe 81bd
00000060: ed0d 97bf 1551 9a3e 7023 7abf 2fe7 a4be
00000070: 4b69 303f ca34 f9bd 042f 593f c609 8e3e
00000080: c6d2 83be 2513 20bf 9720 45be a95c 56be
00000090: df47 a23f a88c 9ebb 77d4 d03e e6e4 863f
000000a0: 03d0 b9be 9865 e13e a977 4a3e f086 023e
000000b0: a2a9 973e cb5f aa3e ae50 5cbe c2b8 65be
000000c0: 365d 973e 8e53 8ebf 4636 0f3f fcf5 d23d
000000d0: c8ca f5bd e47d e4be 5e66 0abf 9e4d 52be
000000e0: 8f22 9f3f d7d9 a9be 906f c03d 4d61 803f
000000f0: 2655 34bd 724e 2c3e 4085 d4bd 7d2e 16bf
00000100: c608 d53e b238 c0bf c6b4 053f e0eb ccbb
00000110: 5fa4 debf 9236 fbbe 787b cbbe 42fe 89be
00000120: d26e 573f 1a63 db3c bc97 a83f e160 48bf
00000130: 7b1b 3cbe 902f 303d f1ee 87be d275 543f
00000140: 3a33 37bf d8d7 50be 81b6 9fbe b8a2 933e
00000150: 0082 13bf b9bf 033f 2ef0 ad3e d54f 38bf
00000160: 482a c3be 210e 1abf de86 963f 9462 88bf
00000170: f1f5 29be 5509 e13e 721a d03e d3cd 2e3f
00000180: 6157 483f e7b5 0cbe 172e 78bf 2b42 a4be
00000190: dce7 1dbe fcf9 5c3e 0df7 71bf be9b 50be
000001a0: 3e63 55bf ceaf 6abe 5217 5dbf 205c d1bc
000001b0: aa01 eebe f44b d43d e453 0fbe 90b6 2e3f
000001c0: ce9a bdbe 7b95 f63d dafb 2e3e 6c28 ba3d
000001d0: ae09 7bbf 16a5 7d3f 2003 bfbe 442a 5c3f
000001e0: 81fe 723e 2801 8e3e ce98 05bf e151 463f
000001f0: 7843 483f 345b 103e ff8a 9d3e 8317 783f
00000200: aa05 cb3e e57d 6bbf 56d3 c13e 0aab 55be
00000210: 76fc f43f e3f8 453f ffe9 a93f 01d0 8fbf
00000220: 4258 7d3f 8436 913d b941 59bf bafc bebf
00000230: d92d 073f 493c 71bf bf77 093f e202 a1be
00000240: 7e99 cbbe e4a4 83bc ac11 483d 2417 01bf
00000250: 45fd d13f a118 573e a36d d9be 07cf 00c0
00000260: 5dab ed3e f756 b03e b647 3ebf 20c4 15be
00000270: 987b 41be 804c 573f a13d 61bf bed2 653f
00000280: 1801 71bd f209 d43e f455 ad3d 4c54 9ebf
00000290: e81e 2f3f 29a4 61bf dede 543f 67e2 1e3f
000002a0: a696 363e 360a debf 3696 f3be 9ee0 853d
000002b0: e64c 75bf 964e 103f eaf2 003e 9e2a e43e
000002c0: e6b1 ab3f c23a 203f e00a 553f 1ef3 16bf
000002d0: 8aac 143f 5023 493e 88b8 0abe e2b6 97bf
000002e0: 0028 93bf aa73 433f 3436 513f 6a9f 47bf
000002f0: dfba 4ebf 0082 bdbe c901 6b3f ddc0 cfbe
00000300: 28af 92bc 0b06 923f 0472 d33d 00bb 88bd
00000310: 96da d13e 2ccb 3abe 00eb b13e 427c a9be
00000320: 3114 60be 099f 7f3d f956 373e ff1f 4bbf
00000330: f6dd 0c3f 722c dbbd 78f8 803f 330a d33f
00000340: 4020 20bf 2861 76be b324 d5bf 6745 ca3e
00000350: 06ba 073e fa4c 353f 016d 08be f254 14be
00000360: ad88 b43f 0051 303f d86b 0b3f 5253 b93d
00000370: 893a d43d c904 653e bb9d 66be 6654 813b
00000380: 9b65 45bf 8e2c 9d3f 92de 5e3f 3182 a7bf
00000390: e74f 8c3f 9a2c 83bf f745 24bf 1612 f7be
000003a0: 147b 05bf 7019 eb3c 9f04 31bf 0a53 4b3f
000003b0: 316a 903d 161b 6bbe 50f2 21bf d182 4f3f
000003c0: a8cf 67bf e241 ccbe ee07 8dbe a20e 1ebd
000003d0: 454a b2be 192c f23e 4640 17bf faa6 05bf
000003e0: 3812 8a3f ef75 a13e 1493 12be 445a 07bf
000003f0: 47f6 bf3e 60d8 52bf 93a3 5a3f bb06 613f
-0.58059424 -0.16697033 -0.65240574 -0.96049124 -0.71866125 -0.71464473 0.12903734 0.454059
-0.24176344 -0.5528468 1.3015853 0.14484647 -0.620035 0.6444175 0.30079007 0.83086073
-1.4402723 -0.022942083 -1.2246945 -0.19651383 1.190546 0.48089424 -1.384803 -0.06335135
-1.1801125 0.30139986 -0.97710323 -0.3220763 0.68910664 -0.12168272 0.84837365 0.27741832
-0.25746745 -0.6252921 -0.19250713 -0.20933785 1.2678183 -0.004838545 0.40787098 1.0538604
-0.36291513 0.44022822 0.19772209 0.12746787 0.29621607 0.3327621 -0.21515152 -0.22433761
0.29563302 -1.1119249 0.5594219 0.10300824 -0.12001568 -0.44627297 -0.5406245 -0.20537421
1.2432421 -0.3317401 0.09396279 1.0029694 -0.044026516 0.168268 -0.10376978 -0.58664685
0.41608256 -1.5017302 0.52228963 -0.0062537044 -1.7393912 -0.4906507 -0.39742637 -0.26951796
0.84153473 0.026780654 1.3171306 -0.78272825 -0.18369858 0.04301411 -0.26549485 0.8299228
-0.7156254 -0.20394838 -0.31193927 0.28835082 -0.5762024 0.5146442 0.33972305 -0.71996814
-0.38118196 -0.6017781 1.1759908 -1.0655084 -0.16597725 0.43952432 0.40645176 0.6828281
0.7825833 -0.13741265 -0.9694533 -0.32081732 -0.15420479 0.21579736 -0.94517595 -0.20371911
-0.83354557 -0.22918627 -0.8636371 -0.025556624 -0.46485645 0.103660494 -0.13996845 0.6824732
-0.3703217 0.1204023 0.17088261 0.09089741 -0.98061645 0.99080026 -0.37307072 0.8600199
0.23729898 0.27735257 -0.52186286 0.7746869 0.7822795 0.14097291 0.30770108 0.96910876
0.3965276 -0.91988975 0.3785655 -0.20866027 1.9139545 0.77332896 1.3274535 -1.1235353
0.98962796 0.07090476 -0.8486591 -1.4920876 0.5280433 -0.9423261 0.53698343 -0.31447512
-0.39765543 -0.016069837 0.04884498 -0.50425935 1.6405417 0.21005489 -0.4246646 -2.012636
0.46419802 0.3444135 -0.7432817 -0.14625597 -0.18894804 0.84101105 -0.87984663 0.8977469
-0.058838934 0.41413838 0.0846366 -1.2369475 0.68406534 -0.88141114 0.8315257 0.6206421
0.17830905 -1.7346866 -0.4757554 0.06536983 -0.9582046 0.5636991 0.12592664 0.44563764
1.3413665 0.6258966 0.8321972 -0.5896472 0.58075774 0.19642377 -0.13546956 -1.1852686
-1.1496582 0.76348364 0.8172333 -0.7797762 -0.8075389 -0.37013245 0.917996 -0.4057683
-0.017905787 1.1408094 0.10324481 -0.066762924 0.4098708 -0.18241566 0.34749603 -0.33102614
-0.21882702 0.062407527 0.17904271 -0.793457 0.55026186 -0.10701837 1.0075827 1.6487488
-0.6254921 -0.240605 -1.6651825 0.39506075 0.13254556 0.7082058 -0.13322832 -0.14485529
1.410421 0.68873596 0.5446143 0.09049095 0.10362727 0.22365107 -0.22521107 0.0039468287
-0.7710816 1.2279222 0.87058365 -1.3086606 1.0961884 -1.0247986 -0.6416926 -0.48255986
-0.5214093 0.028698653 -0.69147676 0.7942358 0.070515044 -0.22959551 -0.63260365 0.81058985
-0.90551233 -0.39894015 -0.27545112 -0.038588174 -0.34822288 0.4729927 -0.5908245 -0.5220791
1.078681 0.3153529 -0.14313918 -0.5287211 0.37492582 -0.8236141 0.85405844 0.87900895

fc_mean.bias f4 [3]
00000000: c03d 87bf 0f60 823f e4ef cf3e
-1.056572 1.0185565 0.4061271
