ga_weights/ga2/Hopper-v5/SAC/weights3.pt (torch, 281441 bytes, 6 tensors)

fc1.weight f4 [256, 11]
000000 f1 90 84 bf 66 fb ac 3e 6f e7 7a 3f 31 86 b0 be
       -1.0356733 0.33785552 0.9800939 -0.3447738
000010 5e 35 e8 3c c2 61 6b bf 5c 55 1c bf a2 dc 7b bf
       0.02834576 -0.9194604 -0.6106775 -0.98383534
000020 57 77 05 3f c3 ab 7e bf 30 ab fd 3c 52 3b 9b be
       0.52135223 -0.9948084 0.030965418 -0.30318695
000030 c4 11 91 3f 2a 98 25 bf 3f f8 e8 be b5 5e 13 bf
       1.1333547 -0.6468531 -0.45501897 -0.57566386
000040 49 11 84 3f 3f cc a6 be a3 9e cf be 1c a2 71 3f
       1.0317775 -0.32577702 -0.40550718 0.94387984
000050 2f 35 c0 3f bc c9 98 be 68 8d 7a be 99 71 8b be
       1.501623 -0.2984141 -0.24468005 -0.27235106
000060 b0 e1 75 bf 13 e4 66 3f b7 bb ef be b7 65 20 3f
       -0.96047497 0.90191764 -0.46822903 0.62655205
000070 ac eb 1e bf fa 5f 9c bf d7 a3 e9 3d df 18 8a 3f
       -0.62078357 -1.221679 0.11408203 1.078884
000080 ea ab 16 3e f0 5c 66 bf 44 b0 1d 3f d4 d6 f5 3e
       0.14714018 -0.8998556 0.61597085 0.48015463
000090 da e4 32 3e be 91 b7 be bc b3 5c 3e a8 50 a3 be
       0.17470112 -0.3585338 0.21552938 -0.31897473
0000a0 90 01 1f 3e 2a f5 b1 be cb 4e c6 be 57 57 09 3f
       0.1552794 -0.34757358 -0.3873199 0.53648895
0000b0 c2 10 05 3f fe 63 a2 3e a3 10 78 3f a8 1e bd bf
       0.51978695 0.31716913 0.96900386 -1.477498
0000c0 c8 b9 e6 3e 4b cf f6 3e 24 93 73 bf 53 6a 3f bf
       0.45063615 0.48205027 -0.95146394 -0.7477161
0000d0 01 78 39 3f 79 5b 3b bf 78 60 54 3f f2 86 b0 be
       0.72448736 -0.7318645 0.829597 -0.34477955
0000e0 de d3 10 be 3c d3 04 bf ef b8 d2 3d ed bf 3a bf
       -0.14143321 -0.5188482 0.102891795 -0.72949106
0000f0 b5 d3 8d bf 7b a4 82 3e 35 a3 8d 3f f0 a0 44 3f
       -1.1080233 0.25516114 1.1065432 0.7680807
000100 0e d5 9f be 3f 02 65 be 89 7b a0 be 13 b2 a4 be
       -0.31217235 -0.22364138 -0.3134425 -0.3216711
000110 97 5b 17 bf 55 25 99 3e 1c f0 b1 bd 45 28 88 3e
       -0.5912413 0.29911295 -0.08688375 0.26593223
000120 36 7d f2 3e 18 9e a1 bf fa 03 5f bd 56 26 10 bf
       0.47361153 -1.2626371 -0.05444715 -0.56308496
000130 6c 7c b5 3d 28 36 2d bf 61 dd 16 bd 8c 66 16 3f
       0.08861622 -0.6766076 -0.036832217 0.58750224
000140 56 13 f2 be 32 70 3c 3e 32 dc e3 3e ae 18 13 bf
       -0.47280377 0.18402174 0.44503933 -0.57459533
000150 90 7c 67 3e e7 8d 57 3e 81 8b 2c be 59 5b 49 3e
       0.2260611 0.21050225 -0.16850092 0.19663753
000160 e4 5b 55 bf 26 1e bf 3e 84 75 82 3d 8c 21 89 3f
       -0.8334334 0.3732769 0.063700706 1.0713363
000170 8d df 83 be 33 de 48 bf 9c 8e 46 bf f8 f9 7b bf
       -0.25756493 -0.7846405 -0.77561355 -0.984283
000180 03 2f 61 3e b7 31 16 40 e0 5c 85 3f 56 ad f2 3e
       0.2199059 2.3467844 1.0418968 0.4739787
000190 66 b6 19 bf fe 6a 06 3d 9e c3 99 bd 6c aa 6b 3e
       -0.6004394 0.03281688 -0.07508014 0.2301423
0001a0 0a 30 23 3e f0 04 81 3c be f2 5c 3f 99 2c 92 3f
       0.15936294 0.015749425 0.86307895 1.141986
0001b0 56 4e 8e 3f 74 41 90 bc 3a f3 5c bf cc f5 d7 bd
       1.1117656 -0.017609335 -0.86308634 -0.10544929
0001c0 30 a4 b8 bb 29 d5 94 be dd c8 31 3f b4 85 cb bf
       -0.005634807 -0.29068878 0.6944712 -1.5900178
0001d0 d1 bb 68 3f 09 9d 66 3f 82 8c 6c 3e 31 42 4a 3e
       0.90911585 0.90083367 0.23100474 0.19751813
0001e0 3e 0d 16 3f d1 84 0f 3f 22 6c d3 3e 65 13 13 be
       0.58613956 0.56062037 0.41293436 -0.14362867
0001f0 b3 22 07 bf e8 85 14 bd 14 03 73 bf 58 a1 18 3e
       -0.5278732 -0.036260515 -0.9492657 0.14905298
000200 05 56 29 bf 27 f5 85 3f 44 eb bb 3e a9 97 ba 3e
       -0.6614688 1.046544 0.3670293 0.36443833
000210 f2 4f 56 bf 78 f0 f8 bd 3e 57 48 bf e7 64 cf 3e
       -0.83715737 -0.12155241 -0.7825812 0.4050667
000220 2e 6a f4 be 31 a1 02 c0 4d 6e 81 3f ac 26 bf bf
       -0.4773726 -2.0410883 1.0111786 -1.4933677
000230 b2 a7 d1 3d 97 85 04 bf 26 28 8a 3f de de 85 3d
       0.102370635 -0.5176634 1.0793502 0.06536649
000240 50 1f 02 bf 42 e5 6d 3e 94 60 6b bf 0c bf f2 3f
       -0.5082903 0.23231986 -0.9194424 1.8964553
000250 da da ba 3e ed c2 d6 3e f9 d3 9f be 02 5e 2b 3e
       0.36495095 0.41945592 -0.3121641 0.1673508
000260 8d 93 0d bf 2a fc 99 be 06 20 04 3e f2 82 68 bf
       -0.5530327 -0.30075198 0.12902841 -0.90824807
000270 d3 45 06 3f 69 6a 21 bf 4c 0d 56 3e 24 7a 65 3f
       0.52450293 -0.63052994 0.2090351 0.89639497
000280 61 0c 71 bf 06 17 f4 be 71 d9 34 bf fd 79 8f 3e
       -0.94159514 -0.47673815 -0.7064429 0.28022757
000290 ad a8 58 3f 1e df c1 be 14 f7 04 40 27 34 b6 be
       0.8463238 -0.37865537 2.0775805 -0.35586664
0002a0 02 8a 97 3e 2f 16 3d be 15 08 83 3f 94 c0 93 bf
       0.2959748 -0.18465494 1.0236841 -1.1543145
0002b0 02 4a 45 bf 0a b6 5f be 3e 0d 3c be f1 e4 67 bf
       -0.7706605 -0.21846786 -0.18364426 -0.9058371
0002c0 32 c5 b8 bf 69 8d fa 3e 6c a1 b5 3d f2 22 ff be
       -1.4435179 0.48936012 0.088686794 -0.4983135
0002d0 a1 88 9e bf 9c ba 3f bf 16 60 e3 bd e0 3f 2f bf
       -1.2385446 -0.7489412 -0.11102311 -0.6845684
0002e0 25 98 d7 3e b7 a1 c8 3f 08 77 28 bf 6d 51 ea be
       0.42108265 1.5674351 -0.6580663 -0.45765248
0002f0 84 34 8d be 04 f1 ba bd 34 fc bc be 25 5a 14 3e
       -0.2757913 -0.09128001 -0.36911166 0.14487512
000300 e4 97 76 3e 22 cb ca be e0 1a 02 3c 7b 38 b2 bf
       0.24081379 -0.39608103 0.007940978 -1.3923486
000310 c0 d0 f9 bb 7f 49 6f 3e c9 7d ff 3e 86 0d 44 3f
       -0.007623762 0.2336788 0.49900654 0.76583135
000320 1c da 0d 3d 4a 79 1e 3f 5b 1b e5 3e 24 84 96 3f
       0.034631833 0.6190382 0.44747433 1.1759076
000330 17 70 b1 3e 8b 7c 76 3f 78 63 33 bf 1d 19 9b be
       0.3465583 0.9628379 -0.7007365 -0.30292597
000340 c4 e7 87 3e 01 25 ba 3f 37 71 28 bf d2 fd 26 be
       0.2654401 1.4542543 -0.6579775 -0.16307762
000350 53 5e b7 be 31 ca ac 3f 66 ed c8 3b 4a d9 49 3f
       -0.3581415 1.3499204 0.0061318157 0.7884718
000360 c1 36 e6 3e d7 9a f2 bf 44 07 cd 3e 1e 60 3d 3f
       0.4496365 -1.8953503 0.40044606 0.7397479
000370 3a b9 c7 3d 51 2e 0e bf 99 e9 0c bf dc 81 18 be
       0.09752126 -0.55539423 -0.5504394 -0.14893287
000380 f9 44 06 3f 83 6c bc 3e a9 e1 ae bf fd 52 cf bf
       0.52448994 0.36801538 -1.3662616 -1.6197201
000390 47 80 ae be c0 f4 5d be 42 35 30 bf 30 9c b3 3e
       -0.34082243 -0.21675396 -0.68831265 0.350801
0003a0 36 25 13 bf 1e 18 fd 3e 9f f9 0b be a9 93 74 3e
       -0.57478654 0.49432462 -0.13669442 0.23884453
0003b0 77 8d 82 bf 7e 6e 5f 3f 77 30 2a bf b4 e3 93 be
       -1.0199422 0.8727797 -0.664802 -0.2888466
0003c0 90 2f c5 3e b5 ce c7 3d 09 12 43 bf 6c c1 cc 3c
       0.3851285 0.09756223 -0.76199394 0.024994574
0003d0 9d 19 a2 be ec a8 10 3f 78 43 47 bf 23 4e 22 3e
       -0.31660166 0.56507754 -0.77837324 0.1585012
0003e0 af 7a d8 be 84 30 13 3f 0a 33 24 3e a8 a9 39 3f
       -0.422811 0.57495904 0.16035095 0.725245
0003f0 a9 d2 66 3f ac 75 a9 bd 8e 14 aa 3e fb de 1a 3f
       0.9016519 -0.08274397 0.33218807 0.6049649

fc1.bias f4 [256]
000000 00 f1 60 be 13 44 06 be 8a 43 6d 3f 34 a2 a5 be
       -0.21966934 -0.13111906 0.9268118 -0.32350314
000010 c2 76 9c bf 18 af b3 bf ea 85 d5 bf 46 79 b3 be
       -1.2223742 -1.4037809 -1.6681492 -0.35053462
000020 b9 c4 fb 3e 10 70 3a bf b0 ee a8 be ec 5e 92 3e
       0.49173525 -0.72827244 -0.32994604 0.28588045
000030 39 04 8a 3e 33 41 05 bf 8f 69 f9 3e 46 ea 2a 3d
       0.26956347 -0.5205261 0.48713347 0.041727327
000040 94 e9 7d bf c5 d0 00 3e 04 7c 3a 3f ae b2 67 3d
       -0.99184537 0.1257964 0.7284548 0.056566887
000050 77 ec 1d 3d 67 85 19 be f8 27 e6 3d e9 5a 70 bd
       0.03855559 -0.14992295 0.11238092 -0.05868045
000060 33 93 01 3f 2b d8 9e be 3e 4d d0 3e 0b 1c 72 3f
       0.50615233 -0.31024298 0.4068393 0.9457404
000070 7a a2 a1 bd 92 18 e7 be b0 00 a4 bf 7c 6c c6 be
       -0.07892318 -0.45135933 -1.281271 -0.38754642
000080 b2 4c 8a be d6 3f 86 3f 35 a6 23 be 18 71 42 3d
       -0.2701164 1.0488231 -0.15981372 0.047471136
000090 33 47 69 bf 0e 9d 3d bf c9 e5 fb 3e b6 a4 4f 3f
       -0.91124266 -0.7406777 0.4919875 0.81110704
0000a0 b7 14 9f 3f e6 42 84 3d 84 9b dd bd c7 62 80 be
       1.2428197 0.06458072 -0.10820678 -0.2507536
0000b0 25 2b ea 3e ed af 26 bf 7c 1f a9 bf c8 47 98 3f
       0.45736042 -0.6511219 -1.3212733 1.1896906
0000c0 e8 0f 7f be 8b 6d 4e bf 78 a5 69 bf ef a0 7d 3e
       -0.24908412 -0.806359 -0.9126811 0.24768423
0000d0 8e 8d f3 be 2e 99 8c be 0a 3d b4 bf f8 f3 19 3f
       -0.47568935 -0.27460617 -1.4081128 0.6013789
0000e0 32 44 eb be dd 59 29 bf 08 58 93 be d4 56 50 bf
       -0.45950466 -0.66152745 -0.287781 -0.8138249
0000f0 0d e3 2c bf c2 0a 8e be 38 78 0b 3f ff 8e 8e be
       -0.6753395 -0.27742583 0.54480314 -0.27843472
000100 e5 ee 66 3f 28 a2 a7 bd 21 63 93 bf 07 cb 2c 3f
       0.90208274 -0.08185226 -1.1514627 0.67497295
000110 4d a8 78 3f 58 55 f2 3d 54 64 23 3f 49 29 71 be
       0.97131807 0.11832684 0.63824964 -0.23550905
000120 36 38 10 bf 1e 4a a9 bd 4e f5 ed be 90 36 99 be
       -0.5633577 -0.0826609 -0.46476215 -0.2992444
000130 6d c8 6b 3f a6 5a d4 be 6a 2a 79 3f b0 83 6e bf
       0.921027 -0.4147541 0.97330344 -0.9316969
000140 f0 9e 0b be fc 8e 2b bf 9c 6d 68 3d c2 7f 67 bf
       -0.13634849 -0.6701505 0.056745157 -0.9042932
000150 b6 a7 68 3e 80 aa b9 be ca fe 56 3f fc da 69 3d
       0.22720227 -0.36262894 0.8398253 0.057093605
000160 b2 ee 06 be 3e 42 ba 3e 2e 84 15 3f 50 5d 13 bf
       -0.13176993 0.36378664 0.58404815 -0.5756426
000170 17 d4 05 bf c0 77 a1 bc 90 6a 18 3c e9 b7 28 3f
       -0.5227675 -0.019710422 0.00930275 0.65905625
000180 3e 00 17 be 0f d8 1d bf be 4a 82 bf e9 cc 80 be
       -0.14746186 -0.61657804 -1.017906 -0.25156334
000190 73 29 42 bf e8 44 31 3f aa 03 00 3f e9 5c 13 bf
       -0.75844496 0.6924577 0.5000559 -0.57563645
0001a0 d9 79 f0 3e 00 98 96 be 8e 61 2f 3f c2 1a 15 3e
       0.46967962 -0.29412842 0.6850823 0.14560989
0001b0 fd 02 53 3f fa ef 67 be f9 9e 10 3f 7c 79 e5 3e
       0.82426435 -0.22650138 0.56492573 0.44819248
0001c0 aa 91 0d 3e 8a 4c 69 3d 45 da 46 3f d2 e3 97 3f
       0.13825098 0.05695776 0.776768 1.18664
0001d0 8f 4a 34 bf f4 30 86 3f 73 fe a2 3d d7 7e 8a 3d
       -0.7042627 1.0483689 0.079586886 0.06762474
0001e0 d3 8d 80 be ee b5 51 bf d7 ce 54 3e 80 24 0c 3f
       -0.25108203 -0.8191823 0.20782028 0.54743195
0001f0 13 0c 70 be 58 d6 78 3c b9 f9 5e be 64 61 b6 3e
       -0.23442106 0.015187822 -0.21774949 0.35621178
000200 e4 e1 10 3f fa 94 46 bf b6 b0 24 3e 62 d4 63 3f
       0.5659468 -0.7757107 0.16083035 0.88995945
000210 02 0d 2e 3f 48 34 7a 3e 80 18 a7 3d a0 48 18 3f
       0.679886 0.24434006 0.0815897 0.59485817
000220 e0 99 3d bf 9d e0 81 3f cf bf c3 3e 36 55 aa 3d
       -0.7406292 1.0146672 0.38232276 0.08317034
000230 51 f9 55 3f 54 22 c5 be be 1f ce be 01 b0 5d 3f
       0.8358355 -0.38502753 -0.40258592 0.86596686
000240 bf 53 ca bf 51 31 e6 3e 25 18 3c bf 7a 04 bf bc
       -1.5806807 0.449595 -0.7347434 -0.023317564
000250 6a 3c f4 bf 24 86 79 3e 4c 7d cd bf 9e b9 65 3f
       -1.9080937 0.24367577 -1.6053863 0.89736354
000260 e4 cf ac be c0 dd d0 3e 4c 6e a1 3f 85 cc 7e bf
       -0.33752358 0.40794182 1.2611785 -0.9953082
000270 49 29 ea be 6b 3a e4 be 16 a8 82 bf a2 d1 a1 be
       -0.45734623 -0.4457582 -1.0207546 -0.3160525
000280 57 2a 84 3f 84 b8 8b be 14 8f 70 bd 48 b1 e5 be
       1.0325421 -0.27289212 -0.0587302 -0.44861817
000290 82 96 c6 be c0 01 2a bf bb 81 2f bf 01 d4 82 be
       -0.38786703 -0.6640892 -0.6855733 -0.2555237
0002a0 50 65 f5 3d 8d 3f 08 3f 4b 30 53 3e 60 de e8 bf
       0.119822145 0.5322197 0.20623891 -1.8192863
0002b0 dc 87 11 bf 0f 8b 4c bf 68 01 dc 3c 55 fa 41 3e
       -0.5684793 -0.79899687 0.02685614 0.1894315
0002c0 b2 03 00 bf fc 4a 88 bf 4a 1e 5d be 56 2e a4 be
       -0.5000564 -1.0647883 -0.21593586 -0.32066602
0002d0 3c d7 11 3f a5 e4 96 be 42 64 3f bd 56 93 87 3d
       0.56969047 -0.29471317 -0.046726473 0.06619899
0002e0 aa 0a f6 3d 60 00 9b 3f 06 de f8 3e bd 24 d2 be
       0.12013753 1.210949 0.4860689 -0.41043654
0002f0 da 73 a9 3e 73 ff c1 3e d2 b4 2d be 2c 8e 92 bf
       0.330962 0.37890205 -0.16963509 -1.1449637
000300 4c 05 49 be 71 fa be 3f 82 0e ff bd a4 43 3b 3f
       -0.19630927 1.4920179 -0.12453939 0.73150086
000310 ab 77 10 3f 96 32 48 be 8a de 24 bf 62 27 4a bf
       0.564326 -0.19550547 -0.6440207 -0.78966343
000320 35 23 41 bf b9 b3 36 3f 7b 87 b6 be 68 a1 75 bf
       -0.75444347 0.71367985 -0.35650238 -0.9594941
000330 02 39 a1 bf 9e a2 0e 3e de 82 a5 3f 50 89 06 bf
       -1.2595522 0.13929221 1.2930562 -0.5255327
000340 56 33 df be cf c9 19 be 7e c1 19 be 4e 38 2f be
       -0.43593854 -0.1501839 -0.15015218 -0.17111322
000350 71 c9 82 3e 55 6e 4e bf 06 23 25 3e ce f0 a2 bf
       0.25544313 -0.80637103 0.16126642 -1.2729738
000360 7e 9d 7f bf 04 f5 30 be 71 d6 40 bf 0d dd 4b bf
       -0.9984969 -0.17280966 -0.7532721 -0.7963417
000370 02 5e f5 3e 23 78 06 bf b1 8f 00 3f 0c 83 df be
       0.47923285 -0.52527064 0.50219256 -0.43654668
000380 1c fd 35 bd 98 f8 1b 3f 72 bd b0 be c6 ff 2e bf
       -0.044430837 0.609262 -0.34519535 -0.6835903
000390 b5 52 a8 3e d7 cb 2a bf 4f b4 7f be 0e b4 1b 40
       0.328756 -0.66717285 -0.24971126 2.4328647
0003a0 05 57 ae 3e b2 c0 57 3d 53 9a f5 be 93 56 cf 3e
       0.34050766 0.052674003 -0.47969303 0.40495738
0003b0 8a aa 71 be e6 65 84 3c 92 79 8c be e5 cb 4e 3e
       -0.23600212 0.01616187 -0.274365 0.20194967
0003c0 d4 a9 1e 3f f6 bb 4f be 6c cf 08 bf b4 31 eb bd
       0.6197789 -0.20286545 -0.534415 -0.114840895
0003d0 a6 c3 bb 3d d7 a3 2a 3f 68 cf 22 bf 30 bc 07 bf
       0.09168176 0.6665625 -0.63597727 -0.53021526
0003e0 d5 ea 75 be 4f 8b 65 bf 63 f7 a0 3e 1b 8d 60 bf
       -0.24015363 -0.89665693 0.3143874 -0.8771531
0003f0 97 c3 bc bf 2c ff e7 3e 6c e8 9d bd 74 86 a8 be
       -1.4747189 0.45311868 -0.077103466 -0.3291508

fc2.weight f4 [256, 256]
000000 49 c0 06 3d 90 d5 75 3e dc dc 38 3f 40 a7 8a 3e
       0.03289822 0.24007249 0.72212005 0.27080727
000010 4d 23 91 3f ec e8 13 bf d7 2e 05 3f 4f 53 ea bf
       1.1338898 -0.57777286 0.52024597 -1.8306674
000020 c3 59 86 3f 8b e2 2b 3f 3a 6a cb bd e1 01 fd be
       1.0496143 0.6714255 -0.099323705 -0.49415496
000030 de 83 f7 be 87 43 07 be 83 f3 01 be 1c 3b e3 be
       -0.48342794 -0.13209353 -0.12690549 -0.44381034
000040 09 23 7d bf 43 88 06 3f 9b bc 82 bf 9e 55 bf be
       -0.98881584 0.5255167 -1.0213808 -0.37370008
000050 3a 6a d0 be fe bf 8a 3e c0 97 09 3f ec 32 a1 3e
       -0.40706044 0.27099603 0.5374718 0.31484163
000060 e4 67 89 3f 2a 64 c8 3e c7 aa d6 3f 78 64 b5 3d
       1.073483 0.3913892 1.6770867 0.088570535
000070 e5 cd a9 3e 3e f3 4d be 8c ea 48 be 5e 22 8e 3e
       0.33164898 -0.20112321 -0.19620723 0.27760595
000080 92 7b 36 3f 61 9b 79 bf c0 1f 00 3e d2 e3 41 3f
       0.71282303 -0.97502714 0.12512112 0.7573825
000090 aa 96 00 bf f0 87 73 bf 20 8d f5 3c b5 9f 09 be
       -0.50229895 -0.951293 0.02997452 -0.1343983
0000a0 93 3d 9e be fc 62 17 bf 40 a9 91 bc 2d 85 be 3e
       -0.30906352 -0.59135413 -0.0177809 0.3721098
0000b0 64 3b 59 bd 27 c1 da bd e9 98 9a 3e 90 78 8e 3f
       -0.053035155 -0.10681372 0.30194786 1.1130543
0000c0 84 c5 14 3d ac f8 8b 3d 22 51 59 bf 4e 92 4d bf
       0.036321178 0.0683454 -0.84889424 -0.8030137
0000d0 b0 97 a3 be 01 d7 49 3f 06 3d e3 3e 62 10 6d 3f
       -0.31951666 0.78843695 0.44382495 0.92603123
0000e0 91 9d 90 3f ca 21 04 be 62 89 3f 3e 0d 27 98 be
       1.1298085 -0.12903515 0.18704751 -0.29717293
0000f0 ca 60 cd be 1d 05 f1 be 23 59 35 bf 32 bf 88 3d
       -0.40112907 -0.47074214 -0.70839137 0.066770926
000100 08 99 58 bf 80 b3 11 3f 19 58 bb 3f 56 c9 e9 3e
       -0.8460851 0.5691452 1.463626 0.4566142
000110 62 db fd 3e 93 47 a9 be 66 ba 00 3f 36 eb 64 3f
       0.49581438 -0.3306242 0.5028442 0.89421403
000120 ce 0b 81 3e 00 77 57 be 56 3f 75 3f 98 1e 93 3c
       0.2520432 -0.21041489 0.9579977 0.017958924
000130 ef 7f 32 3f 03 9e 9c 3e 32 08 23 3f 6a 0c bc 3f
       0.6972646 0.30589303 0.6368438 1.4691288
000140 0b 91 71 bf fb 95 a8 3e 8b 8c 59 3e d5 15 8f 3f
       -0.94361943 0.32926926 0.21245019 1.1178538
000150 6d 9b 44 3c 72 d2 84 3f eb 32 bf 3e 19 cb 20 3e
       0.011999947 1.0376723 0.37343535 0.15702476
000160 bc 2e 31 3f 62 11 8c 3e 38 2d a2 bf 10 04 91 3d
       0.69211936 0.27357012 -1.267005 0.07080853
000170 83 c0 14 3e 32 9a bf 3e 5c 28 cb be 29 29 51 3f
       0.14526562 0.3742233 -0.3967923 0.8170343
000180 2b 61 80 3e ab 50 1f 3f 4e d7 30 3d 3b e1 43 bf
       0.25074133 0.62232465 0.04317408 -0.7651555
000190 7d 15 88 3d da a4 a9 be d0 e0 cf 3f 28 fa 68 bd
       0.066447236 -0.33133584 1.6240482 -0.056879193
0001a0 c2 6b aa 3f 9c 31 d8 bf e8 b2 ac 3f 3c a5 53 3d
       1.3314135 -1.689014 1.3492098 0.05167125
0001b0 1f ad 85 3e 09 e9 dc be 30 0d 14 3c 84 f1 22 3f
       0.26108643 -0.43146542 0.009036347 0.63649774
0001c0 08 63 83 3f 84 08 7c 3f db de a8 be 0c 8f 7f bd
       1.0264597 0.98450494 -0.32982525 -0.06239228
0001d0 b8 1b 46 bf 9c 18 13 c0 50 5b a8 be 9e 56 a6 3e
       -0.77386045 -2.298377 -0.32882166 0.3248796
0001e0 b7 22 82 be 92 71 ab 3f fb a8 40 bd 41 14 d5 bf
       -0.2541711 1.3394034 -0.047036152 -1.6646806
0001f0 62 6d 02 3f 3f e6 82 bf 62 b4 6e 3f d4 41 39 be
       0.50948155 -1.0226516 0.9324399 -0.18091518
000200 d0 2b fa 3d cd b5 a6 bf e6 2e d2 3d c3 09 98 3e
       0.12215388 -1.3024231 0.102628514 0.29694948
000210 fd 9a 99 bf 48 e6 f6 3e 72 14 38 be 94 79 0d bf
       -1.2000424 0.48222566 -0.1797655 -0.5526364
000220 72 08 a9 bf 00 c3 13 3d 9c e5 0d bf 6e ba 8a be
       -1.3205702 0.03607464 -0.5542848 -0.2709536
000230 32 78 2a bf 3d 8f 4a 3e 15 4a 04 bf aa 94 af 3e
       -0.66589653 0.19781204 -0.5167554 0.3429311
000240 b9 c4 c4 3f c5 5a cd be 74 23 97 3e b0 46 7a 3b
       1.5372535 -0.40108314 0.29519236 0.0038189106
000250 38 77 0f 3f 38 25 7f 3e c7 17 3e be a3 62 7d be
       0.5604129 0.24916542 -0.18563758 -0.24744658
000260 a0 70 39 bf 1d ca 53 3f 51 98 d0 bd a9 17 8e bf
       -0.7243748 0.82730275 -0.10185302 -1.110097
000270 d2 f4 d4 be b4 3d 2d bf d6 14 8a be a3 54 2d 3f
       -0.41593033 -0.67672276 -0.26969022 0.6770727
000280 98 a7 01 3f 4b c5 1d 3f 85 b2 8b be f2 2e 27 3d
       0.5064635 0.6162917 -0.27284637 0.040816255
000290 dc cf 6a 3f f1 49 50 bf 14 b7 24 3f b0 5c 86 bf
       0.9172342 -0.81362826 0.64341855 -1.0497036
0002a0 7e 05 1b 3e f5 99 24 3e 14 47 ee 3e e2 e8 ff be
       0.15138814 0.16074355 0.46538603 -0.49982363
0002b0 2b 3b b9 3d a8 7b c0 3e 4e c5 1f 3f 8a 37 05 c0
       0.090444885 0.37594342 0.6241044 -2.0815148
0002c0 b5 ff b7 3e 71 35 4d 3f 86 c1 d0 be d7 f5 47 3f
       0.35937276 0.8015967 -0.40772647 0.78109497
0002d0 4e 79 04 3f 98 ef bb bf 5a 53 c1 3e 8a a9 ae 3f
       0.51747596 -1.4682493 0.37758905 1.3645489
0002e0 7a e6 b5 bd 3c 4c 90 be f6 44 12 3c 1e 50 d1 be
       -0.088818505 -0.28183162 0.008927574 -0.40881437
0002f0 31 fd 5d be 63 3d 14 3f ca 72 14 3f a7 e2 85 3f
       -0.21678616 0.5790617 0.57987654 1.0459794
000300 e8 09 15 bf 02 7e b1 3e 46 28 9d bc aa a5 93 3f
       -0.5821824 0.3466645 -0.019184243 1.1534932
000310 22 86 a3 bd fd 7e 91 3f 58 a0 d2 3c fa 73 4b bf
       -0.07984568 1.1366879 0.025711223 -0.7947384
000320 38 01 79 3f 1b f8 27 3f 28 f5 2b 3f 7a ba 90 3e
       0.97267485 0.65612954 0.67170954 0.2826727
000330 f0 eb 75 3f b0 36 f5 bd d1 49 a4 3e c0 5b b1 be
       0.9606314 -0.119733214 0.32087567 -0.34640312
000340 f4 f9 cc 3e 58 73 61 3f 4a bc b4 bf 35 56 fe 3e
       0.4003445 0.88066626 -1.4119961 0.49675146
000350 5d 3e ee bd dc f4 a6 bf 7b 3e 3e 3f c4 2c 5e bf
       -0.116329886 -1.3043475 0.7431409 -0.86787057
000360 8c 37 1b 3d c0 c9 c5 bd 42 0b 16 3e 9a cd d4 bd
       0.03789477 -0.096576214 0.14652732 -0.10390778
000370 04 54 2c bf b6 90 2b 3f ce 04 04 bf d6 f2 4c bf
       -0.673157 0.67017686 -0.5156983 -0.8005804
000380 7e 9e 0f 3f 6c 94 df bd 4e 33 5e bf c7 dc 90 bf
       0.56101215 -0.10916981 -0.86797035 -1.1317376
000390 e8 42 d9 be 4f a9 3e bf 2a ae e4 3d 99 3d b6 be
       -0.42433858 -0.74477094 0.11166032 -0.3559387
0003a0 4a 75 33 3f 60 ee 75 3f e4 98 2d 3f d2 f3 79 3f
       0.70100844 0.96066856 0.6781142 0.97637665
0003b0 86 23 61 be a7 ad 20 bf 4a c4 38 3e b7 79 d0 be
       -0.21986207 -0.6276497 0.18043628 -0.4071786
0003c0 5a 44 3d bd 1a 28 db 3f 58 51 a2 bf 4b 25 1a bf
       -0.046207763 1.7121613 -1.2681074 -0.60213155
0003d0 10 73 b1 be ae 6c 2d 3d 56 82 4e bf ce 31 1f 3e
       -0.34658098 0.042339973 -0.80667627 0.15546343
0003e0 97 02 73 3f e9 9d 98 bf 64 ff 3e bd b7 cf f0 be
       0.94925827 -1.192319 -0.04663028 -0.47033474
0003f0 70 58 61 bf 0c f3 05 3f 9c 94 49 bf fc 1b 8f bf
       -0.8802557 0.52323985 -0.78742385 -1.1180415

fc2.bias f4 [256]
000000 fa 6e a9 be 46 ca 98 bf 62 bc a0 be 54 cb f8 3e
       -0.3309248 -1.1936729 -0.31393725 0.48592627
000010 d6 c0 34 3f 92 97 65 3f 05 8a 0f bf f1 1d bd 3e
       0.70606744 0.896844 -0.56069976 0.36936906
000020 04 bf 18 3f f9 e2 6b bf 3f e3 c0 3d af ec 5e bf
       0.59666467 -0.9214321 0.09418344 -0.870799
000030 15 d3 02 be f0 23 b8 3e 6a de 3f 3e 7b 29 35 3f
       -0.12775834 0.35964918 0.18737188 0.7076642
000040 05 6f 0f bf ba de 28 3f 04 e3 93 3f 2c 8b 4b bf
       -0.5602878 0.65964854 1.1553655 -0.79509234
000050 92 b8 12 3f dd 53 50 be b8 ac b5 3d fd a4 03 bf
       0.5731288 -0.20344491 0.08870834 -0.5142363
000060 ac 1b 45 3e 1e 39 b0 be 70 b7 35 bd 2d f3 13 be
       0.19248837 -0.34418577 -0.044364393 -0.14448233
000070 63 d3 1c 3f 19 fb 52 be 1e 85 0e 3f 72 0f 1f bf
       0.6126005 -0.20603599 0.5567187 -0.6213294
000080 76 3d a8 be 67 61 70 bf 73 2a 1c bf 2c ec 0a 3f
       -0.3285939 -0.93898624 -0.6100227 0.5426662
000090 d3 19 01 bf 7a 3d 45 be 14 f5 59 3f 00 42 03 3a
       -0.5043003 -0.19261733 0.85139585 0.0005007088
0000a0 c8 35 61 3f fc 2f 09 3f f6 47 ff 3c 4b a3 1a bf
       0.8797269 0.53588843 0.031162243 -0.60405415
0000b0 8f de 03 3f e3 b9 5f be 00 a2 5f bc 0b 9f 95 3f
       0.5151147 -0.21848254 -0.013649464 1.1689161
0000c0 6a 41 00 be 25 aa a6 3e 06 cb 0e be ff cd 34 bf
       -0.12524953 0.32551685 -0.13944635 -0.70626825
0000d0 84 1e d3 be 5a ab bb bf b3 d3 41 bf de 15 62 be
       -0.4123422 -1.4661667 -0.7571365 -0.22078654
0000e0 96 a6 36 be 96 b7 25 3f 3f fd ac 3d cc 8a ff 3d
       -0.17836985 0.64733255 0.0844674 0.12477645
0000f0 b6 e2 93 3f 1e 37 ed be ee 27 90 bd 46 c5 61 3f
       1.1553562 -0.46331114 -0.07038866 0.8819164
000100 f1 01 06 bf 08 50 ce be 75 2e 3f bf f7 43 27 3f
       -0.5234671 -0.40295434 -0.7468026 0.6533808
000110 ed b6 77 be aa 00 3e bf 08 95 2c be a8 32 8e be
       -0.24190874 -0.74219763 -0.16853726 -0.27773023
000120 8a a4 5f 3e 40 ea 68 3c 56 88 83 bd 96 36 22 3e
       0.2184011 0.014216006 -0.064224884 0.15841135
000130 1e 23 10 3f 88 74 18 3e 51 e8 a6 3d 1e ae a1 be
       0.56303585 0.14888203 0.081497796 -0.31578153
000140 5d 65 36 3f b0 2e 32 bf a8 7b c9 3e b5 e7 81 be
       0.7124842 -0.6960249 0.39352155 -0.2537209
000150 cd b7 00 bf 8a 6c cc be 5a 7e 20 3f ef 23 67 3f
       -0.5028046 -0.3992656 0.626928 0.90289205
000160 0a c1 b3 3f 80 f8 52 bc 99 e2 89 bf d6 5e 68 bf
       1.4043286 -0.01287663 -1.0772277 -0.9076971
000170 fe 32 96 bf fd 19 8a 3f aa b9 f6 be e9 3c 78 be
       -1.1734312 1.0789181 -0.48188525 -0.24241985
000180 f3 7d b8 3e c6 dc 0a bf 5b 84 43 3e cb ab 12 bf
       0.36033592 -0.54243124 0.19093458 -0.57293385
000190 1e cb 94 be e4 ce 50 3c f6 6d 04 3f e2 5a 86 3e
       -0.29061216 0.012744639 0.5173029 0.26241213
0001a0 ca de 22 bf b1 9f b5 bf b2 bb a0 3e 9c 1f 13 3f
       -0.636212 -1.4189359 0.313932 0.5747011
0001b0 57 9d ad 3f 5a a8 15 3f 0f 30 c0 bd 4a ce c1 3c
       1.3563641 0.5846001 -0.093841664 0.023657937
0001c0 8d a5 dd be c0 7d be bb 94 59 af 3e dc 07 5a bf
       -0.43290368 -0.0058133304 0.3424803 -0.8516824
0001d0 31 af d5 3e 10 70 13 3f 96 10 7b be 82 39 97 3f
       0.41735223 0.5759287 -0.24518046 1.1814425
0001e0 09 14 8b 3e 52 6d a5 bf 04 4b 63 bd 11 4f 34 3f
       0.27163723 -1.2923987 -0.055491462 0.70433146
0001f0 de 5e 0e bf ac 62 c2 bd 5e 8b bb bf a0 26 00 be
       -0.55613506 -0.094914764 -1.4651906 -0.12514734
000200 f1 ac b4 3e ca 47 c2 3d 47 43 40 be 24 a7 9a bf
       0.35288194 0.09486349 -0.18775664 -1.2082257
000210 66 26 b8 3f 4b 73 81 3d a6 7a 21 bf 3e a9 12 3f
       1.4386718 0.063208185 -0.6307777 0.57289493
000220 3b d9 6e be cf 76 ed be a4 f7 cf be f6 e6 6f be
       -0.23325054 -0.46379706 -0.40618622 -0.23427948
000230 a1 f6 b3 bf 7c 5a 8b 3e d1 b0 31 be d6 eb a2 3e
       -1.405964 0.27217472 -0.17352606 0.31820554
000240 f9 e2 30 bf a9 c8 81 bf 64 51 fc be 51 61 16 3e
       -0.6909633 -1.0139362 -0.49280846 0.14685561
000250 9a ce 53 bf b8 f4 ba 3f 28 fb b4 bf a3 da 83 3f
       -0.82737124 1.4605932 -1.4139147 1.0301098
000260 a5 38 7f bf a0 7c 89 3e 07 11 10 bf 90 b7 de bd
       -0.9969581 0.26852894 -0.5627598 -0.108748555
000270 78 ad 20 bf 52 9c 52 be ce 36 be bf e9 f7 0b bf
       -0.6276469 -0.20567444 -1.4860475 -0.54675156
000280 3c b1 e1 be 58 79 5d 3f 36 96 de 3d 37 37 12 3e
       -0.44080532 0.8651328 0.10868494 0.14278875
000290 ee b1 0d 3d 76 9c 49 3f 32 cc d8 3f 54 f4 0f 3e
       0.034593515 0.78754365 1.6937315 0.14058048
0002a0 98 3a 22 3e 35 db 01 be f9 f6 aa bf 01 b5 73 bf
       0.15842664 -0.12681277 -1.335662 -0.95198065
0002b0 1e 03 d8 3f a4 92 1d bd 54 54 ca be 5e 46 57 be
       1.6875951 -0.038469926 -0.39517462 -0.21022937
0002c0 27 d1 b9 be 64 ed d5 bd 31 2d 9c bf b0 47 59 bc
       -0.36292383 -0.10445669 -1.2201291 -0.013261721
0002d0 09 8f be be 16 26 88 be 48 b2 c1 be ca a2 8a be
       -0.37218502 -0.26591557 -0.3783133 -0.27077323
0002e0 bf 85 a3 bf c4 24 88 be 12 f7 3d 3f 39 d2 7f be
       -1.2775191 -0.2659055 0.74205124 -0.24982537
0002f0 0a 50 f5 be 92 1c 10 3f fe e3 b7 bf 35 ba f8 be
       -0.47912627 0.56293595 -1.4366453 -0.48579565
000300 e2 47 b1 be 64 c6 07 bf 57 db 32 3f 0c ad 97 bc
       -0.34625155 -0.53037095 0.69865936 -0.018515132
000310 2c 77 3e bf ce ec 86 bf c2 ea 10 3d 35 d3 12 be
       -0.7440059 -1.0541017 0.035380132 -0.14338382
000320 4f d8 4a bf 7e 01 cf 3e 09 bb 5a 3f c2 66 99 3e
       -0.7923631 0.40430826 0.85441643 0.2996121
000330 9a 13 aa bf 48 f4 b7 3d 54 51 cb 3e 54 f4 1a bf
       -1.3287232 0.0898214 0.39710486 -0.60529065
000340 30 98 05 3f 7e a0 43 bf b8 eb b9 3e 53 36 4f bf
       0.52185345 -0.76416767 0.36312652 -0.8094227
000350 00 b8 9f bd 26 e9 b1 3f d8 20 e7 3c 5f 99 c9 be
       -0.07798767 1.3899276 0.028213903 -0.39374825
000360 1c 06 8b 3f dd 84 59 3f f3 96 59 3f c9 17 ef 3d
       1.086124 0.8496836 0.84995955 0.116744585
000370 40 b7 aa 3c 25 3c 2d be c0 a1 86 3d 26 56 17 bf
       0.020839334 -0.16917475 0.0657382 -0.5911583
000380 5e 74 b5 3e 8e 95 66 3e d3 47 84 be 8c 12 48 bd
       0.35440344 0.22517988 -0.25836048 -0.048845813
000390 6b bd 1d 3f ed 65 b3 bf ea 65 78 3f 71 f5 95 3d
       0.61617154 -1.401548 0.9703051 0.07322205
0003a0 52 ee 44 3e 92 22 92 3e eb c0 78 3d e6 66 4d be
       0.19231537 0.28542 0.060730856 -0.20058784
0003b0 e4 07 51 bf 12 c5 19 bf 6c 5b 92 3d 5d 0d 4a 3e
       -0.81652665 -0.6006633 0.071463436 0.1973166
0003c0 09 95 5f be 61 cf c1 3e 20 86 77 3e 40 89 f0 bb
       -0.21834196 0.3785353 0.24172258 -0.00734058
0003d0 7a fc 0b bf 10 31 15 3f 76 fa e6 3e 94 0b 3a bf
       -0.54682124 0.5827799 0.45112962 -0.72673917
0003e0 b8 64 17 bf 21 21 a1 3f 74 50 1c bf 16 94 95 be
       -0.5913806 1.2588235 -0.6106026 -0.29214543
0003f0 27 79 cb 3f 2e dd 21 be 44 49 8e bf cf 7c 39 be
       1.5896348 -0.1580703 -1.1116109 -0.18114017

fc_mean.weight f4 [3, 256]
000000 c6 65 1c be e4 d6 3f 3f d8 b7 41 3e eb 26 4a 3e
       -0.15273198 0.7493727 0.18917787 0.19741409
000010 31 e0 4b bf 90 28 6c be 9e 82 31 3f 20 a0 89 bf
       -0.79638964 -0.23062348 0.6933993 -1.0751991
000020 94 b3 9d bd cd e2 77 3e 7c 95 14 3f 00 82 72 3f
       -0.077002674 0.24207611 0.58040595 0.94729614
000030 40 45 79 bd 04 96 37 bf 5c ff 86 bf f6 e2 59 be
       -0.060857058 -0.7171328 -1.054668 -0.21277985
000040 e6 47 37 be 7e f9 fb bc 52 20 46 3f bb 79 5c bf
       -0.17898521 -0.030758616 0.77393067 -0.86123246
000050 e8 c2 47 3f 3a e0 47 3e 74 ef 36 be 5a f6 44 be
       0.7803178 0.1951913 -0.17864782 -0.192346
000060 ef f8 01 be 81 7f f5 bd 90 c3 9d 3e 65 09 30 3e
       -0.12692617 -0.1198721 0.30813265 0.17191084
000070 e8 c7 90 3e 52 6c 90 3d 16 a8 62 3e e9 e1 79 3e
       0.28277516 0.070519105 0.22134432 0.24402584
000080 90 ed 9f 3e 71 fc 93 3f 8a 1b ea 3f 69 20 5e be
       0.31235933 1.1561414 1.8289654 -0.21692051
000090 b6 3b cb be fd 81 be bd 09 c1 8b 3f 4a 92 6a 3f
       -0.39693993 -0.09302137 1.0918285 0.9162947
0000a0 24 1a 00 3f 93 ed 3a 3e dc c0 0e be 13 d5 74 be
       0.5003989 0.1825469 -0.13940758 -0.23909406
0000b0 4a 77 41 3e f6 1c 19 3f d5 36 42 be fe 1d b2 be
       0.18893161 0.59809816 -0.1896623 -0.34788507
0000c0 ac b2 f8 be 9a 19 06 bf f1 c6 51 3f 32 9f 93 bd
       -0.48573816 -0.52382815 0.81944185 -0.072080985
0000d0 df 5f 68 be a6 cb 29 3f fa 86 0a 3f de 78 b7 be
       -0.22692822 0.6632637 0.5411221 -0.35834402
0000e0 20 c8 7c 3f f4 dc 56 bf d1 3e 05 3f ac 76 42 bf
       0.98742867 -0.839309 0.52048975 -0.7596233
0000f0 32 53 d3 3e c5 f1 2f 3f a4 95 75 3d 42 62 c8 3e
       0.4127441 0.68728286 0.05995716 0.39137465
000100 de 41 55 3f 71 4e 28 be 4a d6 d5 3d 29 51 90 bf
       0.8330363 -0.16436173 0.10441263 -1.1274768
000110 44 47 01 3f 34 84 a6 3f 56 85 1e 3f 56 15 11 3e
       0.5049937 1.3009095 0.61922204 0.14168295
000120 24 90 75 3f 7c c8 3a bf de 3b d0 3e c9 a3 ad 3f
       0.95923066 -0.72962165 0.40670675 1.3565608
000130 82 26 e5 3d 76 c1 41 bf f4 fa ae be 5a a3 e7 3e
       0.111889854 -0.7568582 -0.34175837 0.45241815
000140 95 23 33 bf f7 03 07 3e 9e 70 ba 3f 0a 30 81 3f
       -0.6997617 0.13185106 1.4565618 1.0092785
000150 6a 36 14 bf 38 0d 82 3f 6d 5e 58 3f fa 41 b1 bf
       -0.5789553 1.0160284 0.8451908 -1.384826
000160 63 99 4d 3f 08 28 73 3e c2 9d 1a bf 57 4e f0 be
       0.80312175 0.2374574 -0.6039697 -0.4693477
000170 e1 65 91 3e 1a 0a b0 3e 98 7d e2 bc a1 93 86 bf
       0.2839804 0.34382707 -0.027647778 -1.0513803
000180 2e 33 0d 3e 46 9c f6 3d 3c af 86 bf ca 89 cf 3d
       0.13789055 0.120415255 -1.0522227 0.10133703
000190 b7 59 ba bf f9 72 49 bf 23 ed 8a 3f e3 9a e0 3e
       -1.4558629 -0.7869106 1.0853618 0.4386817
0001a0 65 39 71 3f 14 29 8b be 9c 73 fc 3e 3c dd 2e 3f
       0.942282 -0.27179778 0.49306953 0.68306327
0001b0 9d 18 6d 3e 6b ba 02 bf ad 4a 26 3f 1d f3 ce 3e
       0.2315392 -0.510657 0.64957696 0.40419856
0001c0 e8 6f 62 bd 4a 69 b7 3f f5 49 fa be 0c 5f eb 3e
       -0.055282503 1.4329007 -0.4888455 0.45970953
0001d0 5a 73 18 3f 51 66 26 bf a4 fc 35 bf 14 8a f4 3d
       0.5955101 -0.6499987 -0.71088624 0.11940399
0001e0 89 6f 14 3f 2e ab 3d bf 97 a9 ae 3e 26 1d 34 3e
       0.5798269 -0.74089324 0.34113762 0.17589244
0001f0 52 af 9b be dd 80 4d 3f 53 e9 e4 3d b0 0c 83 3f
       -0.30407196 0.80274755 0.111773156 1.0238247
000200 c4 47 6b 3e ba ab 5a 3f 14 28 28 3e 68 69 a0 3e
       0.22976595 0.85418284 0.16421539 0.3133042
000210 a4 7e ed be f5 c6 65 3f dc de 85 3c 00 df fa be
       -0.46385682 0.8975671 0.01634162 -0.4899826
000220 2e d8 0d 3f 08 71 65 bc d5 43 3d bf f1 3f 9c be
       0.5540799 -0.0140039995 -0.7393163 -0.30517533
000230 c6 55 d9 be 2a 77 e2 be a2 9b b7 be 28 e9 03 bf
       -0.42448252 -0.4423154 -0.35860926 -0.51527643
000240 4f 04 a7 3e 93 ec 41 bf bf 35 c5 be e2 05 7b 3d
       0.32620475 -0.7575161 -0.38517568 0.061284907
000250 e5 c3 3e be f0 85 4d 3e d2 0c 60 3f 0d 84 88 bf
       -0.18629415 0.20070624 0.8751956 -1.0665299
000260 14 f2 84 be 64 33 4e bd 3a 75 a9 3e 3d fd c8 3f
       -0.2596594 -0.05034198 0.3309725 1.5702282
000270 9a 78 a1 3f 66 c6 ae bf 92 96 ec 3d 24 e1 7d be
       1.261493 -1.3654296 0.115521565 -0.24792916
000280 95 48 65 3f 26 65 b9 bf f4 40 8e 3f 16 5c 89 3f
       0.89563876 -1.4483993 1.1113572 1.0731227
000290 2a fb ed be fe e0 af bf 94 04 d2 bf c6 0d 96 3f
       -0.46480685 -1.3740537 -1.6407647 1.1722953
0002a0 e5 de 89 bf e6 10 19 3e 5f c2 87 bd 07 dc 53 be
       -1.0771147 0.14947852 -0.0662887 -0.20689403
0002b0 f6 03 f7 be e3 b1 dd 3e e8 b6 30 3e 9a 0a ef 3d
       -0.4824521 0.4329978 0.17257273 0.11671944
0002c0 68 dd cb 3e 63 fa 58 bf e0 9e 34 3e 30 28 70 be
       0.39817357 -0.8475706 0.17638731 -0.2345283
0002d0 20 8d 42 3e 83 81 ff be 59 e0 8a bf d8 c3 17 bd
       0.18999147 -0.49903497 -1.0849715 -0.037052006
0002e0 8b a8 21 40 66 d4 1b bf da bf f0 3e 42 d0 04 be
       2.525912 -0.6087097 0.4702137 -0.12970069
0002f0 9e 75 ab be 0e 2d 19 bf 83 0d 94 bf 3c cb 7a bf
       -0.33488172 -0.59834373 -1.1566623 -0.9796636
000300 76 ca 11 3e e5 10 0f 3f c6 a9 40 bf 01 c1 10 be
       0.14237389 0.55885154 -0.75259054 -0.14136125
000310 38 1b 05 3f c6 c8 99 3f 16 0c 71 3e e5 db 7a 3f
       0.5199466 1.2014396 0.23539767 0.9799178
000320 13 4e bb be ef b8 a1 bd be a4 b2 3e c9 e9 64 3e
       -0.36583003 -0.078966014 0.34891313 0.22354807
000330 d0 e5 e7 3f 25 7e 9a 3e f0 25 91 bf 07 5b e5 3e
       1.8117008 0.30174366 -1.1339703 0.4479601
000340 16 41 f0 3e cd 31 88 bf 28 67 8c bd 14 d1 e2 3c
       0.46924657 -1.0640198 -0.06855613 0.027687587
000350 4f b4 c4 bf af 20 fe 3e 40 e1 30 bf f8 e2 8d 3f
       -1.5367526 0.4963431 -0.69093704 1.108489
000360 7b e4 96 3f 99 c2 24 bf ac 0d a5 bd 28 c5 c2 be
       1.1788477 -0.6435943 -0.08059248 -0.38041043
000370 e8 e9 5d 3f d4 cf a9 bc 73 b9 d1 3f 78 84 43 3f
       0.8668504 -0.020728983 1.638472 0.76374006
000380 1b 80 25 3f ba 70 ba be 8a 42 e2 bd be fe d7 3e
       0.646486 -0.3641413 -0.110478476 0.4218654
000390 10 4a d1 bb fe bb fe bf 76 48 25 bf 5c 24 fe be
       -0.0063870028 -1.9901121 -0.6456369 -0.49637115
0003a0 ec 5a b9 bc 96 16 e6 be d8 c6 4d be f0 89 2b 3d
       -0.022626363 -0.44939107 -0.20095384 0.041879594
0003b0 a4 ba 2c bf 8e 48 81 bf 42 90 ec 3e c8 f1 54 3f
       -0.6747229 -1.0100267 0.4620381 0.8318143
0003c0 aa 96 d9 bd f2 1d 84 be c4 5b 96 be c0 87 44 be
       -0.1062444 -0.25804096 -0.29366887 -0.1919241
0003d0 e2 87 05 3f 23 a0 6d 3e 40 e8 96 bf 41 9c 08 3f
       0.52160466 0.23205619 -1.1789627 0.53363425
0003e0 e6 46 a0 be 03 b6 2d 3f 3b 9e c0 3e e2 3d bd 3e
       -0.3130409 0.6785585 0.3762072 0.36961275
0003f0 3d 6f 83 3d 4c be 81 3e f9 2e 09 3f eb 02 7d 3f
       0.064177014 0.25340497 0.535873 0.9883258

fc_mean.bias f4 [3]
000000 cf be 83 bf 28 59 38 3c ab ea 3c 3f
       -1.0292605 0.011251725 0.73795575
