ga_weights/ga2/Hopper-v5/SAC/weights5.pt (torch, 281441 bytes, 6 tensors)

fc1.weight f4 [256, 11]
000000 2e 64 ea 3e 4c 0e 09 3f 53 1e 65 bf c3 7e 11 3e
       0.45779556 0.5353744 -0.89499396 0.14208512
000010 03 46 3f 3f 4a c0 c8 be f0 99 f0 be b5 23 e8 3e
       0.74716204 -0.39209205 -0.46992445 0.45339742
000020 4f 7d 3c 3f 03 60 4b bf f8 ce db 3b 01 55 ca bd
       0.73628706 -0.7944338 0.006708022 -0.098794945
000030 a0 cb bd bf c7 05 8c be 2c dc 01 3d f6 66 df 3e
       -1.4827766 -0.27348158 0.031704113 0.4363324
000040 11 52 6d 3e 68 f0 e7 3e f4 6c 22 3d 90 89 02 3f
       0.23175837 0.45300603 0.039654687 0.50991154
000050 0c cc 9e 3f 9e 5e 2c 3f e7 d9 83 3e 39 62 82 bc
       1.240602 0.67331874 0.25752184 -0.015915977
000060 39 29 95 3f 51 fd c1 3f 20 f2 a6 3c f5 42 1f 3f
       1.1653205 1.5155431 0.020379126 0.62211543
000070 29 4a 9a 3f 06 02 3a bf 5d 71 b1 bf d9 de 7f 3e
       1.2053882 -0.7265934 -1.3862721 0.24987353
000080 93 ad 07 3f 2b 1b ca 3d 9a 0d 48 be 98 a0 1d 3e
       0.5299923 0.09868463 -0.19536439 0.15393293
000090 44 c9 18 bf 01 92 a1 3e 44 74 53 bf 75 17 19 bf
       -0.59682107 0.31556705 -0.8259928 -0.5980142
0000a0 d8 ce cc be 32 e6 2c 3e b6 6d cd bf e5 16 5b 3e
       -0.4000156 0.16884688 -1.6049106 0.21395452
0000b0 17 65 62 bf c0 8a 4b 3f 3f 05 92 3f 06 e3 af bf
       -0.884355 0.7950859 1.1407851 -1.3741157
0000c0 06 f2 44 3f 71 4e 22 bf d6 68 59 be 0b 22 63 bd
       0.769318 -0.6340094 -0.21231398 -0.055452388
0000d0 ad f4 a1 be ea 1a b2 bd 02 85 5a bf 3f ca 2d bf
       -0.31631985 -0.0869654 -0.85359204 -0.6788673
0000e0 96 23 45 3f 88 bc ca 3d 9b eb 31 3e a5 cf 37 3f
       0.77007425 0.09899241 0.17375033 0.71801215
0000f0 5e 62 b6 3e 94 65 5b bf 61 7d b8 3e 97 7e 41 3f
       0.35621923 -0.8570187 0.36033157 0.75583786
000100 36 c4 25 bf 6b 16 94 3e 81 81 bd 3e ec 54 03 3f
       -0.6475252 0.28923354 0.37012866 0.51301455
000110 3f 1a 5e bf 5b ea a7 3d 4e 5f 22 be 45 a9 dd 3e
       -0.867588 0.08198997 -0.15856668 0.43293205
000120 aa 70 2a 3f b9 60 d2 3e ac 3e 05 be 3c 4a 0b 3e
       0.6657816 0.4108942 -0.13012189 0.13602537
000130 a3 cd b6 bf 6a 30 09 be ce 18 1d be 8f 46 df 3e
       -1.4281505 -0.13397375 -0.15341493 0.4360852
000140 7c 7c e9 be 1e ca 14 3f 32 15 ab be 43 c1 cb bf
       -0.45602787 0.58120906 -0.33414608 -1.5918354
000150 fe 71 9d 3e 9e 53 e8 3e 66 cf 7a bf 1c bd 4a 3e
       0.30751032 0.45376295 -0.97972715 0.19798702
000160 da f8 16 bf 46 81 39 3f a9 74 bc 3e b4 aa 83 bf
       -0.5897347 0.7246288 0.36807755 -1.028647
000170 9a 75 2c be 90 80 8d 3f 3e 62 c8 3e 62 7f cf 3e
       -0.16841736 1.1054859 0.39137453 0.40526873
000180 a2 b9 a5 3e 4a 99 1f be e1 e3 e8 3e 26 65 96 3d
       0.3236819 -0.15585819 0.45486358 0.07343511
000190 f7 63 ff be fb db 72 3f 3d 11 68 bf 26 f6 42 3f
       -0.49880955 0.94866914 -0.90651304 0.7615684
0001a0 22 b2 f8 be 42 de 86 be d4 38 6f bf e4 ae 10 3f
       -0.48573405 -0.26341444 -0.9344609 0.5651686
0001b0 70 2a 3d 3f 30 ef f2 3d 98 83 c2 3e 3f ce 59 be
       0.7389288 0.11862028 0.37991023 -0.21270083
0001c0 ca 41 65 be 91 19 80 be 19 36 49 3f 18 56 d5 be
       -0.22388378 -0.25019506 0.7859817 -0.41667247
0001d0 29 8a 5b 3e 00 5a 00 bf 96 03 cd be 62 e5 0a bd
       0.21439423 -0.5013733 -0.40041798 -0.033910163
0001e0 c1 15 ba bf e4 e1 ad 3e 15 3d a6 3d 55 ba 8e 3f
       -1.4537889 0.33961403 0.08117119 1.1150614
0001f0 30 fc db be f0 17 73 be 92 12 43 bd 4e 2a 85 3e
       -0.4296584 -0.237396 -0.047625132 0.26008838
000200 fa 6a 24 bf 82 86 20 3f ac 2c c1 3c 08 1b 1a 3f
       -0.64225733 0.6270524 0.023580872 0.60197496
000210 05 b1 c9 be 4f 5e 63 3f 53 27 cf be 9b 99 3f bd
       -0.39392868 0.8881578 -0.4045969 -0.04677735
000220 79 1f b8 3e 00 97 64 3d 37 5d ea be 73 44 b4 bf
       0.35961512 0.055808067 -0.45774242 -1.4083389
000230 8a 0e 81 3c ee 30 08 bf 49 5b e7 3f 6c f7 e7 be
       0.015754003 -0.5319966 1.8074733 -0.45305955
000240 e7 ff 54 bf 49 19 80 3f a2 40 64 3f 3c ed 46 bd
       -0.83202976 1.0007716 0.8916112 -0.048566088
000250 f7 a2 f3 bf cc 90 a5 bf 1e aa 50 3e a4 e5 e6 be
       -1.9034108 -1.2934813 0.20377395 -0.45097077
000260 36 4f b9 be 94 20 5a 3d 21 da e0 be 2c 12 3f 3e
       -0.36193246 0.053253725 -0.4391642 0.18659276
000270 fa e5 1f bf 20 59 1b bc 5f 7d 68 bf 7a f7 f4 bc
       -0.6246029 -0.009481698 -0.908163 -0.029903162
000280 a8 ae 68 3e c6 3f ad 3f 55 0d a6 3f c5 fb a8 bf
       0.22722876 1.3535087 1.2972819 -1.3201834
000290 9c d9 2d 3f 74 22 21 bf c2 d4 bf be 19 a3 a6 bf
       0.6791017 -0.62943196 -0.3746701 -1.3018523
0002a0 14 dd 57 bd 9f ee 22 3f 34 52 1b 3e f3 1e a8 bf
       -0.05270107 0.63645357 0.15168077 -1.3134445
0002b0 5e 61 00 3f dc 20 cd 3d b0 2d 82 be 0b 1d b1 bf
       0.5014857 0.10016033 -0.25425482 -1.3836988
0002c0 12 53 90 3f 89 cd 82 3f 57 4e 89 be 5b 19 54 bf
       1.1275351 1.0218974 -0.2681758 -0.8285119
0002d0 d9 9f 93 be 84 9e 2b 3e 96 a4 12 bf 2b ca 9c be
       -0.28832892 0.16759688 -0.5728239 -0.30622992
0002e0 6e d4 ea 3e f0 9c e4 3e eb f6 9f bf fd 54 25 be
       0.45865196 0.44650984 -1.2497228 -0.16145702
0002f0 46 05 22 bd c5 ee 04 3f 98 14 a6 bd 6d 5f de 3e
       -0.03955581 0.51926833 -0.08109397 0.4343218
000300 65 b2 0c be 18 aa 32 3f db 56 df 3d c0 88 8c bf
       -0.13739927 0.6979079 0.10905238 -1.0979233
000310 75 86 75 3f ec b6 21 3e 5e 0a bc bf 1d dd 82 3e
       0.9590829 0.15792435 -1.4690664 0.2555932
000320 9f 39 f9 be e8 64 ed 3e 0c f5 fc be 96 75 42 3e
       -0.48676774 0.46366048 -0.49405706 0.18990168
000330 a7 fd 21 3f aa ea 33 bf 40 46 82 bd 19 3c a5 3f
       0.6327767 -0.70279944 -0.063610554 1.2908965
000340 fd 08 a4 3e fa 9f 66 3e 1b b1 82 bf d6 5a 7e 3e
       0.32038108 0.22521964 -1.0210298 0.24839339
000350 f7 22 ac 3d 0f 1a c0 3f 0b f9 49 3e 7b 88 97 bf
       0.084051065 1.5007952 0.19723909 -1.1838526
000360 0a 25 84 be f6 68 16 3f 2d 6b 89 3f 4a 8d 34 3d
       -0.2580951 0.5875391 1.0735832 0.044080056
000370 ba 1e ca bf d9 e8 17 3f d9 73 d5 3f dc f3 95 3c
       -1.5790627 0.5933967 1.6675979 0.018304758
000380 73 89 89 3f 9e 37 2a bf 78 5e 59 3e c0 56 ef be
       1.0745071 -0.66491115 0.21227443 -0.46745872
000390 22 a0 03 bf 44 99 24 3f b6 07 ba 3d 7e f2 0c bf
       -0.5141622 0.64296365 0.09083502 -0.55057514
0003a0 b8 8d 6f bf 44 db 1f 3e cb 32 b6 bf 72 fb 00 3f
       -0.9357562 0.15610987 -1.4234251 0.50383675
0003b0 b4 c6 0b 3d 9e 2d 6b 3f b2 d1 92 bf 3c 26 b9 bf
       0.034125045 0.9186648 -1.1470244 -1.4464793
0003c0 63 e8 9d 3f 8e 9f 7a 3f 89 73 84 3f 02 34 b0 3e
       1.2336544 0.9789971 1.0347759 0.3441468
0003d0 ae f0 67 3f 3c be 5b bf 58 df 14 bb 90 83 31 3f
       0.90601623 -0.8583715 -0.002271613 0.69341373
0003e0 b2 eb 88 3f 37 79 9c 3f 5e 57 83 bf 81 f8 07 40
       1.0696929 1.2224492 -1.0261037 2.1245425
0003f0 21 6e 18 3f fb 88 63 bf 2b 66 9f bf 5a e0 0a 3e
       0.59543043 -0.8888089 -1.2453054 0.13562146

fc1.bias f4 [256]
000000 52 48 8f 3f cf d3 70 bf 7b e6 19 3f fb 91 6a 3e
       1.1193945 -0.94073194 0.6011731 0.2290725
000010 56 f8 31 3f f9 78 3a be 43 1e 39 bf a0 71 35 3b
       0.69519556 -0.1821021 -0.723118 0.0027686134
000020 af dc 9a bf a6 7a 89 3f 1e cd 07 3e a6 c6 d1 bd
       -1.2098597 1.0740554 0.1326184 -0.10242967
000030 b7 27 d4 be fa 03 2c be 5c db 1a bf 83 4c 05 bf
       -0.4143655 -0.16798392 -0.60490966 -0.5206987
000040 f0 64 ce bd b3 fe 6a be 8e 80 d9 be 0f f6 2e 3f
       -0.10077846 -0.22948723 -0.42480892 0.68344206
000050 9f 8f 95 bf c1 51 c3 be 26 30 1f bf 6a 72 15 bf
       -1.1684455 -0.3814831 -0.62182844 -0.58377707
000060 de a5 ef 3e 80 95 6e 3e 20 e9 a5 3d d7 48 0a c0
       0.46806234 0.23299217 0.08101106 -2.1606958
000070 68 7b 83 3f 26 eb 2a 3f e7 44 ba 3e 94 4d ff 3e
       1.0272036 0.6676506 0.36380693 0.49863875
000080 bb 3b 1c 40 09 1c f9 be ed e4 d2 3e 41 33 72 3f
       2.4411457 -0.48654202 0.41190282 0.9460946
000090 06 79 2f 3e 9d 2d 93 bf ad 18 c4 be cb 9f 19 be
       0.1713601 -1.1498295 -0.38300076 -0.15002362
0000a0 26 09 89 3f 12 d2 7a 3e 1e 84 e8 3f 5f 1b 0a 3d
       1.0705917 0.24494198 1.8165319 0.03371751
0000b0 34 8b 32 bf 80 75 3c bf bb 5e fd 3f 92 50 fc 3d
       -0.6974366 -0.7361679 1.9794534 0.12320055
0000c0 31 aa 6f be 31 a4 d8 bd 76 81 2a 3f 21 61 13 bf
       -0.23404767 -0.10578192 0.6660379 -0.5757008
0000d0 59 7d 8f 3f 6d 8f 25 bf 8a a2 d0 3e 80 e3 14 3e
       1.1210128 -0.64671975 0.40749007 0.1453991
0000e0 79 62 25 3f c2 38 5e 3f 0e f7 64 3f a6 cc 55 3c
       0.6460338 0.86805356 0.89439476 0.01304928
0000f0 1c 62 95 3e 92 a5 4e 3f 7c c5 2f 3f 9f 99 86 ba
       0.29176414 0.8072139 0.6866071 -0.0010269171
000100 a0 1c 4c 3c f8 eb 91 3d 95 44 98 be 90 34 f7 3c
       0.012457997 0.071250856 -0.29739824 0.030176431
000110 be 47 7e bf 24 35 8d bf 9d 75 22 be e3 30 aa 3e
       -0.9932822 -1.1031842 -0.15865178 0.33240423
000120 2e 0d 33 bf 11 4f ce bd a9 49 da 3e bc c2 50 bf
       -0.69941986 -0.100736745 0.42634323 -0.8154714
000130 23 a1 bf be 7c a3 c4 3e 04 af 36 be c7 6b 7c 3f
       -0.37427625 0.3840598 -0.178402 0.98601955
000140 e9 2e 82 be c5 24 c2 be ca 1d 48 bd 38 b8 19 bf
       -0.25426415 -0.37918678 -0.048856534 -0.6004672
000150 3d 5c 64 3e ba 59 9b bd e8 3a 49 3f 8b e9 75 3f
       0.22300811 -0.07585473 0.7860551 0.96059483
000160 39 54 8e be 45 16 01 bf 46 a3 58 3e fa 4b b8 3e
       -0.27798632 -0.50424606 0.21156034 0.35995466
000170 10 ce b9 3e 7f 1d 01 3e 55 46 5a 3f 91 0b 42 3f
       0.36290026 0.12608908 0.8526357 0.757989
000180 75 ef 20 3f 2b 25 17 be fc c6 fe 3e 8f 37 67 bd
       0.6286538 -0.14760272 0.49761188 -0.05644947
000190 d7 22 76 3d 57 b1 83 bf 7d 89 19 3f 14 58 04 3f
       0.06009182 -1.0288495 0.59975415 0.51696897
0001a0 d3 08 0b 3e fd a4 b4 be 3f 1e 89 3d e7 92 8e bf
       0.13577585 -0.35282126 0.06695222 -1.1138581
0001b0 cc c9 ae bd 2d 08 12 3f 50 08 5f 3e 91 1e 0a 3f
       -0.085345834 0.57043725 0.21780515 0.5395289
0001c0 9a 9a 8d bf 93 7f 9b 3e 6d f9 70 3f 80 4f a2 be
       -1.1062806 0.3037077 0.94130594 -0.3170128
0001d0 b4 d9 79 bf f6 18 8e 3f 01 b5 31 3e bb 71 c9 be
       -0.97597814 1.1101367 0.17354204 -0.39344582
0001e0 a0 ca d0 be 22 84 02 bf 00 81 93 bf 31 74 e8 bc
       -0.4077959 -0.5098287 -1.1523743 -0.028375717
0001f0 b3 85 d8 be 26 85 9b be d6 42 ed bd be 0a 32 bf
       -0.42289504 -0.30375022 -0.115850136 -0.6954764
000200 3f dc fd be 62 9c 03 bf 96 40 ff be 1d 15 5c 3f
       -0.49582097 -0.51410496 -0.49853963 0.85969716
000210 51 b5 4a be 6a 47 c5 be e6 41 b1 3f 87 ed cb 3d
       -0.19795729 -0.38531047 1.3848236 0.09957414
000220 45 e4 14 3f 96 ee 06 3d ea 30 bc 3e 53 3c 47 3d
       0.5816081 0.032942377 0.36756068 0.048641514
000230 34 1d 71 bf d3 6c 4c bf a8 46 9e bd 2a df d6 3e
       -0.94185185 -0.7985355 -0.0772832 0.41967136
000240 a8 fa 14 3f 11 b8 8f 3e ed 20 91 bf 56 7e df be
       0.5819497 0.2807012 -1.1338173 -0.43651074
000250 c8 5c c0 be f5 86 df be 8b ca 4f be 7a 87 ae bf
       -0.37570786 -0.43657652 -0.20292108 -1.3635094
000260 3e b8 ff 3e 81 2e 16 3e ef e6 5b 3f cb f4 39 3f
       0.49945253 0.14666177 0.8589925 0.7263915
000270 fb 45 ac be 8a ca bd 3e dc 00 a5 3d 78 84 a9 3c
       -0.3364714 0.37068588 0.080568045 0.020693049
000280 6e 14 1a bd 06 9e b5 bd 7d a9 46 3f 98 24 3b 3e
       -0.03761714 -0.08868031 0.7760237 0.18275678
000290 9f 4d d9 bf 61 76 9c 3e 55 38 2a bf 67 41 7d 3e
       -1.6976813 0.30559066 -0.66492206 0.2473198
0002a0 66 17 18 be 01 45 05 c0 71 29 43 bf b9 fe 51 be
       -0.14852676 -2.0823367 -0.7623511 -0.20507325
0002b0 e5 89 22 3f e6 c3 1f bf 33 80 3b 3f 7c 68 5c 3e
       0.6349166 -0.6240829 0.7324249 0.21524233
0002c0 7e a4 8b 3f 6b da d8 3e 51 57 08 3f 31 6c ac 3d
       1.0909574 0.4235414 0.53258234 0.084190734
0002d0 54 25 33 3f f4 61 10 bf 46 67 eb bd 58 e7 16 be
       0.69978833 -0.56399465 -0.11494307 -0.14736688
0002e0 f4 ab a2 3f d5 6a c5 bd 8f 09 38 bf 54 f5 e9 be
       1.2708726 -0.09639517 -0.71889585 -0.45694983
0002f0 30 8c 31 bc ac 0d ff 3e 2c 84 0b bf ed 85 69 be
       -0.010836646 0.49815118 -0.54498553 -0.22804995
000300 47 b7 6b 3f 1e 5e 00 3d 9f fb c5 be 52 c3 f0 be
       0.92076534 0.031339757 -0.38668534 -0.47024018
000310 2c 5b ef bd e9 f3 5a 3f 14 6b a1 be 8a 98 0e 3e
       -0.116873115 0.8552843 -0.31527007 0.13925377
000320 46 b2 77 be dd 43 4c bf 0b 04 a8 3d be 3f b9 3e
       -0.241891 -0.7979105 0.08203896 0.36181444
000330 48 37 e7 3d 00 8d 73 3e a2 99 46 3e 58 13 0b bf
       0.11289841 0.23784256 0.19394544 -0.5432639
000340 68 df d3 be ac 9b 88 be 1e 24 0f 3f 84 2e 96 3e
       -0.41381383 -0.26681268 0.55914485 0.29332364
000350 06 86 e0 3e 7e 0e 40 bf 6e 42 ac 3e e2 50 14 bf
       0.43852252 -0.75022113 0.33644432 -0.5793592
000360 03 9d bc be 1f 98 65 bf c7 c5 a1 be 38 61 4a be
       -0.3683854 -0.89685243 -0.31596205 -0.19763649
000370 82 72 dd bd 8b 63 53 be ec cc a1 3f de d3 19 bf
       -0.10812856 -0.20643441 1.2640662 -0.6008891
000380 30 f5 9a be 7c 7b db 3d 10 3e 8e 3c 5a 5e 69 bd
       -0.30265188 0.10716912 0.017363578 -0.056974746
000390 0d 67 5c 3f b1 8d a1 3d ce f4 fc 3f 4b 42 9b 3f
       0.86094743 0.078883536 1.9762208 1.2129606
0003a0 e4 ed 4e bf ec c3 7c be 93 ea f6 be ee c6 95 be
       -0.8083174 -0.24684113 -0.4822584 -0.29253334
0003b0 18 92 5e bf 6f 3e f6 3e 7d 46 fc be 50 11 98 3c
       -0.8694167 0.48094508 -0.49272528 0.018562943
0003c0 e5 5e e6 3e 84 53 d6 bf 23 f9 11 bf e2 1f 85 3e
       0.44994274 -1.6744237 -0.5702078 0.26000887
0003d0 2f 1f 7d 3d 18 e2 ee 3e ac 81 b1 bf 65 aa 62 3f
       0.061797317 0.4665687 -1.3867698 0.8854125
0003e0 e0 e9 0c 3c ab 71 7d bf e4 81 4f bf 38 2d a9 bd
       0.008600682 -0.9900157 -0.8105757 -0.08260578
0003f0 58 6b 06 bf 00 ad 91 3d d7 56 c0 bd ac 79 9d be
       -0.52507544 0.07113075 -0.093915634 -0.3075689

fc2.weight f4 [256, 256]
000000 ef a6 18 3e 1a 8d 15 bf 3a a7 9d be a1 46 3f bf
       0.1490743 -0.5841843 -0.30791646 -0.74717146
000010 26 f3 91 bd 3d 44 c4 be 0e 95 5f 3f 2a 40 15 bf
       -0.07126455 -0.38333312 0.87336814 -0.5830103
000020 3f 93 1f 3f c6 64 e4 3e bd e8 15 bf 2a 6c 2f 3f
       0.62334055 0.44608134 -0.58558255 0.6852442
000030 a0 46 8b 3e 81 13 94 3f 0e 01 3d be cb cc ea 3e
       0.2720232 1.1568452 -0.18457434 0.4585937
000040 a6 78 4d 3e 1c 60 a2 bf 4e 50 5e 3f 38 e7 a7 bf
       0.20065555 -1.268558 0.86841285 -1.3117437
000050 a4 54 d6 bd 97 7a 05 3f 12 7d d9 be d7 51 c8 3e
       -0.10465363 0.5214018 -0.42478234 0.3912494
000060 b2 d1 5f 3f 6c ea ff 3d 13 fa 15 bf 91 69 80 3f
       0.87429345 0.12495884 -0.5858471 1.0032216
000070 8c 5f 26 3e 00 d0 81 bf 7e 84 4a 3f 7f 34 9a be
       0.16247386 -1.0141602 0.7910842 -0.30118176
000080 94 de 6b bf 93 42 02 bf 8d 71 ab 3f 90 98 44 3f
       -0.921365 -0.50882834 1.3394028 0.7679529
000090 ac 35 1c 3f ab 01 2e 3e a6 ee a4 3d 68 63 6b bf
       0.61019397 0.16992824 0.08053331 -0.91948557
0000a0 c7 50 98 be 7a e0 06 be 1b 3e 35 bf 44 22 69 bd
       -0.29749128 -0.13171569 -0.7079789 -0.056917444
0000b0 df d9 06 3d ad 9a ad 3d 85 20 d2 3e 16 56 59 3f
       0.03292262 0.08476768 0.41040435 0.8489698
0000c0 bc c0 25 3e c2 c5 ad 3f 72 42 41 bf e4 bb c9 3b
       0.16186804 1.3575976 -0.7549201 0.0061564315
0000d0 c2 4c fc 3e 43 6a 1d bf 9e 24 a0 be 69 37 a3 bf
       0.49277312 -0.6149027 -0.31277937 -1.2751285
0000e0 10 a1 b2 be 8c db f0 3e 36 1a a3 be 67 25 3d 3f
       -0.34888506 0.470425 -0.31855935 0.73885196
0000f0 de b9 82 3f 50 57 55 bf a7 26 56 be 71 3f 41 3f
       1.0212972 -0.83336353 -0.20913182 0.7548743
000100 44 e5 42 3e 94 c9 01 3f 0c 00 d2 be 20 3b ff be
       0.1903277 0.5069821 -0.4101566 -0.49849796
000110 22 23 56 bd fc 4f e7 3e 71 88 84 be 99 e0 a9 bd
       -0.0522796 0.4517821 -0.25885347 -0.08294792
000120 7e cf 62 3f dd 13 c8 be f0 80 c2 bc a0 10 40 bb
       0.8859786 -0.39077654 -0.023743123 -0.0029306784
000130 7c a9 35 3f b8 2e 12 bf a6 95 07 3e de 51 52 bf
       0.7096174 -0.5710254 0.1324068 -0.8215617
000140 17 fe 91 bf 9d d2 51 3e 7e a0 79 3e 7a 48 ac 3d
       -1.1405667 0.20490499 0.24377629 0.08412261
000150 3a 0b 9b be f6 88 ea 3e 2b ce d5 be 3e 67 8c be
       -0.30282003 0.45807618 -0.41758856 -0.27422518
000160 fe 75 71 3f 1c 51 37 bd 1c 3b 29 3d 98 8e 5c 3f
       0.94320667 -0.044755086 0.041316137 0.8615508
000170 4c 85 4b bf 3d 62 c6 bf f6 4b 92 3e e1 7d 80 3f
       -0.7950027 -1.549873 0.2857358 1.0038415
000180 91 a5 a4 3e db f7 c1 be f4 48 18 3f 05 f6 d8 bd
       0.32157567 -0.3788441 0.5948632 -0.105937995
000190 91 c0 ad bf 2e e7 12 3f 38 06 47 bf 35 64 0e be
       -1.3574392 0.57384 -0.77743864 -0.13905413
0001a0 cc 4b 25 bf 2b dd d2 bf 5e d4 7b 3f 4f 94 04 3f
       -0.6456878 -1.6473745 0.9837092 0.517888
0001b0 46 0a c8 3e d1 8b 12 bf 70 48 96 bf 08 6c cf bf
       0.39070338 -0.5724459 -1.1740856 -1.6204844
0001c0 4b 42 72 3f b4 d2 de 3e 44 46 a3 be b7 de a2 3f
       0.94632405 0.4352013 -0.31889546 1.2724217
0001d0 c5 53 c3 be 88 be 70 bf 0c e2 40 bf 50 f7 d1 be
       -0.3814985 -0.9404073 -0.7534492 -0.41008997
0001e0 2e 0e 43 3c e0 6b 9e be f8 12 88 be 6c ea a2 3e
       0.011905236 -0.30941677 -0.26576972 0.31819475
0001f0 98 a2 45 be 30 1d 7b be 14 ae 85 3d e2 8f 4a 3f
       -0.19300306 -0.24522853 0.065273434 0.791258
000200 6a a2 dc 3e 19 f4 49 bf 04 1e 34 3e 70 c3 65 3f
       0.43092662 -0.7888809 0.17589575 0.8975134
000210 52 c5 bf bd 8c 36 20 3f 96 d4 98 3f 69 ef 39 3e
       -0.09363808 0.6258323 1.1939876 0.18157734
000220 25 3f 5e be 6d d0 b0 be cb 81 9e bf 01 e4 9d bf
       -0.21703775 -0.34534016 -1.238336 -1.2335206
000230 88 80 33 bf 3b 40 bf be e4 0c 85 3f c0 9c 39 be
       -0.70118 -0.3735369 1.0394559 -0.18126202
000240 5f 0e ae bf 88 bf da be bf 54 ea 3e 0c bc 2c bd
       -1.3598136 -0.42724252 0.4576778 -0.042171523
000250 bf 4a f2 be bd 9e 24 3f 12 f0 18 3f 98 fa 20 3f
       -0.47322652 0.64304715 0.5974132 0.62882376
000260 38 b4 28 bf e2 a7 8a 3f 04 25 9c bf eb 76 c4 3d
       -0.6589999 1.0832484 -1.2198796 0.09592994
000270 fa 9a 82 3e 0f 75 fc bd c0 80 39 be 9e f9 ae 3e
       0.25508863 -0.12327015 -0.1811552 0.34174818
000280 a0 54 91 be fb 42 c5 3d 6b 4b ba bf f1 e7 40 bf
       -0.28384876 0.09631916 -1.4554266 -0.75353914
000290 04 79 69 3f 6d 15 0c bd 31 9a 16 bf 7a 53 21 be
       0.9120028 -0.03420012 -0.5882903 -0.157545
0002a0 4e 68 89 bd 50 d3 06 bc d5 97 1d 3f 20 d7 b0 bf
       -0.06709348 -0.008229092 0.615598 -1.3815651
0002b0 7d 6b 80 3e c4 7d 6c 3f 22 17 45 3f 2b 7b 58 bf
       0.25082007 0.92379403 0.7698842 -0.8456294
0002c0 9a cc 90 3e 3f 23 01 3f 68 3f 08 3e 83 ee 55 3f
       0.282811 0.50444406 0.13305438 0.83567065
0002d0 b0 e8 e8 be 5e b3 7c bf 7e 9a 0d 3f 9e ac d0 be
       -0.45490026 -0.9871119 0.5531386 -0.40756696
0002e0 06 dd dd 3e ad 08 18 bf de 5b 26 3e fa 78 19 bf
       0.4333269 -0.5938824 0.16245982 -0.5995022
0002f0 b3 a8 30 3f f5 2e 81 3e 6c 32 33 3f 48 b8 2d be
       0.69007415 0.25231138 0.6999881 -0.16964829
000300 6e 28 c7 be f2 69 ff be 68 9b f4 3e 27 da c2 bf
       -0.38898033 -0.49885517 0.47774816 -1.5222825
000310 f8 21 a6 bf 52 09 8f bf 2a 6c 04 c0 28 ab aa be
       -1.2979116 -1.1174719 -2.0691018 -0.33333707
000320 b7 cf 8e bf 61 56 a3 3d ce 4c 36 bc 8a 3d 2d bf
       -1.115714 0.0797546 -0.01112671 -0.67672026
000330 de 35 9f 3f 3a f8 d6 3f 20 21 11 3f 9c f0 b5 be
       1.2438314 1.6794503 0.5669117 -0.35535133
000340 90 f8 01 bf 10 c9 3a 3f e0 cb 5c 3f 10 12 09 be
       -0.507699 0.7296305 0.8624859 -0.13385797
000350 d6 4a 15 bf 9e 80 1c bf 96 87 84 3e c4 75 70 bf
       -0.58317316 -0.61133754 0.25884694 -0.93929696
000360 fb b3 1c bf 46 49 a6 3e 50 f7 77 3e e3 f7 ec 3e
       -0.6121213 0.32477778 0.24215436 0.46282873
000370 a4 6b 04 bf 2e af e9 3e 0e 0a a6 3e 94 42 73 3e
       -0.51726747 0.45641464 0.32429546 0.23755866
000380 24 8f 38 bf 44 18 3c bf 9b 13 d3 3f 02 b9 55 be
       -0.72093415 -0.73474526 1.6490358 -0.20871356
000390 43 a7 1b 3f cf 68 48 be 16 a0 0e 3e 3b f7 25 bd
       0.60802096 -0.19571231 0.13928255 -0.04051898
0003a0 c7 21 13 bf c2 9f c1 3d c5 51 57 bf e8 a8 52 3e
       -0.57473415 0.094542995 -0.84109145 0.20572245
0003b0 6c f6 d3 3f 23 c1 86 3f 14 0c 9f bd 32 63 4d 3f
       1.6559577 1.0527691 -0.077659756 0.80229485
0003c0 69 1b 0e 3f 72 a8 23 be b2 01 cd 3e 06 74 5a 3e
       0.55510575 -0.15982226 0.40040356 0.21333322
0003d0 b1 b8 93 3e 69 3b ac bf 30 cc 3f bd 2d 81 a1 3e
       0.28851846 -1.345563 -0.046825588 0.31543866
0003e0 8b 74 a0 be aa 7b 14 bf a7 b6 15 3f ed 2c 79 bf
       -0.31338915 -0.58001196 0.5848183 -0.97334176
0003f0 30 a4 e6 be cd da 1f bf 6e 31 48 be 0a 08 88 3d
       -0.4504714 -0.6244324 -0.19550106 0.06642158

fc2.bias f4 [256]
000000 45 60 14 3f 95 b4 37 bf d5 72 b7 3e 96 e5 51 bf
       0.57959396 -0.7175992 0.35829797 -0.81990945
000010 7e 6c ab 3e 4b da 6d 3f fa 83 e3 3e 53 71 10 3f
       0.3348121 0.92911214 0.44436628 0.5642292
000020 61 72 8f bf 05 40 4f 3f 16 90 d4 3e 28 58 7f 3f
       -1.1206781 0.8095706 0.4151618 0.9974389
000030 d1 43 79 bf 70 84 5f 3d 04 b1 00 bf 9c 5e c1 be
       -0.97369105 0.05456966 -0.50270104 -0.37767494
000040 52 ed 8f bf 02 30 31 3f 88 6e 6c bf 15 11 74 3e
       -1.12443 0.6921388 -0.9235616 0.23834641
000050 58 cb 1e be 49 91 53 3d 8c 13 19 bd 5e fc a1 bf
       -0.15507257 0.051652227 -0.037372157 -1.2655141
000060 84 93 17 bf 69 5e 17 3f c9 8e 33 3f 80 63 24 3f
       -0.59209466 0.59128433 0.7013975 0.64214325
000070 c8 0b 27 3f b1 93 ff bd 04 3f 3c bd f3 60 31 3f
       0.6525235 -0.12479342 -0.045958534 0.6928856
000080 4b d8 f8 be 40 69 f9 3d d6 11 14 be 31 03 5f 3f
       -0.48602518 0.12178278 -0.14459929 0.87114245
000090 9d 6f 1e be 15 c2 fb bd 34 b9 96 3d dc f1 66 3e
       -0.15472265 -0.122928776 0.073595434 0.225532
0000a0 49 4a 87 be 90 74 c9 bd c0 14 1f 40 ad 7c 79 3f
       -0.26423863 -0.09836686 2.4856415 0.97455865
0000b0 f4 04 a3 bf 79 4b 27 3f fc 0c 83 3e 02 9a c5 be
       -1.2735887 0.6534954 0.25595844 -0.3859406
0000c0 d4 fe dd 3e dc 2e 38 3d fc 43 68 3d ff e7 f1 3e
       0.4335848 0.044966564 0.05670546 0.4724731
0000d0 e7 da 5b 3f 83 08 1b be af fa 35 3e da 00 23 3e
       0.85880893 -0.15139966 0.1777141 0.15918294
0000e0 53 9b 0b bf d0 ea ae bf 76 a9 47 bf 3e b8 5d bf
       -0.5453388 -1.3665409 -0.7799295 -0.86609256
0000f0 d4 99 bf be e2 e6 1d bf 87 6b 07 bf b2 b3 05 3e
       -0.3742205 -0.61680424 -0.5289845 0.1305683
000100 40 bb 65 bf 94 a5 71 3f a2 dd 3c 3e 90 8b 1c 3d
       -0.89738846 0.9439328 0.18443921 0.038219035
000110 e6 b1 c1 3f 66 18 db 3e 9c 0c 8b 3f 41 a7 d4 3f
       1.5132415 0.42792052 1.0863223 1.6613542
000120 b7 93 ce bf bb 47 d1 3f 96 08 40 3f a0 ca 99 3e
       -1.6138829 1.6350015 0.750131 0.30037403
000130 1f 01 8f 3f 22 9b 7e 3d 11 f5 71 bf 15 a9 49 bf
       1.1172217 0.062159665 -0.94514567 -0.78773624
000140 31 b2 74 3f 22 16 33 3f fe ee 72 3e 02 5e 38 3f
       0.955844 0.69955647 0.23723981 0.72018445
000150 4d 7f 7a bf f0 db b7 be 20 2b 8f 3e 1e 5b 89 3f
       -0.97850496 -0.35909986 0.2796259 1.0730932
000160 89 af 27 3f 13 e1 55 be 90 e0 3a bf 6c ed 51 be
       0.6550222 -0.2088664 -0.72998905 -0.20500726
000170 13 71 8f bf 62 44 6c 3e 9b f3 af be 61 b7 72 3d
       -1.1206383 0.23072961 -0.34365544 0.059256915
000180 d8 96 37 3e f6 65 2b bf 8f de 49 3f 93 76 9e bf
       0.17928636 -0.66952455 0.7885522 -1.2379936
000190 83 af 4f 3f a0 51 1c 3f 40 ea 30 bd 1b d5 e9 3e
       0.81127185 0.6106205 -0.04319215 0.456704
0001a0 fa 42 45 3f 2c e5 db 3e e6 18 0e bd 23 07 38 bf
       0.77055323 0.42948282 -0.034691714 -0.7188589
0001b0 74 ab 4e 3d ce fb 77 3e e2 cb 3d 3f 2c 45 68 be
       0.05045648 0.2421715 0.74139225 -0.22682637
0001c0 99 dc 1b 3f a2 2e dd 3f 68 3c 56 3f 44 4a 1d 3f
       0.6088348 1.7279856 0.8368592 0.61441445
0001d0 a1 f3 27 be 95 eb ff 3e fd 6d 89 3d c9 37 7b bf
       -0.16401531 0.49984422 0.06710432 -0.98131996
0001e0 8f 1e 4f be 53 85 bf be af f4 c9 be 5f 0c 5e 3f
       -0.20226501 -0.37406406 -0.3944449 0.86737627
0001f0 86 6b b5 bd f7 53 50 bf e4 07 53 3e 62 66 1c 3e
       -0.08858399 -0.8137812 0.20608479 0.15273431
000200 c1 8a d2 3e c2 79 01 3e 43 5b 3d bf 85 94 15 3f
       0.41121486 0.12644103 -0.7396738 0.5842975
000210 9e fa 3f be 66 31 d9 be 81 9a 25 3e 44 e3 1b 3f
       -0.18747947 -0.424205 0.1617222 0.60893655
000220 6e 0f d9 be 4c 7a fd 3e a4 7f bb 3e 18 c0 38 3d
       -0.42394584 0.49507368 0.3662082 0.04510507
000230 65 25 e6 be 7d e9 6c bf 5d 3f 61 3f 59 69 82 be
       -0.44950405 -0.92543775 0.8798731 -0.25471
000240 17 43 1a 3d 86 22 27 bf f8 41 1e be db 1e 06 bf
       0.037661638 -0.65287054 -0.15454853 -0.5239083
000250 13 46 c4 be 4e 62 82 3f ae 7d 88 bf ba 2f 1a bd
       -0.38334712 1.018625 -1.0663354 -0.03764317
000260 22 13 13 3e e6 2d 0c 3f d3 fb 80 3f cd ae 34 3f
       0.14362767 0.54757535 1.0076851 0.70579225
000270 34 ef c2 be b1 65 a6 be 3c d6 92 3f 59 d9 0b bf
       -0.38073123 -0.3249946 1.1471629 -0.5462852
000280 e2 1e 3e 3d f2 04 9f be b8 16 74 3f 0f a5 01 bf
       0.04641617 -0.3105846 0.95347166 -0.50642484
000290 e8 6b 6a bf 38 b5 d3 bc f2 93 ac bf a6 66 c7 be
       -0.915709 -0.025843248 -1.3482649 -0.38945502
0002a0 58 52 32 3f ed e6 37 bf 76 3c 38 bf 54 2a c7 be
       0.69656897 -0.7183674 -0.71967256 -0.3889948
0002b0 0a 83 5c bd 9d cf d2 be e7 70 ba 3f d7 48 4a 3e
       -0.053835906 -0.4117402 1.4565705 0.19754349
0002c0 dd 10 9d bf ca f1 f3 3d 52 8d 5c 3f 18 23 4b be
       -1.2270771 0.11911352 0.8615314 -0.19837606
0002d0 e4 71 b6 be aa 20 17 3f a4 cd aa be eb b0 e3 3e
       -0.35633767 0.59034216 -0.33360016 0.44470915
0002e0 31 ba ee 3e ef 83 c9 bf ec 06 42 be ae a6 f8 3e
       0.46626428 -1.5743388 -0.18947953 0.48564667
0002f0 97 69 9c 3d c7 c6 53 bf 31 52 00 3f 9f d9 bd bd
       0.07637327 -0.82725185 0.50125414 -0.092700236
000300 3e 63 9f bf cf 06 7f 3f 07 e9 de bd f0 96 e8 be
       -1.2452161 0.99619764 -0.1088429 -0.45427656
000310 14 97 84 bf 01 ce 67 bf c0 a4 93 3c 57 9c 93 3f
       -1.0358605 -0.9054871 0.018022895 1.1532086
000320 93 36 9b 3e 53 ec 0f bf 5e 80 e2 be 2f 5b 96 bf
       0.30315074 -0.5621998 -0.4423856 -1.1746577
000330 3d 84 fa be 2a e3 de bd 40 37 13 bb d3 de 19 3f
       -0.48929015 -0.10883172 -0.0022463351 0.6010563
000340 02 a9 3a bf 6e 91 ae bd a7 2e 02 3f 91 7f a2 3f
       -0.72914135 -0.08523832 0.50852436 1.269518
000350 fd 87 62 bf 68 c8 19 3f b7 c2 5f 3f 28 95 af be
       -0.8848875 0.6007142 0.87406486 -0.34293485
000360 91 fa 07 3f 1a 3a 93 bf 23 4e 36 be 26 e9 8f 3f
       0.5311671 -1.1502106 -0.17803244 1.1243026
000370 4c 42 0f 3f 31 c9 de 3e 4c 02 49 3f 8d 6f 2f bf
       0.55960536 0.43512872 0.7851913 -0.6852959
000380 e8 05 e1 be 00 32 81 bf b2 cb 14 be 7d df 86 be
       -0.4394982 -1.0093384 -0.14530829 -0.26342383
000390 0f 66 78 bf ae 49 a3 bd 43 34 2c 3f 5e b4 23 3f
       -0.9703073 -0.07973038 0.67267245 0.63947093
0003a0 88 39 70 bf 59 2a 40 bf 79 94 a0 bd 22 1f 87 3f
       -0.93837786 -0.7506462 -0.07840819 1.0556376
0003b0 2c b1 03 c0 39 52 c9 be 22 97 02 3f 8c 23 30 be
       -2.0576887 -0.39320543 0.5101186 -0.1720106
0003c0 47 87 13 bf f5 06 d1 be 1a 7f cf 3e b1 eb 79 be
       -0.5762829 -0.4082562 0.40526658 -0.24406315
0003d0 8e 34 e6 3d 48 18 ab bd 14 31 1f bf a9 74 65 bf
       0.11240493 -0.08354241 -0.6218426 -0.89631134
0003e0 1f 22 47 bd f7 cf fa be 94 32 5b bc dc 96 fc 3e
       -0.048616525 -0.4898679 -0.013378758 0.49333847
0003f0 a8 3c 36 3f ca a6 01 bf 00 49 28 bb 6d 09 e4 3e
       0.71186304 -0.50645125 -0.0025678277 0.4453844

fc_mean.weight f4 [3, 256]
000000 92 0b 0f bf 5d 3a a2 be 8e 2a d1 3d 42 2d 5b 3f
       -0.5587703 -0.31685153 0.10213195 0.8561593
000010 84 d2 0c 3f bc 25 60 3d 68 94 d3 be 05 a4 ac bf
       0.5500872 0.054723486 -0.41324162 -1.3487555
000020 9d af 4d 3e 89 1a 02 3f a8 1d 49 be 40 95 ce 3e
       0.20086522 0.5082174 -0.19640219 0.40348244
000030 7f de 73 3f 88 8a 8b bc b0 36 84 3e b3 aa ab 3e
       0.9526138 -0.01703383 0.25822973 0.3352867
000040 0c 17 14 3f 13 86 1e 3f d9 c5 d0 3f 7c 25 7a bf
       0.57847667 0.6192333 1.6310378 -0.97713447
000050 88 fa 3a 3f 6b 6d b6 3f 26 23 49 bd de 9f 60 be
       0.7303853 1.4252142 -0.049105786 -0.21935984
000060 30 88 aa be 02 0e 49 be 15 5b 25 3f bd 03 9d 3f
       -0.33307028 -0.1963425 0.64592105 1.2266766
000070 5d bd 24 be 30 4f 52 3f 76 9c f6 bd 40 ae f3 be
       -0.16087861 0.8215208 -0.12041561 -0.4759388
000080 c5 f6 50 3f c4 46 51 3f e2 84 31 bd 5d ae d0 3e
       0.8162654 0.81748605 -0.043339618 0.4075803
000090 6c 0f b8 bf 88 9a ae 3d 2e c8 0e 3f bc bd 68 bf
       -1.4379706 0.08525568 0.557742 -0.9091451
0000a0 e6 d7 81 bf bc 32 d4 3e a7 14 db be f9 34 b5 3f
       -1.0144012 0.41444957 -0.42789194 1.4156791
0000b0 93 9c 80 3f e5 fa b0 bf d5 d0 6b be 0f 12 42 bf
       1.0047783 -1.3826567 -0.23028882 -0.75808805
0000c0 f0 ef 82 be 9a 47 86 be 79 3b ab 3e f7 63 20 3f
       -0.25573683 -0.26226503 0.33443812 0.62652534
0000d0 3e 78 96 be 92 e0 d4 be e8 54 aa bf 9e 5f 03 40
       -0.29388613 -0.41577584 -1.3307161 2.052711
0000e0 74 9f 3d bf 6c 90 18 bf 28 e4 8b be dc b1 7f bf
       -0.7407143 -0.5959537 -0.27322507 -0.99880767
0000f0 db 7b e0 bd 3e 28 52 bf db ac f4 3d a8 0d 75 3e
       -0.109611236 -0.82092655 0.11947032 0.2393099
000100 97 63 27 3f 9e 20 1c 3f 96 6a 1c 3f 1e 84 a2 3f
       0.6538634 0.6098727 0.6110014 1.2696569
000110 b0 0f 5b 3f 7a cb b4 3e be d8 84 be 3e 48 7b bf
       0.8557081 0.3531149 -0.2594661 -0.9815711
000120 73 5d 1b 3f b8 83 6c bf 64 a9 96 bf e8 d3 7e 3e
       0.6068947 -0.92388487 -1.1770444 0.24885523
000130 36 d2 20 bf 80 e8 98 ba d1 26 83 be de 6a 90 bc
       -0.62820756 -0.001166597 -0.25615552 -0.017629083
000140 a2 9a 45 3f 16 a0 96 bd 3c 09 60 bf 73 bf e3 bd
       0.77189076 -0.07354753 -0.8751409 -0.111205004
000150 a8 1f dc be 00 dc 74 3d 7a 60 00 3e 2c 5c 27 3e
       -0.42992902 0.05978012 0.12536803 0.16343755
000160 46 bd 0e 3f d0 0b d4 3e 4b 2a 66 3e ae 31 9e be
       0.5575756 0.41415262 0.22477071 -0.30897278
000170 5d ed 78 3d e2 8a b8 3d 99 17 8c 3f b9 5c 41 3e
       0.060773242 0.09010865 1.0944701 0.18883027
000180 b9 f6 a1 3f d6 a4 81 3f 7c 91 05 3f ff 11 02 bf
       1.2653419 1.0128429 0.52175117 -0.5080871
000190 f7 97 58 bf 44 5c 96 be 0c 91 9d bc 52 31 8b 3f
       -0.8460688 -0.29367268 -0.019234203 1.0874426
0001a0 9b 74 cd be ea 07 eb be 86 f2 f4 be f2 6e 15 bf
       -0.40128025 -0.45904475 -0.4784128 -0.58372414
0001b0 4f 50 ae be 80 e5 80 be 4c 85 5c bd 41 d3 83 3f
       -0.34045646 -0.25175095 -0.05383806 1.0298845
0001c0 6e 0d 7b be ed bc b1 3e 3f 4b cd 3f c2 6c 64 bf
       -0.24516842 0.3471445 1.6038588 -0.8922845
0001d0 ae e9 8d bf 38 8a 73 bf 88 b0 fa 3b 42 c7 84 be
       -1.1086938 -0.9513278 0.0076504387 -0.25933272
0001e0 3e c9 7c 3e 76 2b 5a be d2 72 c7 be 65 e7 d7 3e
       0.24686143 -0.21305642 -0.38954788 0.42168728
0001f0 8f c7 99 3e ea 6d 3d 3f 55 21 85 bd b9 eb 42 bf
       0.30035064 0.7399584 -0.06500498 -0.76140934
000200 93 ca 22 3f 3e 28 ab be 3e d3 b1 3f 8f 8b 20 bf
       0.63590354 -0.3342914 1.3892591 -0.6271295
000210 6b 72 c7 bf 89 77 4a 3f c4 a6 b9 bc c5 0d b1 bf
       -1.5581793 0.79088646 -0.022662528 -1.3832327
000220 d2 41 7e bf b0 7c 3b bf 21 f0 70 3e 44 30 50 be
       -0.99319184 -0.73237133 0.23529102 -0.20330912
000230 8e 4d da be 20 cf 64 3f 63 f3 8a 3e 18 3f a0 3b
       -0.42637295 0.8937855 0.27138814 0.004890334
000240 79 31 31 3e 83 96 dc 3e de 5b 56 bd b5 e0 60 3e
       0.17304029 0.4308358 -0.052333705 0.21960719
000250 f0 9d 5d bf 0f 96 25 3d 83 d6 b6 3d 12 1b 32 3f
       -0.8656912 0.04042631 0.089276336 0.69572556
000260 c6 f7 60 bd 58 90 96 3e 8e 2b ba be e8 3d c8 bf
       -0.054923795 0.29407 -0.36361355 -1.5643892
000270 6d ec 1f bf 8d b0 0d 3f 75 d5 b7 3f 55 44 73 3f
       -0.6247013 0.5534752 1.4362017 0.9502614
000280 73 1d 8c bf fd c6 87 3f b8 9a 3d be e3 11 13 bf
       -1.0946487 1.0607601 -0.18516052 -0.5744917
000290 4d fe 8c 3f 4a e4 c4 3d ac 81 a5 be 8b ad ac 3f
       1.1015106 0.09613855 -0.32325494 1.3490461
0002a0 38 5c 49 bf 28 ec 39 bc 82 47 2d 3e b0 5b 05 be
       -0.7865634 -0.011347808 0.1692181 -0.13023257
0002b0 70 9e 56 3e c3 18 d6 be 10 fb 0b be f2 c4 0c bf
       0.20958877 -0.41815767 -0.13669991 -0.54988015
0002c0 53 88 88 bf 15 60 7a bf 26 f1 98 be b4 93 1a bf
       -1.0666603 -0.9780286 -0.29871482 -0.6038163
0002d0 ec 10 b9 3f 04 04 8c be fc 66 06 bf c6 da b9 3e
       1.4458289 -0.27346814 -0.5250089 0.36299723
0002e0 7c 68 3d be f0 9d 38 3f bc fb a5 3e 52 17 c3 be
       -0.18496889 0.72115993 0.3241862 -0.3810373
0002f0 3a 2f 6c 3f a6 be 38 3e 18 98 6e bf f8 88 19 bf
       0.9225956 0.18041477 -0.93200827 -0.5997462
000300 bb 47 3d 3f 87 79 aa 3f 4d 66 2e 3e 5b 50 87 3e
       0.73937577 1.3318337 0.17031212 0.26428494
000310 da f2 69 bf ff cc 64 bf 34 0b c3 be 03 3d 8b 3f
       -0.9138619 -0.893753 -0.38094485 1.0877994
000320 8d 8a d6 bb b0 45 ec 3e ae fd 9f 3e 0e 82 8b 3f
       -0.0065472783 0.46146917 0.3124823 1.0899065
000330 43 99 93 3e 6f 98 96 bf a0 1e 9a bf 1f cb ca 3e
       0.28827867 -1.1765269 -1.2040596 0.39608094
000340 04 d8 30 be a1 5d cb be 61 ce 82 bf c6 d7 92 3e
       -0.17269903 -0.3971987 -1.0219232 0.28680247
000350 ef 80 b3 3f 05 2b 21 3f ee 74 1d 3f 08 e9 cc 3e
       1.4023722 0.6295627 0.61506546 0.4002154
000360 82 0e 63 bf b5 9e 12 bf 34 42 38 bf 3c 62 fe be
       -0.8869401 -0.5727342 -0.7197602 -0.49684322
000370 64 1e a0 3f 2f 34 06 3f 40 53 4f 3d ca d2 16 3f
       1.2509274 0.52423376 0.050616503 0.5891539
000380 7d 5f 99 be 3a 31 33 3e fd e6 13 be 9e b2 5d 3d
       -0.29955664 0.17499247 -0.14443584 0.05412542
000390 a3 f8 8e be 3c 9d 79 be 05 79 5f bf ab 70 26 be
       -0.2792407 -0.24376386 -0.87294036 -0.16253917
0003a0 82 d3 23 3e 54 35 d6 be 28 1d b4 3f 88 b7 8f 3e
       0.15998653 -0.4183756 1.4071398 0.2806971
0003b0 56 33 79 be 3a 31 2c 3f 82 ee 2b be 34 46 8b 3f
       -0.2433599 0.67262614 -0.16790202 1.0880799
0003c0 c0 87 70 3c 68 72 45 3e ff 28 ae 3f 28 ac 2a bf
       0.014680803 0.19281924 1.3606261 -0.6666894
0003d0 8f b2 6f 3f c6 77 80 3f b6 d2 6c bf 78 7d b5 be
       0.93631834 1.0036552 -0.9250902 -0.35447288
0003e0 c2 cd 88 3e 76 18 68 be 70 77 00 bd a1 d8 a5 3e
       0.2671948 -0.22665581 -0.031363904 0.32391837
0003f0 85 21 24 3f 57 24 ad 3f 27 d1 6f 3f 6e 59 a6 3e
       0.64113647 1.3526715 0.93678516 0.32490104

fc_mean.bias f4 [3]
000000 d7 f7 cd 3e bc 58 a9 3f 29 17 08 bf
       0.4022815 1.3230205 -0.5316034
