ga_weights/ga1/Pusher-v5/PPO/weights2.pt (torch, 27553 bytes, 6 tensors)

weight f4 [64, 23]
000000 5e d4 aa 3c 5e bb c7 bd 9d 15 2e be 2a c1 73 bd
       0.020853218 -0.09752534 -0.17000432 -0.059510387
000010 ba 8f 17 3d 5c 70 c1 3d 6d 30 71 bc f1 63 8c 3c
       0.037002303 0.09445259 -0.014721018 0.0171375
000020 f8 e7 12 3b ca 8a 48 3d 80 f9 aa 3c 24 90 c0 bc
       0.0022416096 0.048960485 0.020870924 -0.023506232
000030 74 97 dc bb 17 28 0e be e1 4e 32 3e 62 31 51 bc
       -0.006731922 -0.1388248 0.17412902 -0.012768121
000040 5c bb b8 bd ee a5 30 3d d3 49 24 3d 38 48 02 3c
       -0.09020111 0.043126993 0.040109467 0.007951789
000050 76 b4 b0 bc ee a4 e7 bd b3 ee 25 3e 8e 63 80 bd
       -0.021570425 -0.11310755 0.16204338 -0.062689885
000060 2c d0 3e 3c 18 dd 90 bc c3 7d 87 3c 4c d7 8f bc
       0.011646312 -0.01768355 0.01653946 -0.017558716
000070 88 9b c8 3c 90 10 2a bc a2 ca 12 bd e4 01 78 3d
       0.024488226 -0.010379925 -0.035837777 0.060548678
000080 b8 26 38 bd ed b1 69 3d c2 b3 ea 3d a6 6d 9e bd
       -0.0449588 0.05705445 0.11460067 -0.077357575
000090 1a 59 b4 bd 50 de 58 3c a3 3f 15 3d 26 a2 03 3d
       -0.08806057 0.013236597 0.03643764 0.03213706
0000a0 4a 0c 77 bd 1c 76 69 bc 00 98 94 bd c8 b7 57 3b
       -0.060314454 -0.014249351 -0.07255554 0.0032915939
0000b0 38 01 5c bb de 17 8f bd dd a3 5b be 43 e9 d1 3d
       -0.0033570062 -0.06986974 -0.21449228 0.10249569
0000c0 60 75 9d ba 1a 73 ea bd 78 b3 fa bd e4 e0 b4 3d
       -0.001201313 -0.11447735 -0.12241262 0.08831957
0000d0 d1 c9 cf 3d bc f5 e3 bd 58 1e 52 bd d0 a8 98 bd
       0.10145915 -0.111308545 -0.05129847 -0.074540734
0000e0 01 5c a5 bd a7 5b 14 be 08 2f b2 3d 40 e3 02 3d
       -0.08074189 -0.14488088 0.08700377 0.031955004
0000f0 70 25 40 3d 86 69 5f bd 15 58 e2 3d 67 4f 05 3e
       0.046910703 -0.054543994 0.110519566 0.13018571
000100 e4 6d 02 3d 70 e2 d6 bb bd e5 f4 bd 32 f5 87 3d
       0.03184308 -0.006557755 -0.119578816 0.06638564
000110 bc 39 d7 bd 8e da b0 3d 58 b6 85 3d 38 7d ca 3d
       -0.10509059 0.08635436 0.0652892 0.09887165
000120 3c 57 65 bd 81 18 05 3d 80 28 46 3c f3 fb 1b be
       -0.055991396 0.032494072 0.012094617 -0.1523283
000130 ce c8 ec 3c 21 0d 09 3d 98 52 77 bd f8 6a 07 3e
       0.028904345 0.033459786 -0.060381502 0.13224399
000140 d0 c0 b6 bb 78 28 f0 3c a9 45 8b bd 00 7e 6e 3b
       -0.0055771843 0.029316172 -0.06800396 0.003639102
000150 3b 5c 44 bd 64 86 4d 3e c6 29 2d 3d cb cf 8e 3d
       -0.04793952 0.20070797 0.042276166 0.06973227
000160 68 8a ab bd e8 ff ef 3d fa 6b 36 bd 52 64 8f 3d
       -0.08376008 0.11718732 -0.04453657 0.070015565
000170 36 3d c3 3d bb 34 d8 bc b4 1b e5 3c 0e 2d 15 bd
       0.095331594 -0.026392331 0.027967311 -0.03641992
000180 c8 15 d3 3d 54 4c 3a 3d f6 25 7d 3d dd b9 a7 3c
       0.10306889 0.04548295 0.06180378 0.020474369
000190 9b 27 a5 3c 18 b1 8d bc c8 07 85 bd 48 85 35 3e
       0.020160487 -0.017296359 -0.06495625 0.17726624
0001a0 a2 53 dd bd 97 1d 8c 3d 68 8c 2f bd 48 a1 b3 bd
       -0.10806967 0.06841581 -0.04285851 -0.08770996
0001b0 9c 39 fd 3d c7 a5 9d bd b4 11 2a bd 24 43 1f 3c
       0.12364504 -0.07697635 -0.04152079 0.009720597
0001c0 80 2a 97 bd 55 be d0 bc bc e6 25 3e 4e 32 03 3e
       -0.07381153 -0.025481382 0.162013 0.12812158
0001d0 93 01 3b be c8 df 16 be c3 39 cf bd 30 cb c1 bd
       -0.1826232 -0.14733803 -0.10118439 -0.09462583
0001e0 8b f9 0d bd 42 55 b6 bc 4e f1 91 bd 2b 88 21 bd
       -0.03466181 -0.022257451 -0.07126103 -0.0394365
0001f0 b0 9c b7 3c c0 69 40 3b 36 aa ae bd aa 15 13 3e
       0.022413582 0.0029359907 -0.08528559 0.14363733
000200 53 a3 89 bd 66 79 09 3d ea 64 74 3d ca 5d 7b 3d
       -0.06720605 0.03356304 0.05966655 0.06136874
000210 36 dd b5 3c 57 99 59 be 3c b2 7a 3d 68 a0 d6 3d
       0.022200208 -0.21249901 0.061205134 0.10479814
000220 fa fe 3a 3d d6 b3 e2 3d 2a 81 bb bd 63 69 82 3d
       0.04565332 0.11069457 -0.091554955 0.06367757
000230 bc ec a9 bd 42 79 24 be 74 d1 6e 3d 33 9c 9b 3d
       -0.082971066 -0.16061881 0.05830522 0.07598152
000240 4b bc 47 3e 0b 20 e0 3d 02 58 91 bd 0c 12 46 3d
       0.19505422 0.10943612 -0.07096864 0.048357055
000250 d0 71 bd bd e9 ef bb 3c 98 44 ba bb c0 86 7c ba
       -0.09250224 0.022941547 -0.0056844465 -0.00096331164
000260 7e bd 73 bc 1d 2e 09 3e 82 82 09 bd 9a 30 7e bc
       -0.014876721 0.13396497 -0.033571728 -0.015514517
000270 80 4b 29 bb 24 bc b9 bd 04 2f ea bd fe 00 41 bd
       -0.0025832355 -0.09069088 -0.11434749 -0.047120087
000280 50 b7 a2 bd bb d9 ea 3d 0f fd 0d 3e fd 56 53 bc
       -0.0794512 0.1146731 0.13866065 -0.012899158
000290 2a d8 e5 bd d4 ab 51 bd 59 9a d8 3d 46 3a 7b 3d
       -0.11222871 -0.05118926 0.105763145 0.06133487
0002a0 59 e4 73 3c f8 90 ec 3d b6 bc a3 3d 9a 5d 2d bd
       0.014885985 0.11551088 0.07994978 -0.042325594
0002b0 e8 07 24 be c8 96 83 3d ca d1 6c 3d f6 2b 50 3c
       -0.16018641 0.064252436 0.057817258 0.012705794
0002c0 c4 be 01 3c c6 92 bf 3c 50 39 55 bc 0e 51 e3 bd
       0.007919017 0.023385417 -0.013014153 -0.11099444
0002d0 3c 17 7f bd 17 7f 0a be 53 44 27 be 06 bc 8c 3d
       -0.062278017 -0.13525043 -0.16334657 0.068718
0002e0 85 c8 31 3e 80 a7 79 bb 06 1b 7f bd 72 5d 6b bd
       0.17361648 -0.0038094223 -0.06228163 -0.057462163
0002f0 e0 e7 8f 3c 8c fd 8b 3d 9e 0f 04 3d 56 2e 14 bd
       0.017566621 0.068354696 0.032241456 -0.036177002
000300 04 ac 4d 3c a6 41 ac bd 5c fa df 3d 54 a3 20 3e
       0.012553219 -0.08410959 0.10936424 0.15687305
000310 46 f5 b8 3d e8 5d 64 3c b1 49 84 bc ae 38 c7 bd
       0.09031157 0.013938405 -0.01614842 -0.09727608
000320 84 3f 80 3d f8 80 1f 3c 49 08 50 3d 20 0d c8 bd
       0.06262115 0.009735338 0.05078915 -0.097681284
000330 7c 34 ec 3d 50 68 41 bb 81 b3 1b 3c e0 b2 b6 ba
       0.11533448 -0.0029511638 0.009503246 -0.0013938807
000340 45 9f 32 3e 80 ec 3e 3a 18 d0 4b 3d d6 52 9c bd
       0.17443569 0.0007283166 0.049759 -0.07632987
000350 2a 69 0a bd 7e c5 c2 bc b1 fb 9f 3d c5 65 af 3d
       -0.0337917 -0.023775812 0.07811678 0.08564333
000360 4e d3 94 3d c6 2d d1 3c c2 40 7f 3d 83 ec fb 3d
       0.07266866 0.025534522 0.062317617 0.123009704
000370 50 1b 5b 3d 23 aa f2 3c d4 2b 3f ba a8 dd 11 be
       0.053492844 0.029622143 -0.00072926027 -0.14244711
000380 75 e6 0d 3e 06 e3 44 bd 69 46 2d 3d 5b 50 2f bd
       0.13857444 -0.04806807 0.042303476 -0.042801242
000390 dc 99 df 3d 48 7e c6 3d bc ea df 3c a0 5d a3 3b
       0.10918018 0.09692055 0.02733361 0.004985526
0003a0 6f a4 b8 bd 23 43 83 bc 53 eb 95 3c 1e f2 7d bd
       -0.09015738 -0.016023224 0.018300688 -0.06199848
0003b0 97 f4 d4 3c 50 71 ca bd 50 14 60 3d 56 20 85 3c
       0.025995536 -0.09884894 0.05470687 0.01625077
0003c0 8f b7 c0 bb 40 24 33 3e 9c 02 b0 bd fd fb c2 3d
       -0.005881257 0.17494297 -0.08594248 0.09520719
0003d0 f1 e4 98 3d 4a 68 c1 bc 3c e7 bb bd a0 f7 ba bd
       0.07465542 -0.0236093 -0.09174964 -0.09129262
0003e0 ba 53 bc 3d e3 c4 9e 3d 05 27 d4 bc 6c 36 e4 3d
       0.09195657 0.07752397 -0.025897512 0.11143193
0003f0 3c 38 00 3d 2b 9a a7 3c 95 4d 43 3d 26 ea c8 3d
       0.03130363 0.020459255 0.04768141 0.09810285

bias f4 [64]
000000 33 f1 1f 3e 9b 5b 28 3e c0 4e 4b ba 30 93 1e be
       0.15619354 0.16441195 -0.000775557 -0.15485835
000010 02 c6 97 3d 78 6a 75 3c 5c 8d 0f be ba a4 f9 bd
       0.07410814 0.014978997 -0.14018768 -0.12189622
000020 14 e5 c2 3d ff a1 26 3d a6 eb 1e 3e 2e 90 53 3e
       0.095163494 0.040681835 0.1551958 0.20660469
000030 70 bb 87 bd 77 18 89 bd a7 17 aa bd e1 50 9a bd
       -0.06627548 -0.066941194 -0.083052926 -0.07534958
000040 59 e8 83 3d 26 1b 1d be 93 1d 97 3d fe 35 cf bc
       0.06440801 -0.15342388 0.07378688 -0.0252943
000050 3b 1b d0 3c 88 39 a5 3d c8 e9 40 bc e0 1c 40 bd
       0.02540361 0.08067614 -0.011774488 -0.046902537
000060 22 3e 17 bc 89 bf 21 bd 8a 9c 7c bc e8 d2 eb bc
       -0.009231122 -0.039489303 -0.015418181 -0.028787091
000070 59 84 13 be 5a f7 8c 3d 81 2d d8 bc b9 c2 df 3c
       -0.14405955 0.06883116 -0.026388885 0.02731453
000080 2d b5 75 bd d4 92 cc 3d 91 69 10 3d 1b 40 61 bd
       -0.059987236 0.09988943 0.035256926 -0.054992776
000090 aa 3c 63 3d 96 d8 ba 3d 20 99 8b bd 26 12 05 bd
       0.055477776 0.09123342 -0.06816316 -0.03248801
0000a0 71 eb 28 bd 70 33 13 3b 4b 3e 04 3d 96 ba 3f 3c
       -0.04124016 0.002246108 0.03228597 0.0117022
0000b0 8f 44 66 3e cf 7c 95 bd 47 78 5a 3d 5d 8e 82 bd
       0.2248709 -0.07299196 0.05333736 -0.0637481
0000c0 10 fa 9a bd 6f 8a 80 3d 8c 06 91 bd 44 c1 cd 3d
       -0.07567227 0.06276404 -0.07081327 0.10046628
0000d0 b8 11 23 3c a4 9a 17 3d 5a 2e f5 bd 4c 04 7e bc
       0.009952955 0.03701271 -0.119717315 -0.015503954
0000e0 6d ff 00 bd db 07 2a bd 02 ae fc bc a4 68 0c bd
       -0.031493593 -0.041511398 -0.030844692 -0.03427948
0000f0 82 5e 07 be 6c 5d 4c be 16 cc 98 bc 64 b5 0c bd
       -0.13219646 -0.19957513 -0.018652003 -0.034352675

weight f4 [64, 64]
000000 50 b2 fb 3c 82 90 ec bd f7 cc 93 3d 82 47 d1 3d
       0.030724674 -0.11551 0.07216828 0.10218717
000010 12 35 af bd b4 fb 50 3d 9d ae 95 3d 40 f1 f3 3a
       -0.08555044 0.051021293 0.073086955 0.0018611327
000020 60 c5 27 bc f3 8b f7 bd f0 96 67 3d f8 3e f1 bc
       -0.010239929 -0.1208724 0.05654043 -0.029448971
000030 db a8 78 3d 20 58 38 be d9 11 24 bd 3c b1 43 bd
       0.060707908 -0.18002367 -0.040056083 -0.047776446
000040 16 c6 12 be fc 3c 87 3d 32 f4 1a bd a0 de 19 3e
       -0.14333376 0.06603429 -0.03783054 0.15026331
000050 27 c6 98 3d 50 cb f9 bc f6 00 7f bd c3 7a 4f bc
       0.074596696 -0.030492455 -0.062256776 -0.012663546
000060 b6 3a 92 3d e6 2b 8f bd 85 e7 57 3d cf 6c 9b 3d
       0.071401045 -0.06990795 0.05271103 0.07589113
000070 d0 af b5 bc b1 7f ce bd 92 10 20 bd 58 39 30 3c
       -0.02217856 -0.10082949 -0.039078303 0.010755859
000080 d2 af 2e 3e f0 14 16 3e 7c d9 bf 3c 14 32 58 3c
       0.17059258 0.14656425 0.023419134 0.013195533
000090 18 a7 3e 3d 92 d7 d3 bc 8c 73 d5 bc 9c c0 06 3d
       0.04654607 -0.025859628 -0.026056074 0.03289853
0000a0 82 53 b0 3d ac b3 2f bc 3e ec 12 3e c6 1a 05 bd
       0.08609678 -0.010723989 0.14347932 -0.032496236
0000b0 8c 1a 64 3d d1 20 87 bc aa af d5 bc fc d7 b7 3d
       0.05568938 -0.01649514 -0.02608474 0.089767426
0000c0 9f d4 b5 bc 88 c5 3f 3d a8 3a 82 bb c0 1a 86 bd
       -0.022196112 0.04681924 -0.0039742775 -0.06548071
0000d0 30 9a 4f 3c 60 b6 dd bd 5e 18 9a bc b8 da ef 3d
       0.0126710385 -0.10825801 -0.018810447 0.11711639
0000e0 4a e9 dc 3d e0 78 36 bc 34 f5 1b be e0 5f 34 3d
       0.10786684 -0.011137217 -0.15230256 0.044036746
0000f0 be 5c 0d be 2a fc 2a be b0 f2 f2 bb a2 c4 b9 3c
       -0.1380491 -0.16697755 -0.0074141845 0.02267677
000100 5d 82 ec bd 48 a6 75 be 58 5f b5 bc 1c 52 ca bd
       -0.11548302 -0.23989213 -0.02214019 -0.09878942
000110 e5 e3 5d bd 12 95 16 3c bc 8a 95 bd 4c 00 5e 3c
       -0.054172415 0.009190815 -0.07301852 0.0135498755
000120 f0 60 f5 3d a2 7a 1d 3e 43 d8 df 3d fc f3 2f 3c
       0.1198138 0.15378812 0.109299205 0.010739323
000130 4c 3d c8 bc c3 3a 19 bd a0 37 df 3a b3 93 c6 bc
       -0.024443291 -0.037409555 0.0017030127 -0.02424035
000140 0b a2 52 3d 9a c8 96 3c da d1 21 bd a8 45 9d bd
       0.051424067 0.018406201 -0.03950677 -0.076793015
000150 4c 1f 77 3d c0 90 38 bb a6 61 23 bd 6c 7a 4c 3d
       0.06033258 -0.002816245 -0.039888047 0.049921438
000160 ce de c0 bd 89 81 a0 3d c6 80 f3 bd e8 7e c8 bc
       -0.094174966 0.07837207 -0.11889796 -0.024474576
000170 c4 a6 b9 3d 68 84 cf 3d 47 17 f2 3d 0f 38 00 3e
       0.09065011 0.10132676 0.11820846 0.12521385
000180 3b 94 97 bd 2a c6 a3 bc 67 a3 d8 3c 52 96 85 bd
       -0.074013196 -0.019991953 0.026445104 -0.06522812
000190 87 31 4a be 46 f3 9c 3d ee aa 1c be ba 3c ae 3d
       -0.19745456 0.07663588 -0.1529958 0.085076764
0001a0 f7 96 8c 3d 44 df 79 be 6e 10 cf 3c 8b dd af 3d
       0.06864732 -0.24401575 0.025276389 0.08587178
0001b0 13 a2 10 be 27 6f bc 3d a5 4a 2e bd 3c c1 9f bd
       -0.14124326 0.09200888 -0.042551655 -0.078005284
0001c0 ea 02 18 be 3e b1 e8 3a c6 fb a3 bd 82 c3 f4 3d
       -0.14844862 0.0017753018 -0.08007006 0.11951353
0001d0 f8 a5 b8 bb 9c f7 43 bc a5 f8 03 3e b0 87 30 bd
       -0.0056350194 -0.01196089 0.12887819 -0.04309815
0001e0 fe 4d 03 be 52 06 66 3d 46 33 c3 3c d6 b1 10 bd
       -0.1282272 0.05615837 0.02382816 -0.035325848
0001f0 7b 02 0d bd 1e f6 19 3e 46 59 93 bd c0 c4 c0 b9
       -0.034426194 0.15035293 -0.07194762 -0.00036767684
000200 ba 5e c5 bc 3f 36 bd bc 24 9d ba bc d5 35 41 3d
       -0.02409302 -0.023097156 -0.022780009 0.04717048
000210 25 5f 33 be 7a 8e 9e bd 0e b7 48 bd 00 15 88 3a
       -0.17516764 -0.07742019 -0.0490027 0.0010382235
000220 f6 42 78 3d 32 f4 e4 bc 1e f3 1f be 3c 4b c7 3c
       0.060610734 -0.027948473 -0.15620086 0.024327867
000230 82 9b d2 bc c0 bd c6 bd b6 f1 72 bd f6 14 ee 3c
       -0.025708918 -0.09704161 -0.059312545 0.02906273
000240 e8 df b6 bd 4c 26 31 bd 75 f3 ac 3c 70 78 cf 3d
       -0.089294255 -0.043249413 0.021112183 0.101303935
000250 13 dc 4b 3e 60 43 47 3c 9f bd 35 3d 10 5b 0f be
       0.1990817 0.01216206 0.04437029 -0.13999581
000260 d5 91 2f 3d f2 d1 a4 bc 77 83 d9 bd cc 87 0a be
       0.042863686 -0.020119641 -0.10620778 -0.13528365
000270 40 bc 9b 3b 67 86 ac bd 9b 44 05 bd 0e c4 b0 3c
       0.0047526658 -0.08424073 -0.03253613 0.021577861
000280 66 61 f9 3c 5c d7 c3 3d 40 b0 c7 bc ae 37 8f bc
       0.030441951 0.09562561 -0.024376035 -0.017482605
000290 46 14 05 be 9f 13 9b bd 68 93 22 be 88 51 af bd
       -0.12996015 -0.07572102 -0.15876544 -0.08560473
0002a0 ae c0 b5 3d 3a 38 eb 3c e6 c9 d4 bd 5e 0b d3 bd
       0.08874641 0.028713334 -0.103900716 -0.103049025
0002b0 78 e3 c3 bd ad 18 ff bd d6 e6 10 3d 79 65 ac 3c
       -0.095648706 -0.124558784 0.035376392 0.02104448
0002c0 71 bf c1 3b 9e de b4 3c 48 60 8f 3d 10 43 bb 3a
       0.005912714 0.022078808 0.07000786 0.0014286954
0002d0 8c 67 75 3b 2a b8 b3 3d 0f 67 db 3d b6 f8 b6 bd
       0.0037445752 0.08775361 0.10713016 -0.089341566
0002e0 e0 0a b0 ba 3e 77 7f bd 44 19 67 3c 42 15 a6 bc
       -0.0013430975 -0.062369578 0.014105145 -0.020273808
0002f0 e0 66 8d bd ba 17 15 bd 6c 66 03 bc 46 6e bc 3c
       -0.069043875 -0.03639958 -0.008020025 0.023001801
000300 ce 5b 1d 3d 50 7b 89 bc 72 4a 27 3e b0 7e 91 bb
       0.03841763 -0.016782433 0.16336992 -0.004440151
000310 07 b7 a0 3d 40 36 02 be da ad 3a bd 7a 6f 04 be
       0.0784741 -0.12716007 -0.045575954 -0.1293315
000320 5c c8 8c bc d4 28 35 bc 7e 4b dd 3d 23 18 08 be
       -0.017185383 -0.011057097 0.108054146 -0.13290457
000330 14 6e 9d bd 49 84 f6 3c 14 66 d0 3c c0 61 ce bb
       -0.07687011 0.030092375 0.0254393 -0.006298274
000340 b3 64 81 3d a8 0e c4 3d 74 7c a4 3d 94 fb 52 bd
       0.06318035 0.09573108 0.0803155 -0.051509455
000350 54 84 06 bd 27 82 9b bd 39 5b b3 3d 62 30 3f be
       -0.03284104 -0.07593184 0.08757634 -0.186708
000360 63 6c 0b bd 3e 07 50 3e 0e aa ce 3d 78 f9 ef 3d
       -0.034038913 0.20315263 0.10091029 0.11717504
000370 8c 31 a1 bc 6c 5e 25 bc 40 80 ad 3d 90 c2 11 be
       -0.019676946 -0.010093313 0.08471727 -0.14234376
000380 10 9f 76 3c 46 1b 1d 3e 62 e5 97 3d 70 9a 66 bd
       0.015052572 0.15342435 0.07416798 -0.056299627
000390 a4 55 72 bc 94 76 5b 3d 98 d0 ce 3d 46 22 be bc
       -0.014790926 0.05357988 0.1009838 -0.023209702
0003a0 25 73 49 bd 9e 77 7c 3c 44 74 d1 bc 7e 47 b9 bc
       -0.049182076 0.015409378 -0.025568135 -0.022617098
0003b0 8e f0 af 3d 91 a8 7d bd 32 40 d4 bc 6a bf 04 3d
       0.08590804 -0.061928336 -0.025909517 0.03240911
0003c0 5c f8 80 3b 72 b6 0b 3d 88 9c 27 3d 92 ff 4f 3c
       0.0039358567 0.03410954 0.040920764 0.01269521
0003d0 24 7d 69 3d 0e 88 2b be 8d ee ce bd 4c 93 49 bd
       0.05700411 -0.1675112 -0.10104094 -0.04921274
0003e0 06 41 64 bd 65 0a dd bc 1d 64 a5 3d 96 4f d6 3d
       -0.055726074 -0.026982496 0.08075736 0.104643986
0003f0 e1 82 87 bd 08 87 73 3c 9c 03 92 be ec 24 ab bc
       -0.0661676 0.014863737 -0.2851838 -0.02089163

bias f4 [64]
000000 f3 3a 43 3d df 18 10 be 19 c0 c8 bd e0 24 0b bd
       0.04766364 -0.14071988 -0.09802265 -0.033970714
000010 55 81 03 3d d2 c9 b9 3d 44 d2 13 3c 6e a9 4a bd
       0.032105763 0.09071697 0.009022299 -0.049477987
000020 30 2d 27 3d 72 26 ae 3d ac 3c 0c bb ea a9 35 3e
       0.04081458 0.085034266 -0.0021398468 0.17740598
000030 a3 0c 37 be ba 12 96 bc bc 29 4d be 98 4b 7e 3e
       -0.17875914 -0.018319476 -0.20035452 0.24833524
000040 0a da 3d 3b c2 4f f7 bd e7 0b 46 bd ed 37 ca 3d
       0.0028969073 -0.120757595 -0.048351195 0.09873948
000050 0d 63 8d 3d 36 d8 b0 3d a0 e2 8b bd 48 bb 5a bd
       0.06903658 0.08634989 -0.06830335 -0.05340126
000060 e6 ea 14 3e ff f9 94 3d 64 2c 95 3d 0e 46 46 3d
       0.14542732 0.072742455 0.072838575 0.048406653
000070 c5 8e a9 bb f4 2d 2a bd 3a 8b 22 bc 2b 6d 0f 3d
       -0.00517449 -0.04154773 -0.0099208895 0.03501622
000080 fd 26 4e bd 48 9e 7e 3c e6 b5 13 be 29 ac 08 3e
       -0.05033015 0.015540667 -0.14424857 0.13346924
000090 14 d1 bf bd 0c 6e 01 be 38 b2 b2 3b f6 a4 f9 bd
       -0.0936605 -0.12639636 0.0054533742 -0.12189667
0000a0 aa 82 27 bd b4 4c b7 bd 99 05 9d 3d ec 3a 57 bc
       -0.040896095 -0.08950177 0.07667083 -0.013136607
0000b0 43 63 e1 3d 22 8d 9a bc 14 fb 58 bd 5a 85 c3 bd
       0.11005261 -0.018866125 -0.05297382 -0.09546919
0000c0 9e 83 af 3c 66 15 05 3e f4 48 b7 bc 64 bc 76 3d
       0.021425065 0.12996444 -0.022373654 0.060238257
0000d0 7e 1b f5 bd 32 91 81 bd ac 2d 12 3e d2 1b 53 3d
       -0.11968134 -0.06326522 0.14275235 0.051540203
0000e0 0f c3 f8 bd 68 ea 93 3d aa 47 3a be 08 a4 82 3c
       -0.121465795 0.07222444 -0.181914 0.015947357
0000f0 c8 bf 25 bb 78 40 64 3e 04 e9 56 3c d7 fa 1a 3e
       -0.0025291312 0.22290218 0.013117079 0.1513475

weight f4 [7, 64]
000000 de 1d 4a bd 95 5d d5 3d 28 91 03 bc c0 ef 1d be
       -0.04934489 0.1041824 -0.008030213 -0.15423489
000010 3d 10 32 3c c7 94 42 bd 1b 5f bb 3d 1d d9 94 bd
       0.010868129 -0.047505166 0.09148999 -0.072679736
000020 a4 c2 38 3e 8e e1 8b bc a8 2d 21 bc e7 2e de bd
       0.18043 -0.017075326 -0.009837545 -0.1084879
000030 54 0c 85 bc 2a 83 d1 bc 22 a1 23 3e d0 80 d1 bd
       -0.01624123 -0.02557524 0.15979436 -0.10229647
000040 06 18 27 3d eb 19 2e 3d a0 a0 25 3c 92 86 f6 3d
       0.040794395 0.042505186 0.010109097 0.12037386
000050 68 53 de bb 3c 84 4b 3e 78 3e c6 3b d8 78 04 3d
       -0.006784845 0.19874662 0.0060499273 0.032341808
000060 c2 a6 d3 bd f9 cb ba bd c5 46 0f bd 13 99 78 bd
       -0.10334541 -0.09120936 -0.0349796 -0.060692858
000070 f6 c0 92 bc 6e 2d 51 3d 83 ce 84 3d 26 df 96 3d
       -0.017914277 0.051068716 0.064847015 0.07366781
000080 a6 63 61 3e be 63 27 3d c8 8e 7f bd 6f b0 d3 bd
       0.22010669 0.040866606 -0.062392026 -0.103363864
000090 ad cc 1b be 08 e9 a9 bd 11 97 9a bd 62 91 b9 bd
       -0.15214796 -0.082964 -0.07548345 -0.09060933
0000a0 9f 87 0b bd 83 fe e7 bd fc 4e 0f 3e 8e 11 e9 3d
       -0.034064885 -0.11327841 0.13994974 0.113803014
0000b0 26 03 bf 3d 96 dd 38 bd c2 f3 2c be 17 37 2a 3d
       0.093267724 -0.045133196 -0.16889861 0.041556444
0000c0 58 58 35 3c 86 dc 7b bd 56 d6 75 3d 58 2d 87 bd
       0.011068426 -0.061489604 0.06001886 -0.066004455
0000d0 a3 58 4e 3d d7 3d 84 3c 72 e3 c5 3d 28 ea 86 bd
       0.0503775 0.016142769 0.096625224 -0.065876305
0000e0 70 27 ec 3b 5c fe 0d 3e 88 0b df 3b 36 56 19 3d
       0.0072068498 0.13866562 0.0068067946 0.037435733
0000f0 a3 50 6b 3d f2 fb 0b 3e de 04 0b be 7d 89 92 bd
       0.057449948 0.13670328 -0.13576075 -0.0715513
000100 84 b2 c1 bc 89 a9 08 3d 5d 98 a5 bd 65 87 00 be
       -0.023644693 0.033364806 -0.080857016 -0.12551649
000110 5e 89 42 bc a2 c3 26 3e f2 41 57 3d 9d a9 98 bc
       -0.011873571 0.16285565 0.052553125 -0.018635565
000120 ba 9a 07 3e 34 3a 1d be 39 ba 5a 3d 70 d0 13 be
       0.13242617 -0.15354234 0.053400252 -0.14434981
000130 38 e3 1e 3c 64 0e 94 3c ff bb 03 bd d0 0a d8 3c
       0.009697728 0.018073268 -0.03216171 0.026372343
000140 46 c6 1d 3e 40 e5 65 39 c0 79 ad bb 60 c4 ee 3b
       0.15407667 0.00021924544 -0.0052940547 0.0072865933
000150 24 54 03 3d b0 31 94 bb ca 4c 62 bc 08 c7 1c 3e
       0.032062665 -0.004522525 -0.013812253 0.153103
000160 c2 ff 46 bd 30 4c 19 bb 98 54 78 bb 36 e1 80 3d
       -0.048583753 -0.0023391359 -0.0037892219 0.062929556
000170 b8 17 20 3d 06 75 ba bd 5b 10 c5 3d 1e de ab bd
       0.03908512 -0.09104352 0.0962226 -0.08391975
000180 db 88 a3 3c a4 42 29 bc ed a0 28 bc b8 17 52 3b
       0.019962719 -0.01033083 -0.010292274 0.0032057595
000190 30 a4 66 bc 6c 67 7c bc 94 09 59 3d ed 58 65 3c
       -0.014077231 -0.015405517 0.05298765 0.013998252
0001a0 34 09 12 be 70 72 df 3d 24 e8 19 bc 60 97 88 ba
       -0.14261323 0.10910499 -0.009393726 -0.001042109
0001b0 5b c0 38 bd e8 7b 2e be 30 b2 3c bb 66 86 5c bd
       -0.04510532 -0.17039454 -0.0028792731 -0.05383911
0001c0 dc 43 04 3d ac bc 83 bd 7a c3 04 bc 50 a8 d8 3c
       0.03229128 -0.06432471 -0.008103246 0.026447445
0001d0 b4 db 7a bd a4 48 dc bd f4 0a 73 3e 98 e7 ce bc
       -0.06124468 -0.107560426 0.23734647 -0.025256917
0001e0 42 bd 47 bd 5f 82 14 be dd 8d aa 3d b8 71 23 3c
       -0.048764475 -0.14502858 0.083278395 0.009975843
0001f0 84 40 8e be 2f 31 a0 3c ac f9 e3 bd 74 6a cc 3c
       -0.27783597 0.019554703 -0.111316055 0.024953105
000200 4a fe 3c 3e c1 71 c4 3d ce 35 fe bc 22 ee 53 bd
       0.18456379 0.09592009 -0.031031515 -0.051740773
000210 ea 7c a8 bd 76 fa 2e 3e 60 e7 c8 bd 5c 98 9f bc
       -0.082269505 0.17087731 -0.09809756 -0.01948183
000220 0b f3 42 bd 90 62 43 3c 36 ee 13 3e d0 2f 4b 3d
       -0.047595065 0.011925355 0.14446339 0.049606144
000230 88 2b c3 bc 21 c6 c4 3d 20 91 81 bb ff 57 c0 bd
       -0.023824468 0.096081026 -0.003954068 -0.09391784
000240 de bb a8 bd d6 b4 f1 bd 84 a4 96 bb 18 2e c3 bb
       -0.08238958 -0.1180207 -0.0045972485 -0.0059564225
000250 d8 7d 1f 3d a3 31 ad bd 81 00 f4 bd 2e 4b 09 bd
       0.038938373 -0.08456733 -0.119141586 -0.033518963
000260 15 2c 13 be 3d 08 b8 bd d8 f0 bc 3a f0 66 2d 3e
       -0.14372285 -0.08985946 0.0014415039 0.16933799
000270 de 7c 88 3c 98 ad 9c 3d 6c e0 0a 3d 20 cf 94 bd
       0.016661104 0.07650298 0.03390543 -0.072660685
000280 34 ab e4 3c d8 1f 65 bc d4 b6 48 3d 54 86 59 bc
       0.027913667 -0.013984643 0.049002483 -0.013276655
000290 ea d4 7b bd a0 e3 56 3c 8c 70 92 bd ac 11 bf 3d
       -0.061482348 0.0131157935 -0.07150373 0.093295425
0002a0 64 28 47 3e 82 ab 15 be 69 fa 12 bd 4a 5c 4e 3d
       0.19449002 -0.14616206 -0.03588334 0.050380982
0002b0 f8 b1 37 bc 8a 94 06 be 36 ad d7 3c cc 14 32 bd
       -0.011211865 -0.131426 0.02632771 -0.043476865
0002c0 04 c5 2a bd c2 6d e9 bd cd a0 c5 3d 48 9f 1a 3c
       -0.041691795 -0.11397888 0.09649811 0.00943739
0002d0 2e 25 fb bd 31 78 d6 bd 7c dd 3f 3e 23 c0 29 be
       -0.12262951 -0.104721434 0.18736833 -0.165772
0002e0 32 82 b7 bd 8f 65 f9 3d 62 87 f8 bd ab 70 a9 bd
       -0.0896038 0.12177574 -0.12135197 -0.08273443
0002f0 a5 d4 cf bd 27 a0 04 bd 65 cc 21 3d 28 e9 36 3c
       -0.101479806 -0.032379296 0.039501566 0.011163987
000300 cd 4d b4 3d 1a ae 71 3d 31 2a 25 3d 24 6a a8 3a
       0.08803902 0.059003927 0.04032344 0.0012849015
000310 17 59 ec bc c7 5e 21 be 2d ea 82 bd 8c b0 ae 3c
       -0.028851075 -0.15758811 -0.06392322 0.021324418
000320 f1 40 92 bd 86 fd a2 bd 0e a8 ba 3d 00 24 de bd
       -0.07141293 -0.07958512 0.09114085 -0.1084671
000330 b4 99 74 3e 90 11 2a 3c c5 f7 f7 3c cf a9 1d be
       0.23886758 0.010380164 0.030269513 -0.15396808
000340 45 1e 20 bd 08 a1 01 bd f3 cb ba bd f0 f8 9e 3d
       -0.039091367 -0.031647712 -0.091209315 0.07762325
000350 77 77 28 3e 91 15 98 bd e6 8e ac 3d 1f 31 73 bd
       0.16451822 -0.074259885 0.08425693 -0.059373017
000360 5c a7 32 bd 75 3c a3 bd 96 17 58 3d 94 64 99 bd
       -0.043616638 -0.07970516 0.05275687 -0.07489887
000370 0b a2 7f bd 36 50 f0 bc 99 42 4d 3d 32 0f 2e be
       -0.062410396 -0.029335123 0.05011234 -0.16997984
000380 04 c3 a1 bd aa f7 ca bc 99 6a 88 bd 9e bd 11 3d
       -0.078985244 -0.024776299 -0.06660957 0.035581224
000390 b5 04 fb bc 0a 1a 76 3d a0 11 0d 3c 00 20 46 3c
       -0.030641893 0.060083427 0.008610159 0.01209259
0003a0 0e 36 3d 3c 0c ae 25 bd 05 f2 fb 3c bb 2b c9 bd
       0.011548532 -0.040449187 0.030755052 -0.09822794
0003b0 cf 91 10 bd e0 8e bf bd 99 aa ed 3c eb 97 c5 3d
       -0.035295304 -0.09353423 0.029012011 0.09648117
0003c0 f4 3b 13 3e e7 03 c5 bd 60 fb 56 bc 6f bb 06 3d
       0.14378339 -0.09619885 -0.013121456 0.032893594
0003d0 3c fe ed 3d 30 ee 6b 3b 30 fd ab 3d d0 1b cc 3b
       0.11620757 0.0036000125 0.08397901 0.0062289014
0003e0 6e 5d 40 3d 52 e3 7c 3d 24 3f 7e bc 73 ea d6 3d
       0.0469641 0.061740227 -0.015517984 0.104939364
0003f0 62 2b 06 be b8 f1 c2 bd 2f f6 14 bc 23 a5 81 bd
       -0.13102487 -0.095187604 -0.009091898 -0.063303255

bias f4 [7]
000000 ed 31 58 bd 64 72 97 bc d2 c3 0f be 42 5d ed 3d
       -0.052781988 -0.018487163 -0.14039543 0.11590053
000010 4a 01 82 3d d4 d6 01 be 80 9f f5 bb
       0.06347902 -0.12679607 -0.0074958205
