ga_weights/ga1/Pusher-v5/PPO/weights4.pt (torch, 27553 bytes, 6 tensors)

weight f4 [64, 23]
000000 c2 e8 e8 bc 03 3a c7 3d bc 3d 69 3d 86 49 07 bd
       -0.0284313 0.09727862 0.05694364 -0.0330291
000010 4e c4 41 3e 8f 81 2d bd 02 e3 0a 3e 48 0b c6 bd
       0.1892254 -0.042359885 0.13563159 -0.096701205
000020 f0 38 79 bd 9e dc 09 bd 33 9f 86 3d 46 72 0a 3e
       -0.060845315 -0.033657663 0.065733336 0.13520154
000030 53 a5 78 bd c3 09 1d bd 7c 03 e0 bd 8c ed 9c 3d
       -0.06070454 -0.038339388 -0.109381646 0.07662496
000040 c9 90 81 3d 71 c6 1e 3e 4a 9e 51 3e e4 0a 53 3d
       0.06326444 0.15505387 0.20470539 0.051524058
000050 84 1d 5e bd 6a 4c b3 3c 1c 3e 6e 3c 44 42 60 3e
       -0.054227367 0.021887023 0.014541175 0.21900278
000060 4c 23 e7 bd a5 64 13 bd 43 1c 2f bd e6 3c 03 3c
       -0.11286029 -0.035984654 -0.04275156 0.008010125
000070 de ed 4f bd ba 31 4f 3e 1e e4 73 3e 00 0b 23 3e
       -0.050763957 0.20233813 0.23817489 0.15922165
000080 f2 a5 9b 3d 5c 32 35 3c 75 d2 13 3e 28 7e 82 bd
       0.07600011 0.01105937 0.14435752 -0.06371719
000090 c8 53 3c bd 48 bd 27 3e 36 0d 94 3d 64 0b ef bc
       -0.045978338 0.16380799 0.07229082 -0.029180236
0000a0 a7 43 90 bd 76 73 18 be bc 26 25 3d c2 df 90 bd
       -0.07044154 -0.14887795 0.040320143 -0.070739284
0000b0 f5 f4 f2 bd e7 96 ca bd c6 67 88 bd 30 2d 54 3e
       -0.11863128 -0.098920636 -0.06660418 0.20720363
0000c0 6c cf 5a 3d a2 4b b8 3d 04 31 b0 bd af 65 fd 3b
       0.05342047 0.08998801 -0.08603099 0.007733069
0000d0 cb 85 a1 bd 60 70 c6 bd 2d 95 67 bd 70 0d 25 3d
       -0.07886847 -0.096894026 -0.05653875 0.040296018
0000e0 c8 d8 32 bd 5c d8 25 be e7 55 a3 be 4c 2c 56 3e
       -0.04366377 -0.16195816 -0.31901476 0.20915335
0000f0 fa 8a 70 3d 96 2c 84 bd c3 77 7e bd 3b e8 0c 3e
       0.05872629 -0.064538166 -0.062125932 0.13760464
000100 a0 a5 c4 ba 0e 38 db 3d 04 e0 96 bc ac 96 51 3e
       -0.0015002973 0.10704051 -0.018417366 0.20467633
000110 f0 c1 4b bc 7c 0b ab 3d 1b 09 27 be 7d 8f e4 3d
       -0.012436375 0.083518 -0.16312067 0.11160181
000120 5d 27 07 3d 9a 64 17 3e 76 9a d9 bd 92 9f 4a bd
       0.032996524 0.1478447 -0.10625164 -0.049468584
000130 a6 c1 e1 3c 1e 0a 20 3e 6a 85 df bd 70 f0 18 bc
       0.02755816 0.1562886 -0.109141186 -0.0093346685
000140 f8 af d0 3c 00 46 6b bc 6a c6 6b 3e cc 65 4d bd
       0.025474533 -0.014359951 0.23024908 -0.05014591
000150 29 17 8b 3d 74 b0 6f 3e 04 6b f5 bd 56 4d 66 bd
       0.06791527 0.23407155 -0.11983302 -0.056226097
000160 b7 42 2a bc 7e c2 8b bd 64 1c 04 bd 3e 7a e6 3a
       -0.010391883 -0.06824206 -0.032253638 0.0017584038
000170 5e 43 8f bd b9 b4 93 bd 1c 75 5b 3d 8b 87 20 3e
       -0.06995271 -0.072122045 0.05357848 0.15676706
000180 5a e0 36 be e3 4a 05 be cd 9a 08 3d 30 b4 11 3c
       -0.17859021 -0.13016848 0.033350755 0.008893058
000190 fc ba e1 bc 5d 4a be bc 5c a1 6a bd c7 8b b9 3d
       -0.027554981 -0.023228819 -0.05728279 0.090598635
0001a0 57 fc 1e be a8 f6 b3 bc d4 7e c3 bc 4e fa 43 3d
       -0.15525948 -0.0219682 -0.023864187 0.04784613
0001b0 89 34 11 bd 71 fd c6 bd ea a9 89 bc 76 63 a3 bd
       -0.035450492 -0.09716309 -0.016804654 -0.07977955
0001c0 32 9a 27 be 2a 24 3d 3e 56 c1 f1 bd f7 ae 8a bd
       -0.16367415 0.18470827 -0.11804454 -0.06771653
0001d0 bc c8 d4 3d 5c 65 75 3c 9e b7 24 bd 21 e0 4b 3d
       0.103898495 0.014977779 -0.040214173 0.049774293
0001e0 f2 eb 32 be 0e 26 a8 bd e4 f2 59 bc 10 08 e4 3a
       -0.17472818 -0.08210383 -0.013302539 0.0017397422
0001f0 9e d2 e8 3d bf 65 fa 3c 90 2e 35 bb d6 7f 08 bc
       0.11368297 0.030566094 -0.0027646162 -0.00833126
000200 8e 89 fe 3d e3 5b 7f bc 8e ab 20 3e a6 f3 cb bc
       0.1242858 -0.015585872 0.15690443 -0.024896454
000210 40 4c df 3b 47 70 76 bd b9 90 06 3e 72 00 cd bd
       0.0068145096 -0.06016567 0.13141145 -0.100098506
000220 1a 05 2c 3e 10 5a 24 3b ac c0 6c be 20 49 c7 3d
       0.16798821 0.0025078095 -0.23120373 0.09730744
000230 2e 31 4e 3e 88 4f f0 bd de 69 f1 3d 72 55 a7 3d
       0.20135948 -0.117339194 0.11787771 0.08170594
000240 3e a3 9e 3d 48 5e 2d be 50 02 35 3c 50 45 b0 3c
       0.0774598 -0.16930497 0.011047915 0.021517426
000250 e1 d4 0a 3e 20 a7 9b 3b 8d d7 63 3e c8 96 64 3d
       0.1355777 0.0047501475 0.22250195 0.05580786
000260 90 2a ac 3d 4a cb 5e be fb 27 00 3e 6a 91 71 3c
       0.08406556 -0.21757236 0.12515251 0.014744142
000270 7b 63 f9 3d c8 42 99 bc 48 4c 54 be 64 aa a3 3d
       0.121771775 -0.018708602 -0.20732224 0.07991484
000280 b2 c5 85 3d 2c c7 30 bd fc 32 96 bd c3 dc cd 3c
       0.06531848 -0.043158695 -0.07333943 0.025129681
000290 43 1c fd 3c d6 13 fe bc 19 cc a7 3d e6 98 26 bd
       0.030897265 -0.031015318 0.081932254 -0.04067316
0002a0 5c 6d 7c 3c ec 4f 20 be c8 44 b2 bb 83 2a 69 bc
       0.015406933 -0.15655488 -0.0054403283 -0.014231327
0002b0 d2 a4 29 be 66 02 76 3e e6 e8 b8 bc b0 72 31 be
       -0.1656678 0.24024352 -0.022571992 -0.17328906
0002c0 9f 15 fb bd b4 8b f5 bd a4 7f 8a 3d a4 ab 65 3c
       -0.12259983 -0.11989537 0.06762627 0.014017973
0002d0 33 9e 52 be b0 42 bb bb 58 9d da bc 36 34 8c bd
       -0.2056816 -0.005714737 -0.026686355 -0.06845896
0002e0 c0 b7 8c 3c e0 31 8e bc 70 05 e3 3d f0 7e f5 bb
       0.017177463 -0.017357767 0.110850215 -0.007491939
0002f0 3e 61 f4 bd 56 f6 3b 3c 26 f9 ad bb b8 f4 80 bc
       -0.1193261 0.011472305 -0.005309242 -0.015741691
000300 30 24 7c 3d ca 20 60 bd 26 9b ac 3d 80 92 69 3a
       0.06155795 -0.05471877 0.0842803 0.0008910075
000310 00 95 7d b9 d5 e3 ae bc ac b5 09 3e a2 47 60 3d
       -0.00024183467 -0.021348873 0.13448209 0.054755814
000320 a8 34 8d 3d f7 3d 34 3d 48 b7 ef 3d d3 90 1b be
       0.06894809 0.044004407 0.1170488 -0.15191965
000330 82 4b 7a 3d c3 5f 43 3e e7 ff 06 be dd fc 93 bd
       0.061107166 0.19079499 -0.13183556 -0.07225964
000340 c4 87 ad 3d 87 c7 46 3d e8 34 df bd 8a 69 f4 bc
       0.08473161 0.048530128 -0.10898763 -0.029835481
000350 b8 04 1f 3d 9c c8 8a bd d4 3c 32 bc ce 7a 30 3c
       0.03882286 -0.067765445 -0.01087876 0.010771466
000360 d0 a7 4d bc 10 3b 83 bd d2 b8 ab 3d 60 b9 16 3d
       -0.012552217 -0.0640775 0.08384861 0.03679788
000370 23 30 96 bd 39 db 78 3e 60 af 45 3c 85 cc ba bc
       -0.073334 0.24302377 0.012065738 -0.0228026
000380 68 43 aa 3c 90 3c c5 bb 71 39 d4 bc 9a a2 4d be
       0.020784095 -0.0060191825 -0.025906296 -0.20081559
000390 6b ba fd 3d 0a 95 94 bd 2a 09 74 3d f8 34 20 be
       0.12389072 -0.072549894 0.059579052 -0.15645206
0003a0 7c 86 3c bd da 40 74 be 0a 11 86 3b 9c 51 b3 bd
       -0.04602669 -0.23852864 0.0040913867 -0.087558
0003b0 62 96 9d be f3 e4 e9 3c 54 64 07 be a6 84 0e bd
       -0.30778795 0.028551554 -0.13221866 -0.034794472
0003c0 1a 6c cf bd 8c 05 ca bc 50 0a 62 3d 93 bc 25 3e
       -0.101280406 -0.024660848 0.055185616 0.16185217
0003d0 46 09 68 bd a3 90 bf 3c 66 a2 28 bd a9 c4 e3 3b
       -0.05664947 0.023384398 -0.0411705 0.006950934
0003e0 d2 2c b2 3c 78 53 25 3e 73 9a fd 3b 10 68 16 3c
       0.021749888 0.16145122 0.007739359 0.009180084
0003f0 f5 ee 93 bd 2a 04 8c bd 04 1f f4 bd 9e a5 66 bc
       -0.07223312 -0.06836732 -0.11919978 -0.014077572

bias f4 [64]
000000 9e 63 05 be 66 e4 9e 3c 50 66 22 3d d4 7e bc bc
       -0.13026282 0.019396018 0.039648354 -0.023009695
000010 a3 54 e5 bd c2 b4 8a bc 6c 7f 18 be e3 5f 64 3d
       -0.11197784 -0.016931895 -0.14892358 0.055755507
000020 74 62 2b 3d 80 a0 24 be e4 33 30 3d 88 cf 00 3c
       0.04184194 -0.16076851 0.043018237 0.007861979
000030 26 dd 08 3e 4b 3c 1e bd f7 d9 37 bd 28 f8 2d be
       0.13365611 -0.03863172 -0.0448856 -0.16989195
000040 06 54 d4 bd cc 5b d7 bc 49 c8 10 be 01 54 14 3e
       -0.10367589 -0.02628889 -0.14138903 0.1448517
000050 54 3f aa bd af 29 8a bd 08 d3 9c bd 53 59 cc bd
       -0.0831286 -0.06746232 -0.076574385 -0.09977975
000060 a6 c1 cf 3d 0b 22 0a be 47 79 09 be 90 85 fd 3c
       0.101443574 -0.13489549 -0.1342517 0.030947477
000070 97 71 b5 3e e0 29 2c 3d 93 74 25 bd 72 4d 7a 3d
       0.35438225 0.042032123 -0.040394377 0.061109014
000080 ea d2 8b 3d 70 de 87 3c 24 9f cf bc cc ed 91 3d
       0.06827338 0.016585559 -0.025344439 0.07125434
000090 fb e6 ee bd 58 79 d2 bc 21 cf 58 bd 0c 62 e0 3b
       -0.1166515 -0.025692627 -0.05293191 0.0068476256
0000a0 e9 63 32 3e 39 e4 48 3e 39 96 0e be 30 3e 8d 3b
       0.17420925 0.1961831 -0.13924493 0.004310392
0000b0 b6 0c 62 3d 84 c3 7e 3d a5 7b 11 bd 8e cb 5d 3e
       0.055187903 0.062198177 -0.035518307 0.21659681
0000c0 50 d9 9d 3b 21 0e 07 3d 06 6d dd bc 22 26 cb 3c
       0.0048171654 0.03297246 -0.027029525 0.024798457
0000d0 27 98 56 bc 70 c5 50 3d 30 2d 3d 3c 9b ae 91 bd
       -0.013097799 0.05096954 0.011546418 -0.071133815
0000e0 0a 9e cc 3c cd 43 0f 3d b8 86 49 be 90 74 04 3d
       0.024977703 0.03497677 -0.19680297 0.032337725
0000f0 86 df d2 bd 44 64 0e 3e e3 4b a6 3d d8 89 5e bc
       -0.1029654 0.13905436 0.08119943 -0.013582669

weight f4 [64, 64]
000000 3e 74 0e 3e 0b ce 0f 3e ed 72 95 be 08 6e 27 3d
       0.1391153 0.14043443 -0.29189244 0.04087642
000010 d0 5d 94 bc 6b 8f 0b 3e 30 92 e3 3d 7d ca 13 be
       -0.01811114 0.13628928 0.111118674 -0.14432712
000020 98 e7 2a bd c0 9d ea 3c 8b d3 8c 3d c7 d6 5b 3d
       -0.04172477 0.028639674 0.06876286 0.053671625
000030 42 b5 1d 3e 8a 83 1e be a8 8b bd 3d 11 ff a8 3d
       0.15401176 -0.15479866 0.09255153 0.08251775
000040 3c 18 38 bc 0b 3d c9 bd b3 c5 f8 3c aa 5e 46 bd
       -0.011236247 -0.09826096 0.030367708 -0.048430122
000050 38 ef a9 3c de 87 69 3e da fe 7d bd 62 a5 5d bd
       0.020743951 0.22805735 -0.062010624 -0.0541128
000060 0e a2 01 bd 61 e3 23 be 4f 31 d3 bd fe 67 e0 bc
       -0.031648688 -0.16004707 -0.10312139 -0.027393337
000070 4a 23 b0 bd a0 b7 2e bd 17 9f 23 be 28 dc 16 3d
       -0.08600481 -0.042655587 -0.15978657 0.03683105
000080 bc a5 04 3e 08 99 1f 3d 70 54 c0 3d 1a 32 e7 bd
       0.12953848 0.0389643 0.09391105 -0.11288853
000090 74 9c 57 3d 69 b2 6e bd b2 4f ca bc 2c 18 ff bc
       0.05263944 -0.058275614 -0.024696205 -0.031139456
0000a0 4a 62 df bd 0b 86 36 be f5 8b f4 bd e2 9a 22 be
       -0.10907419 -0.17824571 -0.11940757 -0.15879396
0000b0 e7 26 15 3c ea 9e 9c bd 36 34 67 3d 8a 27 d1 3d
       0.009103513 -0.07647498 0.056446277 0.102126196
0000c0 0c 07 8f bd b6 80 85 3d 42 04 13 3e 78 af 79 bb
       -0.06983766 0.0651869 0.14357093 -0.0038098972
0000d0 8f bf ec 3d 29 f4 8d 3d 3b e8 9f 3d 9e fe f9 3c
       0.115599744 0.069313355 0.07807966 0.030516919
0000e0 b7 d3 b6 bd 10 58 fc 3d ff 3f 8e bd 44 18 ae 3d
       -0.089271 0.12321484 -0.069458 0.08500722
0000f0 aa f2 58 3e 76 a0 78 bd 6c 63 5e 3c 15 e1 14 be
       0.21186319 -0.060699902 0.013573509 -0.14538987
000100 ad ea 17 3e c2 e2 cf bc 04 3e 57 3d 20 00 16 bb
       0.14835615 -0.025376681 0.052549377 -0.0022888258
000110 ce 03 24 3d 9a 7d 5f 3d dd 47 e4 3d 38 24 b1 bd
       0.04004269 0.054563142 0.11146519 -0.08649486
000120 c8 fc 5b bc 6e e6 e3 3c cc aa 15 bd 27 dd f5 bd
       -0.013426967 0.027819838 -0.036539838 -0.12005072
000130 90 b4 22 bd 2a 6c ac bd 96 5d af bd 8d fc ff 3d
       -0.03972298 -0.08419068 -0.08562772 0.12499342
000140 3b 81 1d 3d 80 55 a7 bd 06 d6 a1 3d ac f7 22 3d
       0.038453322 -0.08170605 0.0790215 0.03978698
000150 63 4b 62 3a eb de 02 be 6d 8a 2d bd 18 64 27 3e
       0.00086324493 -0.12780349 -0.04236834 0.16346776
000160 48 19 84 3d c8 30 dc 3d c8 29 66 3b f8 91 3f 3c
       0.064501345 0.10751492 0.0035120118 0.0116925165
000170 ed a1 02 be c9 af 51 be 60 34 9b 3d b9 3a 21 be
       -0.12757082 -0.20477213 0.07578349 -0.15745057
000180 d4 86 80 bd 11 b4 80 3c 92 dc 8a 3c 7c a8 f6 bc
       -0.062757164 0.015710862 0.01695088 -0.030109636
000190 b4 74 73 bd da 8e 13 be ee 43 15 bd 8e 44 cd bd
       -0.05943747 -0.14409962 -0.036441736 -0.100228414
0001a0 e5 3a 95 3d ae c6 e1 bd 1e 0f a3 bd 6c 9d 86 bd
       0.07286624 -0.11024223 -0.07961868 -0.065729946
0001b0 97 f5 bb 3d 04 66 b8 bc 0d ec 99 bd fc 85 53 bc
       0.09177702 -0.022509582 -0.07515726 -0.012910362
0001c0 94 35 e2 bc dd 19 10 3e 56 1b b8 3d f2 ec 30 3d
       -0.027613439 0.14072366 0.08989589 0.04319472
0001d0 ff 6f 47 3d c2 df 76 3d 7c 35 30 bd d9 e3 b7 bd
       0.048690792 0.060271986 -0.043019757 -0.08979005
0001e0 42 28 6a 3e 17 41 61 be e0 ff 29 be de c9 3c bc
       0.2286692 -0.21997486 -0.16601515 -0.011522738
0001f0 14 a4 66 bc 1d d0 66 bd f0 40 2e 3e 79 6e 9d 3c
       -0.014077205 -0.056350816 0.17016959 0.019217717
000200 10 79 1e bc 0c 3c 2a 3e 6a 41 63 3d 2b 83 03 be
       -0.009672418 0.16624469 0.055482306 -0.12843005
000210 07 16 9b bd d8 ee 5d 3d ed a2 52 bd 74 e1 10 3e
       -0.07572561 0.054182857 -0.05142491 0.14148504
000220 66 c2 01 be 78 05 20 3e c2 17 87 bc 9b 18 17 3d
       -0.12671813 0.15627086 -0.01649082 0.0368887
000230 d8 dd d4 3d 8a d8 a0 3d 63 0e 40 bd 71 a9 c0 bd
       0.10393876 0.078538015 -0.04688872 -0.094073184
000240 c3 28 0c 3d 84 1a bb bd 70 b1 67 bc d0 a7 bd bd
       0.03421856 -0.09135917 -0.0141414255 -0.09260523
000250 e0 57 86 3b 7e 41 59 3d ea e5 aa 3e da 6b 2e 3e
       0.004099831 0.053040974 0.33378536 0.1703333
000260 9f c6 c0 3d 87 82 d6 bd ea d2 59 3d 73 52 51 bd
       0.09412884 -0.10474115 0.05317966 -0.05110402
000270 ea 10 97 bd 6c 73 63 3e a4 95 27 bc b5 cd fe bd
       -0.07376273 0.22211999 -0.010228548 -0.12441579
000280 1e 54 55 be 4f c9 d6 3d 09 3a 7d 3d 03 c5 69 bd
       -0.2083287 0.10487615 0.061822925 -0.05707265
000290 37 64 8c 3e 3b a8 0a 3e 16 ff 99 bd 08 42 74 3d
       0.27420208 0.13540737 -0.07519357 0.059633285
0002a0 8c 01 84 bd f0 16 07 bc 00 d2 44 bd 2a b8 80 bd
       -0.064456075 -0.008245215 -0.048051834 -0.062851265
0002b0 f4 ea 46 3c 5a e0 82 bd 1f 65 d1 3d a4 ea 5f bc
       0.012140978 -0.06390448 0.102243654 -0.0136667825
0002c0 01 31 34 be 9e e6 6e 3d f2 c7 f9 3d aa 87 84 3d
       -0.17596819 0.058325402 0.1219634 0.06471188
0002d0 c0 90 25 ba 8c c2 55 3c f0 34 b6 3a 20 1c a8 3c
       -0.000631582 0.013046872 0.0013901275 0.020521224
0002e0 72 3f cf bd eb 7c c6 3d 44 cb bb 3c 04 90 ee bd
       -0.10119523 0.09691795 0.022924073 -0.116485626
0002f0 b2 14 5c bd 62 bc 90 3d 3c 86 5f bd cc 8f 41 bd
       -0.053730674 0.07067181 -0.054571375 -0.047256276
000300 74 27 99 bd e8 d3 87 3d 02 3a 3a be 77 32 04 3e
       -0.07478228 0.06632215 -0.1818619 0.12909876
000310 85 29 cc bc aa 48 39 3e 40 41 9e 3c c9 2a 2b 3d
       -0.024922142 0.18094125 0.019318223 0.04178885
000320 1c 08 59 be aa aa de 3d 6c 85 2e 3c b4 4c 03 be
       -0.211945 0.10872395 0.010651927 -0.12822229
000330 2c db 3b bd 36 bc 8c 3e 4b 20 3a 3d 90 8c b5 bd
       -0.045863315 0.27487344 0.045440953 -0.08864701
000340 da 65 62 3d b9 03 e6 3c 48 1e 8e 3d eb eb 9c bd
       0.055272914 0.028077947 0.069393694 -0.07662185
000350 73 8f 8e 3d 80 0d 8d be 8d 68 f8 bd ac 57 3f be
       0.069609545 -0.27549362 -0.121293165 -0.18685788
000360 91 62 5d bd 82 35 40 bd 10 d2 e5 bd e7 66 18 bd
       -0.05404908 -0.04692603 -0.11221707 -0.03720751
000370 24 39 c0 be 9d 57 ed 3c 71 c6 a9 3c 3c c2 3e 3d
       -0.37543595 0.028972441 0.020724507 0.046571955
000380 e9 6b af 3d 87 50 1f 3d 5f b1 8c 3d fc d2 24 3d
       0.08565504 0.038895156 0.06869768 0.040240273
000390 10 ad 6b bc ec e5 0c 3e d5 31 98 bd d0 a9 13 3d
       -0.014384523 0.13759583 -0.0743138 0.036050618
0003a0 25 f1 8a bd 6b de 31 bc 09 c3 21 bd 1b 96 0b 3d
       -0.06784276 -0.010856251 -0.03949264 0.0340787
0003b0 01 9a 05 3e 6c ce 8f 3d 11 87 32 3d 50 cc 7c 3b
       0.13047029 0.07021794 0.04358584 0.0038573928
0003c0 24 9d f4 bd 64 09 e1 bc 86 b7 22 3c 10 0e be 3d
       -0.11944035 -0.027470298 0.009931451 0.09280026
0003d0 f1 26 fe 3c a6 7e 7f 3d 5c 74 74 3b f0 55 cd bc
       0.031024428 0.06237664 0.00373008 -0.025065392
0003e0 0e 06 0a bb 9a 99 07 3d 9a 8f e0 3d 87 7c 9d 3c
       -0.0021060738 0.03310547 0.1096489 0.019224418
0003f0 00 2d 88 3c 5a bd 00 bd e3 47 29 3d 63 0c 5d bd
       0.01662302 -0.03143058 0.041328322 -0.05396689

bias f4 [64]
000000 a5 f2 fb bd b7 75 5d bd 0a 94 8c 3c 46 6d c3 bd
       -0.1230214 -0.05406734 0.017160434 -0.09542327
000010 60 2b ba 3a 0e eb 68 3d da 77 92 3d 8b e4 5e be
       0.0014203601 0.05686479 0.07151766 -0.2176687
000020 4f fc f9 bd eb af 09 3e cc c7 ab bd 18 a9 83 bd
       -0.12206327 0.13446014 -0.083877176 -0.064287364
000030 ec 77 b9 bc 8a 35 60 bc 80 9d 66 bc 34 1f 5e bd
       -0.022640191 -0.01368464 -0.014075637 -0.054228976
000040 23 92 96 bd 4a 61 ef 3c d8 8f a7 3d c8 2c 33 be
       -0.07352092 0.029221196 0.08181733 -0.17497551
000050 cd 5a c3 3c ab 4d 02 be 0f 19 35 bd 70 04 06 3e
       0.023847008 -0.1272494 -0.04421335 0.1308763
000060 44 17 3f be f1 da 4f be bd 3e 12 3e 17 b2 93 3e
       -0.18661219 -0.20298363 0.14281745 0.2884681
000070 df 17 e6 bd b0 b6 1b bc 94 69 4a 3c b2 5f de bd
       -0.11235022 -0.009504005 0.012354273 -0.10858096
000080 80 71 9e 3a 0a ae b8 bb e6 d7 8f bd 3c 78 1a 3e
       0.0012088269 -0.0056359814 -0.07023601 0.15084928
000090 b5 ac f3 3d ea 42 00 bd 45 e8 89 bc 84 c2 8e bd
       0.118981756 -0.031313814 -0.016834388 -0.06970695
0000a0 fa 11 16 bd 4a 7c 0f bd 27 a9 d4 3c 66 81 4d bd
       -0.036638238 -0.03503064 0.025959564 -0.050172232
0000b0 21 8f 57 bd b7 42 75 bd d4 a0 f1 3d df f2 0d be
       -0.052626733 -0.059878077 0.11798254 -0.13862179
0000c0 ea ef 11 be 05 8c 42 be d4 10 69 3d 19 fc 50 bd
       -0.14251676 -0.18998726 0.056900814 -0.05102167
0000d0 68 4b 5f bc ec 07 ef 3d 80 93 d3 bb d0 8f 96 3b
       -0.013628818 0.11671433 -0.0064567924 0.0045947805
0000e0 37 d8 99 be c0 e4 43 be 88 08 e7 3d 57 b9 1c 3d
       -0.3004777 -0.1913023 0.11280924 0.03826269
0000f0 d6 00 a7 bd 4a ae 77 bc e2 1b 38 bd ae 02 cb 3d
       -0.08154456 -0.015117237 -0.044948466 0.099126205

weight f4 [7, 64]
000000 05 37 9d bd 24 fe 26 3d 36 fb d1 bd 72 c7 8c 3d
       -0.0767651 0.04076971 -0.10252993 0.06873979
000010 74 ab 5b 3e c1 11 20 3e 9b b7 98 3d a2 27 d3 3c
       0.21452123 0.15631773 0.07456895 0.025775734
000020 5c f1 dd 3c 69 ff 1c bd ea 8d 5f bd 25 9d c9 3d
       0.027092628 -0.038329516 -0.0545787 0.09844426
000030 b8 67 a8 bd 4e 39 56 bd 7c e5 b4 3b 1a dd ac bd
       -0.08222908 -0.052300744 0.0055205207 -0.08440609
000040 b8 18 23 3e 5b 3a e9 bd aa 73 6b bd 46 46 04 bd
       0.15927398 -0.113880835 -0.057483353 -0.03229358
000050 49 15 62 3c 9b 71 bb 3d a4 c7 92 3d 7f 57 b9 bd
       0.01379902 0.09152528 0.07166985 -0.09049892
000060 a4 15 a8 bc a0 3e 34 bd 7d 04 cb bd ce e1 2b 3d
       -0.020518132 -0.044005036 -0.099129654 0.04196339
000070 a6 9d bb 3d c0 ad e8 3d 56 ee e5 bb 75 b3 17 be
       0.091609284 0.11361265 -0.0070169372 -0.14814551
000080 1c 80 6b 3d 3a 04 3d bd 9a d3 b3 3c 32 21 24 3e
       0.05749522 -0.04614661 0.021951485 0.16028288
000090 c8 e7 c4 3b c2 72 ef 3d 24 6a ab bd 97 41 87 3e
       0.006009076 0.1169181 -0.08369854 0.2641723
0000a0 bf c4 89 3d aa 7b 60 3d 26 75 23 3d 68 45 91 bd
       0.067269795 0.054805435 0.039906643 -0.07093316
0000b0 94 1f ca bc 77 17 4d 3c 61 20 c5 bd c0 76 6d 3a
       -0.02467326 0.0125178015 -0.096253164 0.00090585276
0000c0 c3 51 81 be 8f 8c a1 bd 6c db 88 3d 03 22 30 3e
       -0.25257692 -0.078881375 0.066824764 0.17200474
0000d0 04 4a 9c 3d 8b a5 ca 3d c1 81 f5 3d 90 ec 18 bd
       0.07631305 0.09894856 0.11987639 -0.03733498
0000e0 7c e5 b9 bd 25 e7 29 3d 93 e6 16 3e ea cb cc bc
       -0.09076974 0.041480202 0.14736395 -0.024999578
0000f0 2b f4 ef 3d 78 7b c7 bb 18 ce 6b be c6 97 23 3d
       0.11716493 -0.0060877167 -0.23027837 0.039939664
000100 8b 86 8a 3d 48 ee f3 bd 4f 14 86 3d 68 1f 5c 3c
       0.06763943 -0.11910683 0.06546842 0.013435222
000110 cb 6b 19 3d 70 67 65 3d 78 5d df bc b6 dd 7a bc
       0.037456315 0.05600685 -0.027266249 -0.015311649
000120 22 80 2d be 30 e0 6e bd a1 b4 aa 3c e0 80 ec bd
       -0.1694341 -0.05831927 0.020838084 -0.115480185
000130 be 44 a8 3d bf 78 dd 3d 83 fc a3 3d f5 f3 ec 3c
       0.082162365 0.10814046 0.08007147 0.028924922
000140 4f 4b 39 be c2 df 17 bd c4 15 8b bc c7 30 1a 3e
       -0.18095134 -0.037078626 -0.016978152 0.1505767
000150 3a 52 39 3e da cd c5 bd ba 66 21 be ac 41 39 bd
       0.18097773 -0.09658404 -0.15761843 -0.045228645
000160 57 cc a9 bc 41 e7 9c bd 83 1e 92 bc 48 5b c9 bb
       -0.02072732 -0.07661296 -0.017836815 -0.006144915
000170 ed 67 65 3d e4 44 0e be 40 de 37 3e c0 44 83 bb
       0.056007314 -0.13893467 0.17955875 -0.0040059984
000180 6b 09 50 3d 92 aa 50 bd 52 12 19 bd 88 f9 15 3e
       0.05079023 -0.05094392 -0.037370987 0.1464597
000190 5a ec e9 bd bd 61 02 3d 2c 29 c2 bc 0d 98 ca bd
       -0.114220336 0.03183149 -0.023701273 -0.09892283
0001a0 c4 64 ad bc 38 02 89 3d 26 30 88 3d 4a 17 7f bd
       -0.021166213 0.06689876 0.066498086 -0.06227807
0001b0 5e 38 6f bd d8 25 18 3c a8 e2 ab bd 4a bf ec 3d
       -0.058403365 0.009286366 -0.083928406 0.11559923
0001c0 5d e3 a5 3d d1 90 11 bd fa 5a b0 3d 51 dc 06 bd
       0.08100007 -0.0355385 0.086111024 -0.032924954
0001d0 fb 7b 2c be 0e 35 3f 3e 88 96 28 3d f4 2a 82 be
       -0.1684417 0.18672583 0.041159183 -0.25423396
0001e0 0d 96 94 bd 88 31 5a 3d d6 2d 65 3c 63 d4 33 3e
       -0.072551824 0.053269893 0.013987979 0.17561488
0001f0 b2 f4 41 3d c3 28 3c 3d ed 72 05 bd ea 5d 78 bd
       0.0473525 0.04593731 -0.032580305 -0.06063644
000200 f8 95 1c 3e b4 69 f8 bd b1 be d5 3d 65 68 11 be
       0.15291584 -0.12129536 0.10436762 -0.1419998
000210 de 1a 58 bd 28 b0 e7 bd 19 a0 89 bd 4c 08 ff bb
       -0.052759998 -0.11312896 -0.06719989 -0.0077829715
000220 83 ba 2a 3e 47 eb 2b be e8 27 80 3d 51 3c 02 bd
       0.16672711 -0.1678897 0.062576115 -0.031795803
000230 69 a1 f3 3c a8 c0 dd bc e4 20 cd 3c 18 c6 f6 bd
       0.029740052 -0.027069405 0.025040098 -0.12049502
000240 4c 87 e6 3b 84 fc 91 bd 40 58 18 3c 20 a7 3a 3d
       0.0070351716 -0.07128242 0.009298384 0.04556954
000250 bf bf e4 bc 7b f1 36 3d d8 a4 71 bd 31 30 b0 3c
       -0.027923463 0.044663887 -0.058995098 0.021507354
000260 d4 3f a8 bb 54 67 fa 3d cc 61 51 bd b0 9a 60 3d
       -0.005134562 0.122267395 -0.051118657 0.05483502
000270 e2 ea 61 3d eb 48 54 bd 40 78 d7 bd 8c 8a 47 3d
       0.055155642 -0.051827352 -0.10520983 0.048716113
000280 a2 58 2e 3e 2c 28 0d bd 70 af df bd 9c 4a 13 3d
       0.17025998 -0.03446214 -0.10922134 0.035959825
000290 18 51 ad bc e2 d2 41 bd f6 55 1e bd 59 37 bb bc
       -0.021156833 -0.047320254 -0.038656197 -0.02285354
0002a0 3b 40 23 3e ac 4b b0 bb af 70 2d bd a0 e4 e5 bc
       0.1594247 -0.0053801145 -0.04234379 -0.028063118
0002b0 ef ff 0f 3e dc 01 74 bd f1 eb ef bd 6e aa 6b 3e
       0.14062475 -0.059572086 -0.11714924 0.23014233
0002c0 20 a3 f8 3c d6 af ae 3c e7 37 b7 3d 40 4c c9 3b
       0.030351222 0.02132408 0.089462094 0.006143123
0002d0 ec da 82 bd 20 03 35 bb e8 62 80 3c dc ab 33 3c
       -0.06389412 -0.002762027 0.015672162 0.010966267
0002e0 44 b0 8f 3b c6 8e 9f bd 7d e6 26 3e 60 bc 99 3d
       0.004385026 -0.07790904 0.16298862 0.07506633
0002f0 5a 3e 9a bd bf bc 9f 3c c6 25 11 be 98 cb 07 be
       -0.07531424 0.01949918 -0.14174566 -0.13261259
000300 c0 53 55 ba a5 8a ab 3d 9d f9 07 bd 4f a8 a5 3d
       -0.0008137785 0.08376054 -0.033197034 0.08088743
000310 7c 54 58 bd d8 d5 f0 bb 57 76 a3 bd 78 67 6e bd
       -0.052814946 -0.007349711 -0.07981556 -0.058204144
000320 fc f3 d7 bc c6 8f 4f bd 5a 89 dc bd 93 fc 1c 3d
       -0.026361458 -0.050674222 -0.10768385 0.03832681
000330 f3 39 8e 3d da 11 cb 3d 34 a8 07 be 3a dd c1 bd
       0.06944647 0.09915514 -0.13247758 -0.09466024
000340 46 b2 1a bd 1a 5a ab bd c5 d8 37 be c0 b8 83 3d
       -0.03776767 -0.08366795 -0.17953785 0.06431723
000350 30 d2 20 bc ca 90 15 bd 64 96 35 3e 02 ac 26 be
       -0.009815738 -0.036515035 0.1773315 -0.16276553
000360 c4 dd 53 3e c2 57 53 3d 59 f6 bb 3c 58 91 a0 bd
       0.20690066 0.051597364 0.022944616 -0.07840222
000370 18 7f 01 3d 66 df e9 3d ad 3a a1 bd 76 ea 9f bd
       0.031615347 0.11419563 -0.0787252 -0.07808392
000380 67 4c ed 3d a9 03 a7 bd a2 48 05 bd 57 16 af 3d
       0.11586838 -0.08154995 -0.03253997 0.08549183
000390 9c 07 ee bc d0 4e a8 3c 35 ed 43 3d 32 74 d6 3d
       -0.029056363 0.020545393 0.04783364 0.10471381
0003a0 5c 86 16 bc 2e f4 25 3e ec ee 97 bd 04 a1 9c 3b
       -0.009187307 0.16206428 -0.074186176 0.0047799367
0003b0 68 c1 f9 bd 78 96 a7 bb 76 de 04 bd 5e 0a 4b bc
       -0.121950924 -0.005114373 -0.032438718 -0.012392608
0003c0 fa 57 2a be cc c1 5f bd da 5a c8 bd ab 2e 22 3d
       -0.16635123 -0.05462818 -0.097829536 0.039595287
0003d0 60 2e 8a 3b fc 5a 3e be ec 84 64 3c ce a8 d2 3d
       0.004216954 -0.18589395 0.013947707 0.10286103
0003e0 93 b3 6a 3d f4 bb ca bd 00 eb 0a 3e 52 df 92 bc
       0.05730016 -0.098991305 0.13566208 -0.017928753
0003f0 d2 57 60 be c7 69 2f 3e 90 77 b9 bd 7f 0b 49 3d
       -0.21908501 0.17130195 -0.09056008 0.04908323

bias f4 [7]
000000 65 d9 5f bd 41 30 9d 3d ca 1e 21 be 0e b2 95 bd
       -0.054650683 0.07675219 -0.15734401 -0.07309352
000010 0b 0f 63 bd 2c 5e 01 be 23 6b 61 3d
       -0.055434268 -0.1263358 0.055033814
