ga_weights/ga2/Pusher-v5/PPO/weights1.pt (torch, 27553 bytes, 6 tensors)

weight f4 [64, 23]
0	0xbd5d962a	-0.054098286
1	0x3dcadbb5	0.09905187
2	0x3d3b6daf	0.0457589
3	0xbd2b39a3	-0.041803014
4	0x3d8de135	0.069277205
5	0x3d800b0b	0.06252106
6	0xbd0dfb45	-0.034663457
7	0x3b3f26e5	0.002916747
8	0xbccccfe8	-0.025001481
9	0xbc067238	-0.008205943
10	0x3d6a4213	0.05719192
11	0x3d56e20d	0.052461673
12	0x3dabd2de	0.08389829
13	0x3df13217	0.11777132
14	0x3d1d67ad	0.03842895
15	0xbcbf2ad7	-0.023335857
16	0xbbe05b0b	-0.0068467907
17	0x3d0591f9	0.032609913
18	0xbc172c97	-0.00922694
19	0xbc354fd2	-0.011066394
20	0x3d13135b	0.03590713
21	0x3ce91bda	0.028455663
22	0xbd29375d	-0.041312564
23	0x3bad4e14	0.0052888487
24	0xbd4b60bf	-0.04965281
25	0x3d9163f4	0.07099143
26	0xbb53559d	-0.0032247074
27	0x3c3004bd	0.010743317
28	0x3d19c943	0.037545454
29	0x3cc430c7	0.02394904
30	0xbbfe8967	-0.0077678445
31	0xbd02def9	-0.031950925
32	0x3d13e40b	0.03610615
33	0xbc711f53	-0.014716941
34	0xbb01fe77	-0.001983551
35	0x3c95b7df	0.018276153
36	0x3d4eb7da	0.050468303
37	0x3d84408a	0.06457622
38	0x3d14a240	0.036287546
39	0xbd3b9bbb	-0.045802813
40	0x3da0cfef	0.0785216
41	0xbda1f7f2	-0.0790862
42	0xbcc8538b	-0.024453899
43	0x3d39f033	0.045395087
44	0x3d1bc793	0.038032126
45	0x3c1b4bdf	0.009478538
46	0x3c52a98d	0.012857807
47	0xbd414be2	-0.047191508
48	0x3cd16422	0.025560442
49	0xbd2bec39	-0.041973326
50	0x394f363f	0.00019761267
51	0x3d2e3be5	0.04253759
52	0x3db07469	0.086159535
53	0xbda22491	-0.07917131
54	0xbd7e2777	-0.062049355
55	0xbc14ef84	-0.009090308
56	0xbb7e8d50	-0.0038841553
57	0x3d904701	0.07044793
58	0x3c3bef2b	0.011470596
59	0xbc07758e	-0.008267773
60	0xbc806d3b	-0.015677085
61	0x3ce47f57	0.027892752
62	0x3bf3fb98	0.007445764
63	0x3d5a0092	0.0532232
64	0x3c00940a	0.007847795
65	0x3d709dff	0.058744427
66	0x3d82856f	0.06373107
67	0xbd8400a2	-0.06445433
68	0x3d7e0410	0.062015593
69	0xbdfbdc1f	-0.12297844
70	0x3d0717f5	0.03298183
71	0xbd2dab6b	-0.042399805
72	0x3d8712e0	0.06595397
73	0x3d4057eb	0.046958845
74	0x3b69b7c8	0.003566252
75	0x3cda127d	0.026620144
76	0xbd94868a	-0.07252224
77	0xbc8742af	-0.01651129
78	0xbce3d548	-0.027811661
79	0x3dae49ea	0.08510192
80	0x3c8c3d8f	0.017119197
81	0xbb3032e3	-0.00268858
82	0xbc6bf177	-0.014400831
83	0xbbfc20df	-0.007694348
84	0xbbbbf6bc	-0.0057362
85	0xbe2011a7	-0.15631734
86	0x3cbf0454	0.023317493
87	0xbcbf66dc	-0.023364477
88	0xbb8fd3bf	-0.004389256
89	0x3dbeca38	0.09315914
90	0x3cb7e104	0.022446163
91	0xbd8f5c66	-0.070000455
92	0xbcf91faf	-0.030410616
93	0xbc89c263	-0.016816324
94	0xbd0c3723	-0.03423227
95	0x3d1dd1e6	0.038530253
96	0x3beecc28	0.007287521
97	0x3da0d397	0.078528576
98	0xbd318f0e	-0.04334932
99	0xbb5e3898	-0.0033908244
100	0xbd818d33	-0.0632576
101	0xbd968c9a	-0.07351036
102	0x3d95d5f3	0.07316198
103	0x3daefc33	0.08544197
104	0xbc7323a2	-0.0148400385
105	0xbd529c13	-0.051418375
106	0x3c909e9d	0.017653758
107	0xbd8f6a43	-0.0700269
108	0xbcd0c32d	-0.025483692
109	0xbac1853b	-0.0014764437
110	0xbdb07eab	-0.0861791
111	0x3d876a24	0.066120416
112	0x3a77703b	0.0009439026
113	0xbe1877f4	-0.14889508
114	0xbd210b97	-0.039317694
115	0xbd9a7b43	-0.075430416
116	0xbd28ab68	-0.04117909
117	0xbc07e4c6	-0.00829429
118	0x3d933b37	0.07189029
119	0xbbb30d80	-0.005464256
120	0x3b9dd43b	0.0048165596
121	0x3cabed6f	0.02098724
122	0x3cd5e462	0.026109878
123	0x3d8b448c	0.06800184
124	0xbcd48d2f	-0.025946228
125	0xbbec324d	-0.0072081448
126	0x3d89c5eb	0.06727203
127	0xbd194637	-0.037420478
128	0xbcd32923	-0.025776451
129	0x3b23d943	0.0025001324
130	0xbd0cda57	-0.034387913
131	0xbda29920	-0.079393625
132	0x3d1cc6f6	0.03827568
133	0xbd4596b8	-0.04823944
134	0x3d16b2c1	0.036791567
135	0x3ccee69b	0.025256446
136	0xbcd5f6cd	-0.02611866
137	0xbcdafe1b	-0.026732495
138	0xbb7be252	-0.0038434458
139	0xbcc6f29f	-0.024285613
140	0xbdaaa9dd	-0.0833318
141	0xbcf3e733	-0.02977333
142	0xb9c9e893	-0.0003851099
143	0xbdb636d3	-0.08897176
144	0xbc8860ba	-0.016647685
145	0xbaa8b43a	-0.0012871095
146	0xbd7dd5b5	-0.061971385
147	0xbd1851e3	-0.03718747
148	0xbd72ddc2	-0.059293516
149	0xbc17e450	-0.009270743
150	0x3d2c3bfb	0.04204939
151	0x3cb64e3f	0.022254108
152	0x3d0e87bd	0.03479742
153	0xba979800	-0.0011565685
154	0x3d710fbf	0.058852907
155	0xbadcf078	-0.0016856333
156	0xbcb374df	-0.021906314
157	0x3d188231	0.037233535
158	0x3bb00dd4	0.005372742
159	0x3d4d2f45	0.050093908
160	0xbcd1c973	-0.025608754
161	0xbbb186a6	-0.0054176627
162	0xbd0d7d6f	-0.03454345
163	0x3d89a91c	0.06721708
164	0xbc136181	-0.008995415
165	0x3c31fe15	0.0108638005
166	0xbbcc377b	-0.0062321997
167	0xbde6348f	-0.112404935
168	0x3ba4ab57	0.005025308
169	0xbd938957	-0.0720393
170	0x3d16625b	0.036714893
171	0x3c9f0ef2	0.019416306
172	0x3d1c9d4e	0.038235955
173	0xbd32f0bd	-0.043686617
174	0x3c928fc7	0.017890824
175	0x3d8c7433	0.06858101
176	0x3cbfe426	0.02342422
177	0xbd4a612f	-0.049409088
178	0x3ae40ffa	0.0017399781
179	0x3d96f5ba	0.07371087
180	0xbcdb43e5	-0.026765773
181	0xbd9a5950	-0.07536566
182	0xbdd1268b	-0.102124296
183	0x3d1230fe	0.035691254
184	0x3cbbb2f6	0.022912484
185	0xbc240319	-0.010010504
186	0xbd80d061	-0.06289745
187	0xbd963e7d	-0.073361374
188	0x3d300afe	0.042979233
189	0xbd1e9ab2	-0.038721748
190	0xbce57fcb	-0.028015038
191	0xbc0c764d	-0.008573127
192	0xbb46a1af	-0.0030308773
193	0xbd344d5f	-0.0440191
194	0xbd554872	-0.052071042
195	0xbc95c7f5	-0.018283824
196	0xbc67bc08	-0.014143951
197	0xbb837bd7	-0.0040125656
198	0xbd8c13fd	-0.0683975
199	0xbc141b7f	-0.009039759
200	0x3cbbd340	0.02292788
201	0xbd7c723b	-0.061632376
202	0x3d567dbd	0.052366007
203	0x3d021f27	0.03176799
204	0xbd8c7847	-0.068588786
205	0xbd28b411	-0.04118735
206	0xbc0cd135	-0.008594801
207	0xbd9bb33f	-0.07602548
208	0xbbd877b0	-0.0066060647
209	0xba860f12	-0.001022788
210	0x3d1b0bae	0.037852935
211	0x3d963624	0.07334545
212	0x3d74c0ef	0.05975431
213	0x3ccd720b	0.025078794
214	0x3db649a3	0.08900764
215	0xbc31b8f9	-0.010847324
216	0xbd137a43	-0.03600527
217	0x3bd76327	0.006573099
218	0x3d048656	0.032354675
219	0xbcde4035	-0.027130226
220	0xbc4f5583	-0.012654665
221	0xbced224f	-0.028947024
222	0x3d16af66	0.036788367
223	0xbc6dddc0	-0.014518201
224	0xbd9c91f4	-0.07645026
225	0xbc9a6393	-0.018846309
226	0x3c5b5327	0.013386524
227	0xbd93642a	-0.07196839
228	0xbb7af15b	-0.0038290832
229	0xbcd1bddd	-0.02560323
230	0xbd26c6a5	-0.040716786
231	0xbb1c85b1	-0.0023883397
232	0x3d86234a	0.065496996
233	0x3d87f5ef	0.06638705
234	0x3bd0d89a	0.006373477
235	0xbc4ff1b2	-0.012691902
236	0x3cd17380	0.02556777
237	0x3d2c99e5	0.042138953
238	0xbd33e2aa	-0.043917336
239	0x3d84d451	0.06485809
240	0xbcf9d5f3	-0.030497527
241	0xba28cfad	-0.00064396375
242	0x3ca7663f	0.020434497
243	0x3dc715cc	0.09720954
244	0x3d188493	0.037235808
245	0xbc04c671	-0.008103953
246	0xbd90ffea	-0.07080062
247	0x3dc36815	0.095413364
248	0x3d69bf6b	0.057067316
249	0xbc692bc8	-0.01423163
250	0xbc654b80	-0.013995051
251	0x3d686838	0.056740016
252	0xbe07decb	-0.13268583
253	0xbb8f54af	-0.0043741087
254	0x3d1b4b57	0.037913647
255	0x3dbc0480	0.09180546

bias f4 [64]
0	0x3dc6a8bd	0.09700153
1	0x3be537e0	0.006995186
2	0x3cd32e60	0.02577895
3	0x3d0315b4	0.03200312
4	0xbcb502a3	-0.022095984
5	0xbd98210e	-0.0742818
6	0x3d72009a	0.059082605
7	0xbce18ff3	-0.02753446
8	0x3d8ca99c	0.06868288
9	0x3cbf0a8a	0.023320455
10	0x3d157057	0.03648409
11	0xbd856e73	-0.06515207
12	0xbd555d6d	-0.05209105
13	0xbd2be7a3	-0.041968953
14	0xbcf5d1d2	-0.030007277
15	0x3d5f64eb	0.054539602
16	0x398dfb3d	0.00027080803
17	0x3d28ca15	0.041208345
18	0xbdbbd91b	-0.09172269
19	0xbbcb3f79	-0.006202635
20	0x3b700877	0.003662614
21	0x3cdda5ab	0.027056536
22	0x3d4fa3df	0.05069339
23	0xbc311a31	-0.010809467
24	0xbb84ae23	-0.004049079
25	0xbc88e097	-0.016708655
26	0xbd9b8a6b	-0.075947605
27	0x3d78031d	0.060549844
28	0x3c9abff1	0.018890353
29	0x3d0f6343	0.035006773
30	0x3b97e217	0.0046351063
31	0xbcdeb8b7	-0.027187688
32	0x3cfd98b8	0.030956611
33	0xbd319321	-0.043353204
34	0x3c883e15	0.016631166
35	0xbcf9290f	-0.030415086
36	0x3cb1a3da	0.021684576
37	0x3cf595f2	0.029978726
38	0x3d7f99a3	0.06240238
39	0xbd82041b	-0.06348439
40	0xbd1f0076	-0.0388188
41	0xba305ac5	-0.0006727393
42	0x3d279932	0.040917583
43	0x3d6a9785	0.057273407
44	0xbd964aff	-0.07338523
45	0x3cdbd59a	0.026835252
46	0xbd3092cb	-0.043108743
47	0x3bc4374f	0.0059880386
48	0x3cd06ed5	0.025443474
49	0x3c7043a0	0.014664561
50	0xbdbe6056	-0.09295718
51	0x3d6c16a3	0.057638776
52	0xbd5bab0f	-0.05362993
53	0x3df9f79a	0.122054294
54	0x3c302151	0.010750131
55	0xbe059bb1	-0.13047673
56	0x3d5d0d72	0.0539679
57	0xbd7f205d	-0.062286723
58	0xbcf6afc5	-0.03011311
59	0xbcb817a3	-0.022472208
60	0xbd35237a	-0.044223286
61	0xbb807c28	-0.0039210506
62	0x3d912903	0.070879005
63	0xbdc8dae6	-0.098073766

weight f4 [64, 64]
0	0x3ce4c513	0.027926004
1	0x3cfc3f4a	0.030791897
2	0xbd004972	-0.031320043
3	0x3da08c4b	0.07839259
4	0xbd3b1893	-0.045677733
5	0x3d02160f	0.031759318
6	0x3d6e4e40	0.058180094
7	0x3dc4c533	0.09607925
8	0x39e62232	0.00043894496
9	0xbdba2a08	-0.09090048
10	0x3c460671	0.012086497
11	0xbb82f0bf	-0.0039959843
12	0xbc63bb68	-0.013899662
13	0xbc8f7b00	-0.017514706
14	0x3c54ab73	0.01298033
15	0xbc1aeedd	-0.0094563635
16	0x3c9e2a14	0.019307174
17	0x3c40babd	0.011763272
18	0xbd1d316d	-0.038377214
19	0x3c955349	0.01822819
20	0x3c807fb5	0.015685895
21	0x3d469c43	0.048488867
22	0xbcc309be	-0.023808356
23	0x3cb9d8cf	0.02268639
24	0x3c83b8c0	0.016079307
25	0xbe0de62a	-0.13857332
26	0x3cfe7990	0.031063825
27	0x3d89d2a7	0.06729632
28	0x3b758967	0.0037465931
29	0xbd8db29f	-0.06918835
30	0x3cbc1c6d	0.022962773
31	0x3d5137f7	0.051078763
32	0x3d434617	0.047674265
33	0xbc5e9d75	-0.013587345
34	0x3d4ad5b8	0.049520224
35	0xbd5bde18	-0.053678602
36	0x3cb3dac3	0.0219549
37	0x3c8ae9e9	0.01695724
38	0x3d4e882b	0.05042283
39	0x3b783df0	0.0037878715
40	0x3d3d6ec3	0.04624821
41	0xbd9a21cb	-0.07525977
42	0xbd1dc9d8	-0.03852257
43	0x3ca38922	0.019962851
44	0xbc92dbda	-0.017927099
45	0xbd33d994	-0.04390867
46	0x3c292361	0.010323376
47	0xbcf6090a	-0.030033607
48	0xbd2210b6	-0.039566718
49	0x3dae5460	0.08512187
50	0xbcff2cfa	-0.031149376
51	0xbba7c92f	-0.0051204185
52	0xbd81dafb	-0.06340595
53	0x3c103ba5	0.008803283
54	0x3c4c913f	0.012485801
55	0x3cfc6917	0.03081183
56	0x3d49a159	0.04922614
57	0x3da55d7b	0.080744706
58	0xbd2319fa	-0.039819695
59	0xbd20b56f	-0.03923553
60	0xbc5b9e8f	-0.0134045025
61	0x3b0889b9	0.0020834042
62	0x3d168b5b	0.036753993
63	0x3d3a6e06	0.045515083
64	0xbd8a7aae	-0.067616805
65	0x3c501ac3	0.012701693
66	0x3c885d2c	0.01664599
67	0x3c33c793	0.010972875
68	0x3d381539	0.044942115
69	0x3d4a8de7	0.049451735
70	0xbda52910	-0.08064473
71	0xbccfbfe7	-0.02536006
72	0xbd816306	-0.06317715
73	0xbd0c77a9	-0.034293804
74	0x3d10ea1b	0.03537951
75	0x3ced5e4a	0.028975625
76	0x380ea64c	3.4010314e-05
77	0xbd310f25	-0.043227334
78	0x3b924ab4	0.0044644717
79	0x3c081c72	0.008307563
80	0x3dbc6d7a	0.092005685
81	0x3d38cfc3	0.045120012
82	0x399c3b48	0.00029798807
83	0xbdcac658	-0.09901112
84	0xbad8f52b	-0.0016552558
85	0xbc9241c5	-0.017853627
86	0xbd11f4da	-0.0356339
87	0xbbe1d56f	-0.0068918983
88	0x3db9362d	0.09043536
89	0x3d4a949b	0.049458127
90	0x3d3aa7f5	0.045570333
91	0x3c94fbab	0.01818641
92	0x3cb70ce7	0.02234502
93	0xbd428418	-0.047489256
94	0x3c59b5f8	0.013288014
95	0xbd83c5a9	-0.06434185
96	0xbb4166e9	-0.0029510802
97	0x3c0228f7	0.007944337
98	0xbda60ed2	-0.081082955
99	0x3cf27b93	0.02959994
100	0x3adf50d8	0.0017037643
101	0x3ca9ec95	0.020742694
102	0xbd448303	-0.047976505
103	0xbda02408	-0.078193724
104	0xbbcbe18a	-0.0062219547
105	0x3db0b797	0.08628767
106	0xbdf16f63	-0.117888235
107	0x3dc249b6	0.094867155
108	0xbd9dfccb	-0.07714232
109	0xbd81bb65	-0.06334571
110	0x3cdb94da	0.026804376
111	0x3c4dd28a	0.012562403
112	0xbbf76773	-0.007550174
113	0x3d0dd305	0.034625072
114	0x3d695e8d	0.056974936
115	0xbbaa36ad	-0.005194506
116	0xbbc9ca15	-0.0061581233
117	0x3c3b4899	0.011430883
118	0xbd38938c	-0.045062587
119	0xbd3b30a9	-0.045700703
120	0x3b2f1639	0.0026716127
121	0xbd54ae23	-0.051923882
122	0xbc47bfed	-0.012191755
123	0xbd8e67e7	-0.069534115
124	0xbd0be9ef	-0.034158643
125	0xba3310a4	-0.0006830788
126	0x3d27cc13	0.040966105
127	0xbc3450fc	-0.011005636
128	0xbcc59a8f	-0.02412155
129	0xbcd01822	-0.025402132
130	0x3d0bcbd8	0.034129947
131	0x3da4cb2c	0.080465645
132	0x3b9d6dc5	0.0048043453
133	0xbcc7d5b5	-0.024393896
134	0xbdd20ee8	-0.102567494
135	0x3cef5c6f	0.02921888
136	0xbdcad10b	-0.09903153
137	0xbc536727	-0.012903011
138	0x3c976f98	0.01848583
139	0xbc123e54	-0.008925993
140	0x3c53d5ea	0.012929419
141	0x3da6502c	0.0812076
142	0xbc4d94a7	-0.0125476485
143	0xbcb570fa	-0.022148598
144	0xbda87513	-0.08225455
145	0xbc5c2b15	-0.013438006
146	0x3d0bfc01	0.034175877
147	0xbdc702b8	-0.097173154
148	0xbd517335	-0.05113526
149	0xbc306e6b	-0.010768513
150	0xbc845426	-0.016153406
151	0x3ba06624	0.0048949886
152	0xbd063e66	-0.03277435
153	0x3b4a5b57	0.0030877197
154	0x3d8f5747	0.06999069
155	0xbb9713ce	-0.004610515
156	0x3bfb917d	0.0076772557
157	0x3d9ab569	0.075541325
158	0xbc51f752	-0.012815313
159	0xbd953613	-0.072857045
160	0xbca50c75	-0.020147542
161	0x3d6eb90d	0.058281947
162	0x3d973a15	0.07384125
163	0x3d1a102b	0.037613075
164	0x3d4c83bd	0.049930323
165	0xbb1c6098	-0.0023861285
166	0xbc03bf1a	-0.008041168
167	0x3d053962	0.032525428
168	0xbc896cef	-0.016775576
169	0xbcb6ef5f	-0.022330938
170	0xbc60a15a	-0.013710344
171	0xbda0ea18	-0.0785715
172	0x3d312b94	0.04325445
173	0x3c94b8eb	0.018154582
174	0x3d109a3b	0.035303336
175	0x3d4fb093	0.050705504
176	0x3be446a2	0.006966428
177	0xbcec6662	-0.028857414
178	0xbcf4c6d7	-0.02987997
179	0x3d16b69c	0.036795244
180	0x3dd7500f	0.10513317
181	0x3cd9b76b	0.026576718
182	0xbd059dc3	-0.032621156
183	0xbd35226f	-0.04422229
184	0x3d806413	0.06269088
185	0x3dd22378	0.102606714
186	0x3d11c441	0.035587553
187	0x3c58c3b0	0.013230249
188	0x3c50734a	0.0127228
189	0xbc82744e	-0.015924599
190	0x3d806837	0.062698774
191	0x3d4baf83	0.049727928
192	0xba686ab3	-0.0008865997
193	0xbd9586cd	-0.07301102
194	0xbcba5cae	-0.022749271
195	0x3d8d096b	0.06886562
196	0xbd81f6c6	-0.063458964
197	0x3e339be8	0.17539942
198	0x3d7d8a38	0.061899394
199	0x3a9c949c	0.0011946145
200	0xbd5f956d	-0.054585863
201	0x3b6ebaba	0.0036427216
202	0xbd473952	-0.04863865
203	0xbd0eb801	-0.03484345
204	0xbd6f1edf	-0.05837905
205	0xbd21b72f	-0.039481338
206	0xbbc266af	-0.005932651
207	0x3ce09bb5	0.027417997
208	0x3cd5a20d	0.026078248
209	0x3dd1d9dd	0.10246632
210	0x3c3778e3	0.011198255
211	0x3cb62415	0.022234002
212	0x3d4991ca	0.0492113
213	0x3ce6c0da	0.02816813
214	0xbd247e3d	-0.040159453
215	0xbdb20426	-0.086921975
216	0xbda0dc82	-0.078545585
217	0xbd9f9a85	-0.07793144
218	0xbcf2e40a	-0.029649753
219	0x3c9a4125	0.018829891
220	0x3d8cbfb6	0.068725035
221	0xbd059f38	-0.032622546
222	0xbdf1e903	-0.118120216
223	0x3d33382f	0.043754753
224	0xbc8e109a	-0.0173419
225	0xbcd81ae0	-0.026380002
226	0xbceb61c7	-0.028733147
227	0xba92b14c	-0.0011191755
228	0xbd1737de	-0.036918513
229	0x3dff8f98	0.1247856
230	0xbbb1998b	-0.005419915
231	0x3d83b3a2	0.064307466
232	0x3d73df13	0.059538912
233	0x3d83e12f	0.06439435
234	0xbc97ba1f	-0.018521367
235	0x3d24973b	0.040183287
236	0xbd01c044	-0.0316775
237	0xbcc66c36	-0.02422152
238	0xbd22fe7a	-0.03979347
239	0x3ccfe9bb	0.025380006
240	0x3d0a2387	0.033725288
241	0xbd3541ac	-0.044252083
242	0x3d757725	0.05992808
243	0x3d56d0d8	0.052445263
244	0x3cfe79ad	0.031063879
245	0xbd0d6153	-0.034516644
246	0x3d55b36b	0.05217306
247	0x3d98312b	0.07431253
248	0xbd47ff23	-0.0488273
249	0xbd129f08	-0.035796195
250	0xbd9c5969	-0.07634241
251	0x3cc41f88	0.023940817
252	0xbb40291b	-0.0029321376
253	0x3d1079ca	0.035272397
254	0x3cf0a143	0.02937377
255	0x3d94f34b	0.07272967

bias f4 [64]
0	0x3d36b336	0.044604503
1	0x3c615177	0.013752333
2	0x3cf48ffd	0.029853815
3	0xbcafc877	-0.021457894
4	0xbc973a64	-0.01846046
5	0x3d3e7713	0.046500277
6	0xbd6e70a2	-0.058212884
7	0x3d0e8162	0.034791358
8	0x3d2e8746	0.042609476
9	0xbdea66b2	-0.11445369
10	0xbd05be40	-0.03265214
11	0xbd556b43	-0.052104246
12	0xbd350bd6	-0.04420074
13	0x3d8a37b1	0.067489035
14	0x3bba7af3	0.005690926
15	0xbc2f272b	-0.010690491
16	0x3db9553e	0.09049462
17	0x3d8d4226	0.068973824
18	0x3d410be3	0.047130477
19	0xbba2c16f	-0.0049669067
20	0x3d2a465a	0.041571
21	0xbc5f0610	-0.013612285
22	0x3c153b4b	0.009108375
23	0x3d60b2c0	0.05485797
24	0x3d675b38	0.056483477
25	0xbc94cd90	-0.018164426
26	0xbc9fd80d	-0.0195122
27	0x3b99aecf	0.0046900283
28	0xbddbd443	-0.10733845
29	0x3d2dfc57	0.04247698
30	0x3d91ae1a	0.07113285
31	0x3ada53fa	0.0016657107
32	0xbcb38505	-0.021914015
33	0x3c552af7	0.013010732
34	0xbd84722b	-0.06467088
35	0x3d0d5a07	0.034509685
36	0x3cfa186b	0.030529222
37	0xbc795698	-0.015218399
38	0xbd2c8a40	-0.042124033
39	0x3d931035	0.071808256
40	0x3d3dd40b	0.046344798
41	0x3d4884b8	0.048954695
42	0xbd3a4d5d	-0.045483936
43	0xbdb81ca4	-0.08989838
44	0xbc8a9b41	-0.016919734
45	0x3d518e9a	0.051161386
46	0x3d6e79c5	0.058221597
47	0x3dd6751f	0.10471558
48	0xbd70cae2	-0.058787234
49	0xb8ecd71f	-0.00011293426
50	0xbc865076	-0.016395789
51	0xbcdd4622	-0.027010981
52	0x3d34675d	0.044043887
53	0xbc82e13f	-0.015976546
54	0x3d0924b0	0.033482254
55	0x3b1aaf7b	0.002360313
56	0x3d2747f1	0.040840093
57	0xbce6f4f3	-0.028192973
58	0xbc84b094	-0.01619748
59	0xbc28b886	-0.0102979
60	0xbcdf25d5	-0.02723972
61	0x3c8e655d	0.017382318
62	0x3d12a12f	0.035798248
63	0xbde933bd	-0.113868214

weight f4 [7, 64]
0	0xbd1f4be7	-0.038890745
1	0xbca85fb0	-0.02055344
2	0x3bc9ac76	0.006154592
3	0x3dfe1d37	0.12407916
4	0x3d009ff1	0.031402532
5	0xbdaa37b7	-0.08311408
6	0xbc870c7e	-0.016485449
7	0xbc9bdfe1	-0.019027652
8	0x3d1b35b3	0.03789301
9	0x3d7960fd	0.06088351
10	0xbd77bbc0	-0.060481787
11	0xbda7d3c3	-0.08194687
12	0x3d54c217	0.05194291
13	0x3d80201b	0.06256124
14	0xbd6f03ab	-0.058353107
15	0xbd08568f	-0.033285674
16	0x3d7c209a	0.06155453
17	0xbdb96829	-0.0905307
18	0xbb8d3915	-0.004309783
19	0xbdac2e7c	-0.08407304
20	0xbcc6ad6c	-0.024252616
21	0xbd958816	-0.07301347
22	0x3cf04275	0.029328564
23	0x3cca53f6	0.024698239
24	0x3d0f520c	0.034990355
25	0xbca98fdc	-0.02069848
26	0xbc833a44	-0.016018994
27	0x3cf194e8	0.02948995
28	0x3b06b192	0.0020552617
29	0x3d09fa45	0.03368594
30	0xbc52ea83	-0.012873295
31	0xbd3d17d4	-0.046165302
32	0x3ce5e478	0.028063044
33	0x3c22137a	0.009892339
34	0x3d16f037	0.03685018
35	0xbc0f0862	-0.008730026
36	0xbd75cfe2	-0.060012706
37	0xbced0250	-0.028931767
38	0xbd0c5e4e	-0.034269623
39	0xbd8493c3	-0.06473496
40	0x3c60a79a	0.013711834
41	0x3d730752	0.059333153
42	0xbe041b21	-0.12900974
43	0x3c1f20d4	0.009712417
44	0xbc2a44bc	-0.010392364
45	0x3c849a2c	0.016186796
46	0xbcadc4a7	-0.021211935
47	0xbbc4647f	-0.0059934254
48	0x3d358534	0.044316486
49	0x3d164bc8	0.036693364
50	0x3ca0fe9c	0.019652657
51	0x3db7e5bb	0.089793645
52	0x3da8af03	0.08236506
53	0xbd3e94fa	-0.046528794
54	0xbe046a36	-0.12931141
55	0x3c9c8ec7	0.01911105
56	0xbcbbcdce	-0.022925284
57	0xbd96c208	-0.07361227
58	0x3cbb0d09	0.022833364
59	0xbd94138a	-0.07230289
60	0x3ca0467c	0.01956486
61	0xbcf03fa0	-0.029327214
62	0xbc5f7162	-0.013637872
63	0x3dcd3dc8	0.100215495
64	0x3c1cc87c	0.009569284
65	0xbb751fff	-0.0037403104
66	0x3d0804bf	0.03320765
67	0xbd690a6d	-0.05689471
68	0xbd048a3f	-0.032358404
69	0x3bd069a5	0.00636025
70	0x3dbb39db	0.091418944
71	0xbcbda7d3	-0.023151314
72	0x3c9f39d4	0.019436754
73	0x3c058fa8	0.008151926
74	0xbcaad3aa	-0.020852882
75	0xbd0d0740	-0.034430742
76	0xbd0169fc	-0.031595215
77	0xbc17de84	-0.00926936
78	0xbd696acf	-0.056986626
79	0xbd24957f	-0.040181633
80	0x3cefd92b	0.029278358
81	0x3ce927df	0.028461395
82	0xbd823ed0	-0.06359637
83	0x3d317ddf	0.04333293
84	0x3dc425fc	0.095775574
85	0xbd3cb411	-0.046070162
86	0xbcf7199b	-0.030163577
87	0x3bc8db5c	0.0061296653
88	0xbcf208e8	-0.029545262
89	0x3b8f38f3	0.0043708025
90	0xbcb6b57f	-0.022303341
91	0xbc229301	-0.009922744
92	0x3cad575c	0.02115982
93	0xbd628cd7	-0.055310097
94	0xbd50dbea	-0.050990976
95	0x3d39582b	0.0452501
96	0xbd3199bd	-0.043359507
97	0xbb4bf7af	-0.0031122973
98	0xbd852c3a	-0.06502576
99	0xbcb210dc	-0.021736555
100	0xbd0d6972	-0.03452439
101	0x3d6d83bd	0.057986964
102	0xbd212af3	-0.0393476
103	0xbd8019e4	-0.06254938
104	0x3dbec721	0.093153246
105	0x3aa62791	0.0012676587
106	0xbd565de2	-0.052335627
107	0xbb354227	-0.0027657838
108	0x3ccee2bd	0.025254602
109	0x3c5b2507	0.013375527
110	0xbdd34653	-0.10316148
111	0xbc3ebdaf	-0.011641904
112	0xbd115fee	-0.035491876
113	0x3cba2f10	0.02272752
114	0xbd374330	-0.04474181
115	0xbc3f7002	-0.01168442
116	0xbd49124e	-0.049089722
117	0x3cb78168	0.022400573
118	0x3d94ea80	0.0727129
119	0xbc714583	-0.014726046
120	0x3d8b0639	0.06788296
121	0xbd4a9757	-0.049460735
122	0xbad9246f	-0.0016566644
123	0xbbe13f57	-0.006874006
124	0x3ccc2b9c	0.024923138
125	0xbd089bbb	-0.03335164
126	0xbde9f58a	-0.11423786
127	0xbd809136	-0.06277697
128	0xbd097c1e	-0.033565633
129	0xbba626a4	-0.0050705243
130	0x3cbe8ad3	0.023259556
131	0x3ca31c6c	0.019911014
132	0xbc0c3f04	-0.008559946
133	0xbc820787	-0.01587273
134	0xbd915ef3	-0.07098188
135	0x3cd4477a	0.025912989
136	0xbc7a1c6b	-0.015265564
137	0x3d866d6f	0.065638416
138	0xb9552e60	-0.00020330539
139	0x3d5226fd	0.051306713
140	0xbcfb8e1a	-0.030707408
141	0xbd0927f4	-0.033485368
142	0xbd879a1a	-0.066211894
143	0x3d31abb4	0.04337664
144	0xbd83ef59	-0.06442136
145	0xbd900dd4	-0.070338875
146	0xbd6853fb	-0.056720715
147	0x3dabd330	0.0838989
148	0x3d82cafb	0.06386372
149	0xbc595f37	-0.01326733
150	0xbd4d6bb3	-0.050151538
151	0x3c8a78ff	0.016903399
152	0x3ca417d3	0.020030892
153	0x3d36b3e4	0.04460515
154	0x3d810230	0.06299245
155	0x3d958001	0.072998054
156	0xbcbb77d0	-0.02288428
157	0x3d7f4aa7	0.062327053
158	0xbc4df06d	-0.012569529
159	0x3d204473	0.03912778
160	0xbc9e5833	-0.019329166
161	0x3923b49e	0.00015612177
162	0x3ce9f2fa	0.028558243
163	0xbc6c3773	-0.014417517
164	0xbccc59bd	-0.024945134
165	0xbbd50bbb	-0.0065016425
166	0x3d920ac3	0.07130959
167	0xbd821fe3	-0.06353738
168	0x3d95d798	0.07316512
169	0x3c92defe	0.017928597
170	0x3de2e0ba	0.110780194
171	0xbd36e455	-0.04465135
172	0x3c926d84	0.017874487
173	0x3d1d3fab	0.038390797
174	0x3d0291f3	0.03187747
175	0x3db97643	0.0905576
176	0xbccdc8f7	-0.025120242
177	0xbd0035ad	-0.03130119
178	0xbca7707b	-0.020439377
179	0x3c36593f	0.011129676
180	0xbde1e725	-0.110304154
181	0x3d3a1be1	0.045436744
182	0x3bd09792	0.006365725
183	0x3da3a334	0.07990113
184	0x3d0e0443	0.034672033
185	0x3d9a45e0	0.07532859
186	0xbd6a7da8	-0.05724874
187	0x3cc62ef3	0.024192309
188	0x3d88ae77	0.066739015
189	0x3d1ca61b	0.038244348
190	0x3b985d28	0.004649777
191	0xbdcc602f	-0.09979283
192	0x3cd79385	0.02631546
193	0x3da6d3f0	0.081458926
194	0x3d80d63c	0.06290862
195	0xbd2bc9f5	-0.041940648
196	0x3cc704d1	0.024294289
197	0xbc02bf3e	-0.007980166
198	0xbdb53cd8	-0.08849496
199	0xbdb97ea9	-0.09057362
200	0x3c749dd2	0.014930205
201	0x3d7b9fc7	0.061431672
202	0xbbfdd50a	-0.0077463435
203	0x3d65553f	0.0559895
204	0x3d0489a7	0.032357838
205	0xbd3dc47b	-0.046329957
206	0xbd5a070d	-0.05322938
207	0x3d188498	0.037235826
208	0x3b4ddc6b	0.0031411897
209	0x3cb6e3fe	0.022325512
210	0xbd526f3b	-0.05137561
211	0x3d4295fa	0.04750631
212	0xbd9adb9f	-0.07561421
213	0xbb0b8696	-0.0021289936
214	0xbd29b20b	-0.04142956
215	0x3ce5f4c3	0.028070813
216	0xbd0ee76c	-0.03488867
217	0xbccf8b10	-0.025334865
218	0xbc8f36ad	-0.017482126
219	0x3d0e3d9e	0.03472673
220	0x3ce7311b	0.028221657
221	0x3d8d0223	0.06885173
222	0xbc9973ce	-0.018731978
223	0xbdff7fc8	-0.12475544
224	0xbd8d3aa9	-0.06895954
225	0x3d9cdf46	0.076597735
226	0xbc21ce90	-0.0098759085
227	0x3d82b71e	0.06382583
228	0x3c5d317f	0.01350057
229	0xbcbaccb0	-0.02280268
230	0x3d7a5a03	0.061120998
231	0xbd25f5f7	-0.040517773
232	0x3e19ca31	0.15018536
233	0x3d43d420	0.04780972
234	0xbd3f65eb	-0.046728056
235	0x3cf378b0	0.029720634
236	0xbd0d4ef0	-0.03449911
237	0xbcfd244b	-0.030901095
238	0xbd2daaec	-0.042399332
239	0xbdd40573	-0.10352602
240	0xbd2ca255	-0.042147
241	0xbd5f3df5	-0.054502446
242	0x3cb6555f	0.022257505
243	0xbcc4eea4	-0.024039574
244	0xbd1e5b7d	-0.03866147
245	0xbd6ff74d	-0.058585454
246	0xbd0c2227	-0.034212258
247	0xbcdc7992	-0.026913438
248	0x3ce426bd	0.027850503
249	0xbbf1f2d5	-0.007383684
250	0x3d9babde	0.076011404
251	0x3d2768d8	0.04087147
252	0x3d70f03a	0.058822848
253	0xbd662ac2	-0.05619312
254	0xbb1816f3	-0.0023207038
255	0x3d82335f	0.063574545

bias f4 [7]
0	0xbdbc0ea3	-0.09182479
1	0x3bd7c43d	0.0065846727
2	0xbda8d55a	-0.082438186
3	0xbce64770	-0.028110236
4	0xb995d7fb	-0.00028580413
5	0xbd24e373	-0.040255975
6	0x3cbd5e17	0.023116155
