ga_weights/ga2/Hopper-v5/PPO/weights3.pt (torch, 23457 bytes, 6 tensors)

weight f4 [64, 11]
00000000: 54fb 8bbd 5e8c 823d 10c7 e53c 74bd f83e
00000010: 7766 f03e bf6e 1c3f b326 b83e f055 403f
00000020: ab52 48be 703d 70bc 3298 3f3e 90dc 773d
00000030: 49d4 2c3e 4602 723e 40fe f8be 36ba f7be
00000040: 282a e33e 4c9a 26be fa7d c13e 988f 373f
00000050: 3002 533e 2d92 a53e dac6 12bf e569 4d3e
00000060: 08a4 84bf d112 993f b24e 6d3e 2b2c 54be
00000070: f74e 3b3e f921 9fbe 786c ce3c c382 a5be
00000080: be2f e8be c026 bb3e 1da2 e13e 8bdf 653e
00000090: befd 9ebd 2e66 923e 03f4 f13e fa8a 0e3e
000000a0: d357 d9be 1c65 143d 1a67 0d3f 6c6b c2bd
000000b0: 9058 cb3d 1823 1b3e f46b 0fbe e1bb 2bbf
000000c0: 5a84 333e be7e a3be 9063 d53d 390f 013e
000000d0: 2513 153e 1a7f d53e 239b 903e 8ac4 c43d
000000e0: 7a6b 903d 8a91 18bf a2aa cb3e 75e5 213f
000000f0: 288b 4a3e f257 2cbd 28ef 89be 06b4 c7bd
00000100: 6897 69bf 66c8 0abe 4603 ca3e 47df 913d
00000110: 788e ce3d c77d d9be fce2 8cbe 377f 3cbe
00000120: 66f3 78be 61fc ff3e 2470 09bf 7aaa dd3d
00000130: b257 c33e fe78 113f 18cc 7d3e 88d7 503e
00000140: 0f25 6cbd 2411 f4be b68d 49bf ca84 d3bd
00000150: 3574 b2be 8103 c63d cb44 103e affc 8abe
00000160: a694 0a3e 3b85 8b3e 079d cf3e 4082 9d3c
00000170: 6a86 8fbe 62ef 38bf 3660 a03d 06b0 75be
00000180: 7cff d33e 22fa 593f b8cf d5bc dea0 2bbe
00000190: 97b3 a83e 2ef3 273e ae34 fc3e 961c 8b3e
000001a0: 1a26 84be 3f5b a23e aafa 283e 0ae3 afbe
000001b0: c4d3 6abe 76f1 d6be 4dce 88be 30a7 113f
000001c0: c011 e03e 4261 12be 0e8a 0e3f 9686 9cbd
000001d0: 80ff 5fbb 50b4 15bf 62a9 253e 5e8d 8fbe
000001e0: 20bc e4be 8129 2d3f 42bb 233e dc87 583e
000001f0: 9081 f6bb cef8 9d3e 4c7b 7e3d f1bb b2be
00000200: f6c5 5dbf e97b 793e 3d8e 9e3e d08a c5be
00000210: f445 34bd 533a a2be 8148 563e b13e c0bd
00000220: e76e 66be 0b11 0a3f 4f34 113f 63ce 39bf
00000230: f051 633d da4f c9be 6a85 81be 8054 d7bb
00000240: 2707 2c3f c070 a5be bedb e13d 9e28 1fbe
00000250: b5ff debe 60f5 473e 86c5 0e3e 3ed0 b83c
00000260: f125 5d3d 0491 5d3f 2843 113d 2c91 b6be
00000270: 2a19 0dbf 8924 a93e 1556 76be 20e1 8a3e
00000280: e0b8 ef3e 8223 a73e 4289 52bf 6f65 293e
00000290: d89b e33e 1ddf b6bd 55c1 e3bd 8aa9 973e
000002a0: 4298 c7be 3e03 0f3d 53cf 323e fe07 10be
000002b0: d619 073f 6675 983e b3db 2b3f 9b9a 153f
000002c0: 1c2c e93e 7042 02bf 527e aabe c87e 4e3e
000002d0: dcd4 98bc 67f0 e4be 655d e5bd 7999 cb3d
000002e0: ab2f 653f 3e9e 1a3e 1016 e7be 8234 babc
000002f0: 5dd6 b33e 99b4 54bf e4ef 67bd bf08 d5be
00000300: aeb5 0bbe 82f0 19bf 1466 4cbf 5dde 47be
00000310: f654 06be 620a 2bbe 4ab9 723e d3a9 423f
00000320: 50bf a13e 3b0b 283f ff16 073e 26e5 c73d
00000330: 6d67 8c3f 836f 1bbe ba4a 05bf 94ae 1ebf
00000340: 7dad 49bf d934 82be ddf0 a63e 66d2 9cbe
00000350: 9070 823e 12d7 513d d2cc 1fbe faa9 42be
00000360: d08c 3abf 6be5 b03e 2e12 87be e099 8bbd
00000370: e652 1a3d e6ec 9dbe 1ee5 b83d e2d4 673f
00000380: d779 67be 24a8 2bbd a19b ed3e 14bc e6bd
00000390: 6d4c 28bf 7f9f 963e b6fe 50bf ddec fa3e
000003a0: 30a9 91bd 3af9 e8bd 9412 75be 92cb 57bf
000003b0: 5476 24bf 945d 93be e36e ba3e ea48 25be
000003c0: aa1c ae3d 6421 573e ede5 063f 99a8 883e
000003d0: 9a18 04bf e65c 163f f272 ddbe a1ff e13e
000003e0: e441 9ebd a899 af3e d0e1 81bc f003 88be
000003f0: 268e 55bd 8311 523f 12e9 a4be 8fd6 f03e
-0.068350464 0.06374429 0.028049022 0.4858204 0.46953174 0.61106485 0.35967025 0.7513113
-0.19562785 -0.014663085 0.18710402 0.06051308 0.16877855 0.2363368 -0.48631477 -0.48384255
0.443681 -0.16269797 0.37791425 0.7170348 0.20606303 0.32338086 -0.57334673 0.20059927
-1.0362558 1.1958867 0.23174551 -0.20719974 0.18291841 -0.31080607 0.025198206 -0.32326326
-0.45348924 0.36553 0.44068995 0.22448556 -0.07763241 0.28593582 0.4725648 0.13920203
-0.42449817 0.036229238 0.55235445 -0.09493145 0.09929001 0.15150106 -0.14006025 -0.67083555
0.17530957 -0.31932634 0.10419381 0.12603463 0.14558084 0.41698533 0.2824336 0.09607799
0.070517495 -0.59597075 0.3977862 0.6324075 0.19779646 -0.04207606 -0.26940274 -0.097511336
-0.9124665 -0.13553008 0.39455622 0.07122665 0.100857675 -0.42478773 -0.27516925 -0.18407904
-0.24311599 0.49997237 -0.5368674 0.108235314 0.38152844 0.56825244 0.24784887 0.20394719
-0.05765253 -0.47669327 -0.7873186 -0.10328062 -0.34854284 0.09668637 0.14088742 -0.27145907
0.13533267 0.27250084 0.4054949 0.019227147 -0.28032237 -0.7224027 0.07830851 -0.23992929
0.41405857 0.851473 -0.026100025 -0.16760585 0.32949516 0.1640136 0.4925894 0.27170247
-0.2581032 0.3171024 0.16501871 -0.34352905 -0.22932345 -0.41981095 -0.26719895 0.5689573
0.43763542 -0.14294913 0.55679405 -0.07642858 -0.003417939 -0.5847826 0.16177896 -0.28037542
-0.44674778 0.67641455 0.15989402 0.21145576 -0.0075227693 0.30853885 0.062129304 -0.34909013
-0.8663019 0.24363674 0.30967894 -0.38582468 -0.044012025 -0.31685123 0.20926096 -0.093869574
-0.22503243 0.53932256 0.5672044 -0.72580546 0.055498064 -0.39318734 -0.252971 -0.0065713525
0.67198414 -0.32312584 0.110282406 -0.15542838 -0.43554464 0.19527197 0.13942537 0.022560235
0.053991262 0.865494 0.035464436 -0.35657632 -0.5511652 0.33035687 -0.24056275 0.27124882
0.46820736 0.32644278 -0.8224069 0.165426 0.44454837 -0.08929274 -0.111208595 0.29621536
-0.3898335 0.0349152 0.174619 -0.14065549 0.527738 0.29777068 0.6713211 0.58439034
0.45541465 -0.50882626 -0.332995 0.2016555 -0.018656187 -0.44714662 -0.11199454 0.09941382
0.8952586 0.15099427 -0.4513402 -0.022730116 0.35124484 -0.8308807 -0.056625262 -0.41608235
-0.13643524 -0.6013261 -0.7984326 -0.19518419 -0.13118348 -0.1670318 0.23703495 0.7604038
0.31591272 0.65642136 0.13192366 0.097605035 1.0969063 -0.15179257 -0.5206715 -0.61985135
-0.7878035 -0.25430945 0.3260564 -0.3062927 0.25476503 0.051230498 -0.15605476 -0.19010153
-0.7287111 0.34550032 -0.26381058 -0.06816459 0.037676714 -0.30844802 0.09028076 0.9055921
-0.22605072 -0.0419084 0.46407798 -0.11266342 -0.65741616 0.2941856 -0.8163866 0.49008837
-0.07112348 -0.11375661 -0.23932868 -0.84295 -0.64243054 -0.28782332 0.36412725 -0.16141096
0.08501561 0.21008831 0.5269459 0.2669113 -0.5160004 0.587355 -0.4325176 0.44140342
-0.077274114 0.34296918 -0.015854746 -0.26565504 -0.052137516 0.8205797 -0.3220907 0.47038695

bias f4 [64]
00000000: fbef dabd 809a c1bb b045 5cbe 3a0a c0be
00000010: 5cc4 fe3c c87d a53e d0ca 063e 9a0a 05be
00000020: 8c57 023e 96b7 6abe b429 173d 7ad1 dfbe
00000030: 3a4e 443d 442f 393e 1a6b 40bd 0462 843d
00000040: 931d 1fbe ba5a 8abc 15ee a7be 76b1 2f3f
00000050: 9f9b f1bd 8401 afbd df74 d33e 684d d33e
00000060: 1a8c 5b3d aaa8 913e ccb2 67bd 2900 23be
00000070: 2907 1e3e 3771 0b3f de29 10bf bf51 43be
00000080: 9490 773e 25e8 3b3f 0024 5f3b 3205 18bf
00000090: 4c7a 7b3e a973 aa3e 0810 acbe fae0 36be
000000a0: fe7e 98be 9fbc 5cbe c8fa edbe 91f7 3fbf
000000b0: 2d7a 37bf 48da 6d3e 7783 14be 38af 0abf
000000c0: 005d 08bd bd89 423e 5caf 453f 0857 2cbd
000000d0: bed7 d7be b5f7 973e 213c f93d 2203 533e
000000e0: 20f2 fc3d fe38 883e 18be 2a3c b224 bebe
000000f0: f9dd b3be 0363 4d3e 4563 a4bd 46ec a13d
-0.10690304 -0.0059083104 -0.21510959 -0.37507802 0.03109949 0.32322526 0.13163304 -0.12992325
0.12728709 -0.22921595 0.036905006 -0.43714505 0.047926165 0.18084437 -0.04697714 0.064640075
-0.15538625 -0.016888965 -0.3279883 0.6863016 -0.117972605 -0.08545211 0.41300103 0.41269994
0.053600408 0.28448993 -0.056567 -0.1591803 0.15432419 0.5446963 -0.56313884 -0.19074152
0.24176246 0.734011 0.0034048557 -0.5938293 0.24558371 0.33291367 -0.3360598 -0.17859259
-0.29784387 -0.21556328 -0.46480393 -0.7498713 -0.716708 0.23227799 -0.14503275 -0.5417361
-0.033291817 0.18997855 0.772207 -0.042075187 -0.42156786 0.29681173 0.12169672 0.20606664
0.12350869 0.26605982 0.010421298 -0.3713737 -0.3513029 0.20057301 -0.08026747 0.07906394

weight f4 [64, 64]
00000000: ce26 203e 34df 4bbd 165a e83d 70ed 4abe
00000010: abed 25bf c886 213f 2a05 16be 6d73 84be
00000020: ea2f bebd 7893 c8bd 72c0 d6bc c6c4 a2be
00000030: 61d2 f6be 5254 293f 37d0 1dbf bcbd de3e
00000040: e035 e6bd aa4b 533e 420b 323e ae01 9a3e
00000050: fe5d 9b3d 5b20 1dbf 8041 3fbc a039 fd3e
00000060: ae6e 9bbd 1870 703e 4582 01bf a02f 8e3d
00000070: 3d3b 47be a4ac 98be ee71 86be 6653 d4bc
00000080: f335 23be 7437 613c 5acf 073f 89cc 913e
00000090: dcd8 e23c c0ba 473e 34a6 28bf a4df 38bd
000000a0: 7a94 08bf c7f0 2fbe 800a e33e fb7c 2b3e
000000b0: f853 d33d c8f8 1f3c 00cd 833d 30e7 2bbe
000000c0: f8ad b1be 534e 8bbe ba01 c5bc 082a 203f
000000d0: 0d5e 143e 06b6 e9be 873d 773e a826 92bc
000000e0: a1a3 6abe d51a 283e 34f7 d7be ac96 e6be
000000f0: 5c19 423d eb8c 013e c682 963d ea60 fabe
00000100: 383a ad3e 3c52 343e fc46 153e ae4d 4ebd
00000110: 2ac5 583d c789 0f3d 48ab 473e a237 48be
00000120: d092 b3be 1365 673f 64f8 853e 0b46 873e
00000130: 0441 b23d 2429 9abd d595 0f3f 33ae fabe
00000140: 12af 293f d4a4 d53e dcba 1a3e 1773 2bbf
00000150: 30c3 9c3c dd00 823f b166 00bf 6ec7 d0be
00000160: e5c7 503e d6e8 ac3e af69 4d3f c69f eabd
00000170: 80a4 af3a a65f f0be 3304 f5be e03c 0dbf
00000180: 8f65 ba3d 787f 823c 1e11 d43d 9196 333f
00000190: d860 55be 2288 5e3e 7eca 2fbf d256 153f
000001a0: 6877 f1be 5a76 2ebe 0e3a 66bd ee7b c83e
000001b0: d13b 663e 384d abbc 895a 8d3e 196f 373f
000001c0: 0bf8 cb3e 066b 403f 268f 8fbe bfb3 ddbe
000001d0: 876e 2fbe 565e 27bf 9093 75be 8e9c 283e
000001e0: 6fcb 0dbf 92a4 663e 1e38 693e e042 753d
000001f0: 708d bbbc 3a88 febd d4cc 3d3f 14f1 66be
00000200: 6d22 a53e 0161 f53e a65b edbe 9727 533f
00000210: 5a5f 5abf e98a 623e a732 223f 62c8 e63d
00000220: f92e 0ebf 5e2d cb3e 0f5c 64be e86f a03c
00000230: 3eb6 d3be 6b83 043e 1828 a13e f8f5 fd3b
00000240: 8c12 46bd ee00 e0be 8604 76be 081e f4be
00000250: 0001 8fbd 8e8e a4be 10aa f8be e924 e5bd
00000260: be45 45be 20fe 6fbc eadc d53e 802a 08bf
00000270: aa3b ad3d 2b57 95be 1bcc ba3e 3875 133e
00000280: 6031 ba3e 90a0 23bd 1970 653e 4856 7dbe
00000290: 7473 083e b68e c13d bc25 233e 41f3 20be
000002a0: dced 91be 09b1 223f b298 543f 737b 2b3e
000002b0: 303c 91bc c4b4 cdbe 2404 3a3c 9749 263e
000002c0: 8bd1 613e e98b aa3e a4cb 35bf 6ade 4cbf
000002d0: 6444 0a3d 55a4 3cbe 2fe3 2fbe 7575 153e
000002e0: a116 a2bd d4d5 80be 2c29 6cbe 93fb ecbe
000002f0: c005 ce3e 6276 9abe a295 83bd c9cb 4ebd
00000300: 4667 64be ceb4 13bf d8d2 b63c 6234 d7be
00000310: c0df 3ebb 9375 fa3d dbc7 903e f01a 143e
00000320: d8f9 d8bc a86a 293f 73b7 32bf ae0c a6be
00000330: d622 90be cd01 e63e 805a 133a fb4e 253f
00000340: cd95 d53e 80e8 e8bc 53f2 3abe 1481 95bd
00000350: 330e 10bf 34c8 1bbf 3ac3 863e 3cfe d83c
00000360: e9d3 06bf 604b b63e 9869 a83e 6051 88be
00000370: 5e9f e8be 4057 4ebe fad9 093e 42fd 383f
00000380: d88e 74bc 4ce9 9c3e d452 523d f114 65be
00000390: 502d 6d3e a77e bb3e 57ea c4be 0894 583e
000003a0: a0d6 1d3d 02e7 753e ea33 553e f46e 2e3e
000003b0: 120d 52bf bdbb cabe 782c b83e 9331 c3be
000003c0: b8b9 6cbe 03cb d33e 0ebe 95bd 5c60 e63e
000003d0: 48fc 193c 03f6 013e 2446 4b3d 1eed 283f
000003e0: 5eb9 9fbe 59ec ab3d 85de 29bf cdbb 64be
000003f0: 833a b5bd 58c2 56bd 69a0 2abf c386 9f3e
0.15639803 -0.04977341 0.113453075 -0.19817138 -0.6481578 0.63096285 -0.14650407 -0.25869313
-0.09286483 -0.097937524 -0.026214812 -0.3179075 -0.4820738 0.6614429 -0.61645836 0.4350413
-0.112407446 0.20634332 0.17387107 0.30079406 0.07586287 -0.61377496 -0.011673331 0.49458027
-0.0758947 0.2348026 -0.505894 0.069426775 -0.19456191 -0.29819214 -0.26258796 -0.025918674
-0.15938549 0.013746131 0.5305077 0.2847636 0.027691297 0.19504833 -0.65878606 -0.045135155
-0.5335156 -0.17181693 0.44343948 0.16746895 0.1031875 0.009763904 0.06435585 -0.1678741
-0.3470304 -0.27208194 -0.024048675 0.62564135 0.14489003 -0.45646685 0.24144565 -0.017840698
-0.22913982 0.16416486 -0.4218079 -0.4503683 0.047387466 0.12651412 0.07349162 -0.48902065
0.3383348 0.17609495 0.1457786 -0.05036705 0.052922405 0.035043504 0.19498932 -0.19552472
-0.35072947 0.903886 0.2616607 0.26420626 0.08703807 -0.07527378 0.56088 -0.48961028
0.6628276 0.41727316 0.15110344 -0.6697249 0.019136041 1.0156513 -0.50156695 -0.40777153
0.20388754 0.3377139 0.80239385 -0.114562556 0.0013400465 -0.46947974 -0.47854766 -0.5517101
0.09101402 0.015929922 0.10354827 0.7015162 -0.20837724 0.21731618 -0.68668354 0.583356
-0.47161412 -0.17037335 -0.05620771 0.3915705 0.22483756 -0.020910844 0.27608135 0.71653897
0.3983768 0.75163305 -0.280389 -0.43301198 -0.17132007 -0.6537832 -0.23982072 0.16465971
-0.5538854 0.22523716 0.22775313 0.05987823 -0.022894591 -0.12428327 0.7414067 -0.22552902
0.32252827 0.4792557 -0.46358985 0.82482284 -0.85301745 0.22123303 0.6335854 0.11268689
-0.55540425 0.3968305 -0.22300743 0.019584611 -0.41349977 0.12940757 0.31475902 0.007750269
-0.04835753 -0.4375071 -0.24025163 -0.47679162 -0.069826126 -0.3214001 -0.48567247 -0.11188681
-0.19264886 -0.01464799 0.41770107 -0.5318985 0.08458646 -0.29168066 0.36483845 0.14400184
0.36365795 -0.039948046 0.22406043 -0.24739945 0.13325292 0.09451048 0.15932363 -0.15717794
-0.28501785 0.63551384 0.83045495 0.16746311 -0.017728895 -0.40176976 0.011353526 0.1623901
0.2205259 0.33309868 -0.71013856 -0.80026877 0.03375663 -0.18422063 -0.17176507 0.14595588
-0.07914472 -0.25163138 -0.23062581 -0.46285686 0.40238762 -0.30168444 -0.064250246 -0.050487313
-0.2230502 -0.5769776 0.022317335 -0.42032152 -0.0029125065 0.12229457 0.28277478 0.14463401
-0.026486322 0.6617837 -0.6981117 -0.3243155 -0.28151578 0.4492325 0.00056210905 0.6457364
0.4171585 -0.028431177 -0.18256502 -0.0730001 -0.56271666 -0.6085236 0.2632082 0.026488416
-0.526671 0.35604382 0.32893062 -0.26624584 -0.45434088 -0.2015047 0.13462058 0.7226144
-0.014926635 0.3064674 0.051348522 -0.2237127 0.23161817 0.36620066 -0.38460037 0.2115022
0.03853476 0.24013904 0.20820585 0.17034513 -0.82051194 -0.39596358 0.35971427 -0.3812376
-0.23117721 0.41365823 -0.07311641 0.4499539 0.009398527 0.12691502 0.04962744 0.6598681
-0.3119611 0.08394689 -0.6635516 -0.22337265 -0.08849051 -0.052431434 -0.66651016 0.31157503

bias f4 [64]
00000000: 4203 493e 3ab0 0fbd 16c6 d13d 4218 4e3e
00000010: ee00 373e 01cb 9e3e fc7a d23d 6e5c 29bf
00000020: 7495 edbc bc13 92bd 9dd7 2e3e f4d3 dcbc
00000030: 194a 2fbf 6ebe 633e 85f9 d53e 408d 093e
00000040: 1eee a43d e6b6 7cbe 40d3 11bf 7cfd c33e
00000050: fb28 003f bc02 3fbf bed3 89be 4241 9e3e
00000060: 5d5a 1b3f 00f7 45bc 79d1 01bf a224 c13d
00000070: 3fa6 173f 5028 3abf 08a3 833f 9b9e 263f
00000080: 6abf 70be 2b29 c83e 9dba ffbe 45e7 07be
00000090: 9062 9f3e 2cda 4bbe f522 ac3e 7210 a3be
000000a0: 327e c1be 3a0f 63bd 9265 113f 141c 813c
000000b0: d8e8 3f3e 440e 1d3e 2231 143d e86b 4abe
000000c0: 5860 323f ce85 ac3d 87d0 0e3f 1255 ca3d
000000d0: ec6a 53bd 489b d5bd 0614 1d3f 7a6d 883e
000000e0: 12e9 6fbe c0ac 003b 5026 e93e 7137 0e3f
000000f0: 8020 3a3d e023 083f 8d16 bb3d 0ed0 1cbf
0.19630149 -0.035080172 0.1024286 0.20126441 0.17871448 0.31014255 0.10277364 -0.6615666
-0.029001929 -0.0713267 0.17074437 -0.026956536 -0.6847244 0.22240612 0.4179193 0.13432789
0.0805323 -0.24679145 -0.56962967 0.3827933 0.5006253 -0.7461355 -0.2691936 0.30909163
0.6068476 -0.012082815 -0.50710255 0.09430815 0.59238046 -0.7271776 1.0284128 0.6508576
-0.23510519 0.3909391 -0.49947062 -0.13271816 0.31129885 -0.19907445 0.3362042 -0.31848484
-0.37791592 -0.055434443 0.5679561 0.015760459 0.18741167 0.15337473 0.03617967 -0.19767725
0.6967826 0.08423959 0.5578694 0.09879507 -0.05161564 -0.10430008 0.6135868 0.26646024
-0.23428753 0.0019634217 0.45537043 0.55553347 0.04544115 0.5317974 0.091351606 -0.61254966

weight f4 [3, 64]
00000000: c92e 5d3e de6a fdbe b82e 0dbd 00de 853c
00000010: 8a44 3dbe 761e 95be 1172 33bf 18bc e8be
00000020: 34a4 10be aa60 4c3f c067 fabd 61ed 8f3e
00000030: f5f2 aebd c652 5a3f 568f 193e f84c 0f3e
00000040: 062c cf3e 05a8 ccbd 8c62 11be 70c9 babd
00000050: 4381 943e 469e e63e 95fb a8be 33cb 9c3e
00000060: 5481 fbbc 6f84 3abe 2324 c7bd 5f7d ab3d
00000070: 900c 423e 807e be3e 9fda 95be 1a32 b3be
00000080: 16ba d1bd 2d26 973e 203a 36bf 90dc 383f
00000090: 0e0c 963d cc53 7c3e 3889 2a3f a8e2 e73c
000000a0: 8013 253b 0c5f 233f 4069 383b 653a a6be
000000b0: 0bde fabe 94b5 93be bd58 aabe f8c6 40bd
000000c0: 7853 993e 211a 233f a1c9 8d3d 1f4f 1c3f
000000d0: b0b0 cfbe 2f26 8fbe 0a84 2c3e 7c94 c93e
000000e0: d0a0 48be 6077 e93b 06b8 cfbe 26c9 3d3d
000000f0: 9c91 fbbd 5087 08bf d07d 1e3f 75bb a4be
00000100: 4f7c 773d 9d6f 56be 7b9d 19bf 8a57 963d
00000110: 3a53 4f3f 49b3 abbd 3aa9 05be 159d c3be
00000120: a0be ff3e 86a9 f03e 8996 cdbe 88da a23d
00000130: 0585 8fbe 0817 ad3d 506c 2d3e 10b7 453e
00000140: 1ea9 f73d 006d 4c3e 5ad6 c63e cfb7 49bf
00000150: 44d6 febd 5bce 843d 2373 283e 18c7 283e
00000160: e993 45be f899 6dbd d279 ec3d 17fa 1e3f
00000170: dcd9 b03e 7d97 a13e 729f 493f e110 003e
00000180: afc7 fb3d a0c9 febc e21b 85be 757f 863e
00000190: 4724 c4be a857 d83e 3345 6e3e f48f 3b3d
000001a0: 56a9 b6bb 24d8 cbbe 0ddb 423f 6ca9 f63d
000001b0: fe3a f13e 118a c83e 1c24 d4bc be4f d53e
000001c0: 9c0d c13e 1c95 043d 5ec7 0ebe 982d 42be
000001d0: f449 febe 2238 80bd dc9a 67be 33b1 8bbe
000001e0: 5bea bc3d b907 22be 8523 b8be b0ee 4a3c
000001f0: 075b 893d 31e9 223f d7dd cfbe 30d6 0cbb
00000200: e6b2 fcbe 2c2f d3bc c066 993e 374f d83e
00000210: 2fef 1d3f cb79 bd3e 7aec 923e d113 a33e
00000220: 567b 2bbd a6b9 5d3d 3f8e e0be 0cfa eb3c
00000230: 3fe6 0cbe 713c e6be 6e7c aebd 1036 003f
00000240: d4aa a8be ed4a 11bf 3e9d 343e 4f97 63bf
00000250: 5e6f 08be fff5 9cbe 5a65 aebe 7827 b53c
00000260: f71a 96be 9eac bfbe a205 08be 52d3 943d
00000270: 94c5 83be 56dc 40be ac9e 6fbd ce1c 1e3f
00000280: d3a8 653e db83 a83e 3ec9 8d3e 2ad5 72be
00000290: b851 763f 6761 67bf 181a 82bd 17c5 003f
000002a0: ac8d 95bd 212d 833d 7eba 02bf d04d 05bd
000002b0: f31d 61be 544a 263d eb3c 873e 9cd6 8fbe
000002c0: 73a6 debe 400c 2c3d ea25 873d 28b9 eabc
000002d0: c7e3 223f 7874 a93e ae52 823e 0a53 d13e
000002e0: b30a 94be 53c5 213f 39c9 30be 4dc9 5d3d
000002f0: a898 83be e6d3 4e3e 8e4c 993e 3718 143f
0.21599878 -0.49495596 -0.034468383 0.01634121 -0.18483177 -0.29124802 -0.70095927 -0.45456004
-0.14125139 0.79835 -0.1222682 0.28110793 -0.08542434 0.8528255 0.14996085 0.13994205
0.40463275 -0.09992985 -0.14197749 -0.091204524 0.2900487 0.45042628 -0.33004442 0.3062378
-0.030701317 -0.18214582 -0.097236894 0.08373522 0.18950105 0.37205887 -0.29268357 -0.34999162
-0.10240571 0.29521313 -0.7118244 0.7221155 0.07326518 0.24641341 0.6661563 0.02830632
0.0025188625 0.63816905 0.0028138906 -0.32466426 -0.4899753 -0.2884947 -0.33270827 -0.04706475
0.29946494 0.63711745 0.06923223 0.6105823 -0.4056449 -0.2795882 0.16847244 0.39371097
-0.19592595 0.0071248263 -0.40570086 0.04633441 -0.12283632 -0.5333147 0.61910725 -0.32174268
0.060421284 -0.20941015 -0.6000592 0.073409155 0.8098637 -0.08383805 -0.13052836 -0.38205782
0.49950123 0.47004336 -0.40153912 0.07951838 -0.28031173 0.084516585 0.16935849 0.19308114
0.120928034 0.19963455 0.38835412 -0.78796095 -0.12443212 0.06484672 0.16450171 0.16482198
-0.19294704 -0.058008164 0.11546673 0.62100357 0.34541214 0.3156089 0.7875892 0.12506439
0.12293946 -0.031102002 -0.25997835 0.26269117 -0.38308927 0.42254376 0.23268585 0.04579158
-0.0055743856 -0.3981334 0.76115495 0.120440334 0.4711532 0.39167836 -0.025896125 0.416624
0.37705696 0.032368764 -0.1394324 -0.18962705 -0.49665797 -0.062607065 -0.22617668 -0.2728363
0.09224387 -0.15823258 -0.359646 0.012386009 0.06706815 0.6363707 -0.40598938 -0.002148997
-0.4935524 -0.02577933 0.29961205 0.42247936 0.6169309 0.37006983 0.28696042 0.31851056
-0.04186567 0.054132126 -0.43858525 0.028805755 -0.13759707 -0.44967988 -0.08519827 0.5008249
-0.32942832 -0.5675495 0.17638108 -0.88902754 -0.13323733 -0.3065643 -0.340617 0.022113547
-0.29317448 -0.37436384 -0.13283399 0.07266869 -0.25736678 -0.18834051 -0.05850093 0.617627
0.22427683 0.32913098 0.27692598 -0.23714128 0.9621844 -0.90383 -0.06352633 0.50300735
-0.073024124 0.06405092 -0.51065814 -0.03254491 -0.21984081 0.04059823 0.26413664 -0.2809342
-0.43486366 0.04200387 0.065990284 -0.028652743 0.6362881 0.3309667 0.25453705 0.40883666
-0.28914413 0.6319172 -0.1726426 0.054147054 -0.25702405 0.2019802 0.2994122 0.5784945

bias f4 [3]
00000000: 4a78 173f 8273 693e 8e0d 743e
0.5916792 0.22797969 0.23833296
