ga_weights/ga2/Hopper-v5/PPO/weights8.pt (torch, 23457 bytes, 6 tensors)

weight f4 [64, 11]
0	0x3e644ec2	0.22295669
1	0xbf034f44	-0.51292825
2	0xbe365e92	-0.17809513
3	0x3ec64f44	0.3873235
4	0xbfc639d5	-1.5486399
5	0xbef1b67b	-0.47209534
6	0xbf442b57	-0.7662863
7	0x3f3cd48e	0.7376183
8	0x3f8f9b51	1.1219274
9	0x3f3b1a24	0.7308676
10	0xbf378d4f	-0.71699995
11	0xbf1ffde0	-0.6249676
12	0x3f86c41b	1.0528597
13	0x3df63958	0.12022656
14	0x3e17220e	0.14759085
15	0x3f680cfc	0.9064481
16	0x3f108537	0.5645327
17	0xbe3abfec	-0.18237275
18	0x3f62088c	0.8829429
19	0x3f2599ff	0.64688104
20	0xbef11f3d	-0.47094145
21	0x3ed2130e	0.41030163
22	0xbea51c3f	-0.32248113
23	0xbda51ceb	-0.08062156
24	0x3ed850b4	0.42249072
25	0x3ee38bf4	0.44442713
26	0xbf3c4650	-0.7354479
27	0xbf4f58a8	-0.80994654
28	0x3e000bd4	0.12504512
29	0xbf822578	-1.0167685
30	0x3e6c0d0b	0.2305185
31	0x3da6efde	0.0815122
32	0x3ece7924	0.40326798
33	0x3f380f97	0.7189879
34	0x3f9affbc	1.2109294
35	0xbed1c06f	-0.40967128
36	0x3f5b8c2b	0.85760754
37	0xbf0b5caf	-0.544383
38	0x3e057527	0.13032971
39	0x3f575110	0.84108067
40	0x3f9043d1	1.1270696
41	0xbfc57103	-1.5425113
42	0x3d957dae	0.07299362
43	0x3ced6bd0	0.028982073
44	0x3f61844a	0.8809248
45	0x3e40b272	0.18818071
46	0xbe9ef1b9	-0.31043795
47	0xbd2a9a54	-0.041651085
48	0x3f8dcd12	1.1078207
49	0x3e4b4d16	0.19853625
50	0xbf0f0aae	-0.5587567
51	0x3f220bc8	0.63299227
52	0xbf618046	-0.88086355
53	0x3f707e2b	0.9394252
54	0xbe9a31c6	-0.301161
55	0xbedc506f	-0.43030116
56	0xbee57700	-0.44817352
57	0x3ee5e290	0.44899416
58	0x3f23f141	0.6404
59	0x3fbfa3bf	1.4971846
60	0x3f21212d	0.6294125
61	0xbd61fa48	-0.055170327
62	0xbf31eefc	-0.69505286
63	0xbdd43c94	-0.10363117
64	0xbf331e9a	-0.6996857
65	0x3f733141	0.9499703
66	0x3cb5e25c	0.022202663
67	0x3e81f94c	0.2538551
68	0x3f5710c3	0.8400995
69	0x3fab7155	1.3393961
70	0xbd8982b3	-0.06714382
71	0xbf041d3e	-0.5160712
72	0x3d8b12de	0.06790708
73	0xbf87da71	-1.0613538
74	0x3ddb97c8	0.10722309
75	0x3d209e5e	0.03921353
76	0xbe10110e	-0.14069006
77	0x3eb72106	0.35767382
78	0xbdd2165d	-0.10258172
79	0x3e3464d4	0.17616588
80	0x3f83cfaf	1.0297755
81	0x3e852f25	0.2601253
82	0x3e81d6f6	0.25359315
83	0xbec46578	-0.38358665
84	0xbf2753ec	-0.6536243
85	0xbf4dcd28	-0.8039117
86	0x3b28b700	0.0025743842
87	0xbe836174	-0.25660288
88	0x3dc1cb5f	0.09462618
89	0xbf20eb0a	-0.6285864
90	0xbf8b44fc	-1.0880427
91	0x3f736a13	0.9508373
92	0xbfa9b757	-1.3259076
93	0x3f5ae837	0.8551058
94	0xbdc88122	-0.09790255
95	0xbf12b532	-0.5730773
96	0xbe245997	-0.16049801
97	0x3e99e93f	0.30060765
98	0x3d4e4948	0.050362855
99	0xbf11f394	-0.57012296
100	0xbf23211f	-0.63722414
101	0x3f5b1d82	0.855919
102	0xbd2e9038	-0.042618006
103	0xbfcce311	-1.6006795
104	0x3ed21e80	0.41038895
105	0xbf5b00e8	-0.8554826
106	0x3f6f12ad	0.9338787
107	0xbf9ba56d	-1.2159859
108	0xbf155be7	-0.58343357
109	0xbefa7626	-0.48918265
110	0x3ed0daba	0.40791875
111	0x3eb10c43	0.34579667
112	0xbf2aaa36	-0.6666597
113	0xbf0dbdee	-0.55367935
114	0xbecf12c0	-0.40443993
115	0xbf3e7352	-0.74394715
116	0x3f198fe7	0.599852
117	0x3e4d0fbd	0.20025535
118	0x3f494e67	0.7863526
119	0xbf0e76b6	-0.5564989
120	0x3d7e025e	0.062013976
121	0x3e00bbd6	0.12571654
122	0xbec40228	-0.38282895
123	0xbf39f0b2	-0.72632897
124	0xbf18354f	-0.5945634
125	0xbed34e3e	-0.41270632
126	0x3e8daa22	0.27668864
127	0x3ed7ae44	0.42125142
128	0x3e7af045	0.24505718
129	0x3eda0d58	0.42588305
130	0xbe908184	-0.28223813
131	0x3f748ad1	0.9552432
132	0xbf5d7e8d	-0.86521226
133	0x3f182f18	0.5944686
134	0x3eec2698	0.46123195
135	0xbe97ccd9	-0.29648474
136	0x3f07fa5d	0.531164
137	0xba576900	-0.00082172453
138	0x3bc3a078	0.005970057
139	0x3f094314	0.5361798
140	0xbee348fd	-0.44391623
141	0x3d477140	0.048691988
142	0xbef10742	-0.4707585
143	0x3f6be044	0.9213908
144	0x3f44eb02	0.76921093
145	0x3cc86d98	0.02446632
146	0x3f0d34a1	0.5515843
147	0xbeddf3c0	-0.4335003
148	0xbf87cee3	-1.0610012
149	0x3df7b2fa	0.12094684
150	0xbe86f4c6	-0.26358622
151	0xbe802273	-0.25026283
152	0x3f784bd8	0.9699073
153	0xbcb572f4	-0.02214954
154	0xbe88cbaa	-0.26717883
155	0xbe2a456f	-0.1662805
156	0x3e88f88a	0.2675212
157	0x3e3fc2a4	0.18726593
158	0xbf931e7f	-1.1493682
159	0xbf467435	-0.7752107
160	0x3f1365d5	0.5757726
161	0x3f4390dd	0.7639292
162	0xbeaee7e2	-0.34161288
163	0xbf025196	-0.5090574
164	0xbf0fa036	-0.5610384
165	0x3f1c93d8	0.6116309
166	0xbf3ecc15	-0.74530154
167	0x3ebf5808	0.3737185
168	0xbda9fa2e	-0.08299671
169	0xbe941eb0	-0.28929663
170	0x3fa3bfe6	1.2792938
171	0x3d2f4e82	0.04279948
172	0x3f5ff9e9	0.8749071
173	0xbe102921	-0.1407819
174	0xbf0def4b	-0.5544326
175	0x3f86bda5	1.0526625
176	0x3fa6b9ec	1.3025489
177	0x3fce85b0	1.6134548
178	0x3f532b9b	0.8248841
179	0x3e552fca	0.20819011
180	0xbf0461fc	-0.5171201
181	0xbf038592	-0.5137569
182	0x3f412196	0.75441873
183	0xbe39154e	-0.18074533
184	0x3e36ea6e	0.17862865
185	0x3e6dac36	0.23210225
186	0x3e5774cd	0.2104065
187	0x3ec0a736	0.37627572
188	0x3f1fee8a	0.62473357
189	0x3fb56337	1.4170903
190	0xbe6c0a44	-0.23050791
191	0xbfa5d7cf	-1.2956485
192	0xbf1942f9	-0.5986782
193	0x3f845102	1.0337222
194	0xbee5415c	-0.44776428
195	0xbf9301d1	-1.1484929
196	0xbe8eccc4	-0.278906
197	0xbbc2df00	-0.005946994
198	0xbdfdc8b9	-0.123918004
199	0x3ed853df	0.4225149
200	0x3dc73d68	0.09728509
201	0x3fc68331	1.5508786
202	0x3ea04764	0.31304467
203	0x3dcac0da	0.09900065
204	0x3ee30244	0.44337666
205	0xbe10b882	-0.14132884
206	0x3f49948a	0.7874228
207	0x3dfecc3a	0.12441297
208	0x3e3f6ec0	0.18694592
209	0xbf45b488	-0.77228594
210	0xbebf115d	-0.37317935
211	0x3dd8004f	0.10546934
212	0x3f1e020e	0.61721885
213	0x3f547a44	0.8299906
214	0x3e92edde	0.28697103
215	0x3f38ef16	0.72239816
216	0xbd6a70c5	-0.05723645
217	0xbf01246c	-0.504462
218	0xbe8f2fc4	-0.2796613
219	0x3e519386	0.20466432
220	0x3ef86802	0.48516852
221	0xbf486588	-0.78279924
222	0xbef18ca4	-0.47177613
223	0xbed560f8	-0.41675544
224	0x3f6134ef	0.87971395
225	0x3f832d6a	1.0248234
226	0xbea21f0f	-0.3166432
227	0xbf4c7bde	-0.79876506
228	0x3e94227b	0.28932557
229	0x3d79fcbf	0.061032053
230	0xbd198177	-0.037476983
231	0x3f24bf2d	0.6435421
232	0xbf8a74df	-1.0816916
233	0x3dfbc213	0.12292876
234	0xbe5d935c	-0.21638244
235	0x3ec8c6bd	0.39214125
236	0xbebc4152	-0.36768585
237	0xbe7632ad	-0.24042769
238	0xbf5d23d9	-0.86382824
239	0xbe070530	-0.13185573
240	0x3da87f3e	0.082273945
241	0xbee1992c	-0.44062173
242	0x3e37789a	0.179171
243	0x3ecb1aaf	0.39668795
244	0xbe06e123	-0.1317182
245	0x3faa97ee	1.3327615
246	0x3f5f79ce	0.87295234
247	0x3eda90ee	0.42688698
248	0x3f072cc8	0.52802706
249	0x3ed0d110	0.40784502
250	0x3f43a924	0.76429963
251	0x3e9956f0	0.2994914
252	0xbceedafc	-0.029157154
253	0x3f368f64	0.71312547
254	0x3ed5ebd6	0.4178149
255	0xbf23afe3	-0.63940257

bias f4 [64]
0	0xbed4e6ae	-0.41582245
1	0x3f064293	0.52445334
2	0x3e960259	0.29298666
3	0xbf28aef9	-0.6589199
4	0xbe996f6f	-0.2996783
5	0x3edb7196	0.42860097
6	0x3ce21054	0.027595676
7	0xbf3b7fee	-0.7324208
8	0xbe8a9e2f	-0.2707381
9	0x3f19fa18	0.6014724
10	0xbe81c194	-0.25343
11	0x3eae12cf	0.33998725
12	0x3f3f80e7	0.74806064
13	0x3cf638ea	0.030056436
14	0x3d4605ba	0.048345305
15	0xbec19cc4	-0.37814915
16	0x3f262a2c	0.649081
17	0x3ecfee6a	0.40611583
18	0x3e04fbad	0.12986632
19	0x3e89bff4	0.2690426
20	0xbf6b61ca	-0.9194609
21	0x3db4cb12	0.08827795
22	0x3eb07c2f	0.34469745
23	0x3e662ec2	0.22478774
24	0x3ee46e04	0.44615185
25	0xbf5ece04	-0.87033105
26	0xbeecf0d4	-0.46277487
27	0x3dec78b2	0.11546458
28	0x3d9bf060	0.07614207
29	0x3f202960	0.62563133
30	0x3f152b2b	0.58268994
31	0x3fbab366	1.4585998
32	0xbec756a5	-0.38933292
33	0xbe9b93a3	-0.30386075
34	0x3f1c05d9	0.6094642
35	0x3e5a5bcf	0.21324085
36	0xbf57efee	-0.8435048
37	0x3ea2ccd8	0.31796908
38	0x3f22b836	0.63562334
39	0x3de439ce	0.11143838
40	0x3f7145d4	0.94247174
41	0xbeae6b33	-0.34066162
42	0xbf49ae00	-0.7878113
43	0xbee3aaea	-0.44466335
44	0xbfd19259	-1.6372787
45	0xbef485bc	-0.4775828
46	0xbda7006f	-0.081543796
47	0x3c95c930	0.01828441
48	0xbf9b8fae	-1.2153223
49	0xbe9c6fc3	-0.30554017
50	0xbd7dff62	-0.06201113
51	0x3f3b330e	0.7312478
52	0x3fac5c74	1.3465714
53	0x3fa5ca5e	1.2952383
54	0xbe2e659c	-0.17030948
55	0x3ea12c32	0.3147903
56	0x3e35bf20	0.1774869
57	0xbd4d428d	-0.050112296
58	0x3f20eb2f	0.6285886
59	0xbe081198	-0.13287961
60	0xbf81d3b9	-1.0142738
61	0xbe546157	-0.20740257
62	0xbf6b8359	-0.91997296
63	0xbedff9f1	-0.43745378

weight f4 [64, 64]
0	0x3e36f21e	0.17865798
1	0x3e2394d8	0.15974748
2	0xbee5e566	-0.4490158
3	0x3f46cbcc	0.7765472
4	0xbe934019	-0.2875984
5	0xbf1fe5b0	-0.6245985
6	0xbf40187e	-0.7503737
7	0x3e475be6	0.1946865
8	0xbd6b4179	-0.057435486
9	0xbe384844	-0.17996317
10	0xbea0d3c0	-0.31411552
11	0xbe020502	-0.12697223
12	0x3e088504	0.13331991
13	0xbe157a65	-0.14597471
14	0x3ea4b799	0.32171324
15	0xbf233d49	-0.6376539
16	0xbeb351e0	-0.35023403
17	0xbe4b4287	-0.19849597
18	0x3e6ad0cc	0.22931212
19	0x3e937757	0.28801987
20	0x3f7ac245	0.9795268
21	0x3eab6140	0.33472633
22	0x3e56b75b	0.20968382
23	0x3f637d55	0.88863117
24	0x3ece00eb	0.40235075
25	0x3f82a4e8	1.0206575
26	0x3e90f796	0.28313893
27	0x3f1b0297	0.60550827
28	0x3ec75acf	0.3893647
29	0x3e309010	0.17242455
30	0x3e99ed5c	0.30063903
31	0x3f9eb69d	1.2399479
32	0x3ebdfc45	0.3710653
33	0xbf54c40b	-0.8311164
34	0x3f3b8a7d	0.7325819
35	0x3ef2e3c4	0.47439396
36	0xbf70ba31	-0.94034106
37	0xbfbc7ba6	-1.4725235
38	0xbf04f468	-0.51935434
39	0xbfaa878f	-1.3322619
40	0x3f22e619	0.6363235
41	0x3eca911b	0.39563832
42	0x3d6de360	0.05807817
43	0xbf2b10dc	-0.668226
44	0xbf1adef1	-0.6049643
45	0xbd57f595	-0.05272444
46	0x3f4ecacc	0.80778193
47	0xbfaa5fa8	-1.3310442
48	0x3ea672aa	0.32509357
49	0xbf1ecff9	-0.6203609
50	0x3fb37f10	1.4023151
51	0xbe960b29	-0.2930539
52	0x3e35672b	0.17715137
53	0x3f979f90	1.184557
54	0x3e1c86d6	0.15285811
55	0xbf6e63c6	-0.9312099
56	0x3d96c38a	0.07361515
57	0x3e1f7a3a	0.1557397
58	0xbbc6db30	-0.0060686097
59	0x3f22b385	0.63555175
60	0xbde076c7	-0.10960155
61	0xbfcef9d0	-1.6169987
62	0x3ecd609a	0.40112764
63	0x3e115b4d	0.14194985
64	0x3f0e87a0	0.556757
65	0xbf809b5c	-1.0047412
66	0xbf259f03	-0.6469576
67	0x3f8dd26b	1.107984
68	0xbe9a4bb6	-0.30135888
69	0xbe7bc634	-0.24587327
70	0xbecea15a	-0.40357476
71	0xbd721a8e	-0.059107356
72	0x3f49fe7e	0.7890395
73	0x3ead29fd	0.33821097
74	0x3da94105	0.082643546
75	0x3f4e203e	0.8051795
76	0xbe37cbc7	-0.17948829
77	0x3f8c9bb1	1.0985013
78	0x3e5f0b86	0.2178174
79	0x3fc5b08b	1.5444502
80	0xbeed943a	-0.4640215
81	0x3fd9c164	1.7012143
82	0xbe98724d	-0.29774705
83	0x3f09e4a4	0.538645
84	0x3e71ae8c	0.2360174
85	0x3ea151c6	0.315077
86	0xbfb7af27	-1.4350327
87	0x3edc120d	0.42982522
88	0xbff29434	-1.8951478
89	0xbf5e088f	-0.8673181
90	0x3d70c5ea	0.058782496
91	0xbebecc2e	-0.37265152
92	0xbfb6d233	-1.4282898
93	0x3ea34903	0.3189164
94	0x3e83a5ae	0.2571234
95	0xbb843960	-0.00403516
96	0xbe98521c	-0.29750144
97	0x3d50b964	0.050958052
98	0xbde336ae	-0.11094414
99	0xbf6134f0	-0.879714
100	0x3fbd3064	1.4780393
101	0x3e99d821	0.30047706
102	0xbf30cfac	-0.6906688
103	0x3e80d25f	0.251605
104	0x37ed4000	2.8282404e-05
105	0x3ef25f14	0.47338164
106	0xbf72a3bc	-0.9478109
107	0xbcfc4b60	-0.03079766
108	0xbeb34e5e	-0.35020727
109	0x3df39aa7	0.11894732
110	0x3b905ee0	0.004405841
111	0x3ee26a86	0.44221896
112	0xbf58b02e	-0.8464383
113	0xbee009d6	-0.43757504
114	0xbeeac8e4	-0.45856392
115	0xbf25fbf7	-0.6483759
116	0xbf427f6a	-0.7597567
117	0xbe5d3416	-0.216019
118	0xbf77e506	-0.9683384
119	0x3fa09d8c	1.254808
120	0xbf64d448	-0.89386415
121	0x3f2ea197	0.68215317
122	0x3de65faa	0.11248715
123	0xbe7529cf	-0.2394173
124	0xbf085790	-0.5325861
125	0x3f37f52e	0.7185849
126	0xc003abeb	-2.057368
127	0x3f6ef970	0.9334936
128	0xbe82287d	-0.25421515
129	0x3ee4bd21	0.44675544
130	0xbe15afbc	-0.14617819
131	0x3ec531bf	0.38514516
132	0xbe251c6a	-0.1612412
133	0xbd42abba	-0.047527052
134	0x3d8efde2	0.06982018
135	0xbd75ec4a	-0.060039796
136	0x3ed03c27	0.40670893
137	0xbfc1d4f7	-1.5143117
138	0x3f4746c6	0.77842367
139	0xbea1588b	-0.31512865
140	0x3f1314c2	0.5745355
141	0x3f5b9833	0.8577911
142	0x3e83f8d8	0.2577579
143	0xbfde41df	-1.7363852
144	0x3e6d6595	0.23183282
145	0xbe3902d0	-0.18067479
146	0x3f04c96f	0.51869863
147	0x3e1e7f36	0.15478215
148	0x3eadbaf8	0.33931708
149	0xbeaa5b49	-0.3327277
150	0x3ea723d7	0.3264453
151	0x3f80fcbd	1.007713
152	0x3e836c5f	0.25668618
153	0x3eabe383	0.33572015
154	0x3e4c5da9	0.19957604
155	0xbd443176	-0.047898732
156	0x3e8b813d	0.27247038
157	0x3f3bff45	0.73436385
158	0x3fbe2857	1.4856061
159	0xbf2359eb	-0.6380908
160	0xbe2764e2	-0.16347077
161	0x3f8a137d	1.0787197
162	0xbe8c93d9	-0.2745655
163	0x3ea562b2	0.3230186
164	0x3f530da6	0.824427
165	0x3c94a538	0.018145189
166	0x3ef8cccb	0.48593745
167	0x3e63e6bb	0.22255985
168	0xbe8c329a	-0.27382356
169	0xbea4a696	-0.32158345
170	0xbd3403f8	-0.043949097
171	0x3f0607c1	0.5235558
172	0x3da66d78	0.08126348
173	0xbebf3957	-0.37348434
174	0xbe0847d7	-0.13308655
175	0x3e9d1801	0.30682376
176	0xbeb636e4	-0.35588753
177	0xbf8249d2	-1.0178778
178	0x3d985a3e	0.07439087
179	0xbf48b462	-0.7840024
180	0x3f4bf830	0.7967558
181	0x3b35e2c8	0.002775358
182	0x3f1452db	0.5793893
183	0x3f786911	0.9703532
184	0x3d257920	0.040398717
185	0xbe2a38e2	-0.16623262
186	0x3f6829bc	0.9068868
187	0xbf0bc5d0	-0.5459871
188	0xbd71e192	-0.05905301
189	0x3eb7c004	0.35888684
190	0x3f6dd52c	0.929034
191	0xbfba2fc5	-1.4545828
192	0xbfacc895	-1.3498713
193	0x3d8e1d79	0.06939215
194	0xbf2348c2	-0.63782895
195	0x3e9bc34c	0.30422437
196	0x3f8fff79	1.1249839
197	0xbf06a9de	-0.52602947
198	0xbedb3d60	-0.42820263
199	0xbdfde5fd	-0.123973824
200	0xbf7067aa	-0.9390818
201	0x3f73e669	0.95273453
202	0x3e8ddd6a	0.27707988
203	0xbe633563	-0.22188334
204	0x3fb36a5a	1.4016831
205	0xbf350dfe	-0.70724475
206	0x3eea0b33	0.4571167
207	0x3da6d994	0.081469685
208	0xbdcda69c	-0.10041544
209	0xbf7354bc	-0.9505117
210	0x3e1beadd	0.15226312
211	0x3eee8fea	0.46594173
212	0x3e917283	0.28407678
213	0xbf163a9d	-0.58683187
214	0xbf1dc6e7	-0.61631626
215	0xbea23ab1	-0.31685403
216	0x3f578efb	0.84202546
217	0x3f5ea3d1	0.86968714
218	0x3f3f7d47	0.74800533
219	0xbf77974b	-0.9671523
220	0xbdcda80e	-0.100418195
221	0xbe7e93cc	-0.24861068
222	0xbf3d6836	-0.7398714
223	0x3f071b39	0.52775913
224	0xbda8c11c	-0.08239958
225	0xbf630222	-0.8867513
226	0x3f66110f	0.8986978
227	0x3eb47b4e	0.35250324
228	0x3ddd8d09	0.10817916
229	0x3e63c16e	0.22241756
230	0xbf590e50	-0.84787464
231	0x3e40c4b4	0.18825036
232	0xbed47d3c	-0.41501796
233	0xbe7a6c3a	-0.24455348
234	0xbe344788	-0.17605412
235	0xbf655104	-0.89576745
236	0xbe2e64c5	-0.17030628
237	0xbf0c2126	-0.5473808
238	0xbf1ec3e2	-0.62017643
239	0x3f007e5b	0.50192803
240	0xbf0fab84	-0.5612109
241	0xbf0fa366	-0.561087
242	0x3fe20f92	1.7661002
243	0xbf06a724	-0.52598786
244	0x3dc9aefb	0.09847828
245	0xbfaebeb9	-1.3651954
246	0x3ef9a819	0.4876106
247	0xbd9d2ae5	-0.07674197
248	0x3ec7302d	0.38903943
249	0x3f4093f8	0.7522578
250	0xbe2fdaa1	-0.17173244
251	0x3f9bc3c2	1.2169116
252	0x3f44458d	0.76668626
253	0xbee521ba	-0.44752294
254	0xbec6d97d	-0.38837805
255	0xbd49c72e	-0.04926222

bias f4 [64]
0	0x3f094d2e	0.5363339
1	0x3f357529	0.708819
2	0xbd12bb14	-0.035822943
3	0x3db50a8f	0.088399045
4	0xbeec085c	-0.46100128
5	0x3daff9a0	0.08592534
6	0x3e82a5e9	0.25517204
7	0x3f68a67e	0.90879047
8	0x3f9290e7	1.1450471
9	0x3eab0839	0.3340471
10	0xbf82a61e	-1.0206945
11	0xbec39830	-0.38202047
12	0xbe931b73	-0.2873188
13	0xbf6749f0	-0.90347195
14	0x3eac4890	0.3364911
15	0x3ebaebc1	0.3650799
16	0xbf730940	-0.9493599
17	0x3f964e35	1.1742617
18	0x3f66fe6e	0.9023198
19	0xbe95f146	-0.2928564
20	0xbf493ee9	-0.7861162
21	0x3caadd18	0.020857379
22	0x3faf0d1c	1.3675876
23	0xbe9aa310	-0.30202532
24	0xbe59d209	-0.21271528
25	0xbe2315fa	-0.15926352
26	0xbe79788c	-0.24362391
27	0xbf221278	-0.6330943
28	0x3e9d5244	0.30726826
29	0xbe160b65	-0.14652784
30	0xbf6b7253	-0.9197132
31	0x3fa0e772	1.2570632
32	0x3eca885f	0.39557168
33	0x3f27b140	0.6550484
34	0xbf812a38	-1.0091009
35	0xbf24f9fc	-0.64443946
36	0x3e967b0d	0.29390755
37	0x3e166558	0.14687097
38	0x3f9aefc8	1.2104425
39	0xbe2db578	-0.16963756
40	0x3f6b0e23	0.91818446
41	0x3f655f77	0.8959879
42	0xbeae83ba	-0.34084874
43	0x3ede8e68	0.43468022
44	0xbecc2b9d	-0.39877024
45	0x3e1ba088	0.15197957
46	0xbe1325b8	-0.14369857
47	0x3dd6824f	0.10474073
48	0xbed62ff3	-0.41833457
49	0xbfc09aaf	-1.5047206
50	0x3f086ea1	0.53293806
51	0xbf48bdfc	-0.78414893
52	0x3fb6e976	1.4289997
53	0x3e9152e5	0.28383556
54	0x3e888a12	0.2666784
55	0xbe53b882	-0.20675853
56	0x3e09aab6	0.13444027
57	0x3e05e915	0.13077195
58	0xbf7e952b	-0.9944636
59	0x3f1cad72	0.61202157
60	0xbeb6e2f2	-0.3572002
61	0xbf1931d4	-0.59841657
62	0x3f3d2dd8	0.73898077
63	0xbf313722	-0.6922475

weight f4 [3, 64]
0	0x3d75eb20	0.060038686
1	0x3f7348c4	0.95032907
2	0x3f158a46	0.58414114
3	0xbf051299	-0.519815
4	0xbf1f327f	-0.62186426
5	0x3ecf8ba0	0.40536213
6	0xbf596cf8	-0.849319
7	0xbf919d02	-1.137604
8	0x3ee82012	0.45336968
9	0x3f32192c	0.6956966
10	0xbe028c4f	-0.12748836
11	0x3f07560b	0.52865666
12	0xbf1ff788	-0.6248708
13	0x3f3d7556	0.74007165
14	0x3fac9140	1.3481827
15	0xbf62d08c	-0.8859947
16	0xbf703fd1	-0.93847376
17	0x3fcb75fb	1.589538
18	0x3ed27782	0.41106802
19	0x3e8ac002	0.27099615
20	0xbee7d875	-0.4528233
21	0x3f159612	0.58432114
22	0x3f670a6b	0.9025027
23	0x3f032af5	0.5123742
24	0x3e107c66	0.14109954
25	0xbf589dc3	-0.84615725
26	0xbe31e68f	-0.17373107
27	0x3c948b5c	0.018132858
28	0x3e48bcc0	0.19603252
29	0xbe85e1b1	-0.2614875
30	0xbef07d55	-0.4697062
31	0x3f96d7ff	1.1784667
32	0xbca1076a	-0.019656856
33	0x3e8dab65	0.27669826
34	0xbde496d3	-0.1116158
35	0x3dc3363a	0.09531827
36	0x3e0ba51d	0.13637204
37	0xbe9b6aa8	-0.3035481
38	0x3f6cef93	0.9255306
39	0xbeee97f2	-0.466003
40	0x3f29e952	0.66371644
41	0xbf0396b6	-0.5140184
42	0x3f78eba5	0.97234565
43	0xbfdde2cc	-1.7334838
44	0xbf8717b9	-1.0554115
45	0x3ea27ba6	0.3173496
46	0xbf6a9771	-0.9163733
47	0x3f9131f9	1.1343375
48	0x3f7c4b4c	0.98552394
49	0x3fad97db	1.3561968
50	0x3f81bbcb	1.0135435
51	0xbf9c5563	-1.2213558
52	0x3f4506fc	0.7696378
53	0xbd68ad68	-0.056805998
54	0xbe8df9a3	-0.2772952
55	0xbe4fe95f	-0.20303868
56	0x3f92e174	1.1475053
57	0xbf7054f6	-0.9387964
58	0xbe885524	-0.26627457
59	0xbee9655d	-0.45585147
60	0xbec27f18	-0.3798759
61	0x3e1ad7a2	0.1512132
62	0xbf596606	-0.849213
63	0xbc0380f8	-0.008026354
64	0xbf908dd5	-1.1293284
65	0x3f0fc386	0.5615772
66	0x3f0594e1	0.52180296
67	0x3eb0ac9e	0.34506696
68	0xbea2abbe	-0.31771654
69	0xbe939cce	-0.2883057
70	0xbf8f4e75	-1.1195818
71	0xbe03e8df	-0.12881802
72	0x3eac3090	0.336308
73	0xbe72bd6d	-0.23705073
74	0x3ea50505	0.32230392
75	0xbed5e870	-0.41778898
76	0x3e280ac4	0.16410357
77	0xbf5f441e	-0.87213314
78	0xbdd5e65c	-0.10444328
79	0x3f2dbf89	0.67870384
80	0x3f202255	0.62552387
81	0x3eb6a6d8	0.35674167
82	0x3e2d1d99	0.16905822
83	0x3f01a551	0.5064288
84	0xbf092922	-0.5357839
85	0x3f715e08	0.94284105
86	0xbecf8721	-0.40532783
87	0x3e9149fa	0.28376752
88	0xbe1e9d01	-0.1548958
89	0x3e8e6fc4	0.27819645
90	0x3eed1f64	0.46313012
91	0xbe28c7ba	-0.1648244
92	0xbe95b924	-0.29242814
93	0xbe7db39f	-0.24775551
94	0x3e212ec1	0.15740491
95	0xbf209b24	-0.62736726
96	0x3e7e6e69	0.24846806
97	0x3ebb6218	0.36598277
98	0x3ea1d406	0.31607074
99	0xbfb8c040	-1.443367
100	0x3f9d8794	1.2307
101	0xbfd9647d	-1.6983792
102	0x3f2ce9e6	0.675444
103	0x3ee8b563	0.45450887
104	0xbf3a38b0	-0.7274275
105	0x3eb3321e	0.34999174
106	0xbf2b06ea	-0.66807425
107	0xbd580dc7	-0.052747514
108	0x3f7e2eac	0.99289966
109	0x3eb40660	0.35161114
110	0x3f0a0579	0.539146
111	0xbe909871	-0.28241304
112	0xbecfb070	-0.405643
113	0xbf2fe62d	-0.68710595
114	0x3e920f2d	0.28527203
115	0x3dafe319	0.08588237
116	0xbc7a99c0	-0.015295446
117	0x3eed54ae	0.46353668
118	0xbed17200	-0.40907288
119	0x3ef56c06	0.47933978
120	0x3f5d3af9	0.8641811
121	0xbf1cfd04	-0.6132357
122	0xbfebf88d	-1.8435227
123	0x3c4b1570	0.012395248
124	0x3f1f2886	0.6217121
125	0xbeee3851	-0.4652734
126	0xbcd6bbb4	-0.02621255
127	0x3f9fc970	1.2483349
128	0x3e5ef548	0.21773255
129	0xbf60bef5	-0.8779138
130	0x3ec03d57	0.375468
131	0x3ee11605	0.43962112
132	0x3ed7e00b	0.4216312
133	0xbef3b19b	-0.4759644
134	0xbdd2dacc	-0.102956384
135	0xbeb63b6e	-0.35592216
136	0xbf4ee5be	-0.8081931
137	0xbfc6b553	-1.5524086
138	0x3f530e32	0.82443535
139	0x3dad8efa	0.08474536
140	0xbe867ef9	-0.26268747
141	0x3c37f43e	0.0112276655
142	0x3ed82cec	0.42221773
143	0xbeabe58d	-0.3357357
144	0xbf928222	-1.1445963
145	0xbdbceb7a	-0.09224601
146	0x3e114ffe	0.14190671
147	0x3f01ad07	0.50654644
148	0xbf1d0eda	-0.61350787
149	0xbe22dbaa	-0.15904108
150	0xbdcb93e5	-0.09940318
151	0x3f06816a	0.5254122
152	0x3fb2f6ff	1.3981627
153	0x3ec70e05	0.38877884
154	0x3f24de15	0.6440137
155	0xbd9b895d	-0.07594559
156	0xbf12483e	-0.5714148
157	0x3f90287f	1.1262358
158	0x3e2b5368	0.16731036
159	0xbf0e28cc	-0.55531
160	0x3f9820a3	1.188496
161	0xbf91bae4	-1.138516
162	0xbf4f5503	-0.8098909
163	0xbcf22ef7	-0.02956341
164	0x3f2316d1	0.6370669
165	0xbfb15e40	-1.3856888
166	0xbf514775	-0.8174966
167	0xbe17f3d2	-0.14839104
168	0xbe44df81	-0.19225885
169	0xbf7af13a	-0.9802433
170	0x3ee4807a	0.4462927
171	0x3f2b9f1f	0.67039675
172	0x3fab48ae	1.3381555
173	0x3f10cf20	0.5656605
174	0x3d4a11cc	0.04933338
175	0xbd88200a	-0.06646736
176	0x3eb5f380	0.35537338
177	0xbf6d5cfe	-0.9272002
178	0xbcbe41a6	-0.023224663
179	0x3f53b4b4	0.82697606
180	0x3f683324	0.90703034
181	0xbf0b5d5f	-0.5443935
182	0x3e962299	0.2932327
183	0x3de05e6e	0.10955511
184	0x3e93dd31	0.28879693
185	0x3fa8f70f	1.3200396
186	0xbef70ade	-0.48250479
187	0x3eba53b6	0.3639199
188	0x3e7a7162	0.24457315
189	0xbf8e18b4	-1.1101289
190	0xbf78a934	-0.97133183
191	0xbd83b151	-0.06430305

bias f4 [3]
0	0xbf5d0272	-0.86331856
1	0x3f32db4f	0.6986589
2	0xbdebd223	-0.1151469
