ga_weights/ga1/HalfCheetah-v5/PPO/weights1.pt (torch, 25761 bytes, 6 tensors)

weight f4 [64, 17]
-0.047875643 -0.27280992 0.04856653 0.057952277 0.26300505 -0.054719284 -0.026118431 -0.027127132
-0.16970539 -0.1282293 -0.28651094 -0.00074082613 -0.24133876 0.066571735 0.29833832 0.00028380193
0.18553744 0.19217184 0.21075876 -0.08520438 0.09631834 -0.22421376 0.004031131 0.24748401
-0.07651632 -0.09778107 0.12069516 -0.17306045 0.1555092 -0.19550781 0.1442364 -0.038159724
-0.022631537 -0.10836902 0.3965266 -0.06772501 -0.09871194 0.1303778 0.049380116 0.09765872
0.18328312 0.07221445 0.4185631 -0.04227636 0.2993924 0.11639955 0.1499398 -0.054886565
-0.07761476 0.14001139 0.2202461 -0.17562632 0.2876277 0.1528397 -0.07548433 0.06120417
0.01184895 -0.17133914 -0.12928852 -0.28350905 0.21851078 0.22841251 -0.13687523 0.013631176
0.20397417 0.105193846 -0.1680106 -0.18211463 -0.014289603 0.024067134 -0.27812782 0.27319443
0.11206375 0.043321252 -0.027183324 -0.012934176 -0.24149346 0.08465505 -0.090904355 0.11747679
0.17414433 -0.06923776 -0.18699697 0.04495836 -0.026645163 -0.009429382 0.23575963 -0.09310717
-0.021537561 -0.17533761 -0.19905588 -0.06706427 -0.07962996 0.36921513 0.041912332 0.3115696
-0.0076305196 -0.15683597 0.103577465 0.081446186 0.1274751 -0.22315556 0.009910423 0.24666914
0.13022438 0.12853521 -0.082547136 -0.18475509 -0.088134825 -0.22163402 0.21770401 0.06444295
-0.040053092 0.40165448 0.0061587975 0.20229135 0.03639751 0.19433312 0.04390891 0.13102278
0.04101879 -0.17970176 -0.17413089 -0.07166865 0.20365614 -0.054058738 0.08087015 0.28679255
-0.03771365 -0.18819554 -0.274621 -0.0412392 -0.39592305 -0.16268478 0.077405624 -0.13399759
0.2304909 -0.011777072 0.064051844 -0.15003645 0.0903341 0.1390048 -0.19933923 0.15008265
0.03707674 0.10400329 0.16449241 0.024156023 0.049645435 0.20792422 0.31334913 -0.079739526
-0.054864686 -0.16028704 -0.08022696 -0.21251953 -0.059023947 -0.37689346 -0.14216082 -0.18253745
0.3096025 0.07901691 -0.30338594 0.12929259 -0.10716592 -0.046465814 0.07960699 -0.0286154
-0.16528615 -0.15640156 0.025895247 -0.1405106 -0.019662984 0.057966474 -0.052888025 -0.10170856
-0.007848117 -0.049194377 -0.042949986 0.069787994 0.06367708 0.19299985 -0.18883961 -0.03987644
-0.19902888 0.010777898 0.006512299 0.07592455 -0.0032548364 0.080643624 0.024855435 -0.034926564
0.041064627 -0.045439765 -0.027970925 0.058927193 -0.043828845 0.27662253 -0.04793966 -0.018602364
-0.57924473 0.2545564 -0.12107663 0.24218607 -0.21294092 -0.11185342 -0.08030696 0.04947312
-0.0463748 0.013979122 -0.06727785 -0.13882767 0.18297824 0.04049184 -0.10349953 0.07251214
0.00087734056 0.024148248 -0.22142832 0.08976826 -0.1192399 -0.09313251 -0.032219905 -0.20790616
0.12709026 -0.0136459395 0.012491126 0.182074 0.08580521 0.016961763 0.09942635 -0.14262785
-0.061826624 -0.07877818 0.14842716 -0.20633575 -0.07661875 -0.00180538 0.14479677 0.18308032
0.10646318 0.17730641 -0.28389692 -0.12384419 0.039354354 -0.22460209 -0.0546696 -0.059839398
-0.029607447 0.10305668 0.26327252 -0.007616572 0.039941505 0.048064608 -0.005145443 -0.24462856
00000000: 4019 44bd bead 8bbe b3ed 463d 5e5f 6d3d
00000010: 99a8 863e 5421 60bd 52f6 d5bc b839 debc
00000020: 40c7 2dbe 8b4e 03be 90b1 92be 0034 42ba
00000030: 8221 77be c356 883d cdbf 983e 40cb 9439
00000040: 87fd 3d3e b2c8 443e 25d1 573e a27f aebd
00000050: 8d42 c53d 4b98 65be 9417 843b 736c 7d3e
00000060: 97b4 9cbd 7141 c8bd 062f f73d c236 31be
00000070: ce3d 1f3e 3333 48be b5b2 133e 5f4d 1cbd
00000080: c665 b9bc 94f0 ddbd 8905 cb3e 69b3 8abd
00000090: 7c29 cabd c281 053e ce42 4a3d 4c01 c83d
000000a0: 92ae 3b3e 2be5 933d e74d d63e fa29 2dbd
000000b0: f649 993e e362 ee3d d289 193e bcd0 60bd
000000c0: 7df4 9ebd 255f 0f3e 3288 613e 63d7 33be
000000d0: f043 933e 0382 1c3e 8797 9abd 39b1 7a3d
000000e0: 1922 423c 8773 2fbe 3664 04be 1928 91be
000000f0: 4ac1 5f3e f8e4 693e 0529 0cbe 4c55 5f3c
00000100: 9bde 503e df6f d73d f90a 2cbe 427c 3abe
00000110: f01e 6abc 7028 c53c c566 8ebe 24e0 8b3e
00000120: ae81 e53d a071 313d 90af debc dee9 53bc
00000130: 104a 77be a05f ad3d 102c babd ac97 f03d
00000140: e452 323e 87cc 8dbd 227c 3fbe 4226 383d
00000150: f546 dabc b27d 1abc f96a 713e f9ae bebd
00000160: 8a6f b0bc b48b 33be 4ed5 4bbe fe58 89bd
00000170: 0815 a3bd c409 bd3e 44ac 2b3d 0d86 9f3e
00000180: 7009 fabb 9c99 20be 6c20 d43d 42cd a63d
00000190: d588 023e e482 64be 545f 223c d696 7c3e
000001a0: 8a59 053e bc9e 033e 790e a9bd 7030 3dbe
000001b0: 0880 b4bd 07f4 62be cded 5e3e aafa 833d
000001c0: b60e 24bd a8a5 cd3e bdcf c93b 7725 4f3e
000001d0: 8e15 153d 43ff 463e d4d9 333d d62a 063e
000001e0: 5203 283d bd03 38be 5e4f 32be 03c7 92bd
000001f0: 3c8b 503e b26c 5dbd 409f a53d 79d6 923e
00000200: a179 1abd 55b6 40be 209b 8cbe 6fea 28bd
00000210: 6db6 cabe d796 26be d786 9e3d aa36 09be
00000220: ce05 6c3e 9ff4 40bc 9d2d 833d 28a3 19be
00000230: 1601 b93d 4657 0e3e 951f 4cbe 44af 193e
00000240: c8dd 173d adff d43d b370 283e dae2 c53c
00000250: 0359 4b3d 16ea 543e 4c6f a03e 7a4e a3bd
00000260: cbb9 60bd 4922 24be 084e a4bd b89e 59be
00000270: 18c3 71bd 2ef8 c0be 9b92 11be 19eb 3abe
00000280: 3884 9e3e 9ed3 a13d 6755 9bbe 4765 043e
00000290: ce79 dbbd f052 3ebd fd08 a33d d86a eabc
000002a0: c640 29be bb27 20be 4522 d43c 03e2 0fbe
000002b0: 4414 a1bc 416e 6d3d 1da1 58bd 944c d0bd
000002c0: 6395 00bc 0b80 49bd 53ec 2fbd 02ed 8e3d
000002d0: 2169 823d c1a1 453e 2c5f 41be 7a55 23bd
000002e0: 3ace 4bbe c895 303c 2065 d53b 557e 9b3d
000002f0: 184f 55bb 7c28 a53d a09d cb3c 280f 0fbd
00000300: 6233 283d 0c1f 3abd 4823 e5bc a45d 713d
00000310: e085 33bd 78a1 8d3e 605c 44bd fc63 98bc
00000320: 6249 14bf 3755 823e 06f7 f7bd a0ff 773e
00000330: 2f0d 5abe 6813 e5bd fa77 a4bd 54a4 4a3d
00000340: 81f3 3dbd b008 653c f8c8 89bd d728 0ebe
00000350: a65e 3b3e c6da 253d 90f7 d3bd 3f81 943d
00000360: 54fd 653a 8cd2 c53c 1bbe 62be 6cd8 b73d
00000370: 0c34 f4bd 42bc bebd 05f9 03bd 5ae5 54be
00000380: f323 023e 3893 5fbc 94a7 4c3c 9b71 3a3e
00000390: a4ba af3d 65f3 8a3c 0ba0 cb3d 090d 12be
000003a0: ea3d 7dbd 7456 a1bd 4afd 173e ae49 53be
000003b0: 4bea 9cbd 80a2 ecba 9b45 143e 6879 3b3e
000003c0: 5e09 da3d d08f 353e f05a 91be 06a2 fdbd
000003d0: 0832 213d 17fe 65be 3bed 5fbd 281a 75bd
000003e0: 518b f2bc 610f d33d a8cb 863e 7094 f9bb
000003f0: b499 233d 65df 443d 1b9b a8bb e97f 7abe

bias f4 [64]
0.11734454 0.17613709 0.08856674 -0.002351668 -0.20563419 -0.19127078 -0.18236895 0.08096779
0.18808848 0.13902643 -0.025546342 -0.16831885 -0.035427235 -0.039576344 0.07585661 -0.25257847
-0.19058189 0.042695362 0.24721394 0.04247656 0.037879825 0.18208364 0.05801302 0.061335858
-0.19154903 0.23311123 -0.28505605 -0.22950637 -0.14055578 0.20721656 0.123603106 -0.14001183
-0.098751724 -0.18196239 -0.21632688 0.19183154 0.046185404 -0.4065203 0.10913506 -0.10612429
-0.10282545 0.13682738 0.13455093 0.05203958 -0.1199697 0.03837222 0.04774739 -0.19437018
0.07139093 0.14753932 -0.19454542 0.15649551 -0.10178242 0.33384353 0.34595916 0.01320065
0.18154612 0.104705304 0.055466205 -0.27987868 0.08158577 0.048717253 -0.030409748 -0.15518203
00000000: 5652 f03d 485d 343e 7b62 b53d 711e 1abb
00000010: c591 52be 7ddc 43be edbe 3abe 71d2 a53d
00000020: 449a 403e f25c 0e3e 9046 d1bc c75b 2cbe
00000030: 261c 11bd ce1a 22bd b65a 9b3d f751 81be
00000040: e627 43be 55e1 2e3d a725 7d3e e7fb 2d3d
00000050: e027 1b3d 2274 3a3e 0f9f 6d3d 4f3b 7b3d
00000060: 6e25 44be b6b4 6e3e def2 91be b803 6bbe
00000070: dbed 0fbe 9430 543e a023 fd3d 435f 0fbe
00000080: 583e cabd 5954 3abe cb84 5dbe 7d6f 443e
00000090: e82c 3d3d 6e23 d0be 3482 df3d b157 d9bd
000000a0: 2696 d2bd 7a1c 0c3e b8c7 093e 7427 553d
000000b0: adb2 f5bd 302c 1d3d c492 433d fa08 47be
000000c0: 6835 923d 8c14 173e ea36 47be 5c40 203e
000000d0: 4d73 d0bd 8aed aa3e 8f21 b13e 8a47 583c
000000e0: 3ae7 393e bc6f d63d 8830 633d 424c 8fbe
000000f0: 7116 a73d be8b 473d dd1d f9bc 0ae8 1ebe

weight f4 [64, 64]
-0.29242116 0.30847558 0.10884976 -0.2129917 -0.037268374 0.15091205 -0.099891864 0.20136505
0.07175507 -0.113921955 0.09177275 0.039749593 -0.0640596 0.22464591 0.19813558 0.0688309
-0.16918033 -0.18517928 -0.10571037 0.13108374 -0.24610965 -0.025339855 0.030225208 -0.19464593
-0.13107888 0.09126981 -0.052286867 0.045135748 -0.34823674 0.05459031 0.17931381 -0.044055745
-0.102168605 0.06973402 0.042285617 -0.063994095 -0.39319372 0.001500681 0.04722588 -0.00628764
0.09267941 0.19839478 -0.0434718 -0.13387103 0.04895231 -0.08143796 -0.2801975 -0.051411055
0.058470637 0.07407504 0.056680158 -0.09645229 0.18616882 -0.0038604885 -0.2533697 0.19549595
0.07938787 -0.24150999 -0.026735835 -0.06515252 -0.089890264 -0.08101224 0.31360865 0.0952654
0.019264214 0.06523084 -0.11469391 -0.083813116 0.018114693 0.05096937 0.0378373 0.12607886
-0.11645495 -0.2442781 -0.22091037 -0.036881912 0.27374172 0.17443192 0.4072151 0.065118104
0.09916275 -0.23312576 -0.024559185 0.11765622 0.006806732 0.31509477 0.014539274 -0.06995354
0.231938 0.12017952 -0.1884757 -8.297339e-05 0.059847437 0.08177881 -0.23508322 0.0739808
-0.27499244 0.032068655 -0.07172234 0.31234288 -0.028555982 0.08944198 -0.04070366 -0.23745021
-0.007451754 0.08413472 0.05788145 0.005883891 0.097525306 -0.10888397 0.07724495 0.2865839
0.19584736 -0.09925628 -0.12546644 0.15985116 -0.12511104 0.06402241 -0.003679663 -0.14978313
-0.060419187 0.058568582 -0.29225102 -0.10821369 -0.37345818 0.3801045 0.063118726 -0.18746877
0.103303075 -0.24793476 -0.27625605 0.17532015 -0.094407044 0.029022582 0.01792878 -0.20117459
0.17224738 0.012452116 0.04498721 -0.0203772 0.0025784597 -0.1743718 -0.31973317 -0.07744798
-0.016974753 0.056229 0.0020030942 -0.19728923 -0.18966371 0.04263745 0.14591949 -0.12901089
0.14375402 -0.04598714 0.122912556 -0.095283106 -0.023240153 0.08003606 -0.038064342 0.13330244
0.21343336 -0.023316033 -0.07388244 -0.39100847 -0.1749444 -0.100788176 0.14609799 0.16026081
-0.08229515 -0.21904719 0.13439186 -0.08874114 -0.027636135 -0.18558198 -0.05412573 0.051637664
-0.089521706 -0.008497512 -0.038782913 0.08300724 -0.31968066 -0.21139899 0.07867011 0.051147804
0.28379232 0.010063712 -0.13630943 0.18477845 -0.13876493 -0.030935794 -0.046049483 -0.06807027
-0.0395538 0.19757947 0.27147543 -0.04273059 0.13921203 -0.13421658 -0.19642855 0.15233985
-0.03286601 -0.17421535 -0.1724594 -0.18193586 -0.14394724 -0.094044864 -0.10738014 -0.048777886
0.13194513 -0.085518084 -0.13801134 0.12753168 0.106215425 -0.053612888 0.13289501 0.29360843
0.010806933 -0.028717399 0.1847021 -0.12225814 -0.10282983 0.12015824 -0.1966501 -0.1515495
0.004380798 -0.36972874 0.09812599 -0.01782021 0.20217839 -0.14878425 0.057037305 -0.042563412
0.21048728 0.35723346 0.16568601 -0.06121481 -0.006913293 -0.26721555 0.1930467 -0.24330708
0.0667531 -0.048913263 0.14406385 -0.26181513 -0.1545168 -0.20678197 -0.046418678 -0.28115073
-0.26560485 -0.0035355464 -0.00026936457 0.054732267 0.0009873398 0.1633962 0.17963652 0.15722127
00000000: 3ab8 95be 83f0 9d3e 9fec de3d 7f1a 5abe
00000010: b9a6 18bd b088 1a3e 1b94 ccbd a432 4e3e
00000020: 52f4 923d ea4f e9bd 5af3 bb3d 78d0 223d
00000030: ae31 83bd 9409 663e 0ee4 4a3e 37f7 8c3d
00000040: 9c3d 2dbe a39f 3dbe ae7e d8bd d13a 063e
00000050: 2b04 7cbe 8795 cfbc db9a f73c 4351 47be
00000060: 8b39 06be abeb ba3d c12a 56bd 43e0 383d
00000070: 164c b2be 179a 5f3d 0a9e 373e cc73 34bd
00000080: c63d d1bd b6d0 8e3d af33 2d3d 560f 83bd
00000090: b050 c9be 80b2 c43a ed6f 413d 8c08 cebb
000000a0: b4ce bd3d 0028 4b3e 7c0f 32bd 7d15 09be
000000b0: 3882 483d f2c8 a6bd 0c76 8fbe 6694 52bd
000000c0: e87e 6f3d a8b4 973d 7429 683d c788 c5bd
000000d0: 0aa3 3e3e 4000 7dbb acb9 81be 1730 483e
000000e0: 1c96 a23d 654e 77be 1c05 dbbc af6e 85bd
000000f0: 6318 b8bd bfe9 a5bd 5091 a03e 821a c33d
00000100: fccf 9d3c bf97 853d a4e4 eabd 36a6 abbd
00000110: 4465 943c 42c5 503d 49fb 1a3d d11a 013e
00000120: ef7f eebd 0a24 7abe 5436 62be 7d11 17bd
00000130: e027 8c3e 489e 323e 7f7e d03e a45c 853d
00000140: d715 cb3d 85b8 6ebe 5830 c9bc bff5 f03d
00000150: 020b df3b 1a54 a13e 2336 6e3c cd43 8fbd
00000160: 2881 6d3e ae20 f63d c6ff 40be 0002 aeb8
00000170: 9622 753d a67b a73d a8b9 70be 3f83 973d
00000180: cfcb 8cbe 6c5a 033d 2ae3 92bd 68eb 9f3e
00000190: 3cee e9bc 5b2d b73d e2b8 26bd 2626 73be
000001a0: d82d f4bb d34e ac3d 1915 6d3d a8cd c03b
000001b0: 59bb c73d 8ffe debd 9a32 9e3d 20bb 923e
000001c0: 368c 483e e046 cbbd 467a 00be 06b0 233e
000001d0: 1c1d 00be 2e1e 833d 8026 71bb c060 19be
000001e0: 1c7a 77bd 9ce5 6f3d eda1 95be 249f ddbd
000001f0: e935 bfbe 0f9d c23e 6444 813d d0f7 3fbe
00000200: 9090 d33d 9ce2 7dbe 6f71 8dbe 2087 333e
00000210: 7b58 c1bd c4c0 ed3c 60df 923c b600 4ebe
00000220: 9e61 303e f603 4c3c 8244 383d 16ee a6bc
00000230: 60fb 283b 858e 32be 11b4 a3be 0c9d 9ebd
00000240: a30e 8bbc 6150 663d 5846 033b 3006 4abe
00000250: 3437 42be 9ba4 2e3d eb6b 153e 6e1b 04be
00000260: 4134 133e 035d 3cbd 94b9 fb3d ca23 c3bd
00000270: 2262 bebc f2e9 a33d 5be9 1bbd 6f80 083e
00000280: 468e 5a3e 4401 bfbc ad4f 97bd 4332 c8be
00000290: a024 33be 086a cebd b69a 153e 691b 243e
000002a0: 5c8a a8bd e84d 60be 059e 093e eabd b5bd
000002b0: 2d65 e2bc 3409 3ebe f1b2 5dbd 0482 533d
000002c0: 2857 b7bd 2639 0bbc d5da 1ebd b3ff a93d
000002d0: 2fad a3be fa78 58be cb1d a13d 5c80 513d
000002e0: 3a4d 913e 44e2 243c b394 0bbe 9036 3d3e
000002f0: 6518 0ebe 106d fdbc 629e 3cbd 6d68 8bbd
00000300: 2a03 22bd 4652 4a3e d4fe 8a3e 4506 2fbd
00000310: 998d 0e3e 1270 09be 9124 49be fafe 1b3e
00000320: 829e 06bd 8265 32be 3299 30be 654d 3abe
00000330: e866 13be 989a c0bd 1eea dbbd 52cb 47bd
00000340: a01c 073e 1b24 afbd d852 0dbe aa97 023e
00000350: 7987 d93d 3099 5bbd a115 083e d853 963e
00000360: 900f 313c c040 ebbc 8c22 3d3e 7a62 fabd
00000370: 7298 d2bd 8615 f63d a55e 49be cb2f 1bbe
00000380: cc8c 8f3b 164d bdbe 47f6 c83d b0fb 91bc
00000390: da07 4f3e e65a 18be f39f 693d f956 2ebd
000003a0: fa89 573e 4ee7 b63e 98a9 293e 61bc 7abd
000003b0: e888 e2bb 7ad0 88be 09ae 453e 7e25 79be
000003c0: d9b5 883d 4659 48bd 7985 133e a20c 86be
000003d0: a739 1ebe a7be 53be 8321 3ebd fdf2 8fbe
000003e0: 5cfd 87be a0b4 67bb 8039 8db9 f12e 603d
000003f0: a069 813a 5551 273e a3f2 373e 9dfe 203e

bias f4 [64]
0.079025626 0.074376665 0.33311278 0.20138933 0.006408509 -0.16207126 -0.07909182 -0.09733996
-0.33135933 -0.029918429 0.119127095 -0.06861916 -0.060263973 0.026305337 -0.26250258 -0.20275474
-0.060762245 -0.31913742 -0.25275666 -0.07913234 -0.028838653 0.4462373 0.09735765 0.16256356
0.0055900626 -0.040599216 0.06319 0.09414335 -0.15577903 -0.26570043 -0.11666165 0.22252928
0.05771068 -0.067561835 0.111529 -0.17770584 -0.1761738 0.18037413 0.09365324 0.24974379
0.06528229 -0.10109073 -0.09890153 0.14489739 0.019550294 -0.05892323 0.13550968 -0.17517136
0.25355673 0.10328493 0.18938933 0.024538018 0.12705292 -0.044917025 -0.107205555 0.006414011
0.058466468 -0.0006483719 -0.17143616 0.1867087 -0.093530476 0.30257228 -0.10583506 -0.1969684
00000000: 30d8 a13d cb52 983d c28d aa3e 0139 4e3e
00000010: 78fe d13b 02f6 25be e4fa a1bd 2c5a c7bd
00000020: eea7 a9be 7e17 f5bc e8f8 f33d 3488 8cbd
00000030: 5bd7 76bd 4a7e d73c bd66 86be f09e 4fbe
00000040: d5e1 78bd fb65 a3be 5269 81be 2310 a2bd
00000050: 0a3f ecbc 3779 e43e 7363 c73d 1077 263e
00000060: d82c b73b 5d4b 26bd c269 813d 3bce c03d
00000070: 8a84 1fbe e309 88be 4eec eebd b7de 633e
00000080: 0962 6c3d dc5d 8abd 5169 e43d 85f8 35be
00000090: e866 34be ffb3 383e 45cd bf3d d6bc 7f3e
000000a0: b9b2 853d a808 cfbd e38c cabd fb5f 143e
000000b0: f027 a03c 7c59 71bd 0dc3 0a3e 1f60 33be
000000c0: 30d2 813e 0d87 d33d 47ef 413e f403 c93c
000000d0: 291a 023e eafa 37bd 968e dbbd a02c d23b
000000e0: 897a 6f3d 80f7 29ba f68c 2fbe 9130 3f3e
000000f0: e88c bfbd c1ea 9a3e 0dc0 d8bd 16b2 49be

weight f4 [6, 64]
0.11582206 -0.074818976 0.015191797 0.0038439203 -0.17198516 -0.07593535 -0.059080724 -0.28356618
0.20955926 0.16951162 0.048580162 0.047016874 0.055628464 0.019291714 -0.15360087 0.21117568
-0.06433085 -0.19725955 -0.13597442 0.073068716 0.18452851 0.090219006 0.049249843 -0.16928889
0.0890418 0.25619933 -0.061640818 0.042454526 -0.06190961 -0.0027230568 0.19412673 0.00977128
-0.042904556 -0.27720788 -0.12751079 -0.068177626 -0.33018684 0.262641 -0.084245205 -0.12862635
0.07547967 0.09051505 0.039521214 0.023258805 0.12907007 0.034001227 -0.17533034 0.025691092
-0.18032083 0.39378625 -0.15648726 -0.11318457 0.036782015 -0.12431964 -0.11824766 0.04810334
0.0625045 0.04220619 0.16149332 -0.31801006 -0.00079447776 -0.122979395 -0.070421696 -0.0012462139
0.16387776 -0.27228382 -0.14046913 0.008861428 -0.058888935 -0.28482187 0.07000212 0.19269569
0.03782402 0.09867406 -0.26008147 0.09368325 0.3270373 -0.24583234 -0.16996533 -0.07512684
-0.1819654 0.31488544 -0.019060217 -0.034445554 0.109090514 -0.041224122 0.08828543 -0.20845377
-0.0308474 -0.061072383 -0.017657973 -0.13622127 0.1705735 0.12906909 0.1298708 0.057399996
0.02546116 -0.37540197 -0.049996406 0.06840376 0.039158117 -0.30059177 -0.19542271 0.036130108
0.34742105 -0.25657862 -0.162204 0.13821495 0.043556266 -0.13814008 -0.09760442 0.15952279
0.22511116 0.0675761 0.23713167 -0.01671161 0.15759403 0.05018253 0.24506204 -0.21619114
0.21165958 -0.3267936 -0.07727247 0.3081557 -0.21177998 0.25305247 -0.18440527 -0.036641307
-0.043773327 -0.07432116 0.067572124 -0.28092903 0.16848487 0.2848454 -0.15810694 0.016654022
0.07403301 0.101264045 -0.050712958 -0.19028106 0.13798437 -0.060625758 -0.0053809285 0.1366592
-0.14442751 -0.0568296 0.08211137 -0.05722452 -0.093150795 -0.17968686 -0.07795009 -0.16940309
0.09562816 0.00027063861 0.13341019 -0.46886852 -0.18515155 0.013049543 0.052816674 0.24882598
-0.1819119 0.12095503 -0.096489586 -0.12977092 -0.10735599 -0.041121807 -0.0252336 0.06830759
-0.08822792 -0.060275536 0.01460417 0.057601623 -0.27782986 -0.013008221 -0.21098016 -0.22649032
0.0491082 0.059731215 0.109103635 -0.028623648 -0.003895104 0.1268773 -0.26245922 -0.21153308
-0.15892582 0.033192523 0.17205417 -0.057225518 -0.31806576 -0.12951466 -0.15020385 0.13646705
-0.27742448 -0.15479526 -0.08116536 0.0824069 0.0420255 -0.015930146 -0.048985563 0.12197924
0.02881847 0.13580771 -0.021546485 -0.040083587 0.30091888 0.018553458 0.061203286 0.04456672
0.036959723 -0.10233321 -0.042979773 -0.039811563 -0.07333749 0.009591948 -0.013959004 0.07861467
-0.08143417 0.14988874 0.118576266 0.009590041 -0.09268803 0.19257417 0.33795547 -0.02130502
0.1256288 0.21261284 0.105912544 -0.2407386 0.01644636 -0.0106030665 0.08508681 -0.027755076
0.3192745 -0.061519567 -0.32428348 0.028018758 -0.2397845 0.13207352 -0.055491168 0.0061374847
0.032984547 -0.0005446207 -0.11102347 0.11276141 -0.09126614 0.1293412 0.16428906 -0.12902942
-0.19057214 -0.056706097 0.0648927 -0.06767404 0.14789005 0.30804616 0.061525658 0.3363487
00000000: 1e34 ed3d b13a 99bd 04e7 783c 48ea 7b3b
00000010: e11c 30be fe83 9bbd a1fe 71bd 962f 91be
00000020: b496 563e 7494 2d3e fefb 463d c494 403d
00000030: acda 633d a809 9e3c 8c49 1dbe 703e 583e
00000040: e5bf 83bd 68fe 49be e13c 0bbe 0da5 953d
00000050: 0bf5 3c3e bec4 b83d 34ba 493d 115a 2dbe
00000060: 8c5b b63d 8f2c 833e 157b 7cbd cce4 2d3d
00000070: ee94 7dbd 5075 32bb 28c9 463e b817 203c
00000080: b0bc 2fbd 31ee 8dbe 3092 02be b6a0 8bbd
00000090: 400e a9be e278 863e c088 acbd a0b6 03be
000000a0: 1695 9a3d f45f b93d ffe0 213d 4089 be3c
000000b0: f22a 043e df44 0b3d cc89 33be 2076 d23c
000000c0: 06a6 38be 5a9e c93e 323e 20be 50cd e7bd
000000d0: bda8 163d 4c9b febd d42b f2bd 0208 453d
000000e0: 5c02 803d 66e0 2c3d 815e 253e 37d2 a2be
000000f0: 8044 50ba 9fdc fbbd 4039 90bd 0058 a3ba
00000100: 92cf 273e c968 8bbe 24d7 0fbe 862f 113c
00000110: 8635 71bd 2cd4 91be 465d 8f3d 0552 453e
00000120: 5ced 1a3d a015 ca3d 6629 85be 01dd bf3d
00000130: 6f71 a73e 79bb 7bbe 640b 2ebe 1adc 99bd
00000140: 2355 3abe aa38 a13e 2c24 9cbc c816 0dbd
00000150: d96a df3d a0da 28bd fece b43d e874 55be
00000160: b0b3 fcbc 0927 7abd 74a7 90bc 977d 0bbe
00000170: d2aa 2e3e b02a 043e dafc 043e 421c 6b3d
00000180: ec93 d03c b034 c0be 08c9 4cbd 4517 8c3d
00000190: 4364 203d 2ae7 99be e41c 48be 2afd 133d
000001a0: 2ce1 b13e 465e 83be ce18 26be 3888 0d3e
000001b0: 0e68 323d 9874 0dbe d3e4 c7bd f159 233e
000001c0: 8a83 663e 5765 8a3d a5d2 723e c9e6 88bc
000001d0: 5460 213e 328c 4d3d 8bf1 7a3e 3661 5dbe
000001e0: 4abd 583e 7e51 a7be 0741 9ebd 95c6 9d3e
000001f0: dadc 58be 1890 813e bcd4 3cbe 3215 16bd
00000200: a94b 33bd b135 98bd 4163 8a3d eed5 8fbe
00000210: 4c87 2c3e 42d7 913e c9e6 21be 046e 883c
00000220: 9e9e 973d 8663 cf3d 64b8 4fbd 0ad9 42be
00000230: c64b 0d3e b752 78bd 8052 b0bb 64f0 0b3e
00000240: cee4 13be 28c6 68bd 022a a83d 4264 6abd
00000250: d8c5 bebd d5ff 37be 4ca4 9fbd 0178 2dbe
00000260: b2d8 c33d 80e4 8d39 ae9c 083e 890f f0be
00000270: 5e98 3dbe c0cd 553c 4c56 583d 3dcc 7e3e
00000280: 1d47 3abe 45b7 f73d 559c c5bd abe2 04be
00000290: 75dd dbbd 576f 28bd b2b6 cebc dae4 8b3d
000002a0: d7b0 b4bd 7be3 76bd 5446 6f3c aeef 6b3d
000002b0: b73f 8ebe 6f20 55bc 2f0b 58be 14ed 67be
000002c0: ae25 493d b8a8 743d ba71 df3d 247c eabc
000002d0: 0045 7fbb 1fec 013e 0e61 86be 219c 58be
000002e0: 73bd 22be e2f4 073d f82e 303e 4e65 6abd
000002f0: 84d9 a2be 7e9f 04be 0acf 19be 05be 0b3e
00000300: 950a 8ebe a682 1ebe 063a a6bd f3c4 a83d
00000310: ee22 2c3d f07f 82bc 16a5 48bd 40d0 f93d
00000320: b614 ec3c 2d11 0b3e 4182 b0bc b02e 24bd
00000330: 0a12 9a3e 6cfd 973c 4cb0 7a3d 988b 363d
00000340: 1463 173d 1394 d1bd 8f0b 30bd 7311 23bd
00000350: f731 96bd 8c27 1d3c 4eb4 64bc ba00 a13d
00000360: f5c6 a6bd 6f7c 193e 1dd8 f23d 8c1f 1d3c
00000370: 39d3 bdbd 2a32 453e 8008 ad3e de87 aebc
00000380: d6a4 003e 2eb7 593e ade8 d83d 2e84 76be
00000390: 84ba 863c 7cb8 2dbc fe41 ae3d 9d5e e3bc
000003a0: f277 a33e f1fb 7bbd 7c08 a6be 9887 e53c
000003b0: 118a 75be 483e 073e b54a 63bd f41c c93b
000003c0: ce1a 073d e0c4 0eba 4660 e3bd 74ef e63d
000003d0: bee9 babd 0572 043e 643b 283e 4a20 04be
000003e0: 5825 43be a744 68bd 77e6 843d b098 8abd
000003f0: 7d70 173e 3ab8 9d3e 5402 7c3d e635 ac3e

bias f4 [6]
0.13198338 0.012686845 0.10932282 0.036648504 -0.0029635234 -0.22600093
00000000: a726 073e 7cdc 4f3c a5e4 df3d be1c 163d
00000010: ac37 42bb ca6c 67be
