ga_weights/ga1/HalfCheetah-v5/PPO/weights10.pt (torch, 25773 bytes, 6 tensors)

weight f4 [64, 17]
00000000: dded 6b3d b30c d43d 4a72 8c3d 2c7c c5bd
00000010: 80c5 dd3d 1455 79be 7d31 c8be f139 49bd
00000020: e916 7cbd 6304 48be 1c9f 4d3e 8675 1dbe
00000030: fbd6 d33c 65a0 20be 7056 80be 7c4f c83d
00000040: 2d26 ce3d 6233 8ebe dbd7 693d c439 16be
00000050: 29bc 303d d815 01be 7aba 81bc 86ab 883b
00000060: c470 713d 20ad 2c3d 474f 6bbe 6d02 103e
00000070: 58b3 4d3e 3b9c d43d 46b1 f5bd 3faf 2a3d
00000080: 1e06 983c 7510 983d 5ab0 b23e fa5d a1bd
00000090: bdd9 65be 2a64 1e3e 00d0 4c39 9689 303c
000000a0: 569b 23be 0938 41bd 2c48 753d 445d 47be
000000b0: 185a ef3d d103 41be 1029 8bba 3a2f e73d
000000c0: 5eb9 87be 37e0 c33d 9d76 cd3d 3add 1abe
000000d0: b7a2 9abd b75f b43d c0e1 813d 8f2a 443e
000000e0: f62a 683d b4bd ba3c 2b0c b23d 3f9a 4cbd
000000f0: 186d 063e 5ed8 e33d 600f 3eba 441d 383e
00000100: 7fb0 77bd f40d f23d 2d31 bd3a d7b0 82be
00000110: 9dea b33d 7aff b43d 4f61 e3bc c876 523d
00000120: 8fe1 cf3d 6244 123e 7a87 0c3e 94ab 9abb
00000130: 204a 3a3d 4083 bc3d 5144 1f3d c885 733e
00000140: 4f63 22be 48d8 c83d 9272 7a3d 5811 f73c
00000150: 3d05 313d 545b a1bd 00aa 703a feca e8bc
00000160: a803 763e 8bb8 643e c744 8dbd 1c81 fd3d
00000170: 3cd4 04bd 70d6 e93b 726c 93be a48d 57bc
00000180: 40e1 0bbd 111a 373e 3234 de3d 5200 ed3d
00000190: 30f5 01be d75b 03be 6ef1 0bbe e8bc 1f3e
000001a0: 4aaf bfbd d767 403e 9ce3 823d a538 9c3d
000001b0: 3a5a b63c 1e95 853d a498 babd 8bf6 233e
000001c0: a2ca c83d 90a9 83bd 8278 27bd 7cb8 583d
000001d0: 2295 9dbd 87c4 0f3d 9574 043e 8e08 9ebb
000001e0: 042d 52bd caad 123e 3309 63be e3ae 233d
000001f0: ecb8 19be 4e9c dabc a72a 9bbd d3e3 1a3e
00000200: 6798 f5be 0888 ac3d 5315 2e3e 8dc6 2bbd
00000210: 9f33 a7bd b443 453d e89f f33d 6c7a 033d
00000220: 959f 233e e829 983d 125d 323e 91b5 2fbe
00000230: a87d d5bd 20cc 34ba 7961 773d 7e3b 83be
00000240: aca5 d03d 7dcb a93d 5c92 813d d443 bd3e
00000250: 5aac f33d f23b 9c3d 1360 0cbd ff19 ad3e
00000260: d8b0 c6bd be39 0a3e 637d af3d f88c 123d
00000270: 1680 b1bd 2e70 30be 58d2 cfbd 6645 bb3e
00000280: ad52 a13e 1f63 00bd 31ed 083e 94a1 f83c
00000290: f0fc 803b b97d a53e fda5 f2bc 6c82 64bd
000002a0: 585a 80bd 02df 613e 35e9 243d f6cc b5bd
000002b0: 8479 63be 405c 8abe 5665 b83d 14f6 61bd
000002c0: cc77 6bbd e68a 3cbc 80a0 23be 6f04 39bd
000002d0: 8a32 6f3e d6a6 c7bd fd35 88be fa78 683e
000002e0: f6e5 89bd 7c5b 2cbe ea64 ae3d 80da c63d
000002f0: 2746 81bd 74ad e83d 838c 713e 6999 1abe
00000300: dc25 c83c d324 65bd 58c3 a5be d4cd c73c
00000310: 58f9 cb3d bf61 49bc 7f16 05be 211d 18bd
00000320: 3406 043e dc35 353e 928e 1dbd d5f3 013e
00000330: 90ad cf3c 4baf a3bd 00a2 aab7 ec51 823e
00000340: c230 c3bc 3210 7a3d dddf 3a3e 0040 083e
00000350: 9874 923d c10d 15be f645 6c3e 6609 ecbd
00000360: 0792 11be 0306 22be 1817 50bd 6eea 03be
00000370: 3647 fb3d 56e6 d73c 91c1 c3bd 10a0 9ebd
00000380: 322d 50be c7b2 f6bd 3c47 6d3e 16d5 83be
00000390: 4637 8e3d aba9 703d e7e0 163e f5dd 1cbe
000003a0: 8856 163c 64c1 65be 3dc6 0d3d d09e 1bbd
000003b0: c65b 30be bac1 0d3e ca50 c5bd f295 a2bd
000003c0: bded aebe 04b0 403e fbae cc3d d27e 84be
000003d0: e48f e3bc da17 6abd 4ac1 21be aaa7 223d
000003e0: 681c 60bb b6e6 653d 2918 c3bd 52df 853e
000003f0: 296d acbe 8cf7 083b 3021 65bd f695 4fbd
0.05759989 0.10353985 0.068577364 -0.096428245 0.10828686 -0.24348861 -0.39100257 -0.049127523
-0.061545286 -0.19532923 0.20080227 -0.15376863 0.025859347 -0.15686186 -0.25065947 0.097807854
0.10065875 -0.27773577 0.05709062 -0.14670473 0.043148194 -0.12605989 -0.01583599 0.004170838
0.058945432 0.042157292 -0.2297946 0.14063425 0.20087945 0.10381361 -0.11996703 0.041671034
0.018557604 0.07425014 0.3490017 -0.07879253 -0.22446342 0.15467897 0.00019532442 0.010774991
-0.15977225 -0.04717258 0.05988328 -0.19469172 0.11687106 -0.18849112 -0.0010617096 0.112883046
-0.2650861 0.0956425 0.10032389 -0.15123454 -0.07550567 0.08807319 0.063418865 0.1915686
0.056681596 0.022795536 0.08693727 -0.049951788 0.13127553 0.11125253 -0.0007250216 0.17979914
-0.060471054 0.118190676 0.0014434211 -0.25525543 0.08784983 0.08837791 -0.027756361 0.05138281
0.10150444 0.14283898 0.13723555 -0.0047201607 0.045480847 0.092047215 0.03888351 0.23781502
-0.15858196 0.098068774 0.06114442 0.030159637 0.043217886 -0.078787476 0.00091806054 -0.028417107
0.24024832 0.22336023 -0.06897884 0.12378141 -0.032428965 0.0071361586 -0.28793675 -0.013156328
-0.034150362 0.17881037 0.10849799 0.11572327 -0.12691188 -0.12828003 -0.13666317 0.15599406
-0.093596056 0.18789612 0.06391069 0.076279916 0.02225982 0.065225825 -0.09111145 0.16012017
0.09804274 -0.06428826 -0.04088641 0.052910313 -0.076944605 0.035099532 0.12935098 -0.004822797
-0.05131246 0.14324108 -0.22171478 0.039961707 -0.15011948 -0.02668586 -0.07576495 0.1512597
-0.47967836 0.084243834 0.17000322 -0.0419374 -0.08164143 0.04816027 0.11895734 0.032099172
0.15978844 0.07429868 0.17418316 -0.17159106 -0.10424358 -0.0006896872 0.06039569 -0.25631326
0.101878494 0.082907654 0.06326744 0.3696581 0.11898108 0.07628621 -0.03427131 0.33808896
-0.09701699 0.1349859 0.085688375 0.03577897 -0.086670086 -0.17230293 -0.10147542 0.36576384
0.3150839 -0.03134453 0.13371731 0.030350484 0.0039364025 0.3232248 -0.029620165 -0.055788442
-0.06267232 0.22057727 0.040261466 -0.08876984 -0.22214323 -0.27023506 0.09003703 -0.05516632
-0.057487294 -0.011507725 -0.15979195 -0.045170244 0.23359123 -0.09748618 -0.2660369 0.22702399
-0.06733315 -0.16831774 0.085153416 0.09709644 -0.063122086 0.113612086 0.23588757 -0.15097584
0.024432115 -0.05594332 -0.32375598 0.024390139 0.09959668 -0.012291371 -0.12996863 -0.037137154
0.12892991 0.17696327 -0.038466044 0.12690671 0.025351316 -0.07992419 -2.0341016e-05 0.25453126
-0.02382696 0.0610506 0.1824946 0.13305664 0.07151145 -0.14556028 0.23073563 -0.1152523
-0.14215861 -0.15822606 -0.050803274 -0.12882397 0.12269442 0.02635495 -0.09558404 -0.07745373
-0.2032974 -0.12045818 0.23171705 -0.2574851 0.06944136 0.058755558 0.14734231 -0.15319045
0.009175904 -0.22437054 0.034612883 -0.037993252 -0.17222509 0.13843432 -0.0963455 -0.07938756
-0.34165755 0.18817145 0.099943124 -0.25878006 -0.027778573 -0.057151653 -0.1579639 0.03971068
-0.003419662 0.056128226 -0.095260926 0.26146942 -0.33677033 0.0020899503 -0.055939853 -0.050680123

bias f4 [64]
00000000: af2a 36be 71f5 ec3b d5a7 683d 9a40 af3d
00000010: 0e51 9a3d 333e 0d3e 9615 c7bd 6909 563e
00000020: 3905 883e 2580 e3bc 0c62 573e 0ac4 ea3d
00000030: 6e78 77bd 7292 8e3d 3b0c 103d b0ff 1c3e
00000040: a0bb a8be 5379 e23d 1032 afbc 1fb5 0fbe
00000050: 1c43 b23d 0080 063e f13f 38bd de83 33bc
00000060: 448e 223e a00f 0b3c c895 573d 8bad e53d
00000070: fe52 b23d 9295 f7bd 9c62 33bc 71f1 063e
00000080: c24f 27bc 1635 0fbe b0a2 80bd ae1d 00be
00000090: 823d 573d c256 af3d 02e1 d83d 6f82 a43e
000000a0: da08 283d 2665 edbd 4cec 43bd 398d 48bd
000000b0: 8806 76bb 58d8 66be 6f0f bdbd c541 49bd
000000c0: 284f 32be 8b77 16be 6f1d 8f3d e4d9 61be
000000d0: 12a1 9e3b bc23 5e3d 0e1a fe3d 4a73 e73d
000000e0: 3587 103d a66d ab3e 9528 4c3e 1881 e03b
000000f0: 726f b53c ae65 a4bd 54eb 1abe 9e4e 4b3d
-0.1778972 0.0072314073 0.056800682 0.08557244 0.07534991 0.13793258 -0.09720914 0.20902027
0.26566485 -0.027771065 0.21033496 0.11463173 -0.060417585 0.06961526 0.035167914 0.15331912
-0.32955647 0.11058297 -0.021386176 -0.14033936 0.08704206 0.13134766 -0.044982854 -0.010956733
0.15874583 0.008487612 0.052633077 0.11214741 0.08707236 -0.12089075 -0.010948803 0.1317804
-0.010211887 -0.13985094 -0.0628103 -0.12511322 0.052548893 0.085614696 0.10589792 0.32130763
0.041024067 -0.11591558 -0.047832772 -0.048962805 -0.0037540514 -0.22543466 -0.09231459 -0.04913499
-0.17413008 -0.1469404 0.06988036 -0.22055775 0.0048409784 0.054233298 0.12407313 0.113012865
0.035285193 0.33482093 0.19937356 0.0068513267 0.022147868 -0.08027206 -0.15128833 0.049635522

weight f4 [64, 64]
00000000: 3e57 f1bd 1d60 58bd 12fc 74bd cc75 b7bc
00000010: 2e00 36be ff41 55be 54c5 f23d 9adc 3cbe
00000020: f43a 0cbe 8d01 3d3d d8f1 2c3e 6a39 c63d
00000030: 249f 7dbd 5906 5abd cfc6 34be 0f65 b53d
00000040: 0aae 303e 4f63 2ebe b242 803e acc0 423e
00000050: 0c10 83bd 6371 4c3e 74e5 05be f8a2 9dbe
00000060: 4d47 9f3e 6e57 393e f6db 663e 83c8 e23d
00000070: 74d1 4ebd 1090 d53d 7571 39bd 7462 6a3d
00000080: ceef 2ebd ea6a babb 7100 e1bd 2713 cf3d
00000090: ad47 613e c210 fdbc 8c20 84be 5e2a a13d
000000a0: e821 4fbc a6db 093d abbe 5c3e e43a c73d
000000b0: 4f01 7dbd e4de 34bd 9f1c 40bd d1ed 4d3d
000000c0: 4ce4 e23d 4e57 a03c 5ce5 67bd d666 27be
000000d0: 2ad8 823d a693 2d3c d2c0 49be 0047 bebc
000000e0: c287 acbc 14b4 9bbd 9b32 8f3d ad1d 9bbc
000000f0: 1ec4 573d ffbd 71be 0a19 eebd c7e9 1a3e
00000100: ac85 bebe 81bc 243e 56ad ac3c 70fc 0d3e
00000110: 0f7e af3e 11b8 0dbe 12c2 3fbc a186 9fbe
00000120: fdb1 70be 5225 1e3e 6818 42be beaa a83d
00000130: 7903 0d3e f88b 0cbe fdf9 993d 42d5 0d3d
00000140: 4740 053e 054d 36bd 289f 52bd 88b0 953b
00000150: de72 17be d80f 6abc bd62 383e e44b 183e
00000160: fa05 b23d 6236 123d c54a 123e 6153 0bbe
00000170: fa8a bfbc 0652 173d 35f0 94be 2b7b 0c3e
00000180: 0e17 1dbe 52a7 dcbb 5a4c b9bd 74a8 f43c
00000190: 9606 dc3d cc69 a13e fe04 b63c 68c1 afbd
000001a0: e6f7 183e fccd 853e 3b59 783c 3bb3 ad3d
000001b0: 104a dbbc b474 01bd d2bf 6e3d eb00 b0be
000001c0: bc2b e53c 908e 073e 95e9 85be 7ed5 53be
000001d0: 7938 113e 1481 da3d d867 9bbd 62c3 48be
000001e0: c85a bcbd 6075 953e 94c0 ac3e 8aae adbd
000001f0: e009 753d 6043 d63e cfb9 733d edbe 803e
00000200: 5e30 8c3e 1a00 6ebe 57a6 b03d 78af 4bbc
00000210: 6690 30be 0157 46be d8e6 41bc a403 a73d
00000220: d550 833d ea54 23be 07a3 2f3d 692f 563e
00000230: dab7 b73d 4600 1f3c 41c2 10be e69d 893c
00000240: 6079 25bb 5934 5d3d 2389 243e 81e7 8cbd
00000250: d5c1 04bd cf8d 1dbd 2900 0bbe 82ff 373d
00000260: 6e38 89be d2e2 f33c 5703 7bbd bfcb 96bd
00000270: 9a69 f8bd c15d 843e 6d95 94be 92fb bebd
00000280: 5793 d83d 8800 663d 86cc d0bd cf73 82be
00000290: 9d53 7f3d ee07 01be 66d0 d53d 21a5 8b3e
000002a0: 487c 55be e6f3 92bd cdab 0dbe ae63 a7bd
000002b0: 2990 2a3e 65f8 46bd 0993 7ebd 5177 9b3c
000002c0: d0b9 db3d b072 173d 82b1 9abd 67a1 303d
000002d0: 7f4b f43d 1c8f 04be 4be8 15bd 90cd 32bc
000002e0: fcef e0bd 88c0 38bd d65d 5dbe 9703 59be
000002f0: 8537 08be 3489 d2bd 10f9 c8bd f229 35be
00000300: e835 9fbe 0a00 1dbd 8afd 1dbd e439 de3d
00000310: b389 8abc 21f6 323e 8c85 eb3d 004f be3c
00000320: 42f0 07be 1323 173d 40b7 e3bd b2bb 633e
00000330: dcd3 103e 25ea aa3e d7c4 83bd 18c5 cd3d
00000340: dfdf 3bbe dfdd a73d 8745 c63e 9347 003e
00000350: 1e82 943d 45dd 15be 15f3 273e 9ed9 1f3e
00000360: 00e8 f33c df35 b1be e0c4 7abe a922 29bd
00000370: f994 10be 422c 61bc 99c4 3abd 57d6 883b
00000380: bcdd 8fbc d005 b33e 4ec3 fb3c 0756 6ebe
00000390: e89e fabd 2f44 b43d 937a cb3c c2b7 c23c
000003a0: 1c00 adbe 9561 61be ce89 59be 4c92 2e3e
000003b0: cbd1 7dbd b860 fdbc 2cb2 0bbd e867 39be
000003c0: 9fa3 d5bd e60f d1bc bc4d a93d f40a 9b3d
000003d0: 750a 713d 992d a7bd 83cb 50be afc5 63bd
000003e0: ca62 6a3e 321d dabd 0670 953d 4e5f 533d
000003f0: 131e 94be 2b34 72be 8477 70bd a39b 843d
-0.11784218 -0.052826036 -0.059810705 -0.022395037 -0.17773506 -0.20825957 0.118540436 -0.18443528
-0.13694364 0.046144057 0.16889131 0.096789196 -0.061919346 -0.05322871 -0.17653964 0.08857166
0.1725389 -0.1703007 0.25050884 0.19018811 -0.06399545 0.19965129 -0.1307581 -0.30788398
0.31109086 0.18099758 0.22544846 0.11073401 -0.05049272 0.10427868 -0.045274217 0.0572228
-0.042709164 -0.0056890147 -0.10986412 0.10111075 0.21999998 -0.03089178 -0.2580608 0.07869409
-0.012642361 0.03365674 0.21557109 0.09728029 -0.061768826 -0.044157878 -0.046902295 0.050275628
0.110787004 0.01957288 -0.05661522 -0.16347823 0.06388886 0.010594284 -0.19702461 -0.023227215
-0.021060828 -0.076027066 0.06992074 -0.018935049 0.052677266 -0.23607634 -0.116258696 0.15128241
-0.3721136 0.16087534 0.021078747 0.13865829 0.34275863 -0.13839747 -0.011703985 -0.311574
-0.23505397 0.15443924 -0.18954623 0.082356915 0.13770856 -0.13725269 0.075183846 0.034627207
0.13012801 -0.044507045 -0.051421314 0.0045681633 -0.14789912 -0.014286004 0.18006416 0.148727
0.08692546 0.035696395 0.14286335 -0.13606025 -0.023381699 0.036943458 -0.29089513 0.1371886
-0.15340826 -0.0067338133 -0.09047766 0.029865481 0.10743444 0.3152603 0.022219177 -0.08581811
0.14938316 0.26133716 0.015157993 0.08481451 -0.026768714 -0.031605437 0.058288403 -0.343757
0.027974956 0.13237977 -0.2615477 -0.2068691 0.14181699 0.10669151 -0.07588166 -0.19605783
-0.09197003 0.29191113 0.33740675 -0.08480556 0.05982387 0.41848278 0.059503373 0.25145665
0.2738065 -0.23242226 0.08625477 -0.012431972 -0.17242584 -0.19369127 -0.011834823 0.08154991
0.06411902 -0.15950361 0.042880084 0.20916523 0.08970614 0.009704655 -0.14136602 0.016798925
-0.0025249347 0.054005 0.16067939 -0.06880093 -0.032411415 -0.038465317 -0.1357428 0.044921406
-0.26800865 0.029771242 -0.061282482 -0.0736308 -0.12129517 0.2585278 -0.29020253 -0.09325327
0.10574978 0.05615285 -0.1019526 -0.2547898 0.0623356 -0.12600681 0.104401395 0.2727442
-0.20848191 -0.07175426 -0.13835068 -0.08173309 0.16656555 -0.04857673 -0.062151942 0.018977793
0.107288 0.03697461 -0.07553388 0.043122675 0.11928462 -0.12945217 -0.036598485 -0.010913268
-0.109832734 -0.045105487 -0.21617827 -0.21192776 -0.13302429 -0.10280076 -0.0981313 -0.17691782
-0.31095815 -0.038330115 -0.03857187 0.108508855 -0.016911363 0.17476703 0.115000814 0.02323103
-0.13275245 0.036898684 -0.111189365 0.22239569 0.14143318 0.33381763 -0.064340286 0.10047358
-0.18347119 0.081966154 0.3872492 0.12527303 0.072513804 -0.14635189 0.16401322 0.15610358
0.029773712 -0.34611413 -0.24489164 -0.04129282 -0.14119329 -0.013743462 -0.045597646 0.004175942
-0.017561786 0.34965372 0.030732777 -0.23275004 -0.1223734 0.088020675 0.024838721 0.023769263
-0.33789146 -0.22009881 -0.21243975 0.17047995 -0.061967652 -0.030929908 -0.034105465 -0.18106043
-0.10431599 -0.025520276 0.0826678 0.075704485 0.058847863 -0.08162994 -0.20390134 -0.055608448
0.22889248 -0.106501 0.072967574 0.05160456 -0.28929195 -0.23652713 -0.05870773 0.06474998

bias f4 [64]
00000000: c035 863a ac5f 213d a688 d73d b8e2 debc
00000010: 93f9 c03d 8034 24be 4d1d dfbd 10a4 a2bc
00000020: a020 edbd 92de a1bd fc21 763c be3b 003e
00000030: 561b 65bd c706 a93c 6036 ecbc 36b5 9bbd
00000040: 2873 d8bb a769 0e3e 11d2 6a3d fb05 4d3e
00000050: af16 683d e1aa b6bd 7c69 4f3d 218a 963e
00000060: 1e4b d8bd 1091 98bd 94ef 45be dad7 07be
00000070: 74e4 313e a1c5 733e 4ec3 e7bc 4ae6 4abd
00000080: 0e67 a1be 1989 68be 3ff7 eabd dcf3 0b3e
00000090: 9831 3cbe 5f43 74bd 61f1 033e 8c34 92be
000000a0: 17a8 a5be b64b 68bc d0ab 41be f082 e6bc
000000b0: aa8b c43d 13b4 493d 3428 b83c 203f b43b
000000c0: ddab 603e 6686 b23d a01b 18be 3acb 43bc
000000d0: 3c8a 8d3e dea4 273b 9e8b 893d 8bc0 14bd
000000e0: a016 203d c0d5 673c 7717 07bd b834 38bd
000000f0: 348e ba3c 0258 1bbd 6cea 76be 3ad9 16be
0.0010239407 0.03939788 0.105241105 -0.027207717 0.094226025 -0.16035652 -0.108942606 -0.019853622
-0.11578488 -0.0790378 0.015022751 0.1252279 -0.055934273 0.020633115 -0.028834522 -0.076029226
-0.0066055246 0.1390749 0.05732924 0.20021813 0.056662258 -0.08919311 0.050637707 0.2940226
-0.105612025 -0.074495435 -0.19329673 -0.13265935 0.17372304 0.23805858 -0.02829137 -0.049536027
-0.31523937 -0.22708549 -0.1147294 0.13667244 -0.18378294 -0.059634563 0.12885047 -0.28555715
-0.32354805 -0.014178207 -0.18913198 -0.028138608 0.09596951 0.049243998 0.022480108 0.005500689
0.2194056 0.08717041 -0.14854288 -0.011950308 0.27644527 0.0025580446 0.06716083 -0.036316436
0.039084077 0.014150083 -0.032981362 -0.04497215 0.022772886 -0.037925728 -0.24112862 -0.14731303

weight f4 [6, 64]
00000000: 1c4a 943c 50cb 41bd a962 b7be f80e 10bd
00000010: 3c51 12be 3c28 243d f4c4 1b3e 87bb 633d
00000020: 419c 18bd baf1 6c3d 612a 17bd 74cf 383e
00000030: 49b1 01be 509f a83d 4ea8 c0be 0c4b a23d
00000040: e2e6 8b3d 68f8 ecbd 9ff8 63bd dada bebd
00000050: 3040 68be a283 d3bc c8a7 aebb b2cd 9ebd
00000060: c166 c7bd 9ecd 343e 4c35 d53d b8f0 86bd
00000070: a764 b4bc c8f6 08bd d8d3 213d 5816 c73d
00000080: 9219 4a3d 5401 1b3e 094f 1ebe 99a4 723e
00000090: 1217 72be 1023 ae3d 1053 cabc a265 36be
000000a0: 0932 733e 6957 9b3e 8d47 96be 22c6 863d
000000b0: ca4c b83b e8a6 d3bb 2a0a 6ebe 83e4 e8bd
000000c0: 65a9 a83d dd7b b2be 59b2 c4bd bf5b 54be
000000d0: 7019 553d 06e9 cb3e f799 8b3e 3d88 043e
000000e0: 5b8d ee3d d49d 183e b7ef 273e 50e8 e9bc
000000f0: cc89 823e 0c41 ac3e 29ac febd 5852 28be
00000100: 008c 263a 2550 aebd adfd 4cbe 5e3a 65bd
00000110: ee79 babd d0da c8bc 3edb 08be aa77 74bd
00000120: 07d2 d53d 6611 32bd de04 c3bd 745e b4bd
00000130: 0627 243e 8c4e c3bc 2856 ba3c e0b4 c23a
00000140: ae2a 1f3d 6438 c2bd 1d39 d73d 6032 5ebb
00000150: 197a 24bd 1492 533d 267e 003e 4a45 9ebd
00000160: 10de e9ba b80a abbd d85b 8bbd 6f60 503d
00000170: d9ec 44be 50b7 a63d c824 923d 5458 32bd
00000180: 5cfa 4ebe eedf ddbd 2d5c 843d be0f 423d
00000190: b685 64be 058d b8bd fe3b 65be e104 85be
000001a0: 9734 943d f51a b9be d821 66be 5e72 a03d
000001b0: 3b45 d6bd ed20 8d3e 1525 07be 346c dabd
000001c0: 1345 e73d 6ec1 483e 30e1 cd3d 961f 35bd
000001d0: 9075 d83d 3999 8bbe 8499 043e 5292 65be
000001e0: be06 2c3e ae09 a2bd 8a6d 16be 4528 b6be
000001f0: 8de1 033e 8d23 ab3d 3568 a5bc c0b9 253d
00000200: 9437 87bd 3257 8ebe 0c4c 1c3c a10c fdbd
00000210: 4255 c4bd c177 233e ee31 33bd 49b3 6c3e
00000220: e753 a13c 7288 1b3e 64d3 c33d b5f6 463d
00000230: 3e59 2d3d c41d 12be 2f78 31be 0b89 84be
00000240: 3435 90bd 01bd 0cbe 5c9e debd b00c 02bd
00000250: a44e 553e 2ef6 95be 21b0 dfbd cfd2 e4bc
00000260: 38d6 f83c 2014 f73d a427 ac3e f022 8f3d
00000270: ac66 933a ccbf 24bc 940b 82bd 1b41 bc3d
00000280: c8b2 a33d 727e 27bc 7258 a73d 8025 bbb9
00000290: 5e6a f8bd 406f 34be c3ba a1bd d3b9 823e
000002a0: d0fc 83bb 904f 0cbd 2c4a a23d 98f6 e1bc
000002b0: cffc 003e f181 853d 7a82 c33c cf99 72be
000002c0: 94c1 4f3e 2489 563e 3a38 e13c 76f2 f63d
000002d0: 9830 e63d 6a73 61bd 1855 8cbd 940c 1abe
000002e0: 9901 13bd aa02 c93b 9503 fcbd 5896 b23d
000002f0: 4741 a1bc 2e53 0fbe 9321 0a3e b5ad 6bbe
00000300: 34e2 fb3c 16f3 3d3d 32d2 113d b139 d1be
00000310: a731 5abc c683 133d 10d8 9e3d e952 303e
00000320: 6af1 52be 4b14 00be 64f5 13be 0891 e73d
00000330: 0ab5 21bd fcfb 0fbe 60ae 55be 0a2b 293d
00000340: 900b c83d 5802 e23d 5df8 3b3d 6e70 b1bd
00000350: 13a4 1abe 3807 103c 7ae2 593e 86ab 71bc
00000360: 4681 3cbe 3e49 633e 10fd 123d ed34 c63d
00000370: 0cd5 983d 7283 7abd 0155 1a3d 9cf3 7a3d
00000380: 710c 763d 9ad2 993d 6e21 a4bd 902b 4fbe
00000390: 06e3 d5bd 2825 21bc a865 653d 9e2d 09bd
000003a0: 7d1c 64bd 7b81 1bbe 9080 25be d296 093d
000003b0: 2211 4d3d 209a c7bb 4310 c73d d1f0 c0be
000003c0: 5712 a13d bdef ab3d daa4 12be 6c98 3dbe
000003d0: 8086 da3b e3a6 05bd 01a7 7cbd 6f58 7f3e
000003e0: 9ec9 a9be 8698 893d 64fa 25be faf1 9cbd
000003f0: a2ea 3f3d a802 90bc 6f04 ff3d eab9 99be
0.018101744 -0.047313035 -0.3581746 -0.035170525 -0.14288801 0.040077433 0.1521185 0.055598762
-0.03725839 0.057847716 -0.03690565 0.18047887 -0.12665285 0.082335114 -0.37628406 0.0792447
0.06831147 -0.11570817 -0.055657025 -0.093190864 -0.22680736 -0.025819603 -0.0053300597 -0.07754077
-0.097363956 0.17656562 0.10410556 -0.06588882 -0.022020651 -0.033438474 0.03950867 0.097210586
0.049340792 0.15137225 -0.15459837 0.23695602 -0.23641613 0.085027814 -0.02469781 -0.17812207
0.23749556 0.30340126 -0.29351464 0.065807596 0.0056243883 -0.0064591058 -0.23246065 -0.1137171
0.082354344 -0.34860125 -0.096043296 -0.20738123 0.052026212 0.3982622 0.27265903 0.12942596
0.11648055 0.14903957 0.16400038 -0.028553158 0.25495756 0.33643377 -0.12435181 -0.16437662
0.0006353259 -0.0851138 -0.20018645 -0.055963866 -0.091052875 -0.0245184 -0.13364884 -0.059684433
0.1044045 -0.043473624 -0.09522413 -0.08807078 0.16030511 -0.023841165 0.02274616 0.001485493
0.038859062 -0.09483412 0.1050894 -0.0033904538 -0.040155504 0.051652983 0.12548122 -0.077280596
-0.0017842669 -0.08351654 -0.06804627 0.050873216 -0.19230975 0.08140433 0.07135922 -0.043541268
-0.20212692 -0.10833727 0.06462894 0.047378294 -0.22316632 -0.09011272 -0.22386166 -0.25980285
0.07236593 -0.3615338 -0.22473848 0.07834314 -0.104624234 0.27564183 -0.1319774 -0.10665169
0.11292472 0.19605038 0.10052717 -0.044219576 0.10569298 -0.27265337 0.12949187 -0.22419098
0.16799447 -0.079120025 -0.14690223 -0.35577598 0.1287901 0.0835639 -0.020191291 0.040460348
-0.066023976 -0.278009 0.009539615 -0.123559244 -0.09586574 0.15963651 -0.04374879 0.23115267
0.019693328 0.15188769 0.09561804 0.048575122 0.042321436 -0.14269167 -0.17331003 -0.25885805
-0.07041398 -0.13743974 -0.108700484 -0.03175038 0.2083078 -0.29289383 -0.10922266 -0.027932553
0.030375585 0.120643854 0.33623993 0.06989086 0.0011245809 -0.010055494 -0.063498646 0.091921054
0.07993084 -0.010223018 0.081711665 -0.0003569536 -0.12129663 -0.17620564 -0.0789695 0.25532398
-0.0040279403 -0.034255564 0.079243034 -0.027583405 0.12596439 0.06518925 0.023865927 -0.23691486
0.20288688 0.20950752 0.027492631 0.120579645 0.11239737 -0.055041708 -0.06852168 -0.1504386
-0.035890196 0.006134351 -0.12305371 0.08720082 -0.019684447 -0.13996574 0.1348937 -0.23015483
0.03074751 0.046374403 0.03560085 -0.40864328 -0.013317502 0.03601434 0.077560544 0.17219128
-0.20599905 -0.12507741 -0.14449078 0.113069594 -0.039479293 -0.14060968 -0.208673 0.04130081
0.0976783 0.11035603 0.045891155 -0.086640224 -0.15101652 0.008790784 0.212778 -0.014750367
-0.18408689 0.22195908 0.03588587 0.096780635 0.074625105 -0.061160512 0.037678722 0.06126748
0.06007046 0.07510872 -0.08014189 -0.20231462 -0.10443692 -0.009835519 0.05600515 -0.03349077
-0.05569123 -0.15186112 -0.16162324 0.0335911 0.050065167 -0.006091371 0.097198986 -0.37683728
0.07864826 0.08395336 -0.14320698 -0.18515176 0.0066688657 -0.03262986 -0.061682705 0.24936078
-0.33161634 0.06718545 -0.16208798 -0.07663341 0.046854623 -0.017579392 0.124520175 -0.30024654

bias f4 [6]
00000000: 0226 cbbd 67e0 ad3d ca45 213d bedf 21bd
00000010: b4d8 d7bd 98de cfbd
-0.09919359 0.08490067 0.039373197 -0.039520018 -0.1053938 -0.10149878
