ga_weights/ga1/Pusher-v5/TD3/weights5.pt (torch, 297825 bytes, 6 tensors)

fc1.weight f4 [256, 23]
000000 16 1b be bd 88 53 e9 bb d2 30 2f 3c 22 9a ac bc
       -0.0928251 -0.0071205534 0.010692792 -0.02106959
000010 58 d9 fa 3c 72 ca 00 bd db 61 1f be b3 27 b2 bd
       0.030621216 -0.031443067 -0.15564673 -0.08698978
000020 d8 18 22 3c 63 ef 14 3e a3 91 88 3c 5c 6c 31 3e
       0.0098936185 0.14544444 0.016671007 0.17326492
000030 9c b1 87 bd 04 e3 24 bd ff 6a ab bd a8 a3 22 3c
       -0.06625673 -0.04025556 -0.08370017 0.009926714
000040 50 0f 35 bd eb ae af bc e4 4e 8b 3c 25 3e 2c bd
       -0.044204056 -0.021445712 0.017005391 -0.042051453
000050 e4 4e 4c bd a7 05 87 bd d0 fa e1 bc 16 83 31 bd
       -0.049879923 -0.06592875 -0.027585417 -0.043337904
000060 3c 96 69 3c b3 17 c9 bd 1c 25 09 bd ce 94 48 bd
       0.01425701 -0.098189734 -0.033482656 -0.048970036
000070 6a df a5 bc 50 64 be bb e0 cc df 3c 60 6f d8 ba
       -0.020248134 -0.005810298 0.027319372 -0.0016512685
000080 f7 ae 7f bd 39 8c 88 bd 68 30 15 3c 5e de 07 bd
       -0.06242272 -0.0666737 0.009105779 -0.03317105
000090 4a 96 3d 3d 69 3e 16 3d 3f fa da bc 1b ef c2 bd
       0.046285905 0.036680613 -0.026730655 -0.09518262
0000a0 40 38 0b bd 26 a1 3c bd a9 2f 33 3d 5a e2 06 3d
       -0.03398919 -0.04605212 0.043746624 0.03293071
0000b0 e6 0e ef 3c 0b 8b 7c bd 26 af 98 bd a1 ce c5 bd
       0.029181909 -0.06165604 -0.07455282 -0.09658552
0000c0 aa 06 a7 bc b4 08 35 bd 4a b6 8f bc 86 f9 ad 3d
       -0.02038892 -0.044197753 -0.017542977 0.084948584
0000d0 dc 3b 07 be c0 cf d6 bd e8 26 86 ba 10 2d 25 3d
       -0.13206428 -0.10488844 -0.0010234984 0.040326178
0000e0 de 35 8b bd 48 dd 8e 3d 2c 03 7b 3d 8d a5 f8 3d
       -0.06797384 0.069758 0.06128232 0.12140951
0000f0 dc 24 2a 3e f0 19 43 3d 20 45 c4 bd 13 5c 64 3d
       0.16615623 0.047632158 -0.09583497 0.05575187
000100 be f2 93 3c 9c c2 1d 3c 23 af e3 3c ca 6e c6 bd
       0.018060084 0.009628918 0.027793473 -0.096891
000110 75 4d c2 3c 33 d6 39 3d 38 5b 35 bd aa a9 18 bd
       0.023718575 0.045370292 -0.044276446 -0.03727118
000120 8d d3 19 bd 1c 74 fa bd 78 97 88 3b c0 81 47 bd
       -0.037555266 -0.12229177 0.004168447 -0.048707724
000130 e1 8b 8d bc 40 31 9e ba ca dd 1f bd 5c f9 c3 bd
       -0.017278614 -0.0012069121 -0.039029874 -0.09569046
000140 4f f3 6d bc ea ec d8 3d c3 2f 21 bd fb 50 d0 3c
       -0.014523341 0.10592063 -0.03935219 0.02542924
000150 86 c8 68 3d 5f aa c0 bc 24 52 b9 bd 47 ad b6 3d
       0.05683186 -0.02351874 -0.0904887 0.08919769
000160 1e 63 89 3c 16 d0 2f 3d eb 8b ae 3d 1c 25 03 3d
       0.016770896 0.042923056 0.08522781 0.032017812
000170 b0 2d 9d 3c d0 ca 35 bd 54 25 13 bc 00 70 1b 3d
       0.019186825 -0.04438287 -0.008981068 0.03794861
000180 c7 06 1d 3d 5e fc 5a 3d 4e 6d 33 be 60 b1 12 bd
       0.03833654 0.053463332 -0.17522165 -0.03581369
000190 48 37 40 bd ab f4 61 bc 72 17 e0 3d 68 60 1b 3d
       -0.04692772 -0.013791244 0.10941972 0.037933737
0001a0 03 d8 b1 3d 91 29 80 bd c7 10 c2 bd 7e 1c fd bc
       0.08683779 -0.06257928 -0.09475856 -0.030897375
0001b0 4c 0c 8b 3c c9 d3 44 3e 6c 1c 8a 3c db 35 fd 3c
       0.016973637 0.19221415 0.016859256 0.03090947
0001c0 8e 96 a3 bd a3 0c 94 bc 48 fe 9e 3c 0a 01 bd bc
       -0.079877004 -0.018072432 0.01940836 -0.023071785
0001d0 d4 a4 4b 3d 80 fa 1b bb b0 67 ed 3c d6 47 34 3e
       0.04971774 -0.0023800433 0.028980106 0.17605528
0001e0 26 fd 8b bd 7c f3 f7 bc 94 d7 b6 bd 64 e1 c6 3b
       -0.068353936 -0.03026747 -0.08927837 0.006069349
0001f0 e0 e4 69 bc 76 ce 0a bd 1e 8a 49 be d0 d4 f8 3a
       -0.014275759 -0.033888303 -0.19681594 0.0018984322
000200 44 40 96 3c 00 51 05 bc 2c 6c f2 bd 26 98 f3 3c
       0.018341191 -0.008136988 -0.118370384 0.029735636
000210 23 34 f7 bd 21 57 b2 bd 3a a9 ee 3d 49 a5 cd 3d
       -0.12070491 -0.08708025 0.11653371 0.10041291
000220 f1 ac 00 3d 84 41 05 bd c4 66 3f 3d 50 ca 52 bd
       0.03141493 -0.032533184 0.046728864 -0.05146247
000230 34 e3 14 bd 60 fa 6a 3d 58 57 bb 3a 9e 7d 7a bc
       -0.03634949 0.057367682 0.0014292998 -0.0152887385
000240 56 6a bf 3d 8e 7d 84 bd 97 55 77 3d e3 db 0e 3e
       0.09346454 -0.0646926 0.06038436 0.13951068
000250 be b1 d3 bd f6 c3 bb bc d8 d5 07 3c 0c 30 15 bd
       -0.10336636 -0.02292059 0.00829073 -0.036422774
000260 c5 09 82 bd a0 cd 04 be 34 97 3f 3d 14 3c 84 bc
       -0.0634952 -0.12969065 0.046775058 -0.016141929
000270 28 5b cc 3b 4c 1d 75 3d 08 d2 a6 bc 3c 23 92 bd
       0.0062364526 0.059842393 -0.020363823 -0.07135627
000280 80 16 00 b9 70 c9 f9 3b 37 1d 05 bd b6 b9 c6 3d
       -0.00012215413 0.00762289 -0.032498565 0.0970339
000290 4f 7c 09 be 32 86 84 3d cd df 28 3d b6 58 bb 3d
       -0.13426326 0.06470908 0.041229058 0.0914778
0002a0 7f fc 2d 3d 16 0e a7 bc 5f 63 cb bc f2 50 b4 3d
       0.042477127 -0.020392459 -0.024827657 0.088045016
0002b0 09 e0 c2 3c 04 ee ba bd ae 35 a0 bd f4 85 a3 3c
       0.023788469 -0.09127429 -0.078227386 0.019961335
0002c0 42 b5 07 3e 60 01 65 3b a0 85 82 bc d4 02 e5 bc
       0.13252738 0.0034943447 -0.015932858 -0.02795545
0002d0 bc 7c c0 3d 90 b1 21 bc 0e d0 d4 3c 3c ed f1 3c
       0.09398791 -0.009868994 0.025978114 0.029532067
0002e0 0f 5a e0 bd 98 0c 1c bd 9e 17 2b 3c b9 08 df 3c
       -0.10954677 -0.038097948 0.0104426425 0.027225839
0002f0 5a df 1b 3d d9 ab 99 3d ae f8 ac 3d 56 ed 04 be
       0.0380548 0.075034805 0.084458694 -0.12981161
000300 67 25 12 be f1 84 02 3e 28 17 7d bd 46 3e 55 3d
       -0.1427208 0.12746026 -0.06178966 0.05206134
000310 72 e2 82 3e 28 58 fe 3b 24 ef b3 3b 9c a6 dc bc
       0.2556339 0.007761974 0.0054911543 -0.026934914
000320 77 c9 12 bd 91 c5 08 bd 43 e7 c0 bc 07 86 32 bd
       -0.035836663 -0.03339154 -0.023547774 -0.04358485
000330 d0 27 b2 bd 47 f1 cc 3d 32 9c 5f 3d 39 06 af 3c
       -0.08699 0.100069575 0.05459232 0.021365272
000340 5b 04 d8 3c ca 60 2b 3e 49 b9 c6 bd e9 d0 fa bd
       0.026369264 0.16736141 -0.09703309 -0.12246878
000350 d8 91 06 3d ca b8 73 bc 48 4a 10 bb d4 0a 56 be
       0.03285393 -0.0148756 -0.0022016931 -0.20902568
000360 30 09 86 bc 16 1f bb 3d 9d b0 f2 bc 8c c3 98 bc
       -0.016361803 0.091367885 -0.029625231 -0.018647932
000370 78 66 8c 3c ad 9d 71 bd f7 d4 d8 bd 15 62 16 bc
       0.017138705 -0.058988262 -0.10587495 -0.009178658
000380 f9 f3 d9 bd 93 83 9c bd a8 1a 0a 3b 87 71 25 bd
       -0.10642237 -0.07642283 0.0021073017 -0.04039147
000390 00 fa ce b8 dc 5c 98 3d 6e 9b 89 3c 26 b7 65 bd
       -9.8694116e-05 0.074395865 0.016797747 -0.056082867
0003a0 f9 e7 0d 3d 0c a9 86 bd b3 76 e3 bd 18 50 84 bb
       0.034645054 -0.06575212 -0.111066245 -0.004037868
0003b0 d8 e8 27 bd 6f c3 49 3d f6 c9 bf 3d a7 f2 bb bd
       -0.04099354 0.049258646 0.09364693 -0.09177142
0003c0 42 73 36 3d 60 4a 1a 3c f8 be 9f 3d 9b 40 b4 bd
       0.044543512 0.009417146 0.07800096 -0.08801385
0003d0 df cb 0e 3d c7 9b 95 bd c8 1b c1 bb 43 03 fc 3d
       0.034862395 -0.07305103 -0.0058932044 0.123053096
0003e0 f7 de 8e bd 2a 8a 8f 3d 86 de 3e be ab 1e f0 3a
       -0.06976121 0.070087746 -0.18639573 0.0018319687
0003f0 e8 23 37 3d 3c 9a 14 bd 92 0b 8d 3d 3c 7f 00 3e
       0.044711977 -0.0362799 0.068869725 0.12548536

fc1.bias f4 [256]
000000 84 4f d9 bd e6 d9 75 3d 65 5c 93 bd f4 82 48 bd
       -0.106108695 0.060022257 -0.07195357 -0.04895301
000010 e3 2e a0 3d 30 43 d5 bb eb e7 ed 3d ef 90 ea 3c
       0.07821443 -0.0065082535 0.116165005 0.028633563
000020 59 f9 8b 3d 96 cb 1e bc 54 b0 d6 3c 0d 63 1b 3d
       0.06834669 -0.009692093 0.026207127 0.03793626
000030 e2 c0 22 be 58 f9 6d bc ee 40 aa 3d a0 00 d0 bd
       -0.15893891 -0.01452478 0.083131656 -0.10156369
000040 6f 3c 8a 3d d9 bd 05 3e 00 6f 00 bd 61 ac bf 3c
       0.06749808 0.13060702 -0.031355858 0.023397626
000050 d7 c3 b3 bd 52 d6 61 3d 53 ad 72 bd ca c1 da 3c
       -0.08777588 0.055136032 -0.059247326 0.026703734
000060 22 b7 31 bd 52 de a6 bd b2 d2 07 bd 5b 3d 9f bd
       -0.04338754 -0.08147873 -0.03315992 -0.077753745
000070 3e cd 1d 3e fe e5 19 bd b0 7e 40 bd 20 48 58 3a
       0.15410325 -0.037572853 -0.04699582 0.00082504936
000080 3b 51 09 3e f0 6f eb bb 7d d4 d5 bc bd 66 26 bd
       0.13409893 -0.007184975 -0.026102299 -0.040625323
000090 d6 bd 23 3d bb b5 d5 bc 07 04 96 bd 69 fd b3 bd
       0.039975964 -0.026087632 -0.07324987 -0.087885685
0000a0 17 15 88 bd d0 0a 46 3b e8 08 00 bd 0a b8 58 bd
       -0.066446476 0.0030218847 -0.031258494 -0.05290989
0000b0 49 d9 96 3b e0 ee 68 3b 40 f8 98 3a 5a 67 14 be
       0.004603539 0.0035542771 0.0011670664 -0.1449255
0000c0 05 91 83 bd 71 87 fe 3c 14 b7 be bc 16 38 6d 3c
       -0.06424145 0.031070443 -0.023280658 0.014478704
0000d0 30 95 d0 bc 28 dd 82 bd fc b4 b3 3d 14 d6 0e bd
       -0.025461763 -0.063898385 0.087747544 -0.03487213
0000e0 b5 e9 04 3e b3 03 11 bd be d5 86 bc 80 ab 5d 3d
       0.12979777 -0.03540392 -0.016459342 0.054118633
0000f0 7b 53 e7 bc fe 37 52 3d 64 d1 59 bc b9 63 d5 bc
       -0.028238049 0.05132293 -0.0132945515 -0.026048528
000100 df 06 4b bd dc 5a 3f 3c 1a 67 1d 3b f6 1c bc bd
       -0.0495671 0.011679377 0.0024017752 -0.09185211
000110 70 91 90 bb 27 ab 20 3d 30 c0 05 3c 5e c7 e3 bb
       -0.0044118688 0.039225724 0.008163497 -0.0069512567
000120 2a 03 19 3d 3e ea e1 bd 6e c3 ac bc a7 3c 25 bd
       0.037356533 -0.11031006 -0.021089282 -0.040341046
000130 24 50 5c bd 8d 62 c5 bd fe 65 d0 3d b8 6b 9e 3d
       -0.053787366 -0.09637938 0.101757035 0.077353895
000140 ae 0e a3 bd 42 07 0c 3c 53 0e e1 bd 15 af 37 3d
       -0.07961784 0.008546652 -0.1098906 0.044844706
000150 37 48 4a bd a0 87 b3 3d 88 fb 39 bc c9 5d 85 bd
       -0.049385276 0.08766103 -0.011351474 -0.06512029
000160 fc 84 ca 3c c0 5e 45 bd ef 7b f2 3d d0 35 44 3c
       0.024721615 -0.048186064 0.11840045 0.0119757205
000170 5a 5f 88 bd 6a 36 d3 3b 00 fe 87 3d 24 9e 84 bd
       -0.06658812 0.0064456956 0.066402435 -0.064754754
000180 6a b1 8a bd fc ee eb bd f0 0a a0 ba e4 d4 e8 bd
       -0.0677212 -0.11520192 -0.0012210291 -0.11368731
000190 5c ee 05 3d 66 9a 8b bd a1 ac 2b bc 54 00 5a 3d
       0.03269802 -0.068165585 -0.01047817 0.05322297
0001a0 e8 fc 4e 3d e7 69 1e 3e 0e 6d 60 bd 30 9c 22 3c
       0.05053416 0.15470086 -0.054791503 0.009924933
0001b0 3b 8b fb 3d c3 f6 a5 3d e1 d4 5f bd 6e 42 88 3d
       0.122824155 0.08103707 -0.054646377 0.066532955
0001c0 ed 19 c2 3d d7 c5 3a 3d 4b 66 5e bc 5c 1a 81 bc
       0.09477601 0.04559883 -0.013574193 -0.01575964
0001d0 f0 c7 7e bc d7 ca 1d 3c aa e5 3c bd 5c 0c 42 3c
       -0.0155505985 0.00963088 -0.046117462 0.011843767
0001e0 24 89 bd 3d 3d c3 11 bd b9 96 1a bd 71 a9 73 3d
       0.09254673 -0.035586584 -0.037741397 0.059487764
0001f0 83 e3 9e 3d 55 e5 99 3d fa d6 ba bd f9 24 e9 3d
       0.07758238 0.07514445 -0.09123035 0.11384005
000200 92 7f 1b be 12 a9 44 3e 78 d5 be bc e4 31 94 3d
       -0.15185383 0.1920512 -0.02329515 0.072360784
000210 cb 70 8e bd 34 14 7f bd 3c 32 8c 3c 3f 7f 40 bd
       -0.06955107 -0.062275127 0.017113797 -0.04699635
000220 5d f9 c7 3c 46 5e c8 3b 08 04 0f 3d 88 08 ae 3c
       0.024410898 0.006114754 0.034915954 0.021244302
000230 4f ab 13 3d 08 49 e1 3c 4a b7 31 bd 4b 25 f8 3c
       0.036052044 0.027500644 -0.04338769 0.03029122
000240 e0 04 98 bc 2b 81 d4 3d 44 56 a7 bd 2a d3 90 3c
       -0.018557012 0.10376199 -0.08170751 0.017678816
000250 89 93 8b bd 8c f7 2b be 5e e2 31 bc 9f 3d 06 3d
       -0.068152495 -0.1679365 -0.010857193 0.03277361
000260 24 c2 49 bc 82 8f a3 bc 51 9d 87 bd 92 95 cf bd
       -0.012314353 -0.01996589 -0.066218026 -0.1013595
000270 3e 93 36 bc 78 34 b9 3d 39 5b 80 bc 40 79 54 3c
       -0.011143504 0.09043211 -0.015668498 0.012968361
000280 15 24 31 be f3 cb 8f bc 32 86 06 3e c1 3e 93 3d
       -0.1729892 -0.017553305 0.13137129 0.07189704
000290 ad 64 0e bd c6 b6 5e 3d cc 69 c3 3d 84 a1 b1 bd
       -0.03476398 0.054373525 0.095416635 -0.08673385
0002a0 2b e9 e3 bd fd b9 80 bb 90 a8 ea bb 6c 00 40 bd
       -0.11128458 -0.0039284215 -0.0071612075 -0.046875402
0002b0 9a e9 06 3d 9d 69 5a bd a6 8f 00 3d d8 02 5a 3c
       0.032937624 -0.053323377 0.031386994 0.013306342
0002c0 07 1f df 3d 88 35 63 bd a0 5f 2e bb a0 cc 84 ba
       0.1089459 -0.055470973 -0.002660729 -0.0010131784
0002d0 b1 a4 e2 3d 7e 7f 86 3d 2f fd da 3c 5f bf 1a bd
       0.11066569 0.06567286 0.026732055 -0.037780162
0002e0 51 b1 c0 3c 84 5d 85 3d a8 54 f4 bb 88 74 11 3d
       0.023522051 0.06511977 -0.007456381 0.035511523
0002f0 34 2f bf 3d ca ac c4 3b d8 7b c9 3d ca 61 15 bd
       0.09335175 0.0060020434 0.098380744 -0.036470212
000300 40 1c 07 3e 5f f7 b0 bc 3e 2d 3a 3d c4 5f 87 3d
       0.1319437 -0.02160233 0.045453303 0.06610063
000310 8a 3b cc 3d 1e e4 e1 bd 6e 88 8f 3d c0 d4 79 bb
       0.09972294 -0.11029838 0.07008444 -0.0038121194
000320 3d 0a b4 bc cd 03 15 3e 10 1f 0c 3d c4 c5 01 3d
       -0.021977538 0.14552231 0.03420931 0.031682745
000330 0d 52 82 3d 5e 1f e9 bd d8 13 b6 3b e8 d4 6d 3b
       0.06363306 -0.11382936 0.005556565 0.0036290232
000340 da 8e d4 bc fd c1 92 3d 37 66 06 3e e0 f5 22 3d
       -0.025947023 0.071659066 0.1312493 0.039785266
000350 d7 f5 35 3c 15 16 07 be 4e 59 c0 3d 5b 26 4c 3d
       0.011105976 -0.13192017 0.093920335 0.049841266
000360 50 57 58 3d e4 91 70 bc e5 9e 81 bb c6 0a fb 3c
       0.052817643 -0.014683221 -0.0039557093 0.030644786
000370 43 fd cd 3c 2c ec 04 3d 20 9c 1c 3b a0 d0 c2 bb
       0.025145179 0.032451794 0.0023896769 -0.00594528
000380 81 32 48 bd a0 5e 3a 3c fc 04 31 be 9f 66 87 3d
       -0.04887629 0.011375099 -0.17287058 0.0661137
000390 63 52 d7 bd fd 3d 14 3d f6 f0 af 3d eb 0a d9 bc
       -0.10513761 0.03619193 0.085908815 -0.026494464
0003a0 d8 b1 de bd f2 bf 6f 3d 13 25 de 3c b0 b4 be 3d
       -0.10873765 0.058532663 0.027117288 0.09311807
0003b0 12 97 bc bc c8 45 9d bb 88 37 f9 bc 2d af 1b 3d
       -0.023021255 -0.0047995783 -0.030421987 0.038008858
0003c0 62 7f 98 bd ae 58 2a 3d bc 82 d1 bc 7e 58 86 bd
       -0.07446171 0.041588478 -0.025575034 -0.06559847
0003d0 24 2f 22 3e 94 c7 85 bd 00 b2 e3 ba a6 e6 ad 3d
       0.15838295 -0.06532207 -0.0017371774 0.08491258
0003e0 ea d7 b3 bc e4 7c 31 3d a0 bb fd bc ed d5 bd bd
       -0.021953542 0.043331996 -0.030973256 -0.09269319
0003f0 1a 58 50 bc ed de 9b 3c 00 72 8a ba 9e 5b eb 3d
       -0.012716318 0.019027198 -0.0010562539 0.11492084

fc2.weight f4 [256, 256]
000000 a9 43 67 3d a4 1e 01 3d 5c fc 95 bd 57 16 81 bd
       0.05646101 0.03152336 -0.07323524 -0.06303089
000010 07 e7 46 3d 53 43 de 3c 56 4f 8e 3c 9a 1a 58 bd
       0.04856017 0.027131712 0.017371815 -0.052759744
000020 e8 7d 43 bd 80 1d 90 bd d4 8c 9a 3d 77 54 41 3d
       -0.047727495 -0.07036877 0.07546392 0.047199693
000030 74 80 d1 3d 70 16 02 bb 94 7b 00 3d f2 bd e1 bd
       0.102295786 -0.00198498 0.031367853 -0.11022557
000040 4c 7c 92 3c 55 98 6f 3c 56 bc 74 3c ec 92 1d 3c
       0.017881535 0.014623721 0.014937481 0.009617548
000050 51 3f 8e bd 81 e7 93 3d 88 53 a6 bd f8 61 43 3a
       -0.069456704 0.0722189 -0.08121401 0.0007453258
000060 b8 cd ed bc 86 4d f8 bc d5 99 75 3d b1 65 a8 3d
       -0.029028758 -0.030310404 0.05996116 0.08222521
000070 7e 37 aa bc 52 80 16 bd 3a 39 89 3c 3c ca 65 bd
       -0.020778414 -0.03674347 0.01675092 -0.05610107
000080 bc 02 25 bd 8e e7 fd bc ca 0f 58 3d 80 a4 48 bd
       -0.04028581 -0.030994203 0.052749433 -0.048985004
000090 6d dc 1d be 0c 0e f0 3c 2e f7 3f bc 68 11 be bd
       -0.15416117 0.029303573 -0.011716647 -0.09280664
0000a0 f3 41 c4 bd 85 1f cf 3c 29 ac fe bd 76 b6 ab 3c
       -0.09582891 0.025283584 -0.12435181 0.020961028
0000b0 ff 72 d6 bc 41 97 c1 bc 82 c6 3f bd 0e aa dd bc
       -0.026177881 -0.023631694 -0.04682017 -0.027058627
0000c0 fd 5b ea 3c 59 93 81 3d 17 ad 15 3d 3e 92 98 3c
       0.028608317 0.063269325 0.036542024 0.018624421
0000d0 0a 9e 26 bd c6 e2 e1 3c d3 7c 06 bd ae b3 47 3d
       -0.04067806 0.027573954 -0.032833885 0.04875534
0000e0 1c 21 c5 bd 4a 8c 8d 3c 0c bd 49 be 6c 6c d1 3c
       -0.09625456 0.01727881 -0.19701022 0.025564395
0000f0 cc eb 92 3c 3d 29 3d 3d e6 95 20 3c 82 6a 07 3e
       0.017934702 0.046181906 0.009801364 0.13224223
000100 43 14 b9 3d 74 a9 87 bd 9f 71 08 3d 8c 84 fc bc
       0.09037068 -0.066241175 0.033311483 -0.030824922
000110 86 da 43 bd 4a d2 42 3c a9 eb c1 bc de 8d 2c 3c
       -0.047815822 0.011890957 -0.023671942 0.010531871
000120 01 84 1b bd 51 ce 40 3d 0c 53 85 bd e9 78 8f 3c
       -0.037967686 0.04707176 -0.065099806 0.01751371
000130 66 69 5f 3d 24 e6 c9 3c 3e fd 04 be e6 a1 8e 3d
       0.054543875 0.024645872 -0.12987229 0.069644734
000140 54 00 c6 3c b9 70 8e bd 2c cf 13 bd b9 cf ed bd
       0.024170078 -0.06955094 -0.036086246 -0.116118856
000150 d9 40 1a 3c 50 9a 9f bb b4 de f9 bb f6 64 52 bd
       0.009414875 -0.0048706904 -0.0076254252 -0.051365815
000160 fe f5 b6 3d 30 ac 62 3c 94 3b d3 bd e6 52 31 bd
       0.08933638 0.013834998 -0.10314098 -0.04329195
000170 d8 f0 2a 3d 62 58 76 bc a2 dc 9a 3d 4e e1 2a 3d
       0.041733593 -0.015035721 0.075616136 0.041718774
000180 ee c2 92 3d 1a 90 43 bd 40 d6 68 3b 48 2c f0 bb
       0.07166086 -0.047744848 0.0035528094 -0.0073294975
000190 96 d5 84 bb f8 b5 0b 3d 6a a1 8d 3d 04 e8 b6 bd
       -0.0040537817 0.034109086 0.06915553 -0.08930972
0001a0 10 c2 8e bd 3c 62 ec 3d fb fa 28 3d 3c 84 63 3d
       -0.06970608 0.11542174 0.04125498 0.05554603
0001b0 7c ad 0f 3d 88 b4 a2 bd 38 3e b7 3b ec 1a a3 3c
       0.035077557 -0.0794459 0.005592134 0.019910298
0001c0 e6 03 57 bc b0 a3 17 3d 56 1d 3f 3d 40 e3 ac 3a
       -0.013123488 0.03702134 0.046658836 0.0013190284
0001d0 f8 b9 1e be 9e dd 94 bd 32 22 2e 3d a4 36 dc 3d
       -0.15500629 -0.072688326 0.04251308 0.10752609
0001e0 0c 2d 1c 3d f0 bb 63 bd c5 24 82 bc 4e 7c 23 3d
       0.038128898 -0.055599153 -0.015886674 0.039913468
0001f0 da 1f 74 bd 82 ca 80 bd 7c f8 fc 3c 10 8a c1 3d
       -0.05960069 -0.06288625 0.030880205 0.094501615
000200 41 5a 4b 3c 84 08 31 bc fa 99 80 bb 50 28 00 3c
       0.012411655 -0.010805253 -0.0039246054 0.007822111
000210 02 21 61 bd da 42 d7 ba e1 14 e3 3d 60 8d a7 bb
       -0.05496312 -0.0016423122 0.11087967 -0.0051132888
000220 b3 b5 d0 3d 35 d9 5d bd 74 7e 2d bc cb 1b 3f 3d
       0.101909064 -0.054162223 -0.010589231 0.046657365
000230 93 80 2d bc 33 22 fb bd b9 2e 48 bd f7 24 87 bd
       -0.0105897365 -0.12262382 -0.048872683 -0.06598847
000240 2d 8c cf bd f4 08 f7 3c 5e 2f 59 3d 1d ed 27 3e
       -0.10134158 0.030155636 0.05302369 0.16399045
000250 bb ad 34 3e f2 25 2d bd 1b ee 2e bd cf 06 21 be
       0.17644398 -0.042272516 -0.042707544 -0.15725254
000260 78 78 3c 3b e6 18 88 3d 64 43 ff 3d ec 66 a8 bc
       0.0028758328 0.06645374 0.124640256 -0.02055689
000270 3c 0e 86 3c 33 e2 63 3d a4 34 14 bd 3d 9c e3 bc
       0.01636421 0.055635642 -0.036183015 -0.027784461
000280 f1 f6 13 bc 8e 35 72 bd 79 e1 28 bd ba 79 9a 3d
       -0.009031043 -0.059133105 -0.041230652 0.07542749
000290 06 55 2d 3d 05 8a cf bd 54 00 3d 3d f0 06 81 bd
       0.042317413 -0.10133747 0.04614289 -0.06300151
0002a0 42 d7 60 3d 1d 6e 68 bd a4 15 31 bd 43 8d 32 3e
       0.054892786 -0.056745637 -0.04323353 0.174367
0002b0 c5 9c a2 bd 28 b4 4e 3d 95 5d 6d 3d cb 14 15 3d
       -0.07940058 0.05046478 0.057950575 0.036396783
0002c0 60 ca d4 3c e2 f6 13 be bd 00 e4 bd 59 d1 e8 3d
       0.025975406 -0.14449647 -0.11132953 0.11368055
0002d0 a4 f2 7d 3d 68 8c b4 bd 97 91 2c bd 24 50 03 3d
       0.06199898 -0.08815843 -0.042131033 0.03205885
0002e0 46 c1 1a 3e 14 52 00 bd 1f 08 02 3e 6d 80 99 3c
       0.1511279 -0.031328276 0.1269841 0.018737996
0002f0 ed 2a 01 3c 0a d8 a8 bd 5a 62 03 3d df 3b cf bd
       0.007883769 -0.08244331 0.032076217 -0.101188414
000300 7f e4 03 be ba 48 6e 3d 16 20 ed bd 9e 15 c1 bd
       -0.12880133 0.058174826 -0.115783855 -0.09427951
000310 7b 50 b9 bd 52 e2 39 3b a9 03 20 bd e4 f4 4f 3d
       -0.090485536 0.0028363657 -0.03906599 0.050770655
000320 74 95 bd 3c 32 df e0 bd 61 e2 a6 bc c0 e5 a1 bd
       0.023142554 -0.10980071 -0.020371618 -0.079051495
000330 ce f3 ff 3c 8b 29 aa bd 6d 84 50 3d 24 24 02 3d
       0.031244185 -0.08308705 0.05090754 0.031772748
000340 9f 8e 87 3d 00 eb 4d 3d 76 ee 8a bd 46 92 90 3d
       0.06619 0.05027294 -0.06783764 0.070591494
000350 74 c8 07 3c 20 3c 79 3b 66 6f a4 bd 3a e0 73 bc
       0.008287538 0.0038030222 -0.0802906 -0.014885003
000360 6f b5 e4 3d b8 80 9c bb 82 cd 29 3c 74 5d 14 3b
       0.11167418 -0.0047760867 0.010363938 0.002263871
000370 df 25 c9 3c 86 06 aa bc aa ef e1 bd 9a d6 03 3e
       0.024554191 -0.020755064 -0.110320404 0.12874833
000380 86 a3 a8 3d 4f ec 9b bd e9 a2 62 bd 76 61 75 3c
       0.082343146 -0.07613432 -0.055331144 0.01497685
000390 36 ae a5 bd bc 5a da bd 66 ab 38 3e 06 38 eb 3c
       -0.08089869 -0.106618375 0.18034133 0.028713237
0003a0 72 1a a4 3d 34 9e c2 bc 65 a9 61 bd c9 9c 02 3e
       0.080128565 -0.023757078 -0.055093188 0.12755121
0003b0 19 3f 0a 3e f0 63 86 3d f0 af c6 3b d7 27 a1 3d
       0.13500632 0.0656203 0.006063454 0.07868927
0003c0 4b 95 79 bd 66 2f 6d bd 31 79 b6 bd 5a c0 6f 3c
       -0.060933392 -0.05790653 -0.08909834 0.0146332625
0003d0 c7 52 43 3d c8 3b a1 3d c4 b6 06 bd 06 6f 23 bd
       0.047686365 0.078727305 -0.032889143 -0.039900802
0003e0 a4 c5 89 bc fa 61 2b 3e 1e c2 ab bc bf 38 80 3d
       -0.016817875 0.16736594 -0.020966586 0.062608235
0003f0 a1 84 86 3d 22 93 d7 3d f4 59 9a 3d a2 14 19 3e
       0.06568266 0.1052611 0.075366884 0.14949277

fc2.bias f4 [256]
000000 6d 29 20 be 86 17 0c 3d 04 75 44 3c f2 da f0 bd
       -0.15640803 0.03420212 0.011990789 -0.117605105
000010 14 3d 4a 3d 26 25 a5 bd f0 b6 12 bd 18 62 c2 3c
       0.049374655 -0.08063726 -0.035818994 0.023728415
000020 0a 67 0b 3d 3b 04 89 3c 9e 93 a8 3d 1b 73 00 bd
       0.034033813 0.01672565 0.08231281 -0.031359773
000030 a0 ea e1 3d d7 ce 9b bd 23 1b 9b bd f2 b2 e7 bd
       0.11031079 -0.07607811 -0.07573535 -0.11313428
000040 08 c7 81 3c 16 97 c9 3d c1 82 9c bd d8 a4 b6 3b
       0.015841976 0.098432705 -0.07642127 0.00557385
000050 70 ee ed bd 4a a8 84 bc 7e cc 10 bd 95 ff 1a 3d
       -0.11617744 -0.016193528 -0.03535127 0.0378414
000060 64 e6 36 bd e0 a9 3f be 17 06 06 3d c6 85 c3 3d
       -0.04465331 -0.18717146 0.03272065 0.09547
000070 3a bf 81 bd b2 b3 29 be 9f db aa 3d 51 a6 9a bc
       -0.06335302 -0.16572455 0.08342671 -0.018878134
000080 e6 9e af bc ea bc 86 3c f8 5c 96 3d 1f 5d 0a bd
       -0.021438073 0.016447503 0.07341951 -0.033780213
000090 f7 6c e4 3d a0 ff 0b bb 90 ff be bc 3d eb 1e be
       0.11153596 -0.0021362081 -0.023315221 -0.15519424
0000a0 26 5c 2b bd 58 34 93 bc ba 4f 3d 3d 20 3a 5b 3d
       -0.041835926 -0.017969295 0.04621861 0.05352223
0000b0 2a b9 10 be 2e 21 cc 3d 00 eb c1 ba c6 bc 0b be
       -0.14133134 0.09967266 -0.0014794767 -0.1364623
0000c0 42 e6 17 bd fd 34 01 bd ba 52 d1 3c f4 7f 20 bd
       -0.037084825 -0.031544674 0.025552142 -0.039184526
0000d0 20 34 31 3e be e0 1b 3c 7c e6 b5 bd 59 5b df bc
       0.1730504 0.009514032 -0.08881852 -0.027265238
0000e0 ae b8 bd 3d 30 9f a4 bb fe 17 7c 3d 80 f6 b7 ba
       0.092637405 -0.0050238594 0.06154632 -0.0014035255
0000f0 8b 15 ff bd 21 b7 8d 3d f6 02 96 bd 17 e1 0e 3e
       -0.12455281 0.06919695 -0.073247835 0.13953052
000100 30 a5 fe bb db c1 96 3c 15 80 64 bd 47 0e d8 bc
       -0.0077711567 0.018402984 -0.05578621 -0.026373995
000110 1c cc ad 3b c0 4c 19 3a de 06 3a 3d 28 03 b6 3d
       0.0053038727 0.00058479235 0.045416705 0.08887321
000120 d2 28 d3 bd 78 9d 15 3e e9 7f a2 3c 18 fe 97 3c
       -0.1031052 0.14610851 0.019836383 0.018553779
000130 f8 1c ae bc d2 0d ac bb 2f b4 8a bd 12 d1 a4 bd
       -0.021254048 -0.005250671 -0.067726485 -0.080476895
000140 7c 0d 20 bd 66 35 ea 3d 62 57 91 bc e0 65 b0 bb
       -0.03907536 0.11435966 -0.017741863 -0.005383238
000150 7c b3 32 bd c9 be da 3c 8e bb 2c bc 5b 67 14 be
       -0.0436282 0.026702302 -0.010542763 -0.14492552
000160 f0 5e 1b 3d 8b e7 43 3d 0a d1 65 bc 6d 9c 36 bd
       0.037932336 0.04782824 -0.01402689 -0.044582773
000170 0d 25 11 bd 16 0b 4d be f8 d2 65 3d ff e3 ae 3b
       -0.035435725 -0.2002376 0.0561094 0.005337238
000180 77 8f 57 3d e4 33 87 bd 65 e7 91 bd 11 f3 b8 3d
       0.052627053 -0.06601694 -0.07124213 0.09030736
000190 54 f6 1c 3b 4d 27 7c bd 37 39 0d 3c f1 4f 5e 3d
       0.0023950534 -0.061560918 0.008619598 0.054275457
0001a0 c6 94 e3 3c 6e c5 ee 3d 0e fa b7 bd 64 d3 60 bd
       0.027780902 0.116587505 -0.08983241 -0.054889098
0001b0 03 d2 8b 3c ca 5d b7 bd 6c 1d 59 bc f0 99 7c 3c
       0.017067915 -0.08953436 -0.013251644 0.015417561
0001c0 0d d1 15 3e 1d dd b4 3d eb d5 3b 3d 1d 5e 09 3d
       0.14630528 0.088312365 0.045858305 0.03353702
0001d0 e5 94 18 3c 25 1b 17 3e 48 c9 22 bd 58 9d 00 3d
       0.009312843 0.14756449 -0.039742738 0.031400055
0001e0 6e 54 a9 bd 52 b5 b4 3d 3e a9 03 3d 26 9b c6 bd
       -0.08268057 0.088236466 0.032143824 -0.09697561
0001f0 39 d6 10 3d af 22 1d 3d cf 13 b8 bd 76 d1 60 bd
       0.03536055 0.038363155 -0.08988153 -0.054887258
000200 93 1d d2 3d bc 27 f0 bc 1d 67 ec 3c 80 dc ea b9
       0.10259547 -0.029315822 0.028857762 -0.00044796243
000210 74 95 95 bc ea ec a0 3d 78 75 7e 3d 02 90 d6 bc
       -0.018259741 0.07857688 0.062123746 -0.026191715
000220 db 8e 9f 3d 12 af 13 3e e8 51 e7 3c bc dc 95 3b
       0.077909194 0.14422253 0.028237298 0.0045734327
000230 88 fc 8f 3c 7b d3 3f 3d 3a a5 dd 3d 3e 56 ef bc
       0.017576471 0.046832543 0.1082253 -0.029215928
000240 b4 d7 f4 bd c4 f6 74 3b 47 12 bd 3d 07 52 2a 3d
       -0.119552046 0.003737853 0.09232002 0.041582134
000250 c5 12 90 3d 1d 19 15 be 82 68 0f bd f7 b8 16 be
       0.0703483 -0.14560361 -0.035011776 -0.14718996
000260 b0 91 95 bd 43 1f 72 3c 70 36 6e bd 12 ea 80 3d
       -0.07303178 0.014777961 -0.058157384 0.06294645
000270 bf be 17 bd 0b 8d 90 bd fc 5e 9f 3d 20 5a b9 3b
       -0.037047144 -0.07058152 0.07781789 0.0056564957
000280 c0 5e 1f bc 62 55 77 bc 0d bb 56 bd 07 aa 15 bd
       -0.00972718 -0.01509604 -0.05242448 -0.036539104
000290 ab 64 35 be 5b 23 a8 bd 09 61 64 3d 3a 01 00 bc
       -0.17714183 -0.082098685 0.055756602 -0.007812792
0002a0 ab ec b8 3d fc 77 09 3c 1e 63 cc 3c 74 16 60 bd
       0.09029516 0.008390423 0.024949607 -0.054708913
0002b0 e2 69 1a bd 00 c6 29 bb 1b 81 c4 bc a4 1f 28 3e
       -0.037698634 -0.002590537 -0.023987344 0.1641832
0002c0 bc 8f d3 3b 18 e8 4c 3e 24 38 61 3d 04 92 26 3e
       0.0064563435 0.20010412 0.05498518 0.16266638
0002d0 00 2c 2f be 72 0d f0 bd 5c bd c2 bc 24 33 62 3c
       -0.17106628 -0.117213145 -0.023771934 0.013806138
0002e0 e5 3a 84 bd 60 0c 32 bc ba d5 9b bd 86 ae ae bc
       -0.06456546 -0.010867208 -0.076091245 -0.021323454
0002f0 b0 2a 73 3b 0c 7a 36 3c d1 77 e3 3d 8a c1 f7 3c
       0.00371043 0.011137497 0.111068375 0.030243654
000300 05 57 89 3c 78 50 61 3d 83 ec f8 bc 62 8f 4e 3d
       0.016765127 0.05500838 -0.030386215 0.05042971
000310 24 43 aa bc d4 11 b1 bd 38 a9 59 3d 4e 31 48 bc
       -0.020783968 -0.086459786 0.053139895 -0.012218786
000320 34 89 b2 3d 90 95 ea 3b a6 75 4f be e0 01 ef 3a
       0.08717576 0.0071589425 -0.20259723 0.0018234812
000330 9c b1 1e bd e4 45 91 bd 6e 7e 65 be 0a e9 08 3c
       -0.0387436 -0.07093409 -0.2241151 0.008356342
000340 f7 67 9f 3d e6 d2 0a bd d9 17 ff bd 0e aa 8b bd
       0.077835016 -0.033892535 -0.124557205 -0.06819545
000350 42 6d 10 bd e2 28 13 bd bb e6 d8 3d fe 6e 80 bd
       -0.035260446 -0.03592766 0.10590883 -0.0627117
000360 dc aa cd bb d6 58 38 bd d1 2d 6d 3d 84 f7 34 bb
       -0.0062764715 -0.045006596 0.057905022 -0.002761335
000370 9e 44 5d 3d 50 b6 0f bd 6c cb a6 3c e0 4d f5 ba
       0.054020517 -0.035085976 0.020360671 -0.0018715225
000380 00 83 79 bd d5 95 f0 3c 8a fa 25 3c ea e0 31 bd
       -0.060915947 0.02936832 0.010130534 -0.043427385
000390 ee 9d 27 3d b7 f0 fa bc 92 90 32 3c 40 b2 bf 3c
       0.040922098 -0.03063236 0.010898726 0.023400426
0003a0 50 5b 1b 3d a8 a8 14 bd 20 80 af ba 23 65 64 3d
       0.03792888 -0.036293656 -0.0013389625 0.055760514
0003b0 32 58 a8 3d 7c b7 1c 3d 52 fa 6f bd 44 c0 d3 bd
       0.08219947 0.03826092 -0.058588333 -0.10339406
0003c0 a4 1f f5 3d 7b 93 f4 3d 61 ac 59 bc 2b 2c bd 3c
       0.119689256 0.11942192 -0.013285727 0.02309235
0003d0 80 c7 00 3e f4 d3 9c 3d ac ec bb 3d 95 74 36 3e
       0.12576103 0.07657614 0.09176001 0.1781791
0003e0 fe 2c db 3c 0d 3b 6b bd 3d 43 13 be 62 d5 a4 3d
       0.026754852 -0.057429362 -0.14381118 0.08048512
0003f0 e6 78 19 be 55 06 e1 bd af 67 30 3c c8 12 a6 bd
       -0.14987525 -0.10987536 0.010766908 -0.08109051

fc_mu.weight f4 [7, 256]
000000 f8 21 ba 3d ca bf d2 3d a9 4c c2 3d 1e 7f 24 3c
       0.0908851 0.10290487 0.09487278 0.010040073
000010 e6 e6 f4 bd b9 ff 2e bd ac 3e 81 bd 74 df 1b bc
       -0.11958103 -0.042724345 -0.06310782 -0.009513725
000020 8c 48 15 3e a5 73 02 bd 05 32 e0 bb 1c 5d 98 3c
       0.14578456 -0.03184857 -0.0068419003 0.018599086
000030 82 c3 bb bd 08 85 b9 3d e4 a0 83 3c 68 bf af 3d
       -0.091681495 0.09058577 0.01606793 0.0858143
000040 b5 2c a7 3d 00 d3 20 3d 92 61 e5 3d 78 9f ed 3d
       0.08162824 0.039263725 0.11200251 0.11602682
000050 f7 4a 58 3d 3a bf 18 3e 57 9c 08 3d 04 a2 89 3d
       0.052805867 0.14916697 0.033352222 0.06720355
000060 70 8e 11 bb cc da f3 bd 2d 13 8d 3d f3 a4 69 3d
       -0.0022210144 -0.119069666 0.06888423 0.057042073
000070 0a 5f 66 bd 3d a4 83 3c 4f 4b 5f 3d fc de 03 be
       -0.05624298 0.016069526 0.05451518 -0.1287803
000080 88 28 5a 3d 59 33 29 3e b6 b9 e2 bc c4 77 c5 3b
       0.05326131 0.16523494 -0.027676445 0.00602624
000090 37 f8 72 3c 8e 36 35 3b 32 7d 38 3d d7 22 88 3d
       0.014829687 0.0027650925 0.04504127 0.0664727
0000a0 ba 1c 8d bc 90 5b 05 bd 09 16 60 3d 33 ae fb bd
       -0.017225612 -0.032558024 0.054708514 -0.12289085
0000b0 aa 5c cf bd e5 ec 87 3d 28 56 59 3c 31 c0 70 3d
       -0.10125096 0.06636981 0.01326517 0.058777038
0000c0 01 2d b1 3c d7 2e 42 bd 81 53 2b bc 62 d2 98 3d
       0.021627905 -0.04740795 -0.010456921 0.07462002
0000d0 20 03 02 bb 46 1d 99 bc 38 79 b8 3d 00 db c8 3b
       -0.0019838288 -0.018690716 0.09007496 0.0061296225
0000e0 ca be 00 3e 7c 1e 83 bc d5 71 2a 3d e2 62 01 bd
       0.1257278 -0.016005747 0.041612465 -0.031588443
0000f0 df ea 8f 3d a1 ae 04 bd 70 47 6d bc 47 d2 f2 3d
       0.0702722 -0.0323931 -0.014482364 0.118565135
000100 8c 8f 9a 3c 91 3d 1f be f8 49 0b 3d 1a 5d 8e 3d
       0.018867277 -0.1555083 0.03400609 0.069513515
000110 50 67 d4 3b e8 3a 7a 3d db 8f dd bc 4d 30 f7 3c
       0.0064820424 0.061091334 -0.027046135 0.030174399
000120 ca 48 ce bc aa ea cb bd c9 7c 1b 3c 30 b6 0c 3c
       -0.025181193 -0.09956868 0.0094902 0.008588359
000130 f6 ae 1a bd 50 4c 51 bd 6f be 85 3d 7d 58 a6 3d
       -0.037764512 -0.051098168 0.06530463 0.081223466
000140 1a ea 73 3d 59 04 10 3d 63 07 fc bc 3d bb 22 bd
       0.05954943 0.035160396 -0.030765241 -0.039729346
000150 e5 d1 8e bd 74 e3 d7 3d ca 8f b9 bc dc 70 d1 bd
       -0.06973628 0.1054143 -0.022651572 -0.10226604
000160 d0 51 48 3b 6e 00 b9 3d f4 70 17 3c 00 b0 c2 3d
       0.0030566342 0.09033285 0.009243239 0.095062256
000170 7a 37 59 3d f8 f9 75 3d 68 81 e7 bb 40 ee 78 3b
       0.053031422 0.060052842 -0.007064987 0.0037983805
000180 00 5e 29 3c 57 75 e2 bc 52 b7 e4 bc 21 85 dd bd
       0.010337353 -0.027643843 -0.027919445 -0.10816408
000190 c7 7e a1 bc 8c ac 8e bd a1 ea 97 3d 49 55 25 bd
       -0.019713772 -0.069665045 0.07417799 -0.040364537
0001a0 3e 6d 70 3d 72 d9 ad bb cb ce 46 3d 70 4c d4 3c
       0.05869793 -0.0053054625 0.048537057 0.025915354
0001b0 9b be 63 bd dc 9a f6 3d 98 1b e7 bc a7 9c 04 3d
       -0.055601697 0.12041256 -0.0282114 0.032375958
0001c0 ce a3 15 3d 94 77 9c 3c 7c d0 f4 3d a4 52 08 bd
       0.03653317 0.019099988 0.11953828 -0.033281937
0001d0 c6 00 c1 bb a9 fd 75 bd 7f 8f df bd de 3d 42 3d
       -0.005889985 -0.060056362 -0.109160416 0.047422282
0001e0 fc 3d c4 3d f8 2c 9e 3c 1e 3b 45 3c af 50 52 3d
       0.09582135 0.019308552 0.01203802 0.051346477
0001f0 c0 37 48 bd c8 f3 fd 3c 3c 3b f6 bc 25 2f b1 bd
       -0.048881292 0.031000033 -0.030057542 -0.0865157
000200 e2 e4 87 bd 50 21 fe 3c bf 8d cd 3c 4b 07 54 3d
       -0.06635453 0.031021744 0.025092004 0.051764768
000210 f5 38 35 bd d4 68 ad bd fa 5e 4f bd 4c af 4f be
       -0.04424377 -0.0846726 -0.050627686 -0.20281714
000220 46 1e be 3d 84 66 98 3d f0 72 3f 3d 60 8d cb bd
       0.09283118 0.07441428 0.046740472 -0.099390745
000230 7e 27 75 bd ac aa 83 3d bc e9 02 bd ea 55 04 bd
       -0.059852116 0.064290375 -0.031961188 -0.032308497
000240 68 29 be bd 08 01 7c 3d ce 93 a3 bd c0 0c 8d 39
       -0.09285241 0.06152442 -0.07987176 0.00026903115
000250 80 27 0c 3b 21 17 d7 bc b9 51 c0 bd 00 2f d2 b9
       0.0021385849 -0.026256146 -0.09390587 -0.0004008934
000260 06 1e 01 bc 09 0a 81 3d 18 a4 27 3d 6c e6 76 3d
       -0.007880693 0.06300742 0.040927976 0.06027834
000270 ab 1f 33 bd 83 07 e3 3c 52 ce c1 bd 68 d6 a0 3b
       -0.043731373 0.027713543 -0.094631806 0.0049083717
000280 53 87 03 3e d6 eb 89 bc 96 6c 86 bd 68 ce 41 3d
       0.12844591 -0.016836088 -0.0656368 0.047315985
000290 76 5b 1a bd 12 27 17 bd fb 5e 85 3d 5a e1 6c 3d
       -0.03768488 -0.036902495 0.06512257 0.0578321
0002a0 5c 7c bb bd 23 68 07 be 1c f7 fd bc 54 5a d2 3c
       -0.09154579 -0.13223319 -0.03100162 0.025677837
0002b0 8a 73 b7 3c 94 f4 08 3d 48 6b 45 3d 4c e2 fc 3d
       0.02239396 0.033436373 0.048198014 0.1234785
0002c0 44 7a 7f bc 44 9d 0e 3d af 09 02 3e cd 1c ac 3d
       -0.015593115 0.03481795 0.12699006 0.08403931
0002d0 33 b0 64 bd 01 89 74 3d 0a 40 69 bc 8c 08 9b 3b
       -0.0558321 0.05970097 -0.0142364595 0.0047312435
0002e0 30 ee a5 bb 4d 5d 41 3d 96 c0 89 3c 86 64 af bc
       -0.0050637946 0.04720812 0.016815465 -0.021410238
0002f0 b2 45 e6 3b 70 9a 8d bd cb 07 dd bc 14 e0 a2 bd
       0.0070273513 -0.06914222 -0.026981255 -0.07952896
000300 24 e3 6b be 79 b0 7b 3d 18 47 08 bc 75 29 b8 bc
       -0.23035866 0.061447594 -0.008317731 -0.022480706
000310 80 7c 8c bc c1 51 9f bc 08 0a 13 bd bd 6a 8d bd
       -0.01714921 -0.019448163 -0.03589824 -0.06905124
000320 d8 0b c1 3b c0 5c c0 bc 26 73 af 3d b8 0e c0 3c
       0.0058913045 -0.023481727 0.08566885 0.023444518
000330 b9 78 25 bd 9e 5a 31 3e 19 a4 04 bc 8e 3f 2a 3e
       -0.040398333 0.17319724 -0.008095765 0.16625807
000340 68 c0 0d 3b 5b 8e 6a 3c ca 26 d1 3d da c3 02 be
       0.0021629576 0.014316167 0.102124766 -0.12770024
000350 c1 d5 d0 bd 34 5c 82 bc 94 17 04 bd 5e cd 72 3c
       -0.1019702 -0.015913107 -0.03224905 0.014819471
000360 92 73 70 3d d7 54 31 3c 14 ce 1d be bc 83 0c 3d
       0.058703966 0.01082345 -0.15410644 0.03430532
000370 94 61 a0 bd f9 a4 08 be 0d a6 02 be bd 13 75 3d
       -0.078311116 -0.13344182 -0.12758656 0.059833277
000380 3e f4 67 3d d9 9f 2c 3d ec a2 9a bd 15 f8 a8 3d
       0.056629412 0.04214463 -0.07550606 0.08250443
000390 6c 76 53 bd be d1 57 3d 21 4c 79 3d 60 eb bd bc
       -0.051626608 0.05269026 0.060863618 -0.023183525
0003a0 a2 6f 19 bd 3c cd d2 bc 96 b2 fb bc 23 e6 9c 3d
       -0.037459977 -0.025732629 -0.030724805 0.076610826
0003b0 80 18 e3 bb 00 91 65 39 d9 f3 0f bd 50 00 17 ba
       -0.006930411 0.00021893159 -0.03514466 -0.00057602394
0003c0 06 e5 42 bc ac b7 89 bc 32 c6 3f 3c 4e 03 5c 3d
       -0.011895424 -0.016811214 0.011704968 0.05371409
0003d0 ae ab 68 3d 5d 03 cf bc fe 18 b2 3c d2 04 64 3d
       0.05680435 -0.025270158 0.021740433 0.05566866
0003e0 72 5c 08 bd 4e 5a fa 3b 86 e3 96 3d be f4 28 3d
       -0.033291288 0.0076401597 0.073676154 0.04124903
0003f0 89 92 88 bd c9 2c 29 3c d4 35 8b 3d 3e 8d 52 bd
       -0.06668574 0.010325619 0.06797376 -0.05140423

fc_mu.bias f4 [7]
000000 22 c4 00 bd 9f a8 08 3e ed 35 5d bd 4b 89 1d bd
       -0.031437047 0.13345574 -0.054006506 -0.03846101
000010 f8 92 f2 bb c4 95 1f bd 8e b6 8e 3c
       -0.007402774 -0.038961187 0.017421033
