ga_weights/ga2/Ant-v5/SAC/weights3.pt (torch, 382817 bytes, 6 tensors)

fc1.weight f4 [256, 105]
000000 c3 b8 3b bd 4f 99 62 3d 00 ae 01 3d e0 c1 20 3d
       -0.0458305 0.055321988 0.03166008 0.039247394
000010 6f c9 39 bd 7f b0 90 bd 8f 54 9b 3d e5 80 f7 bc
       -0.045358118 -0.07064914 0.07584488 -0.030212829
000020 d8 11 ed 3d 33 fe c0 3d ed 07 8c bc 97 44 05 bd
       0.11575669 0.09423485 -0.017093623 -0.032536115
000030 b4 0a 01 39 78 79 13 bc db b7 97 3b 83 3d 9f bc
       0.00012306386 -0.009001128 0.0046300716 -0.01943851
000040 95 d0 0a 3d f8 d5 94 3c 00 c0 c7 bc d7 ad ba bc
       0.033890326 0.018168435 -0.024383545 -0.022787971
000050 f2 78 fa bc 8d a1 7c 3d 90 f9 4d 3b b6 dc a6 ba
       -0.03057525 0.061677504 0.0031429268 -0.0012730572
000060 98 ca 83 3c 07 78 8a bc 2d a2 b5 bd 90 9d 9c bc
       0.016087815 -0.016902937 -0.08868823 -0.0191181
000070 db f5 d1 3c b6 9f c8 3b 8b f5 d2 3d 62 bd 95 3c
       0.025629928 0.0061225547 0.1030074 0.018278781
000080 bb df 73 3b 78 ec 44 3d 9d 09 ba bc bd fa bc bc
       0.0037212211 0.048077077 -0.022709662 -0.02306878
000090 c3 9a 08 3d cd a1 26 3c 37 a1 b1 3d 30 ea 09 bd
       0.033350717 0.010170412 0.086733274 -0.033670604
0000a0 67 73 60 bd 22 4f 1f bd 97 8b d5 bc c0 53 8d bd
       -0.054797556 -0.038893826 -0.026067538 -0.0690074
0000b0 e3 d5 f8 bc 8f 84 f7 3b 2d 57 22 3d 35 03 62 bd
       -0.030375427 0.007553644 0.03963392 -0.05517884
0000c0 ba 64 18 3e e4 29 39 3d d8 62 9c bd bc 65 2d bd
       0.14882174 0.045205966 -0.076360404 -0.04233335
0000d0 cf 21 52 bc 14 76 c1 3c 34 2e 96 bd 58 e9 06 3d
       -0.012825443 0.023615874 -0.07333031 0.032937378
0000e0 7f 99 21 3d 5e 7c 4c 3c c2 80 60 bc 7a e4 15 bd
       0.039453026 0.012480823 -0.013702573 -0.036594845
0000f0 68 b5 1d 3c cb d5 05 3d dd a8 ea 3c 37 d7 b7 3d
       0.00962577 0.032674592 0.028644973 0.08976596
000100 d4 a5 ab 3d c1 41 be bd 4f 31 a8 3d 60 27 f7 bc
       0.083812386 -0.09289885 0.0821253 -0.030170143
000110 93 83 ba bd 57 56 24 3d e1 e0 b8 bc 42 36 65 3d
       -0.09107127 0.040121403 -0.022568168 0.055959947
000120 b2 df b8 bc ab ac 09 bc bb 69 1d 3d 02 59 87 bd
       -0.022567604 -0.008402984 0.03843091 -0.06608774
000130 40 ba fb bb 4c 41 37 3d cb e5 6c bc 87 7c 49 bc
       -0.007682115 0.044740006 -0.014459084 -0.012297756
000140 fb 59 c7 3d 32 86 d8 bd 86 d1 c2 3c 17 b0 87 3d
       0.09733959 -0.10572471 0.02378155 0.06625383
000150 56 a7 11 bd af cb 0b 3d 68 e8 16 3d e3 83 64 3d
       -0.035559975 0.034129795 0.036842734 0.05578984
000160 e0 e5 9a bc 9b f2 a2 39 85 0f 1a bd c0 7d 3c bc
       -0.018908441 0.00031079803 -0.037612457 -0.0115045905
000170 9f 7d 82 bd 63 95 b1 bc 23 ca 9f 3b 3a 5d 3d 3d
       -0.063716166 -0.021677678 0.0048763915 0.046231486
000180 44 3e 01 bd 53 42 eb 3c bd 8a 99 3d 3f fb 94 bd
       -0.03155352 0.02871815 0.07497165 -0.07274484
000190 77 a0 1c bd b6 1d a9 bd b5 dd b0 bb 6f 66 e7 bc
       -0.03823897 -0.0825762 -0.0053975233 -0.028247086
0001a0 db 1b 12 3d 27 7b 85 bd b3 61 4b 3d a7 f2 00 bc
       0.035671096 -0.0651763 0.04965372 -0.007870353
0001b0 cc e3 bc bd 94 06 87 3c fc 4d 14 bd 27 68 b4 bc
       -0.09223136 0.016482629 -0.036207184 -0.02202232
0001c0 63 89 db 3d 0d 08 c0 bd 65 95 09 3c e2 95 54 bd
       0.10719564 -0.093765356 0.008397435 -0.051900752
0001d0 2c 03 bb bd 22 87 5c 3d 43 f8 0d bd 0a 87 a8 3c
       -0.09131464 0.05383981 -0.03466059 0.020572204
0001e0 95 99 6e bd de 64 a8 bd 10 39 62 3c 73 b7 a1 bc
       -0.058251936 -0.08222364 0.01380755 -0.019740796
0001f0 37 8d c3 3c 37 3d a8 bb 58 59 1d bc 50 77 36 bc
       0.023871047 -0.0051342505 -0.009603821 -0.011136845
000200 89 73 89 bd 33 55 55 bd a3 30 68 3b a8 45 7b 3b
       -0.0671149 -0.052083205 0.003542938 0.003834108
000210 27 d2 7c 3c 61 ea 0a bb 45 14 bf bd b1 c8 0c 3b
       0.015430964 -0.002119683 -0.09330038 0.0021481926
000220 2f 72 be bd 57 22 42 bd 05 d7 fe 3b eb 5d 85 3d
       -0.092991225 -0.04739603 0.007777097 0.06512054
000230 5f c4 b9 3d 26 ff 96 3b 4f 35 7f 3d 7c f9 0c 3d
       0.09070658 0.004608053 0.0623067 0.034417614
000240 8f 80 4a 3d 3a 12 78 3d f3 44 9b bd f5 b5 61 bd
       0.04943901 0.060564257 -0.075815104 -0.05510517
000250 7b ed 1a 3d f3 65 47 3c d8 dc 56 bd 0f 73 4f 3d
       0.037824135 0.012170303 -0.052456707 0.050646838
000260 c7 37 34 38 c8 7e f6 3b 01 44 b8 bc c7 46 13 bd
       4.296729e-05 0.0075224377 -0.022493364 -0.03595617
000270 88 e7 d4 3c ab 27 c9 3d 2a 83 63 3c dd b9 46 bd
       0.025989309 0.09822019 0.013886252 -0.048517097
000280 54 44 93 bc e6 74 b6 bd bb 94 d4 bc 03 75 4e bd
       -0.017976917 -0.08909015 -0.025949826 -0.05040456
000290 e9 1e 47 3c 2a b0 85 bb c0 a9 84 3d 31 32 a0 3c
       0.012153366 -0.0040798383 0.0647769 0.019555183
0002a0 13 d8 d0 bc 6d f7 5a bd db 2f a0 bd 89 1a 90 bd
       -0.025493657 -0.05345862 -0.07821628 -0.07036311
0002b0 28 55 5b 3d 83 44 11 3d a0 07 f3 bd a3 ab 06 bd
       0.05354801 0.03546573 -0.11866689 -0.03287853
0002c0 6d c7 f1 3b 2f a9 b7 39 48 89 a0 bb 95 c2 88 bc
       0.0073785097 0.00035030532 -0.0048991777 -0.016694346
0002d0 26 80 8e 3d 4d 84 ce 3b e7 94 0b bd 03 25 10 ba
       0.06958036 0.0063023926 -0.03407755 -0.0005498679
0002e0 70 e6 5e 3d 13 49 7c 3d ed 79 2c 3b 43 06 91 bd
       0.05441898 0.061593127 0.002631779 -0.070812725
0002f0 52 4b 91 3d f3 13 8c 3d c8 df 3f 3c 5c fb c6 bd
       0.07094444 0.068397425 0.011711068 -0.09715912
000300 ab 7e 41 3d c3 74 10 3e 7a c5 64 bd 7c 7f 83 bc
       0.04723994 0.14107041 -0.05585239 -0.016052
000310 09 f4 2c bd 97 e7 08 bd b9 81 49 3d 74 2d 8f 3d
       -0.042224918 -0.033423986 0.04919598 0.06991091
000320 2a dc 1f bd 7a 4a 80 bc 8e ed 23 bd 45 d1 93 bd
       -0.039028324 -0.015660513 -0.04002147 -0.07217649
000330 a9 7a 0c 3d 55 eb b4 bd 07 9a 78 3c 21 aa 48 3d
       0.034296665 -0.088339485 0.015173442 0.048990373
000340 d5 a8 6a bd 65 ed d3 3c 9f 9b 70 3c 63 06 6c bd
       -0.057289917 0.025870034 0.01468554 -0.05762328
000350 df 3a 18 bc f7 ea bd bc d1 ce a7 bc 43 ed e1 3d
       -0.00929138 -0.023183329 -0.02048436 0.11031582
000360 fe 94 a4 3c 5b 42 32 bc c8 76 f1 bd 72 68 b6 bc
       0.020090576 -0.010880078 -0.11790234 -0.0222666
000370 00 63 94 3c 21 80 45 bd 9f 0a 89 3c 67 4d 61 3c
       0.018113613 -0.048217896 0.016728697 0.013751364
000380 93 b0 7b bc 83 0d fa bb 55 ac 83 bc 91 a2 ba 3d
       -0.015361923 -0.0076310053 -0.016073385 0.09113038
000390 79 6b c9 bd 5b 03 a0 3c 71 39 16 bc e6 26 4b 3d
       -0.09834952 0.01953285 -0.009168969 0.049597643
0003a0 3b 0a d1 3c 12 b2 67 bd ff 2e 97 bd 1f c6 23 3c
       0.025517574 -0.056566305 -0.07382011 0.009995966
0003b0 27 b0 10 bd 05 84 dc 3c e3 7f b3 3c 59 17 11 3d
       -0.035324242 0.02691842 0.021911567 0.035422657
0003c0 1b e1 48 bc 85 9e fb 3a 7b a0 76 3d b3 36 a3 bd
       -0.012260701 0.0019197023 0.06021164 -0.079694174
0003d0 7d 92 5d 3c 50 ce 40 3d 8b 8a 04 bd 9d 48 2c bd
       0.013523695 0.047071755 -0.032358687 -0.042061437
0003e0 80 68 bd bd 0b 24 0b bd f6 88 81 3c 22 1d 6b bc
       -0.092484474 -0.03396992 0.015812378 -0.0143502075
0003f0 3f 3a d8 3c 5b 0d 38 3c 78 e6 3d bd a5 94 3f bd
       0.026394961 0.011233653 -0.04636237 -0.046772618

fc1.bias f4 [256]
000000 57 58 aa 3d 2a 61 54 3d 43 4e 36 bd 3b e6 e0 bd
       0.08317631 0.051850475 -0.04450823 -0.10981413
000010 ec 3f 4a 3d 51 d8 b9 ba b8 a0 f5 bc 05 5a 7f 3c
       0.049377367 -0.0014178847 -0.029983863 0.015585427
000020 ed 96 93 bc e3 b1 26 3d a5 d1 de bb 0d b6 38 3c
       -0.018016303 0.04069699 -0.006799894 0.011273873
000030 f7 ca b7 3d b0 a4 ba 3c 9d 36 87 3b 0f 64 1a 3d
       0.08974259 0.022783607 0.0041263835 0.03769308
000040 e3 30 9a 3d d0 b0 55 3d 93 bd 3a 3d 6f 43 94 3b
       0.07528856 0.052170575 0.04559095 0.0045246403
000050 4f 0f 52 bc 2f 19 8f bd 5d d3 4e bd 18 46 7e bc
       -0.012821033 -0.06987225 -0.05049454 -0.015519641
000060 7a eb f9 bb e8 38 5d bd 49 35 85 3c f3 99 2e 3d
       -0.007626948 -0.05400935 0.01626076 0.042627286
000070 47 4d ca bc 51 15 1b bd 22 90 10 bc cd 2f ab bd
       -0.024695052 -0.037862126 -0.008823426 -0.08358727
000080 6b c5 93 3d bd f3 d3 ba a3 13 e6 3d c3 05 2b bd
       0.07215389 -0.0016170662 0.11234214 -0.04175354
000090 15 84 47 3c bb 62 45 bd 9c dc b0 3d 4d 6a 83 3c
       0.012177487 -0.04818986 0.08635828 0.0160419
0000a0 86 a2 34 3d 0f 71 5b 3d 10 41 03 3d cf a9 16 3d
       0.044100307 0.053574618 0.03204447 0.036783036
0000b0 c5 c9 63 bd 2b 7e 4a bd c3 55 e1 3c 78 38 cc bb
       -0.055612344 -0.04943673 0.027506715 -0.0062323175
0000c0 52 20 a8 bd ba 8b 6c bd f2 b0 be 3d b0 e0 d4 3c
       -0.082092896 -0.05775044 0.093110934 0.025986046
0000d0 5d 2b b5 3c 62 fc f4 3c c7 1c a0 bc f2 f2 f0 bc
       0.022115404 0.029905502 -0.019544972 -0.02941272
0000e0 6d 93 d7 3a 0d 6a 95 3d e8 ea df bb 9b 5a 95 bb
       0.0016447135 0.07295618 -0.006833423 -0.00455792
0000f0 3f 9b 54 3d 00 82 4d bd 9f 01 ba 3b be 93 b6 3c
       0.051905867 -0.050172806 0.005676463 0.022287246
000100 4f b7 06 bd 97 74 91 3d 2f 87 0e 3d 57 5d b4 bd
       -0.03288966 0.07102316 0.03479689 -0.08806866
000110 fd 67 32 3c d7 64 a1 bd 02 f6 39 bd d7 a8 9b 3d
       0.010889051 -0.07880562 -0.045400627 0.07600563
000120 93 8e 91 3a df 28 d9 bd 9b 5b c4 3d b2 32 82 3d
       0.0011105112 -0.10603499 0.09587785 0.063573256
000130 97 47 0e bd da 78 d2 bc 18 a6 dc 3c 5f 40 69 bd
       -0.034736242 -0.025692392 0.026934668 -0.056946155
000140 b2 53 92 3c bf a0 85 3d 91 75 13 bb 30 e5 9a 3b
       0.017862175 0.065248005 -0.0022500495 0.0047270283
000150 13 11 f9 3b 03 25 88 3d d3 03 05 bb 5a 0a 54 3d
       0.0076009124 0.066476844 -0.002029647 0.051767685
000160 68 c0 b7 bd f0 fe 10 bd ec 44 b8 3d 6a 45 58 3d
       -0.089722455 -0.035399377 0.08997521 0.052800573
000170 bd 98 52 3d c7 be 7e b9 84 bc 96 bc 92 a9 74 bd
       0.051415194 -0.00024294398 -0.018400438 -0.059732027
000180 45 1c c2 3c 43 8c 3f bb 18 ce e9 bd c5 6c 19 bd
       0.02369512 -0.002922789 -0.114162624 -0.037457246
000190 28 d9 68 bd c3 b0 bd 3c 74 fe 0e 3e 87 de 26 3c
       -0.05684772 0.023155576 0.13964254 0.010184891
0001a0 4f 01 b1 bc e9 ae 16 bc 78 02 fa bc 71 35 1c 3c
       -0.02160707 -0.009196975 -0.030518755 0.009534226
0001b0 33 2d 92 3c 98 ce 1f bd 6e 44 07 3d 63 f2 07 bd
       0.017843818 -0.039015383 0.033024244 -0.033190142
0001c0 7a f6 60 bd ef 28 54 bd fb 2f 41 3d b2 3d 7f 3d
       -0.05492256 -0.05179685 0.0471649 0.062314697
0001d0 16 ae 8c bd 5f 0a e3 bb db 5e c2 3d d3 87 a8 3d
       -0.06869142 -0.0069287266 0.094907485 0.082290314
0001e0 36 87 a0 bc 5f a3 19 bd f6 31 9f bc f0 b6 b7 bc
       -0.019595724 -0.03750932 -0.019433003 -0.022426099
0001f0 3c 8e 8e 3c 14 e2 2b 3d 03 cd c3 3c 5c f0 32 3c
       0.017401807 0.04196365 0.023901468 0.010921564
000200 aa e8 76 bd 33 7c 32 bd df 09 c1 bb 43 68 38 3c
       -0.06028048 -0.043575477 -0.0058910693 0.011255327
000210 3f 64 d2 3d 30 ca f8 3c c2 f3 c9 3d d4 8a 2f 3d
       0.10273027 0.030369848 0.09860946 0.042857006
000220 a3 da 02 bd 4e dc 88 3d 80 e8 18 bd 80 43 57 bb
       -0.03194679 0.06682645 -0.037331104 -0.003284663
000230 6e 0d 15 3d b1 c9 3b bc a0 b5 d1 bd 47 21 32 3a
       0.03638976 -0.011461661 -0.1023972 0.000679512
000240 2c 54 3c bd 4b 8b da 3c 95 e0 f5 bb e3 51 00 3d
       -0.04597871 0.026677748 -0.007503579 0.031328093
000250 93 d4 b3 bd 69 71 02 3e 2b 7b 06 3c 76 98 a8 3d
       -0.0878078 0.12738575 0.0082080765 0.082322046
000260 42 a0 06 bd 2d cd 98 bc d0 6d cb bc 8d 33 d4 3c
       -0.032867678 -0.018652523 -0.024832636 0.025903488
000270 87 60 0e 3d 02 6d 5d bc 6b cd c2 3c 97 97 9f bd
       0.034760024 -0.013514759 0.023779592 -0.07792585
000280 85 c7 69 bd 47 d4 32 3d f9 51 0a bd 60 74 92 3d
       -0.057075042 0.043659475 -0.03376958 0.07151103
000290 45 df 85 bd 78 17 80 bd 6a 55 5d bd b2 6c 38 3d
       -0.06536726 -0.06254476 -0.054036535 0.045025535
0002a0 ed d6 cf ba d8 eb 19 3d 2e c5 0a bd 9a 2b 88 3c
       -0.00158569 0.037578434 -0.03387945 0.016622353
0002b0 9b 43 7a bc e7 1c 8e bd 56 28 c9 3c b8 61 73 bd
       -0.015274907 -0.069391064 0.024555366 -0.059419364
0002c0 c1 67 19 3d 2d 95 d3 3c f9 b1 27 3d 97 a7 18 3d
       0.037452463 0.025827968 0.040941212 0.0372692
0002d0 e7 b5 47 bc d7 c6 c0 ba 53 0a 5e 39 5a bc 34 bd
       -0.012189365 -0.0014707696 0.00021175416 -0.04412494
0002e0 53 1f 7b 3d 65 7a b4 bd bd 48 ab bc 96 24 04 bd
       0.06130917 -0.088124074 -0.020908708 -0.032261454
0002f0 b5 7c f3 3c f1 7f 41 bd d8 1a 17 3c fa b9 81 bc
       0.02972255 -0.047241155 0.009222709 -0.01583575
000300 c1 f8 b1 3d c4 b4 2a bc 1b 7e ef bb 20 47 11 bd
       0.08690024 -0.010419074 -0.007308734 -0.03546822
000310 01 34 12 bd 6b 13 e1 bc 0a 19 19 bd 5f 6b a2 3d
       -0.035694126 -0.02747508 -0.037377395 0.07930636
000320 67 49 2b bd c0 7c 64 bd 9b f9 87 3d 3f e1 e1 3b
       -0.04181805 -0.055783033 0.06639405 0.0068933065
000330 97 44 29 3d 10 fc d1 bd 09 2a b3 3c 80 fb 25 bc
       0.041325178 -0.10253155 0.02187063 -0.010130763
000340 5b 2a 82 3d 92 21 4d bd 16 41 80 bd f8 fa db bc
       0.06355735 -0.050080843 -0.06262414 -0.02685307
000350 05 6e 86 bd e3 b8 51 bc 4f 31 bb 3c a3 c6 3d 3d
       -0.06563953 -0.012800428 0.02285066 0.046332013
000360 d5 39 8a 3a c9 cf aa bc 3e 17 8b 3c f7 e5 de bc
       0.00105458 -0.020851033 0.016978856 -0.027209265
000370 15 c7 1f 3d fc 9c c8 3c 65 7d f5 bb 16 08 92 3c
       0.03900822 0.024488918 -0.007491755 0.017826121
000380 63 70 be 3d 2c 22 10 3d 9f 46 ef bc 3b fb 02 3d
       0.0929878 0.03518884 -0.02920848 0.031977873
000390 a2 ec 53 3b 4f c1 9a bd 4e a6 17 bd cb 21 91 bd
       0.003233709 -0.07556402 -0.037023835 -0.070865236
0003a0 88 93 b2 bd 18 6c a2 bc f1 d5 9a bc d9 9b 1b 3c
       -0.087195456 -0.019826934 -0.018900843 0.009497606
0003b0 b4 9b 22 bc 7a 41 c2 3c bf ad 93 bb 46 bf 08 3d
       -0.009924818 0.023712862 -0.004506796 0.033385538
0003c0 2a 8d 16 3c d4 f7 84 bd 10 9c f7 3d 8d 92 7b bc
       0.00918893 -0.06492582 0.120903134 -0.015354765
0003d0 98 7e 4d bc fd 99 11 bc 5b 22 ff 3c bd 35 ad bd
       -0.012542389 -0.008886811 0.031144312 -0.084575154
0003e0 eb 8c 9d bc b9 80 a9 bd e1 ed a6 3c c0 7c 1a bd
       -0.019232234 -0.08276505 0.020377101 -0.037716627
0003f0 9b 40 8f bd 67 f2 d5 3d 2d 1f 47 bc db 9b a1 3c
       -0.069947444 0.10446625 -0.012153429 0.019727638

fc2.weight f4 [256, 256]
000000 c7 13 4c bb ed 0c 84 3c c7 67 4f 3d 13 bc 4d 3b
       -0.0031139718 0.016119445 0.05063608 0.0031392619
000010 90 8c 69 bd 89 f7 81 bd 33 76 82 3d aa 3f fc 3c
       -0.057018816 -0.06346042 0.06370201 0.030792076
000020 8b cf 9e 3c 00 f0 8f bd af 9b aa 3c 82 2b 72 3c
       0.019386074 -0.07028198 0.020826189 0.014780881
000030 60 cb e3 bd 7b 49 c4 3c 8a 0a 5a bd 3d 6c df 3d
       -0.11122775 0.02396082 -0.053232707 0.10909317
000040 c0 f3 36 3d a6 75 08 3d 71 cf a1 bd c8 2b d6 bd
       0.044666052 0.033315323 -0.079008944 -0.10457569
000050 28 04 83 3c cd 63 a7 bc fc 82 00 bc 08 af d5 3c
       0.015993193 -0.02043333 -0.007843729 0.026084438
000060 39 53 8b 3a a3 84 12 3d 8b 73 b3 3d 53 f9 e8 bc
       0.0010629661 0.035771023 0.087622724 -0.0284392
000070 8f 71 04 3d c9 ca b2 3c 33 a9 90 bc dc e8 b8 3c
       0.03233486 0.021825211 -0.017658805 0.022571974
000080 e2 10 86 bd 6d 03 25 3d ae 18 28 bb b8 45 1f bc
       -0.06546189 0.04028647 -0.0025649476 -0.009721212
000090 4b 3e 80 3d 5f 92 2d bd ba 0d d9 3c 1a ee 66 3d
       0.062618814 -0.04237592 0.026495803 0.056379415
0000a0 53 b3 25 bd 70 83 99 3d 97 07 7c 3d 38 ca 7e 3d
       -0.04045422 0.07495773 0.061530676 0.06220457
0000b0 1c 22 1b 3d 4b e1 3c bd b7 39 87 b9 0b 0a 99 bd
       0.037874326 -0.046113294 -0.00025792207 -0.07472619
0000c0 b0 f8 f9 bb 8f 97 df bc 6e cd 11 bd 40 0c ec 3d
       -0.007628523 -0.027293948 -0.035596304 0.11525774
0000d0 e1 20 2f 3c 6f a6 11 3b c7 14 3d 3c 85 64 3f bd
       0.010688991 0.0022224446 0.011540598 -0.046726722
0000e0 db a2 9d 3d 5a ba ee 3c ba 0b 71 3c d5 38 00 3c
       0.07697078 0.029141594 0.0147122685 0.00782605
0000f0 38 40 d5 3c 17 3a 01 bd ab b5 e7 bc 1a 62 29 3d
       0.026031598 -0.03154954 -0.028284868 0.041353323
000100 56 07 a9 bd 03 35 89 bc 63 82 a5 bc e7 f8 4b 3b
       -0.08253352 -0.01674891 -0.020203775 0.00311237
000110 3f 82 12 bc bb b7 ae bd 65 ad 8b 3d 80 24 6d 3c
       -0.008942186 -0.085311376 0.06820182 0.014474034
000120 63 25 b0 bd c0 18 ae b9 33 61 c6 3c a2 7c 54 bb
       -0.08600881 -0.00033206306 0.02421627 -0.003242292
000130 ef 49 c6 3d 58 b7 b0 3d cb b2 41 3b c5 a6 d2 3d
       0.096820705 0.0862872 0.0029556032 0.10285715
000140 4b ad 4d bd 0d 2a 94 3c 3a 44 94 bd 72 e7 51 3c
       -0.050214093 0.018086458 -0.07239576 0.0128115285
000150 72 de 0c 3d e9 02 b7 bc 93 8e 32 3d 07 5d 55 3d
       0.034391828 -0.022340255 0.043593 0.05209067
000160 76 57 89 3c ad 6c 33 3c 0b f1 35 be 7f fd cc bc
       0.016765337 0.010951203 -0.17767732 -0.02502322
000170 95 3f 1d bd 47 c9 74 bd 9b 0e 17 bd 97 00 de 3c
       -0.038390715 -0.059762266 -0.036879163 0.02709989
000180 93 9f b0 3c 4c ca b4 3c 40 2c f1 bd 32 c3 83 3c
       0.021560466 0.022069119 -0.11776018 0.016084287
000190 fb 08 ed bd 83 d1 1c 3d 95 d8 cd bd 8b 0a d8 3c
       -0.115739785 0.038285743 -0.10051075 0.026372215
0001a0 57 c9 cc bc 01 b6 0e 3d 1b fa 69 3a a5 7c 0b be
       -0.02499835 0.03484154 0.0008925513 -0.13621767
0001b0 07 31 c2 3c c5 36 85 3d 2e 60 25 bc b3 bb 4b 3c
       0.023705019 0.06504587 -0.010093732 0.012434888
0001c0 77 8c ba 3d 28 10 86 b9 6f 64 de bd 7b 60 78 bb
       0.09108823 -0.0002557051 -0.10859 -0.0037899304
0001d0 ba e6 23 3c 25 8b 11 bd a2 8e 00 bd ad d3 13 bc
       0.01000374 -0.03553309 -0.031386025 -0.009022635
0001e0 7b df c5 3c 0b 08 21 3d 9e 55 af 3d 4a 25 08 3d
       0.024154415 0.03931431 0.08561252 0.033238687
0001f0 78 88 f8 bc 83 78 5f bd ad d3 5b 3d f7 9f 5e bd
       -0.03033851 -0.05455829 0.053668667 -0.054351773
000200 6b 77 d5 3c 95 28 08 3c 4b 3b 25 3d 8b 1b 7e bd
       0.02605792 0.008310457 0.04033975 -0.062037986
000210 85 db 2c bb 0a 98 2b bc 92 77 c4 3d c0 ae e2 bb
       -0.002637596 -0.010473261 0.09593119 -0.0069178045
000220 e3 ea 34 bd cf 04 46 3e 6e a8 bd 3c 38 a9 73 3d
       -0.044169318 0.19337772 0.023151603 0.05948755
000230 ff db 72 bb 13 60 f2 3a 0a 0e d9 bc 8f 7a a0 3d
       -0.0037057397 0.0018491767 -0.026495952 0.07835876
000240 ff 00 91 3c 12 78 35 3d d8 3c 97 3c 7d a9 5e bd
       0.01770067 0.04430396 0.01846163 -0.054360855
000250 64 e1 8e bc 4f 4b 55 bd 11 be a9 3d 4d 09 17 bc
       -0.017441459 -0.052073773 0.082882054 -0.009218526
000260 9b df 83 bd c1 19 3f 3c b6 b5 a0 3c 0a 56 b7 3b
       -0.06439134 0.011663855 0.019617897 0.0055949735
000270 55 5d 74 3d 37 45 8c 3c 3b 05 8f bb 4f 98 b7 bd
       0.05965932 0.017122848 -0.004364637 -0.089645974
000280 c0 d0 4e 3d fb dd 85 bd 8f bf 8c 3d 4f ff 80 bd
       0.05049205 -0.0653648 0.068724744 -0.06298696
000290 2f d6 2f bd c3 5b ff bd 8d 7f cb bd 20 0f 7d bd
       -0.04292887 -0.12468674 -0.09936438 -0.061782002
0002a0 fa 90 8e bd 23 a5 51 bd ab 03 ca 3c a6 95 cb bd
       -0.06961246 -0.051182877 0.024659952 -0.099406525
0002b0 4d 9c 2c bd 02 3c 9b bc c7 64 32 bc 1d f2 8e bc
       -0.042141248 -0.018949512 -0.010888285 -0.017449433
0002c0 af e9 ec bc 77 42 26 3d 1d 1c 81 3d f7 7c e9 bc
       -0.028920023 0.04059073 0.0630419 -0.02850197
0002d0 63 4f 51 39 4b 3b 01 3c 9f 60 5b 3d c0 07 f5 bd
       0.00019961367 0.007887672 0.053558942 -0.11964369
0002e0 cd f9 9f 3d 8b d5 10 bd cf c6 26 3d 74 59 97 bd
       0.078113176 -0.0353599 0.040716942 -0.07390109
0002f0 1b e3 c0 3b 4f 19 cc bb 37 0a 93 3c bf ff 50 3d
       0.005886448 -0.006228603 0.017949207 0.05102515
000300 31 db bc bc 03 89 8c bc e4 4a ae bc 93 cb 14 be
       -0.023053737 -0.017155176 -0.021275945 -0.14530782
000310 a3 26 bd ba e4 9a 01 3d 5f fb 8f bd 87 54 ea 3c
       -0.001443107 0.031641856 -0.07030367 0.028604759
000320 7f 94 e7 bc bf 65 c3 bc 93 40 a1 3d 0d 1b 99 3c
       -0.02826905 -0.023852227 0.07873645 0.018689657
000330 ef 10 86 3c 9f 20 6d 3c 5b f3 30 3c 19 ec 3e bc
       0.016365496 0.0144731095 0.010800208 -0.01165297
000340 6f 50 2c bc 60 65 ea bc 0b c6 71 3d cf e7 e2 3c
       -0.010517224 -0.028612792 0.05902676 0.027698426
000350 fb 05 a4 bc 47 72 8f bb 25 5b 53 bd 9a 59 07 bc
       -0.020022383 -0.0043776366 -0.051600594 -0.008261109
000360 f7 04 07 3d 90 18 b3 3c 79 29 24 bd 27 65 54 3d
       0.03296372 0.021862298 -0.040078614 0.05185428
000370 da 98 6c 3c 9b ae 93 bc bf 5e a8 3c 0c e3 0e bd
       0.0144407395 -0.018027594 0.020552991 -0.034884498
000380 a4 2b cb bd c2 43 f9 bc 93 43 0c bd 42 2c f1 3c
       -0.09920433 -0.030427817 -0.03424413 0.02944005
000390 6d 5b 56 bd 25 8d 69 3d ab b1 a5 3d 74 c1 46 3d
       -0.052333284 0.05701937 0.08090528 0.048524335
0003a0 8c 7f 0b bb 7b 93 9c bd d8 f3 33 3d 82 6f f9 3d
       -0.002128574 -0.07645317 0.04393372 0.121794716
0003b0 1b 2e b8 3c bb b8 7f bc 6e f2 11 bd bc af 23 bd
       0.022482922 -0.015608008 -0.03563159 -0.039962515
0003c0 40 fc 7a 3d af 75 6a bc 02 7c c5 bc e2 94 b3 3c
       0.06127572 -0.0143102845 -0.024106983 0.021921579
0003d0 60 15 b4 3c 97 b3 0e 3d a7 0d 45 bd 5b 3a 1f 3b
       0.021982849 0.03483924 -0.048108723 0.0024296257
0003e0 b7 1e 9a 3d 5f cc a8 bb d5 28 14 bd b0 82 4c 3d
       0.0752539 -0.005151316 -0.036171753 0.04992932
0003f0 ab 34 7a 3c 0a 0b 7f bd 53 b0 51 bc 1d 9e bc 3d
       0.015271346 -0.062266387 -0.012798387 0.09209845

fc2.bias f4 [256]
000000 8d ec 45 3d ef 24 87 bd 9f 95 53 3d bb 78 66 bd
       0.048321296 -0.065988414 0.05165636 -0.05626748
000010 33 2d c1 bb da 35 27 bb c0 5c e8 bc d1 5f 0b 3d
       -0.0058952807 -0.0025514276 -0.02836454 0.034026925
000020 8f 8d 82 3d 89 3e 2e 3b 0a 36 58 bd 1f 50 f4 bc
       0.063746564 0.0026587567 -0.05278591 -0.029823361
000030 17 5d d8 bb 3d 84 fc 3c a2 df dd bd ca dd 2b 3c
       -0.006602894 0.030824775 -0.1083367 0.01048989
000040 4a b6 91 bc df 43 86 bb 2b 42 00 3d 75 26 4c bd
       -0.017787118 -0.0040974463 0.031313103 -0.049841363
000050 1c cc 8d bc b3 18 86 3d 20 75 d3 3c a5 90 a0 3d
       -0.017309241 0.0654768 0.025812685 0.07840089
000060 af a1 6c bd 5e 24 24 bc e6 a0 90 3d f5 d3 77 bd
       -0.05777138 -0.010018436 0.07061939 -0.060504872
000070 a4 69 a5 bc 16 c0 0a bc 5e 78 19 3d 5d 05 2d bd
       -0.020191975 -0.008468648 0.037468307 -0.042241443
000080 8d 35 9b 3c ab 5e a5 bd 80 a7 6a 3c d3 cd 9c bd
       0.018946433 -0.08074697 0.014322162 -0.07656445
000090 e4 cf 83 bd 70 1c 45 3b a2 c8 da bd 92 87 cc bc
       -0.06436136 0.0030076765 -0.10682799 -0.024966989
0000a0 06 73 cc 3c 17 a7 5b bd 35 ff e2 3b bd 88 71 bd
       0.024957191 -0.053626146 0.0069273957 -0.058968294
0000b0 d2 5e cb ba 3c 60 8b bd 97 4f bb bd da 2d d4 3b
       -0.001551593 -0.068054646 -0.0914604 0.0064751925
0000c0 43 85 68 3d bf 0b 70 3c 5f dc 4f bd e1 90 08 3d
       0.056767713 0.014651238 -0.05074727 0.033341292
0000d0 be ee 8f 3c fd 29 50 3d 9a 3e d1 3c b2 f5 71 3c
       0.017569896 0.050821293 0.025542546 0.014768051
0000e0 57 56 9b bd 8c ae a3 bc fd c9 f1 3c 97 94 4c bd
       -0.075848274 -0.019980691 0.02951526 -0.049946394
0000f0 0f 32 be bb 57 42 bc 3c fb bc d2 3c 3e ca a4 3b
       -0.0058043073 0.022980852 0.025724879 0.005028992
000100 a7 4f 88 bc 04 87 86 3d 6a 2f c7 bc 1b 4e f8 3c
       -0.016639544 0.06568721 -0.024314601 0.030310681
000110 2a 61 c5 3d d7 06 ca ba 0a f6 23 3d 90 36 45 bd
       0.09637673 -0.0015413415 0.040029563 -0.048147738
000120 12 37 83 3d e3 78 1e 3d ef f4 42 3d cd ea 0d bd
       0.06406988 0.038689505 0.047596868 -0.03464775
000130 1e 2e a5 bc f0 0d 4a bb 98 cb af bd 1e ba c5 3c
       -0.020163592 -0.0030831061 -0.08583754 0.0241366
000140 cc 66 bd 3d a7 bb 7e bd 47 5b b6 bd 10 55 68 3a
       0.092481226 -0.062190678 -0.089041285 0.0008862773
000150 31 9c 80 3d e2 bc d2 bd 77 c0 8e bd cb 4c 40 bb
       0.06279791 -0.10289933 -0.069703035 -0.0029342647
000160 b0 98 49 3b f5 1b e1 3c ff 9a 76 3d a0 e2 04 3c
       0.0030761175 0.027479151 0.06020641 0.008110672
000170 4f 82 7c 3b c1 47 17 bc 6d 6c 0d 3c cf 8a 58 bc
       0.0038529818 -0.009233416 0.008631808 -0.013216688
000180 08 07 4d 3d a2 1a 79 3d cf cb 59 3b e3 ad 0e 3b
       0.050055534 0.060816415 0.0033233052 0.0021771125
000190 4d 4e bc b9 b8 52 89 bd dd ba 5e bd 20 97 e0 3c
       -0.00035916493 -0.067052305 -0.054377425 0.027415812
0001a0 95 b5 aa 3d 0b 30 83 3d 90 18 c0 bd 32 e5 87 bd
       0.08335415 0.06405648 -0.09379685 -0.066355124
0001b0 5b 94 b4 3c ed f5 ff 3c a0 cd 70 bb 40 1c c2 3d
       0.022043398 0.031245196 -0.0036743656 0.094780445
0001c0 ed 5c 86 3d 06 95 cc 3d 0b d1 62 bd f8 41 38 bd
       0.06560693 0.099893615 -0.05537514 -0.044984788
0001d0 92 4b 11 3c db ef a3 3c c4 b6 90 bd f4 87 22 3c
       0.008868115 0.020011833 -0.0706611 0.009920109
0001e0 98 e5 5b 3c ff 2e 55 bc 52 39 1f bd 38 c9 7c 3b
       0.013421439 -0.013011693 -0.038873024 0.0038572084
0001f0 a2 90 01 bc 59 2e 38 3d b0 54 41 bd aa 48 ab bc
       -0.007908018 0.044966076 -0.047199905 -0.020908672
000200 ca 49 55 3d 43 d2 a0 3d a4 74 98 3d e3 7e 8f bd
       0.052072324 0.07852604 0.074441224 -0.070066236
000210 da 2d d5 3d 75 f1 a9 3b 55 a9 12 bc 93 8d 47 3c
       0.10409136 0.0051862546 -0.008951505 0.01217975
000220 ee e2 91 3c 32 f9 3a 3d 4b 8b 18 3e a5 c5 7a bd
       0.017808404 0.045647807 0.14896886 -0.061223645
000230 58 1d 07 3e d0 b2 ca bd cd 2a 4d 3c a1 83 c4 bc
       0.13194788 -0.09897387 0.0125224115 -0.023988547
000240 4b b4 95 bd da 6f 5c 3d ab f5 28 3d 2f 30 28 3d
       -0.07309779 0.053817607 0.041249912 0.041061576
000250 e8 cd c9 3b b5 e8 7e bb 0e d0 b2 bb af df 24 bd
       0.006158579 -0.0038896028 -0.005456931 -0.040252384
000260 ec 9f 13 3c dd 7c 81 bd 9b 52 b2 bd 30 5c e7 3c
       0.009010296 -0.06322644 -0.08707162 0.0282422
000270 d2 0d cd 3b b2 54 5f bd 1d d9 e4 3c 62 00 3d bd
       0.006257751 -0.05452413 0.027935559 -0.046142943
000280 e2 9d a4 3c f6 e0 2b 3d b5 ec 21 3c 8f 5d 2b 3d
       0.020094816 0.041962586 0.0098830955 0.04183727
000290 4a 54 02 be 53 9a be 3c 73 ff 8a 3d b8 ae 85 3c
       -0.12727466 0.023266947 0.06787004 0.016318664
0002a0 34 68 a3 bd 06 ac 87 3d d2 aa 5a 3c 8f 7c 17 bc
       -0.079788595 0.06624608 0.013346391 -0.009246006
0002b0 a7 e6 38 bd 83 bf 49 3b bb 73 be bc 7a 2a 13 bd
       -0.045141842 0.0030784316 -0.023248544 -0.03592918
0002c0 cd 0a d4 3c 9b 82 1f 3d c0 33 8d bd df 1e 31 bd
       0.025884056 0.038942914 -0.06894636 -0.04324233
0002d0 9a 90 72 3c 2a c0 de 3c 6b 21 34 3c ff 1d ae 3c
       0.0148049835 0.02719124 0.010994296 0.021254538
0002e0 33 cf 27 bd fd d8 5e bd c0 90 19 3d 97 b3 49 bc
       -0.040969085 -0.054406155 0.03749156 -0.012310884
0002f0 2b 6e af bd df 30 4c bd 02 80 8a bd 6d f2 4b bd
       -0.08565935 -0.049851295 -0.06762697 -0.049791742
000300 e5 9d c6 3a fd dd 7d 3c 49 f2 47 3c c5 7b ca 3c
       0.0015153257 0.015494821 0.012203761 0.024717221
000310 7a b6 d5 ba bc 11 a6 bc 00 1f 0f bc ff 1e 85 bd
       -0.0016304993 -0.020272128 -0.008735418 -0.06500053
000320 60 e3 dd bc f7 01 9e 3b 30 9f a0 3b 9f 6f f9 3c
       -0.02708596 0.0048220116 0.004901789 0.030448733
000330 3a 06 ea bd 6e 3b 8b 3d 87 c6 79 bd 91 a4 1e 3d
       -0.11426969 0.06798445 -0.060980346 0.03873116
000340 13 2b 80 3d 4f 8d bb bc c4 8c 8e bc 73 d1 95 bd
       0.06258216 -0.02289453 -0.017401107 -0.0731534
000350 11 c6 0c 3d af 0d c5 bc 7b 0c 1f 3d d7 a5 84 3c
       0.03436858 -0.024054376 0.03883026 0.01619236
000360 b7 46 a7 bd 77 ae e3 bc 1f ea b5 bd 07 40 92 3d
       -0.08167785 -0.027793152 -0.08882546 0.071411185
000370 cd aa a5 3d 72 95 67 bd 8c f3 ad bc d3 0f 1f 3c
       0.08089218 -0.056539007 -0.021234296 0.009708363
000380 cd 3e ed 3a ba 81 f7 3b 1a 4b 6b 3c 73 03 1c bd
       0.0018100381 0.0075533064 0.014361167 -0.038089227
000390 7b d1 eb 3c 7b 12 06 3e 40 fe 06 bd e0 41 59 3d
       0.028786412 0.13092987 -0.032957315 0.05304134
0003a0 38 90 d1 bc f3 a0 e5 bc 27 3b 5b bd 8e ed c1 3c
       -0.025581464 -0.028030848 -0.05352321 0.023672845
0003b0 8b 4d a5 3c ba dc 70 bd 18 51 5c bd fb db 39 bd
       0.020178577 -0.05880425 -0.053788275 -0.045375805
0003c0 9d 98 15 bd 87 8c b1 bd 20 81 06 3d a5 08 83 3d
       -0.036522496 -0.086693816 0.032837987 0.06398133
0003d0 18 3f 11 3d 6d 98 85 bb a7 a6 ae 3c fb dd ac 3d
       0.03546056 -0.0040770085 0.0213197 0.08440777
0003e0 53 76 3f 3d eb 03 a9 ba 3b e8 8c bc 97 a2 af bd
       0.046743702 -0.0012894844 -0.01720058 -0.085759334
0003f0 ef 75 00 bd 97 05 fd 3b b3 74 49 3d 30 56 81 bb
       -0.03136247 0.0077216136 0.04918356 -0.003947042

fc_mean.weight f4 [8, 256]
000000 5f ec 10 be 5b 95 21 bd ab 5a 17 bc 98 d5 b6 3c
       -0.14152668 -0.039449077 -0.0092379255 0.022318646
000010 23 64 98 3c 38 a8 6f bd d9 c4 38 3d f0 ba f5 39
       0.018602436 -0.058510035 0.045109604 0.0004686932
000020 9f 08 cc 3d 12 18 cf b7 cd 3d 7e 3d da 77 aa bc
       0.09962582 -2.4687532e-05 0.062070657 -0.020809103
000030 fa 3c 13 3d a0 f0 60 bd 2a 11 25 3c 33 28 28 be
       0.035946824 -0.054916978 0.010074893 -0.16421585
000040 00 82 22 3d e9 3b a3 3d ca 4c 83 3c a3 61 c4 3b
       0.03967476 0.07970411 0.016027827 0.0059930845
000050 75 50 65 bd 06 9a a4 3c 02 04 53 3d 37 2a eb bd
       -0.055984933 0.020092975 0.051517494 -0.11482661
000060 8a 17 97 bc 6e b6 a7 3b e2 97 72 3d ef 79 78 bc
       -0.018443841 0.005118183 0.059226878 -0.01516579
000070 68 68 f2 3d dd 0f 09 bd 59 a8 a3 bd 14 20 35 bc
       0.1183632 -0.033462394 -0.07991094 -0.011055011
000080 4b c9 5c bd 2b 35 e5 bc 67 b1 d0 bc 57 58 80 bc
       -0.053902905 -0.027979454 -0.025475217 -0.015667124
000090 ad 1f c2 bb 79 16 8e bc 87 8e 2d bd 45 96 b9 bd
       -0.005924186 -0.0173447 -0.042372253 -0.09061865
0000a0 0c e3 39 bd 3d e0 70 3c cc 34 af bd 79 06 bc 3c
       -0.045382544 0.0147019 -0.08554992 0.022952305
0000b0 56 ae af 3c 97 b8 91 bc 81 26 a8 bc a5 0f 5f 3c
       0.021445435 -0.017788215 -0.020526173 0.01361457
0000c0 7b 10 9d bc c3 90 4b bd 33 61 0d 3b b3 aa 11 bc
       -0.019172898 -0.049698602 0.0021572828 -0.0088907955
0000d0 c8 38 eb bc 36 0a 9e 3d ff fd 92 3c 4d f7 4e 3d
       -0.028713599 0.07716791 0.01794338 0.050528813
0000e0 9b d7 f6 3c d9 f0 b2 bd f4 b7 3f 3d 5f a4 6a 3d
       0.030132106 -0.08737344 0.04680629 0.057285663
0000f0 a0 c8 20 3d 23 12 12 bd 73 4f fb bb 90 f0 8b 3d
       0.03925383 -0.035661828 -0.007669383 0.06832993
000100 b2 e6 7e bc 18 28 01 bd f2 b5 84 bc c2 37 3f bd
       -0.015557932 -0.031532377 -0.01620004 -0.046684034
000110 4a 40 2d bb 6b 6a 54 bc 31 23 a6 bd ba f6 ee bb
       -0.0026436024 -0.012964825 -0.08112181 -0.0072925957
000120 f2 29 94 bd 2b bb f7 bc e3 b1 32 3d 73 35 2a 3d
       -0.07234563 -0.030240616 0.043626677 0.04155488
000130 0f 99 c5 3c 14 1a 2d 3b 6c 6b 3f 3c 0b 2b 20 3d
       0.024120836 0.002641325 0.011683326 0.03910355
000140 d8 d7 21 3c 80 ba c8 bc 65 4d 76 3c 77 5c ed bc
       0.009878121 -0.024502993 0.015033101 -0.028974755
000150 ce 68 ac bc 06 c3 03 3c 0c 5f 17 bd 15 2d d5 bc
       -0.021046069 0.008042103 -0.03695588 -0.026022473
000160 e3 7b ab bc 1f d5 97 bd d0 37 89 3d 3f 8a 26 bd
       -0.020933097 -0.074136965 0.067000985 -0.040659185
000170 4b a6 70 bd 23 f9 5f bd 63 84 ba bd 80 3e 83 bd
       -0.05875234 -0.054680955 -0.09107282 -0.06408405
000180 39 14 aa 3a 2f 64 4f bc 4e 44 9b bd 82 e4 19 3e
       0.0012975998 -0.012658163 -0.075813875 0.15028575
000190 ab d7 d6 3b 27 a4 06 3d 88 20 c4 bd 6f f9 02 bd
       0.0065564713 0.03287139 -0.09576517 -0.03197616
0001a0 4b fa 79 3c da 67 38 3d 97 ab a3 3b a2 88 ed 3c
       0.015257428 0.045020916 0.0049948203 0.028995816
0001b0 13 04 0d 3d 05 83 f1 bc b3 bb d1 bc 49 af 24 3d
       0.034427714 -0.02948142 -0.025602197 0.040206227
0001c0 fb 46 05 3c 15 7d 5f bc 9b 5e a9 bd 7f 93 f5 3c
       0.008134599 -0.013640662 -0.08269998 0.029977558
0001d0 f0 0f 8a bd 0c a0 8f bd 70 7a da 3d e2 69 2c bd
       -0.06741321 -0.070129484 0.10667884 -0.042093165
0001e0 72 e1 9a bc 5f cb c3 bd 1f 4d 26 bd d1 4b be 3c
       -0.018906329 -0.09560274 -0.040600892 0.023229511
0001f0 19 e2 02 bd 5f e0 8d 3c c7 1b 42 3c 4f bf dd bc
       -0.031953905 0.017318903 0.011847443 -0.027068762
000200 38 35 61 3d 45 c3 f1 3c b8 cc e1 3c 96 b2 b4 3d
       0.054982394 0.029512057 0.027563438 0.08823125
000210 db 56 27 3d cd e6 8b 3d 47 60 63 bd d3 d8 1c 3d
       0.040854316 0.06831131 -0.05551174 0.038292717
000220 2e fe 25 3d 0a 4c 0a bd 2f 89 2a bd c5 7a 4f 3d
       0.040525608 -0.033763923 -0.041634735 0.05065419
000230 ff aa b7 bc c3 1d e8 bc 0a 6d 4a bd 7c 2f 46 3d
       -0.022420404 -0.028334504 -0.049420394 0.04838513
000240 88 db 89 bd 35 7d f9 3c 32 78 09 bd 08 68 1a 3c
       -0.067313254 0.030455211 -0.033561893 0.009424217
000250 7b b4 a7 3d 6b 5a 16 3d c2 57 07 bd 4f 96 19 bc
       0.08188721 0.036707323 -0.033042677 -0.009374215
000260 0c 55 a8 3d 09 7e 2e bd 1f d7 0c bb 98 2a 6c bc
       0.082193464 -0.042600665 -0.0021490527 -0.014414452
000270 fc 09 ab 3c 5d 08 5c bd 68 ca d7 3c 72 80 9a 3d
       0.020878784 -0.053718913 0.026341632 0.0754403
000280 0f 6f 8a 3c b2 00 63 3c 2f 7e d6 bc 2f c5 25 3d
       0.01689866 0.013855146 -0.026183216 0.040471252
000290 e7 38 05 bd e1 df 9d bd d7 5b ec 3c 45 62 48 3c
       -0.03252497 -0.07708717 0.028852386 0.0122304605
0002a0 b8 67 3a bd 7b a0 54 bb 5f 15 9e 3d 98 b2 59 bd
       -0.04550907 -0.0032444287 0.0771892 -0.053148836
0002b0 dd 20 82 bc ff 86 15 3d a0 0d d8 bc bd 85 c5 bc
       -0.015884811 0.036505695 -0.026373684 -0.024111623
0002c0 40 fd 94 bc bc cf 25 b8 aa 64 16 bd c8 f7 58 3c
       -0.018187165 -3.9532533e-05 -0.036717094 0.013242669
0002d0 5d b6 6b bd eb 84 dd 3c f3 a2 89 3d 1e b0 13 bd
       -0.057546962 0.02704092 0.06720533 -0.03605663
0002e0 a4 35 bf 3d 9b b4 e9 ba 17 be 55 bd 09 26 80 3c
       0.09336403 -0.0017830314 -0.052183237 0.015643137
0002f0 d2 5f e6 3a da 25 89 bc 6a a8 c7 3d 7f e4 2b bc
       0.0017576164 -0.016741682 0.09748919 -0.010491489
000300 a7 6d bb 3d 15 04 d8 bb 53 d0 eb bc ab 75 62 3d
       0.09151774 -0.0065922835 -0.02878586 0.055288
000310 ca f3 27 ba ea 9a 88 bb 4a ba c9 3d 62 5e cf 3b
       -0.0006406872 -0.004168858 0.09849985 0.00632839
000320 6b 2e eb bb 3c f1 21 3e 22 0e 58 3d c0 f8 4f 3c
       -0.0071771643 0.1581468 0.052747853 0.012693584
000330 e4 53 07 3d 53 86 8b bd a0 d5 2f bd b7 48 60 bc
       0.03303899 -0.0681273 -0.042928338 -0.013689212
000340 48 00 9b bd e8 ac e9 bd 5b c5 c1 3d 38 65 86 bd
       -0.07568413 -0.114099324 0.09461471 -0.06562275
000350 aa 10 53 bc 2b a0 73 bd 20 8a 29 bd 7f 0f 23 bd
       -0.012882391 -0.05947892 -0.041391492 -0.0398097
000360 da 61 70 3d 6f 5a ee 3d a6 45 03 bd 3d 0a be 3c
       0.05868707 0.116383426 -0.032048844 0.023198241
000370 5a 88 60 bd b5 24 2d bc fd 62 58 bd bb 4a 92 bc
       -0.054817535 -0.010567834 -0.052828778 -0.0178579
000380 3d 32 cb 3d cb 09 6a 3b 0d bf eb 3c ef d5 83 3a
       0.099216916 0.0035711403 0.028777624 0.0010058264
000390 86 be c0 3a b6 d0 29 3d c8 a5 be 3c 10 8b a0 bd
       0.0014705218 0.041458808 0.02327241 -0.07839024
0003a0 f8 26 ed 3c 10 50 df bc 2b 5b 8f bd 7b 7b 23 3d
       0.028949246 -0.027259856 -0.06999811 0.039912682
0003b0 a2 a9 8c 3d a7 e3 15 3d 58 54 e1 3c c3 f9 35 3c
       0.068682924 0.03659406 0.027506039 0.011106911
0003c0 8b 06 2e bc 55 79 ce 3c cf fc 08 bd c2 5d 38 bc
       -0.010621677 0.02520434 -0.033444222 -0.011252822
0003d0 56 44 16 3e 29 f0 92 3d 63 af 00 3d 0d df 04 3c
       0.14674506 0.07174713 0.03141726 0.00810982
0003e0 72 27 1b bd 7b ee f0 3c 70 ba db 3d cb bb dc bc
       -0.037879415 0.029410591 0.107289195 -0.026945015
0003f0 fc ac b0 3d 96 f8 32 bd 49 93 ae 3c 19 3e 92 3d
       0.08626744 -0.0436941 0.021310465 0.071407504

fc_mean.bias f4 [8]
000000 cf f6 78 3c 3b e8 c6 bc 13 0d 9c 3d c9 ac 34 3c
       0.0151955625 -0.024280658 0.07619681 0.011027523
000010 ba 80 96 bc 3f c2 79 bd b5 f1 6c bc 3b 23 de bc
       -0.018371928 -0.060976263 -0.014461924 -0.027116409
