ga_weights/ga1/Hopper-v5/SAC/weights4.pt (torch, 281441 bytes, 6 tensors)

fc1.weight f4 [256, 11]
0	0xbee32c8b	-0.4436992
1	0xbc886086	-0.016647588
2	0x3e4d166a	0.20028082
3	0xbe6f75a4	-0.2338472
4	0x3ca5eace	0.020253565
5	0xbe10ae59	-0.14129008
6	0xbd4ab402	-0.049488075
7	0x3df2c5cc	0.11854133
8	0x3e0da473	0.13832264
9	0xbd841c4a	-0.06450708
10	0xbe932864	-0.28741753
11	0xbeffe364	-0.49978173
12	0xbebb256e	-0.36551994
13	0xbea5ae7a	-0.32359678
14	0xbe6ec8b9	-0.23318757
15	0x3ee85688	0.45378518
16	0xbe47c080	-0.19507027
17	0xbcf6a1f4	-0.030106522
18	0xbafaadc0	-0.0019125268
19	0xbe0504e6	-0.1299015
20	0x3e5b9275	0.21442588
21	0x3e5ad8dc	0.21371788
22	0x3e072078	0.1319598
23	0x3f0dab48	0.5533948
24	0xbdb9e3d8	-0.09076661
25	0xbdaf9834	-0.08573952
26	0x3ce9b17d	0.028527016
27	0x3e0db511	0.13838603
28	0x3d527d9a	0.051389314
29	0x3d1cf516	0.03831967
30	0xbc265180	-0.010151267
31	0xbeb1eadf	-0.34749505
32	0x3df29116	0.11844079
33	0xbce37200	-0.02776432
34	0xbe44cfe1	-0.19219925
35	0x3e005995	0.12534173
36	0x3e61fc3c	0.22068876
37	0x3eeee1b1	0.46656564
38	0x3e6662e7	0.22498666
39	0x3cbe8420	0.023256361
40	0x3e53f6fc	0.20699686
41	0x3b6a9520	0.0035794452
42	0xbdfc578c	-0.12321386
43	0x3d13f226	0.036119603
44	0x3ed291bb	0.4112681
45	0x3ee35ca3	0.44406614
46	0x3ca7cf88	0.0204847
47	0xbe97f75a	-0.29680902
48	0xbdf1af44	-0.118010074
49	0xbc4b856c	-0.012421947
50	0xbd094370	-0.03351158
51	0xbe0771e6	-0.13227043
52	0x3e503b80	0.20335197
53	0x3d02552a	0.0318195
54	0x3ec77011	0.38952687
55	0x3dae46e4	0.08509615
56	0xbd961332	-0.0732788
57	0xbe46f59a	-0.19429627
58	0x3e625c1f	0.22105454
59	0xbe21c19d	-0.15796514
60	0xbe7710dd	-0.24127527
61	0xbc358e8a	-0.011081347
62	0xbd0728a6	-0.03299775
63	0xbe89b78b	-0.26897845
64	0xbea74e07	-0.32676718
65	0x3da973c5	0.082740344
66	0xbd81b2c2	-0.063329235
67	0x3e5abde6	0.21361503
68	0x3b378220	0.0028001145
69	0xbe4e7db6	-0.20165142
70	0x3e8f25f0	0.27958632
71	0xbd1146c7	-0.03546789
72	0xbe03aca4	-0.12858826
73	0x3e814ce2	0.2525397
74	0xbd2dd99e	-0.042443864
75	0x3e9713fd	0.29507437
76	0xbe7aa92e	-0.244786
77	0x3e90a372	0.282497
78	0xbe5fed8c	-0.2186796
79	0xbe421ef0	-0.18957114
80	0x3cde9f2a	0.027175505
81	0xbdd157d4	-0.1022183
82	0x3e974076	0.29541367
83	0xbe0a5380	-0.13508415
84	0x3ecd280f	0.40069625
85	0x3d7c3bcb	0.06158046
86	0xbe8f93bb	-0.28042397
87	0x3e917267	0.28407595
88	0x3d845eb2	0.06463374
89	0x3df55681	0.1197939
90	0xbec3f366	-0.38271636
91	0xbe809898	-0.2511642
92	0xbe8056d2	-0.2506624
93	0x3d9eef22	0.07760455
94	0x3e634060	0.22192526
95	0xbdc95bfb	-0.09831997
96	0xbe7659fa	-0.24057761
97	0x3e150b9a	0.14555207
98	0x3dde355b	0.108500205
99	0x3e59583b	0.21225064
100	0xbe0a0573	-0.13478641
101	0xbebbea07	-0.36701986
102	0x3e52c18a	0.20581642
103	0xbded426d	-0.11584935
104	0x3ecfca28	0.4058392
105	0xbd8ef9a2	-0.069812074
106	0xbe6d31d5	-0.2316354
107	0x3e9181b6	0.28419274
108	0xbd1a2f6a	-0.037642874
109	0x3eb6b16a	0.3568223
110	0xbe0d283e	-0.13784882
111	0xbcd73839	-0.026271926
112	0xbe68eed0	-0.2274735
113	0xbcc400aa	-0.023926098
114	0x3e5480dd	0.20752282
115	0x3f0f9ef4	0.5610192
116	0xbdd307f4	-0.10304251
117	0xbbc532fd	-0.006018041
118	0x3cdc07a8	0.02685912
119	0x3e293984	0.16525847
120	0xbd462276	-0.04837271
121	0x3d6270e9	0.05528346
122	0xbda204cc	-0.07911071
123	0x3e0c2677	0.13686548
124	0xbdf6f072	-0.1205758
125	0xbe02d62b	-0.12777011
126	0xbd934d37	-0.07192462
127	0x3e1332d1	0.14374854
128	0x3db62e93	0.08895602
129	0xbdca93ea	-0.098914936
130	0xbee66d93	-0.45005473
131	0x3d7aab4f	0.06119853
132	0x3e55997e	0.20859334
133	0x3e9e4119	0.3090904
134	0xbdffa071	-0.12481774
135	0xbe568bd0	-0.20951772
136	0x3c90c8f8	0.017673954
137	0x3db03586	0.08603959
138	0xbe92855e	-0.28617376
139	0xbecba1a4	-0.3977176
140	0xbd59e95c	-0.053201064
141	0x3dc32a6a	0.09529574
142	0xbe5a1406	-0.21296701
143	0xbe5530f2	-0.20819452
144	0xbddfb170	-0.109225154
145	0xbda78fac	-0.081817
146	0xbc84665b	-0.016162088
147	0x3e39a851	0.18130614
148	0x3e73d833	0.23812942
149	0xbe2935eb	-0.16524474
150	0x3e90d4ed	0.2828745
151	0x3e427b9f	0.1899247
152	0x3df4cb0c	0.119527906
153	0xbf34d27a	-0.7063366
154	0x3f20ee75	0.62863857
155	0xbe06f25b	-0.13178389
156	0x3ece353a	0.40274984
157	0xbe7b7948	-0.24557984
158	0xbd71185a	-0.058861114
159	0xbe14db78	-0.14536846
160	0x3e346def	0.17620061
161	0x3e78036a	0.24220052
162	0xbe8702ea	-0.2636941
163	0x3ef446c4	0.4771024
164	0x3ed65e4c	0.41868818
165	0xbe69c76d	-0.22829981
166	0x3d7f19da	0.062280513
167	0x3e0e67d0	0.13906789
168	0x3dc24cb4	0.09487286
169	0xbe8f88b8	-0.28033996
170	0xbe0e06be	-0.1386976
171	0xbdaec233	-0.08533134
172	0xbe8c1505	-0.27359787
173	0x3ca79df4	0.02046106
174	0x3c928c74	0.017889239
175	0xbe71c5c8	-0.23610604
176	0x3ea06b1e	0.31331724
177	0xbe20e770	-0.15713286
178	0xbcdc2298	-0.026871964
179	0xbf078d96	-0.5295042
180	0xbdacff41	-0.08447123
181	0xbd4682fb	-0.048464756
182	0xbd91f10b	-0.071260534
183	0xbddc7c9c	-0.10765955
184	0xbd911d4c	-0.07085666
185	0x3c380b17	0.011233113
186	0x3e537b30	0.20652461
187	0x3dc00f50	0.09377921
188	0x3e8db217	0.27674934
189	0x3d84a38e	0.06476508
190	0xbd81e848	-0.06343132
191	0x3e5fa95f	0.21841954
192	0x3f0b1115	0.5432294
193	0xbe52556e	-0.20540401
194	0xbe3a50ce	-0.18194887
195	0xbc9aad55	-0.01888148
196	0xbf1d127c	-0.6135633
197	0x3e825b94	0.25460494
198	0xbee574e6	-0.4481575
199	0xbe1638ad	-0.14670058
200	0xbdc64f24	-0.096830636
201	0x3cf2c040	0.029632688
202	0xbe1b4820	-0.15164232
203	0x3e66da0b	0.22544114
204	0x3ec30ac0	0.3809414
205	0x3ebfa331	0.37429193
206	0x3c8a14b2	0.016855571
207	0xbee0fcc8	-0.43942857
208	0xbc411d90	-0.011786833
209	0x3e9d3497	0.30704185
210	0x3e0f0e44	0.13970286
211	0x3e850940	0.2598362
212	0xbe2449bc	-0.16043752
213	0xbec81ffe	-0.39086908
214	0xbe2cd1b5	-0.16876872
215	0xbecb1524	-0.39664567
216	0x3e2ae17a	0.16687575
217	0x3bd489e0	0.0064861625
218	0xbe3a2c31	-0.1818092
219	0x3dd7c0af	0.10534798
220	0xbd33f286	-0.04393246
221	0xbc88f564	-0.016718574
222	0xbd8c61bf	-0.06854581
223	0x3e4257fc	0.18978876
224	0xbd1b13ff	-0.037860867
225	0x3d765a4a	0.0601447
226	0x3d363e4b	0.044493
227	0xbcb5ca4e	-0.022191193
228	0x3e902dd9	0.2815998
229	0x3d87bb8c	0.066275686
230	0xbe81866c	-0.25297868
231	0x3e7c5ca8	0.2464472
232	0xbe7acb97	-0.24491726
233	0xbf0226d7	-0.50840515
234	0x3eb7daee	0.35909218
235	0x3e84cb49	0.25936344
236	0x3dd2ebef	0.10298907
237	0x3e828c58	0.254977
238	0xbdca5069	-0.09878618
239	0x3e224c25	0.1584936
240	0x3e278b08	0.1636163
241	0x3e79c900	0.24393082
242	0x3e4887f2	0.19583109
243	0xbec95968	-0.39326024
244	0x3dd8d147	0.105867915
245	0x3cb8a390	0.02253893
246	0x3e5f9f5f	0.21838139
247	0x3ef1fa72	0.47261387
248	0x3ea6abb4	0.32552874
249	0x3f3535f1	0.70785433
250	0xbe298689	-0.16555227
251	0xbd163066	-0.03666725
252	0xbd81fae1	-0.063466795
253	0xbd802a04	-0.06258014
254	0x3dc0cbe4	0.09413889
255	0xbf2f94d7	-0.68586487

fc1.bias f4 [256]
0	0x3e2495ae	0.16072723
1	0xbf035c4e	-0.5131272
2	0x3f0b0e7f	0.54318994
3	0xbe05b2fb	-0.13056557
4	0x3ed471dc	0.41493118
5	0xbe92dec8	-0.28685594
6	0xbe16a679	-0.14711942
7	0xbdad3714	-0.08457771
8	0xbe0f2605	-0.13979347
9	0xbcfbfba4	-0.03075964
10	0x3c7b4848	0.015337057
11	0x3d3e4c3f	0.046459433
12	0xbe91eb62	-0.28499895
13	0xbc37e870	-0.011224851
14	0xbeb35ade	-0.35030264
15	0xbe6ca2e5	-0.23109014
16	0x3e11e1d4	0.14246303
17	0x3ee34502	0.44388586
18	0xbd9bc746	-0.07606368
19	0x3dc9b7e4	0.098495275
20	0xbe8015da	-0.2501667
21	0xbe1f2a60	-0.15543509
22	0x3eb24761	0.34820083
23	0xbe5daeb6	-0.21648678
24	0x3e619d82	0.2203274
25	0x3dd19c94	0.10234943
26	0xbc88575e	-0.016643222
27	0xbd42d98a	-0.047570743
28	0xbc1ad624	-0.009450469
29	0xbce06938	-0.027393922
30	0x3e1a5f04	0.15075308
31	0x3e814a71	0.25252107
32	0xbebca8ce	-0.36847538
33	0x3dd2b3e9	0.102882214
34	0x3e7649c8	0.24051583
35	0x3d3ab3ee	0.04558175
36	0xbd1ef4fc	-0.038807854
37	0xbc27fbc0	-0.010252893
38	0xbdbdf51a	-0.09275265
39	0x3e0023f7	0.1251372
40	0x3e226529	0.15858902
41	0x3d1a6e28	0.03770271
42	0xbefac9de	-0.48982137
43	0x3dae0898	0.08497733
44	0x3ed61e60	0.4182005
45	0xbe0d5598	-0.13802183
46	0xbdf10a6f	-0.11769568
47	0x3f047ebf	0.517559
48	0x3d8fc492	0.07019915
49	0xbc9ee234	-0.019394971
50	0x3d9661ca	0.073428705
51	0xbe00443e	-0.12526032
52	0x3e228041	0.15869237
53	0xbdc49172	-0.09598054
54	0x3e735fef	0.23767065
55	0x3e91aba1	0.28451255
56	0x3f502b5a	0.8131615
57	0xbe34a00a	-0.17639175
58	0xbe97c850	-0.29645014
59	0x3c15ad94	0.0091356225
60	0xbd32a040	-0.043609858
61	0xbeda86f6	-0.42681092
62	0xbd255718	-0.040366262
63	0xbeab9322	-0.3351069
64	0xbe30f6a6	-0.17281589
65	0xbe173209	-0.1476518
66	0xbd658c8c	-0.05604224
67	0x3aa530c0	0.001260303
68	0xbe60c046	-0.21948346
69	0xbdb5e5a8	-0.08881694
70	0xbdf22438	-0.118233144
71	0x3ccdb066	0.025108527
72	0xbe86b95c	-0.26313293
73	0xbea5f421	-0.32412818
74	0xbe31f760	-0.17379522
75	0xbe214895	-0.15750344
76	0x3dfc49e8	0.12318784
77	0xbe8a927b	-0.2706488
78	0x3e3518b5	0.17685206
79	0xbe9d5c07	-0.30734274
80	0xbe71cf6f	-0.23614286
81	0x3e03c561	0.12868263
82	0x3e2d2536	0.16908726
83	0x3e4425da	0.19155064
84	0xbdaf6de2	-0.0856588
85	0x3c31a460	0.010842413
86	0xbe25787e	-0.16159245
87	0x3e8a3966	0.26996917
88	0xbe5911c4	-0.21198183
89	0xbe8f5536	-0.27994698
90	0x3da4e35c	0.08051178
91	0x3e0992af	0.13434862
92	0x3d2ac9aa	0.041696228
93	0xbed33bc6	-0.4125654
94	0x3d594f08	0.053053886
95	0x3d61322e	0.054979496
96	0x3e581ab5	0.21103938
97	0x3d9b5981	0.07585431
98	0x3e75ff5e	0.24023196
99	0x3e16351d	0.14668699
100	0x3dad0a3a	0.08449216
101	0xbe05b030	-0.13055491
102	0xbe098aec	-0.134319
103	0x3e2fc5b6	0.17165264
104	0xbc4cdcd4	-0.012503821
105	0x3eeacfd8	0.45861697
106	0xbde2ce49	-0.11074502
107	0xbec8db37	-0.39229748
108	0xbda8fb71	-0.08251084
109	0x3e668cbb	0.22514622
110	0xbe812506	-0.2522356
111	0x3a116010	0.00055456255
112	0xbdf4fa3c	-0.11961791
113	0x3db7c878	0.08973783
114	0xbef81b03	-0.48458108
115	0x3ed671cc	0.41883695
116	0xbd600308	-0.05469039
117	0x3e67d240	0.22638798
118	0xbdc8bba9	-0.09801418
119	0x3cf3f3c6	0.029779326
120	0xbdf07321	-0.11740709
121	0x3ed9cd40	0.42539406
122	0x3a226b62	0.0006195811
123	0xbe7caa0d	-0.24674244
124	0x3dbbd446	0.09171347
125	0xbe8b561d	-0.27214137
126	0x3e3391cf	0.1753609
127	0xbd5ac7d4	-0.053413227
128	0x3d04e582	0.03244544
129	0xbd6ef3af	-0.058337864
130	0xbea1ab07	-0.31575796
131	0x3e11c1a6	0.14234027
132	0xbe40a119	-0.18811454
133	0x3d4b47c8	0.049629003
134	0x3e3a7a4b	0.18210714
135	0x3e1960ef	0.14978383
136	0xbdf53cdf	-0.11974501
137	0x3b624098	0.0034523364
138	0xbccfc06c	-0.025360309
139	0x3eb18d9c	0.34678352
140	0xbd114592	-0.035466738
141	0xbe0d30b6	-0.13788113
142	0x3e58d2b5	0.21174128
143	0xbe91e5dd	-0.28495684
144	0x3e73eef8	0.23821628
145	0x3ce15612	0.027506862
146	0x3ec3ca65	0.38240352
147	0x3d029f9a	0.03189049
148	0x3eb60f61	0.35558608
149	0x3e39a74e	0.18130228
150	0x3e30302e	0.17205879
151	0xbe4cb8cb	-0.19992368
152	0x3df072ab	0.11740621
153	0x3dacc580	0.08436108
154	0x3e51f18c	0.20502299
155	0x3d4bcf14	0.049758032
156	0xbeeeb731	-0.4662414
157	0xbe9a6ae5	-0.3015968
158	0xbad4fbc0	-0.0016249344
159	0x3ec6e6be	0.38847917
160	0x3e0c6ad7	0.13712631
161	0xbdc9b616	-0.09849183
162	0xbdb80b4a	-0.08986528
163	0x3e020541	0.12697317
164	0x3e98b2f1	0.2982402
165	0xbe53daf8	-0.20688999
166	0x3ed3a124	0.41333878
167	0x3dbbe0eb	0.09173759
168	0x3e789980	0.24277306
169	0x3e1addc6	0.15123662
170	0xbf33dbd8	-0.7025733
171	0xbe7e4de8	-0.24834406
172	0xbe12ed87	-0.14348422
173	0xbe274e67	-0.16338502
174	0xbeddd899	-0.43329313
175	0x3dc2439f	0.09485554
176	0xbe31396f	-0.17307065
177	0x3e9ee010	0.3103032
178	0x3d06f6ca	0.0329502
179	0x3d44a812	0.048011847
180	0xbeb8e33c	-0.36110866
181	0xbdc72817	-0.097244434
182	0x3c8defd8	0.01732628
183	0xbd0a6a6e	-0.033792906
184	0xbe886345	-0.26638237
185	0xbd884d36	-0.06655352
186	0xb9e2cc80	-0.00043258443
187	0xbd541dd0	-0.051786244
188	0x3e26660e	0.16249868
189	0x3dd6e1dd	0.10492299
190	0x3dcd599a	0.10026856
191	0x3df2daf0	0.11858165
192	0xbd3149f4	-0.043283418
193	0x3dd60624	0.1045039
194	0x3ebbc7c8	0.36675858
195	0xbd48b1f1	-0.048997823
196	0xbf0fe3b6	-0.56206834
197	0x3a343400	0.00068742037
198	0xbed78040	-0.42090034
199	0x3e93d1c1	0.28870967
200	0x3db634d2	0.088967934
201	0xbe21805d	-0.15771623
202	0xbca542b4	-0.020173408
203	0xbf2cc0fc	-0.6748197
204	0x3f1b885d	0.6075495
205	0x3e019fea	0.12658659
206	0x3e4482ec	0.19190568
207	0xbd503fec	-0.05084221
208	0x3e76ffd9	0.24121036
209	0xbe444bc5	-0.19169529
210	0x3d40e3ae	0.047092132
211	0xbdfa4bb6	-0.12221472
212	0x3dd93f36	0.1060776
213	0x3d12e512	0.03586299
214	0x3da788cb	0.08180388
215	0x3e8d03c0	0.27541924
216	0x3dfa846f	0.12232291
217	0x3dc315b1	0.09525622
218	0x3e2f5638	0.17122734
219	0xbe409762	-0.18807748
220	0x3ee4441f	0.44583222
221	0x3e6d7ce3	0.23192172
222	0xbe69eb17	-0.22843586
223	0x3dae657f	0.085154526
224	0xbe863417	-0.26211616
225	0x3f4a54e7	0.790358
226	0xbec03f1c	-0.3754815
227	0xbd19f0b0	-0.037583053
228	0x3cc077d0	0.023494631
229	0xbe724544	-0.23659235
230	0xbe94360d	-0.28947487
231	0xbdbbb7ef	-0.09165942
232	0x3dcea7fc	0.10090634
233	0xbd63f6fc	-0.055655465
234	0x3e80315f	0.25037667
235	0xbe50cf70	-0.20391631
236	0xbe60fffb	-0.21972649
237	0xbe4ee3ed	-0.20204134
238	0x3ee30e45	0.44346824
239	0xbe84514a	-0.2584327
240	0xbecaa137	-0.39576122
241	0xbec7fcb3	-0.39059982
242	0xbebe0409	-0.37112454
243	0xbec9b41c	-0.39395225
244	0xbcb61f7b	-0.022231808
245	0xbe394370	-0.18092132
246	0xbe483199	-0.1955017
247	0xbeb0732c	-0.3446287
248	0xbe136a46	-0.14396009
249	0x3e097c85	0.13426407
250	0xbe6f3583	-0.23360257
251	0x3f0d1a1a	0.5511795
252	0xbe1ba9e6	-0.1520153
253	0x3e878ba5	0.26473728
254	0x3ed622c4	0.418234
255	0xbeb12871	-0.34601167

fc2.weight f4 [256, 256]
0	0xbdc27319	-0.094946094
1	0xbe1a61e1	-0.150764
2	0xbea2cdc1	-0.31797603
3	0x3e5fad80	0.21843529
4	0xbe2f9a4f	-0.17148708
5	0xbe3a51a9	-0.18195213
6	0x3e529fa2	0.20568708
7	0x3e7e9e47	0.24865066
8	0x3ddb5b27	0.10710745
9	0xbec4391d	-0.38324824
10	0x3e91e971	0.28498414
11	0x3e3098a7	0.17245732
12	0xbce4614d	-0.027878428
13	0xbe12f153	-0.1434987
14	0xbe030b7b	-0.12797348
15	0x3d94318a	0.07236011
16	0xbe68adef	-0.227226
17	0x3f051997	0.5199217
18	0xbd9b885c	-0.07594368
19	0xbe298911	-0.16556193
20	0xbbad62e0	-0.005291328
21	0xbf05f10a	-0.5232092
22	0xbebf5b8f	-0.3737454
23	0x3d620972	0.05518479
24	0x3e56582e	0.20932075
25	0xbe3b4422	-0.1828771
26	0x3e8eb325	0.2787105
27	0x3d56c20b	0.052431148
28	0x3ea4d35b	0.321925
29	0xbe8b824d	-0.2724785
30	0xbe2c7b85	-0.16843994
31	0xbc830ef3	-0.01599834
32	0x3de0313c	0.10946891
33	0x3e199e2a	0.15001741
34	0xbe9a98c2	-0.3019467
35	0xbd373c16	-0.044735037
36	0xbe67e68d	-0.22646542
37	0xbf068613	-0.5254833
38	0xbc9fe3a6	-0.01951773
39	0x3d16f804	0.03685762
40	0x3eb800aa	0.35938007
41	0x3deae639	0.11469693
42	0x3e18e95b	0.14932768
43	0xbd11f350	-0.03563243
44	0x3e145249	0.14484514
45	0xbd8e901c	-0.069610804
46	0xbd28bbf3	-0.041194867
47	0xbbff9de0	-0.0078008026
48	0x3ee37b96	0.44430226
49	0x3de0d3fc	0.10977933
50	0xbe1ef278	-0.15522182
51	0xbc061754	-0.008184273
52	0x3e2ce3be	0.16883752
53	0xbe7350d4	-0.23761302
54	0x3e937b4b	0.28805003
55	0x3e15d65e	0.14632556
56	0x3bb355e0	0.0054728836
57	0xbe24ae9a	-0.1608223
58	0x3e5f4d20	0.21806765
59	0xbecef3d2	-0.40420395
60	0xbe6619f8	-0.22470844
61	0x3dc27274	0.094944865
62	0x3c91bc96	0.01779012
63	0xbe042e7d	-0.12908359
64	0x3e227140	0.15863514
65	0x3e8f6910	0.28009844
66	0x3d20fbce	0.03930264
67	0x3e7da359	0.24769343
68	0xbbaa2e88	-0.0051935352
69	0x3d99cdcd	0.075099565
70	0x3e71ee60	0.23626089
71	0x3f3f0387	0.7461476
72	0xbc34b9f8	-0.0110306665
73	0x3e8b6173	0.27222785
74	0x3e4efbad	0.20213194
75	0x3dadab9e	0.08479999
76	0xbe240146	-0.16016111
77	0x3e7144c3	0.23561387
78	0xbd9bc0a2	-0.07605101
79	0x3e9d52f1	0.30727342
80	0xbd99ec52	-0.07515778
81	0x3eb6d3ad	0.3570837
82	0xbd7d4ca4	-0.06184067
83	0x3d0a7d40	0.033810854
84	0x3eb8c5ab	0.3608831
85	0x3d2c5130	0.042069614
86	0xbc4f8dda	-0.012668097
87	0xbe280a8d	-0.16410275
88	0xbd80f892	-0.06297411
89	0xbf1cbecb	-0.61228627
90	0x3dfeca50	0.12440932
91	0x3e1e6981	0.15469934
92	0x3e8b61d4	0.27223074
93	0xbe7758b6	-0.24154934
94	0x3d4ce313	0.050021242
95	0xbd91dcfe	-0.07122229
96	0xbe00a72c	-0.12563771
97	0x3de3fc67	0.11132126
98	0x3eb11729	0.34587982
99	0xbdddb1f7	-0.1082496
100	0xbdacc8d2	-0.08436741
101	0xbe7833d4	-0.24238521
102	0xbdc64f10	-0.09683049
103	0x3e386e9a	0.18010941
104	0xbe6ed96e	-0.2332513
105	0x3f1518fe	0.5824126
106	0xbe3e7b64	-0.18601757
107	0xbe482912	-0.19546917
108	0xbe5b7b61	-0.21433784
109	0xbdbd001e	-0.09228538
110	0xbecf774a	-0.40520698
111	0xbeb603ac	-0.35549676
112	0xbedd12ee	-0.43178505
113	0xbda987b6	-0.08277838
114	0x3f3049d8	0.68862677
115	0x3e8504bf	0.25980183
116	0x3e1296a6	0.1431528
117	0xbe860b68	-0.26180577
118	0xbe1ff6ad	-0.15621443
119	0x3eaf96ea	0.34294826
120	0x3e8e2af2	0.2776714
121	0x3dc167b8	0.09443611
122	0x3d99331b	0.07480451
123	0xbc7da838	-0.015482001
124	0x3e05e3c6	0.1307517
125	0xbddcae40	-0.10775423
126	0x3cb01c04	0.021497734
127	0xbd253595	-0.040334303
128	0xbe201227	-0.15631925
129	0x3ea9ccb6	0.33163995
130	0xbe950d39	-0.2911165
131	0xbd19214d	-0.037385274
132	0xbec54a66	-0.38533324
133	0x3e93ae22	0.2884379
134	0xbe49caf5	-0.19706328
135	0xbeda6185	-0.42652526
136	0x3e52e6ed	0.20595904
137	0x3edc1454	0.4298426
138	0x3e4161ce	0.18884966
139	0x3dfa3616	0.12217347
140	0x3de9821e	0.11401771
141	0x3e8e458b	0.27787432
142	0x3e61e03c	0.22058195
143	0x3d671e44	0.056425348
144	0x3e5722a2	0.21009305
145	0x3efdd66c	0.49577653
146	0xbe297884	-0.1654988
147	0x3d8f9803	0.07011416
148	0xbe140983	-0.14456753
149	0x3dc738ea	0.09727652
150	0xbde02ea3	-0.10946395
151	0x3daaaea3	0.083340906
152	0x3c701059	0.014652335
153	0x3dc2c01f	0.095093004
154	0x3e77bfa5	0.241942
155	0x3f6872c1	0.908001
156	0xbe5917d8	-0.21200502
157	0xbde0f920	-0.10985017
158	0xbd02c28b	-0.031923812
159	0xbeacbb57	-0.3373668
160	0xbe821c20	-0.25412083
161	0x3ea0d6e3	0.31413946
162	0xbe1c59fb	-0.152687
163	0x3e306d69	0.17229237
164	0x3e32ab55	0.1744817
165	0xbd39e132	-0.04538078
166	0x3dd49cc6	0.10381465
167	0xbe2b7f3e	-0.16747758
168	0x3d4447c2	0.047919996
169	0xbe5f2cf3	-0.2179449
170	0x3e5f5975	0.21811469
171	0x3e748008	0.23876965
172	0xbe65bab4	-0.22434503
173	0xbe59c5cb	-0.21266858
174	0x3d8b3766	0.06797676
175	0x3c5d8db0	0.01352255
176	0x3d837651	0.064190514
177	0x3e54f8b2	0.20797995
178	0xbdf85a27	-0.1212657
179	0xbf407222	-0.7517415
180	0x3d9d6022	0.076843515
181	0x3ec42585	0.38309875
182	0xbe11f664	-0.14254147
183	0x3f551e1a	0.83249056
184	0x3ec3d646	0.38249415
185	0xbdabaa07	-0.083820395
186	0x3e5242c8	0.20533288
187	0xbdb22ba0	-0.08699727
188	0x3e6ce9e9	0.23136105
189	0xbec70e61	-0.38878158
190	0xbd1fe706	-0.03903868
191	0x3ea7e538	0.32792068
192	0xbddd7a86	-0.10814385
193	0x3e85e564	0.26151574
194	0xbe289bbe	-0.16465661
195	0x3d0cb9b0	0.034356773
196	0xbe4563b0	-0.19276309
197	0x3e536419	0.20643653
198	0x3eb7f22f	0.3592696
199	0x3cfa8a4a	0.03058352
200	0xbe87372a	-0.26409274
201	0x3d82b4a6	0.06382112
202	0x3f0e3361	0.5554715
203	0xbe108d90	-0.14116502
204	0x3e9601d3	0.29298267
205	0x3dde6658	0.10859364
206	0x3ea09d28	0.313699
207	0x3edefee7	0.4355385
208	0x3f20690b	0.6266028
209	0xbe663b8c	-0.22483653
210	0xbea13a47	-0.31489775
211	0xbcb80108	-0.02246143
212	0xbeb3fcc4	-0.35153782
213	0x3ee591b8	0.44837737
214	0x3e65118e	0.22369978
215	0x3e9fd247	0.31215116
216	0x3e4f7c5f	0.20262288
217	0xbe031adb	-0.12803213
218	0x3bd8be70	0.006614499
219	0x3e126097	0.14294659
220	0xbebba45e	-0.3664884
221	0xbecaab97	-0.39584038
222	0xbe74cf5e	-0.2390723
223	0x3e1bf464	0.15229946
224	0xbe0072bb	-0.12543766
225	0x3e82eef0	0.2557292
226	0x3e910cd9	0.28330114
227	0x3f35d06a	0.7102114
228	0x3f225da9	0.63424164
229	0xbcfb237b	-0.030656567
230	0xbe56b466	-0.20967254
231	0xbd4d5f61	-0.05013979
232	0x3d3568ee	0.044289522
233	0x3dca4b55	0.0987765
234	0x3ec6280b	0.38702425
235	0xbe9afa65	-0.3026916
236	0x3e8bdfef	0.27319285
237	0xbf22745d	-0.63458806
238	0x3e9d3ec8	0.3071196
239	0xbcb4a352	-0.022050533
240	0xbe4b4e3e	-0.19854066
241	0x3df2e2d8	0.11859673
242	0x3eb40516	0.3516013
243	0x3e9c9cf8	0.30588508
244	0xbddfd377	-0.109290056
245	0xbcf612b4	-0.030038215
246	0x3e95ace6	0.29233474
247	0xbf3fc7b9	-0.7491413
248	0xbeca34f7	-0.39493534
249	0xbeac5785	-0.33660522
250	0xbd870df3	-0.065944575
251	0x3ea387ae	0.31939453
252	0xbd9a4f25	-0.07534627
253	0x3d0cb394	0.034350947
254	0x3e810780	0.25201035
255	0xbea863c5	-0.32888618

fc2.bias f4 [256]
0	0xbe1dbda5	-0.15404375
1	0x3daa2c83	0.08309271
2	0x3d82d9cd	0.063891985
3	0xbd0c42e1	-0.03424347
4	0x3e184be6	0.14872703
5	0xbe09a1c7	-0.1344062
6	0xbeccab3a	-0.39974385
7	0xbf01fd4a	-0.50777113
8	0xbe87303c	-0.26403987
9	0xbe060f32	-0.13091734
10	0xbd9e3eb4	-0.077268034
11	0x3df4d840	0.11955309
12	0xbdb4a35a	-0.08820219
13	0x3da0b669	0.07847292
14	0x3e7a625a	0.2445158
15	0xbec53b62	-0.38521868
16	0xbec69764	-0.38787377
17	0xbec848a4	-0.3911792
18	0xbd9a2da4	-0.075282365
19	0xbea04f76	-0.31310624
20	0xbe7e2f58	-0.24822748
21	0x3e57976b	0.21053855
22	0x3d866054	0.06561342
23	0xbedbd545	-0.4293615
24	0x3e87c130	0.26514578
25	0x3d7c7987	0.061639335
26	0x3e96c58d	0.29447594
27	0xbce20c14	-0.02759365
28	0xbe760a7f	-0.24027441
29	0x3e8ed9b6	0.27900475
30	0x3dca32d2	0.098729745
31	0x3c90c4ee	0.017672028
32	0x3e5966d1	0.21230628
33	0x3e93b79f	0.2885103
34	0xbdccd85e	-0.10002206
35	0x3ddacd72	0.10683717
36	0x3e404cbc	0.18779272
37	0x3dccc591	0.0999862
38	0xbd4f12df	-0.050555106
39	0xbe64d483	-0.22346692
40	0x3d901d81	0.070368774
41	0xbe9442fc	-0.28957355
42	0xbdd332c4	-0.10312417
43	0x3e0d3bc7	0.13792334
44	0x3ed04f3d	0.40685454
45	0xbec31811	-0.381043
46	0xbe5fd4c5	-0.21858509
47	0x3d8aa4f4	0.067697436
48	0x3ec279f0	0.37983656
49	0xbd068fbe	-0.032851927
50	0xbd973448	-0.07383019
51	0xbd71d61a	-0.059042074
52	0xbe17bdcc	-0.14818496
53	0xbdf3dced	-0.119073726
54	0xbee8d268	-0.45473027
55	0x3f0a1d88	0.5395131
56	0xbd948d5f	-0.07253527
57	0xbdd3ca8a	-0.10341366
58	0xbdb0fe7c	-0.08642289
59	0x3e2b3715	0.16720231
60	0x3e891135	0.2677094
61	0xbe8ea56f	-0.2786059
62	0xbea31bde	-0.31857198
63	0xbe0a4d4f	-0.13506053
64	0x3e8c6b87	0.27425787
65	0x3e8c18a4	0.2736255
66	0x3e9f9102	0.3116532
67	0xb9a03880	-0.00030559674
68	0x3e2e860d	0.17043324
69	0x3f2174dc	0.6306894
70	0xbd9e71c7	-0.07736545
71	0x3e6b9516	0.2300609
72	0xbeda1ecf	-0.4260163
73	0x3e087188	0.13324559
74	0xbdf534fe	-0.11972998
75	0x3e41e71d	0.18935819
76	0x3e360271	0.17774369
77	0xbeb410d3	-0.35169086
78	0xbd2a9959	-0.04165015
79	0xbcf19f38	-0.029494867
80	0xbccd3428	-0.025049284
81	0x3dd0b0ff	0.10190009
82	0x3e19dada	0.15024891
83	0xbe116563	-0.14198832
84	0xbde7e414	-0.11322799
85	0xbe287b72	-0.1645334
86	0x3e38900a	0.18023697
87	0x3e8b3c6a	0.2719453
88	0xbe6c8b31	-0.23099972
89	0x3ef3f327	0.47646448
90	0x3dd7966c	0.105267376
91	0x39075700	0.00012907013
92	0x3d6386f4	0.055548623
93	0x3e772b96	0.2413772
94	0x3e5eacb3	0.21745567
95	0x3e40a613	0.18813352
96	0xbddbe239	-0.10736508
97	0x3e20c6f2	0.15700892
98	0xbde433e7	-0.11142712
99	0xbf03fe30	-0.51559734
100	0x3e440452	0.19142273
101	0xbe9934e6	-0.2992317
102	0x3eafdba5	0.34347263
103	0x3e412caa	0.18864694
104	0xbca6f3d8	-0.020379946
105	0xbe50baa6	-0.203837
106	0xbcec5fe3	-0.028854316
107	0x3db03967	0.08604699
108	0xbe49e8ef	-0.19717763
109	0x3e8ba4a5	0.2727405
110	0xbe86a0e0	-0.26294613
111	0x3e74c3cb	0.23902814
112	0xbe0afd89	-0.13573278
113	0xbe810402	-0.2519837
114	0xbd82a48d	-0.06379042
115	0xbe8bd8fd	-0.27313986
116	0x3e8c43cc	0.27395475
117	0xbf0ecc34	-0.5578034
118	0xbea3e79e	-0.32012647
119	0x3d8463dc	0.06464359
120	0x3e94bd90	0.29050875
121	0x3e053fb9	0.1301259
122	0x3e2c963c	0.16854185
123	0xbd36611f	-0.044526216
124	0xbec3e19f	-0.38258073
125	0xbe112728	-0.14175093
126	0x3be0176c	0.0068387296
127	0x3ed6c5a3	0.4194766
128	0xbdf74322	-0.120733514
129	0xbe28c076	-0.16479668
130	0x3d24c638	0.0402281
131	0x3c582f6a	0.013194898
132	0xbe1b0f79	-0.15142621
133	0xbe21ed8c	-0.15813273
134	0x3f0488ff	0.5177154
135	0xbe990f03	-0.29894266
136	0x3ec10429	0.37698486
137	0x3e6c3c01	0.23069765
138	0x3e618a0f	0.22025321
139	0xbdb8b97c	-0.09019753
140	0xbf14557f	-0.57942957
141	0x3d7b9e96	0.061430536
142	0x3ac825e0	0.0015270077
143	0x3bc53ad2	0.006018975
144	0x3dfe5e66	0.12420349
145	0x3ea69ec4	0.32543004
146	0xbe314746	-0.17312345
147	0x3ed84a0d	0.42243996
148	0x3c761aa2	0.015020998
149	0x3ec52739	0.38506487
150	0xbf04dd1a	-0.51899874
151	0x3ddc17b5	0.10746709
152	0xbd8424b7	-0.06452315
153	0x3e895626	0.2682354
154	0xbd695b1d	-0.056971658
155	0x3ced0ad5	0.02893583
156	0x3e275ad9	0.1634325
157	0x3ea1c93e	0.31598848
158	0xbec72546	-0.38895625
159	0xbdecdb00	-0.115652084
160	0xbe17c5df	-0.14821576
161	0xbebdbe7c	-0.3705939
162	0x3db6721a	0.08908482
163	0x3d1fe5d6	0.039037548
164	0x3db9424a	0.09045847
165	0x3c9a3549	0.018824236
166	0x3ea15c35	0.3151566
167	0xbc43fe54	-0.011962492
168	0xbe089f07	-0.13341914
169	0x3e9ff838	0.31244063
170	0xbdbec2f0	-0.09314525
171	0xbd8d89b0	-0.069110274
172	0x3e4c7e8a	0.19970146
173	0xbea5fb95	-0.32418504
174	0xbe79d572	-0.24397829
175	0xbe8de49a	-0.27713472
176	0xbf1ca0db	-0.61182946
177	0xbe8729f2	-0.2639919
178	0x3ecf2d88	0.40464425
179	0x3e98f5ec	0.29875124
180	0xbf36d8e3	-0.7142469
181	0x3e02fa2d	0.12790747
182	0x3b30f590	0.0027001835
183	0x3d92beb1	0.07165278
184	0xbd0d93fe	-0.034564964
185	0x3eb4dc2e	0.35324234
186	0x3c95b012	0.018272433
187	0xbc192e38	-0.009349398
188	0xbf095087	-0.536385
189	0xbe1490ac	-0.14508313
190	0x3e1f1ad0	0.15537572
191	0xbe2939ec	-0.16526002
192	0xbe05a098	-0.13049543
193	0xbd8f4c00	-0.06996918
194	0xbe7328b6	-0.23745999
195	0x3ec9b71f	0.39397523
196	0x3eae4fc4	0.3404523
197	0x3e0324dc	0.1280703
198	0xbe39025c	-0.18067306
199	0xbbbaa8a0	-0.005696371
200	0xbde139ae	-0.1099733
201	0xbd7dcc15	-0.061962206
202	0x3e31bb50	0.1735661
203	0x3e1dea98	0.15421522
204	0xbe54eca0	-0.2079339
205	0xbd36370f	-0.0444861
206	0x3e90cf96	0.28283376
207	0xbed4d9f7	-0.41572544
208	0x3dd3fde5	0.10351161
209	0xbdc669f2	-0.09688176
210	0xbe61d90b	-0.22055452
211	0xbdb7f190	-0.08981621
212	0x3ec5bdea	0.38621455
213	0xbef824ef	-0.48465678
214	0xbd528ce0	-0.05140388
215	0xbe997a38	-0.29976058
216	0x3d823b56	0.06358974
217	0xbef52dc0	-0.47886467
218	0xbddd0df6	-0.107936785
219	0x3e142740	0.14468098
220	0xbe1c30e0	-0.1525302
221	0xbea61b72	-0.32442814
222	0x3e7f7e72	0.24950579
223	0xbe0da644	-0.13832957
224	0x3ea86396	0.32888478
225	0xbdffebd6	-0.12496154
226	0x3da12863	0.07869031
227	0x3e53de24	0.20690209
228	0x3f098263	0.5371458
229	0x3e1018a9	0.14071907
230	0xbb9285a4	-0.0044714976
231	0xbeed5896	-0.46356648
232	0x3e579cbe	0.21055886
233	0xbe0a08d4	-0.1347993
234	0x3d485a96	0.048914514
235	0x3db555ed	0.0885428
236	0xbd8b5c6d	-0.06804738
237	0xbe44c344	-0.19215113
238	0xbe9a9070	-0.30188322
239	0xbe46c0a6	-0.19409427
240	0x3e9fb408	0.3119204
241	0xbe039fba	-0.128539
242	0x3e3350ea	0.17511335
243	0x3e04d205	0.12970741
244	0x3d24c14c	0.040223405
245	0x3d68df27	0.05685344
246	0xbe43f7e0	-0.19137526
247	0x3e1d49a6	0.15360126
248	0x3e4d822b	0.20069186
249	0x3d8459a4	0.0646241
250	0x3ef2fa7c	0.4745673
251	0xbee2623d	-0.44215575
252	0xbe1d12de	-0.15339229
253	0x3d33de5b	0.043913227
254	0xbe341af8	-0.17588413
255	0x3e859203	0.2608796

fc_mean.weight f4 [3, 256]
0	0x3e8ffed6	0.28124112
1	0xbe8600e0	-0.26172543
2	0xbf15ef6e	-0.58568466
3	0x3ded52af	0.11588036
4	0xbeeb2347	-0.45925352
5	0x3d61bb91	0.055110518
6	0x3dc89e5c	0.0979583
7	0xbea4ff17	-0.32225868
8	0xbdbd1f52	-0.092344895
9	0xbea4dd1b	-0.3219994
10	0xbe662f2c	-0.22478932
11	0x3ebe555c	0.371745
12	0xbea818fe	-0.32831568
13	0x3ee0d58c	0.43912923
14	0x3d18e5e6	0.037328623
15	0x3f02614b	0.5092971
16	0xbea0e53c	-0.31424892
17	0xbf076d4a	-0.52901137
18	0x3d80bb98	0.06285781
19	0xbcfc0777	-0.030765278
20	0x3ed05dbe	0.4069652
21	0x3ea6e076	0.32593125
22	0x3e0f50e8	0.13995707
23	0x3e8c6e5e	0.27427953
24	0xbe6413a0	-0.22273111
25	0xbc989b1c	-0.01862865
26	0xbe3412ee	-0.17585346
27	0xbd644a68	-0.05573502
28	0x3cd53e79	0.026030766
29	0x3efb23ef	0.49050853
30	0xbc12f148	-0.008968659
31	0xbd99c068	-0.07507402
32	0xbe037d4c	-0.12840766
33	0xbd94e386	-0.07269959
34	0x3e45b6db	0.19308035
35	0x3d78972d	0.060691047
36	0x3eab9bcf	0.3351731
37	0xbf2561bc	-0.64602256
38	0x3e92af47	0.2864935
39	0xbe96a9bf	-0.2942638
40	0x3e60edbe	0.21965691
41	0x3e895b41	0.26827434
42	0x3f23747a	0.63849604
43	0xbcec6fd4	-0.028861918
44	0x3f2fc414	0.68658566
45	0xbd29bab4	-0.04143782
46	0xbe7ae8b6	-0.24502835
47	0x3e48adac	0.195975
48	0xbd36b8d8	-0.044609874
49	0xbe51801b	-0.20459025
50	0x3ea9dc6c	0.3317598
51	0x3e85aba6	0.2610752
52	0xbdb35bd4	-0.08757749
53	0xbda2a17e	-0.079409584
54	0x3c5071a8	0.01272241
55	0x3bd5fe40	0.006530553
56	0x3ea3386e	0.3187899
57	0xbd74b8fa	-0.05974672
58	0xbe8a508e	-0.27014583
59	0x3e8575af	0.26066348
60	0xbba0a570	-0.004902534
61	0xbe83673d	-0.25664702
62	0x3e4403e8	0.19142115
63	0x3e9c8403	0.30569467
64	0xbe018728	-0.12649214
65	0x3e07da4a	0.13266864
66	0xbec64ee3	-0.3873206
67	0x3eaa3155	0.33240762
68	0x3e940f3c	0.28917873
69	0xbe8353d7	-0.25649902
70	0x3b830178	0.003997978
71	0xbdd8cd08	-0.105859816
72	0x3eabdcb3	0.33566818
73	0x3e019d16	0.1265758
74	0xbe8b2cb2	-0.27182537
75	0x3e28321c	0.16425365
76	0x3eaa99f0	0.3332057
77	0xbdcae268	-0.09906465
78	0x3f07d092	0.5305263
79	0x3e3c3f12	0.18383434
80	0xbb343b20	-0.0027501062
81	0x3cd96c3a	0.026540864
82	0xbe356aa7	-0.17716466
83	0xbcebe212	-0.028794322
84	0xbcf3c722	-0.02975804
85	0x3eb42ddb	0.35191235
86	0xbd8ed0b1	-0.069733985
87	0xbdd4a008	-0.10382086
88	0xbdd62756	-0.104567215
89	0xbec1a77f	-0.37823102
90	0x3e86a9eb	0.26301512
91	0xbcbeb5ec	-0.023280106
92	0xbdab8079	-0.083741136
93	0xbd0f1458	-0.03493151
94	0xbec6a849	-0.38800266
95	0xbeee07f7	-0.46490452
96	0x3d3a7d0d	0.045529414
97	0xbccb6608	-0.024828926
98	0x3e48bfce	0.19604418
99	0x3d0f66de	0.03501021
100	0xbd5c8be5	-0.05384435
101	0xbe6738d4	-0.22580272
102	0x3e616ac6	0.22013387
103	0xbe88a52d	-0.2668852
104	0x3e3356c8	0.17513573
105	0x3e473a96	0.19455943
106	0x3ec8d228	0.39222836
107	0x3e295918	0.16537893
108	0x3e878321	0.2646723
109	0xbcf8c7a4	-0.030368634
110	0x3d41fb67	0.047358897
111	0x3efda15a	0.49537164
112	0x3df3b0da	0.11898966
113	0x3e05364d	0.13008995
114	0x3d75f456	0.06004747
115	0x3ced537d	0.028970474
116	0xbe7becb9	-0.24602021
117	0xbbe14e18	-0.0068757646
118	0xbd0864ba	-0.033299185
119	0x3e870a34	0.26374972
120	0x3ec0ba78	0.37642264
121	0x3ea24ee2	0.31700808
122	0x3e5c09c6	0.21488103
123	0xbef61673	-0.48064002
124	0x3e92e28e	0.28688473
125	0x3e7a39fd	0.24436183
126	0xbe4b9319	-0.19880332
127	0xbec0281d	-0.37530604
128	0x3c7e7584	0.015530948
129	0x3e5ccbb7	0.21562086
130	0x3e857f89	0.26073864
131	0x3f2b1a73	0.66837233
132	0x3b500f40	0.003174737
133	0xbda5f02f	-0.08102452
134	0x3e69441c	0.22779888
135	0xbe702dba	-0.23454943
136	0xbdbebee2	-0.09313752
137	0x3e422b96	0.18961939
138	0xbea02aa3	-0.3128253
139	0x3e9f2402	0.3108216
140	0xbf15fb44	-0.58586526
141	0x3d26a841	0.040687803
142	0x3e6876f0	0.22701621
143	0xbf1d53c4	-0.6145594
144	0x3e82598f	0.25458953
145	0xbee1b54c	-0.4408363
146	0xbe01aae0	-0.1266284
147	0xbe8b5ef6	-0.27220887
148	0x3f08e9fe	0.53482044
149	0xbdce9bcb	-0.10088309
150	0xbea860ed	-0.32886449
151	0x3ddfacc5	0.10921625
152	0x3e83328a	0.25624496
153	0x3c395d54	0.011313755
154	0xbdccce4c	-0.100002855
155	0x3d668e7a	0.05628822
156	0x3d8ff401	0.07028962
157	0xbce28f00	-0.027656078
158	0x3e4e807e	0.20166203
159	0xbd750089	-0.059814963
160	0x3d889f34	0.066709906
161	0xbe4f66e2	-0.2025409
162	0xbd800c67	-0.062523656
163	0xbe133798	-0.14376676
164	0x3e6e617a	0.23279372
165	0xbeff4b89	-0.49862316
166	0x3b88e9d5	0.0041782656
167	0x3e65886f	0.22415327
168	0xbea27cbe	-0.31735796
169	0x3c8b3164	0.016991325
170	0x3e65ffe9	0.22460903
171	0xbe5894e6	-0.2115055
172	0x3dcfa320	0.101385355
173	0x3ce7750c	0.028254054
174	0x3de5ca73	0.11220255
175	0xbe1b773f	-0.15182208
176	0xbd85e56c	-0.065378994
177	0x3ef01c2f	0.46896502
178	0x3ecbe8f9	0.39826182
179	0xbe9cfbed	-0.30660954
180	0x3de747b6	0.11292975
181	0x3e024314	0.12720901
182	0xbed0aedf	-0.40758416
183	0xbd3bacbc	-0.04581903
184	0x3dcecf72	0.10098161
185	0x3eaaaa9e	0.33333296
186	0x3c6d9b6a	0.014502386
187	0xbea1a6d3	-0.3157259
188	0x3e3e7533	0.18599395
189	0x3d9ba138	0.075991094
190	0x3e19dfa8	0.15026724
191	0x3e2805ac	0.16408414
192	0xbcf6a192	-0.03010634
193	0x3ed4ab2f	0.41536853
194	0x3e703ab8	0.234599
195	0x3dce75a0	0.10081029
196	0xbb0e66d0	-0.0021728761
197	0xbce04cb4	-0.027380325
198	0x3e4c9ffa	0.19982901
199	0x3f139b27	0.5765862
200	0xbe4c3734	-0.19942933
201	0xbe20e350	-0.15711713
202	0x3e731b78	0.23740947
203	0xbe3c7613	-0.18404417
204	0x3e852db0	0.2601142
205	0x3e8cc43d	0.27493468
206	0x3dc2b916	0.095079586
207	0x3eb6c81a	0.3569954
208	0x3e01ba54	0.12668735
209	0xbc8ab648	-0.016932622
210	0x3e39fc8f	0.1816275
211	0xbe3aea55	-0.18253453
212	0x3e475ea7	0.19469701
213	0x3debde7d	0.11517046
214	0x3e8b2390	0.2717557
215	0xbe7ef3bd	-0.24897666
216	0x3de9a824	0.114090234
217	0x3dcffa38	0.10155147
218	0x3e711c3b	0.23545925
219	0xbea027e1	-0.31280425
220	0x3e907bb6	0.28219384
221	0xbed2c99f	-0.4116945
222	0xbee77b4d	-0.4521126
223	0x3e564a23	0.20926718
224	0xbe8e5fb4	-0.2780739
225	0x3e429942	0.19003776
226	0x3decc018	0.115600765
227	0x3e662203	0.22473912
228	0xbebcf14a	-0.3690284
229	0x3e4d385b	0.20041029
230	0x3e980131	0.2968841
231	0xbf2ecfb4	-0.6828568
232	0xbeb4b89d	-0.352971
233	0x3df3ff0d	0.119138815
234	0xbe5f26e1	-0.21792175
235	0xbe4a7a10	-0.19773126
236	0x3e8d4859	0.2759426
237	0xbe8d06a7	-0.27544138
238	0x3eb7a27f	0.35866162
239	0x3e2e51b2	0.17023352
240	0xbdd6064a	-0.10450418
241	0x3e5fa07d	0.21838565
242	0xba0b6500	-0.00053174794
243	0xbf10f632	-0.56625664
244	0x3f166ede	0.5876292
245	0x3dc3c08f	0.09558212
246	0x3cbcbeb5	0.023040155
247	0x3d35ee32	0.044416614
248	0x3d1a1736	0.037619792
249	0x3e87d922	0.26532847
250	0x3e40125e	0.18757007
251	0xbdc3169b	-0.09525796
252	0xbe558b6a	-0.20853963
253	0xbe907287	-0.28212377
254	0xbe835c1b	-0.25656208
255	0x3ed36126	0.41285056

fc_mean.bias f4 [3]
0	0x3ca17369	0.019708352
1	0xbe71e8c7	-0.23623954
2	0x3eb42017	0.35180733
