ga_weights/ga2/Pusher-v5/SAC/weights1.pt (torch, 297825 bytes, 6 tensors)

fc1.weight f4 [256, 23]
0	0x3be7171f	0.007052317
1	0xbc92ac53	-0.017904436
2	0xbd28054b	-0.041020673
3	0xbd20ac1d	-0.03922664
4	0xbc8ad213	-0.016945874
5	0xbbca74e8	-0.006178487
6	0xbbd08a82	-0.0063641677
7	0x3ae2eaab	0.0017312368
8	0xbd508d7d	-0.050916184
9	0x3c1407f6	0.009035101
10	0xbcb6b6ee	-0.022304025
11	0xbc164f47	-0.009174175
12	0x3d3f6296	0.04672488
13	0x3d23ee02	0.040021904
14	0x3c1558e7	0.009115434
15	0x3c58f8d2	0.013242917
16	0xbd61429b	-0.05499516
17	0x3d9d8b38	0.076925695
18	0xbd925a5c	-0.07146141
19	0x3c8d5b2c	0.017255388
20	0x3d42a30a	0.047518767
21	0xbd9f5149	-0.07779176
22	0xbca56de6	-0.020194005
23	0x3cb8c1c1	0.022553327
24	0x3c65b188	0.0140193775
25	0xbcd9f3d5	-0.026605526
26	0xbdc4331b	-0.0958006
27	0xbd66418d	-0.056214858
28	0xbc9e22de	-0.019303735
29	0xbd92169f	-0.07133221
30	0x3c9e3b85	0.01931549
31	0xbd04a4f7	-0.032383885
32	0x3d8191d7	0.06326645
33	0xbd990c09	-0.07472999
34	0xbd1fdb8d	-0.03902774
35	0xbce96170	-0.028488845
36	0x3c9983cb	0.018739602
37	0xbc1f274b	-0.009713958
38	0xbd645ce5	-0.055752654
39	0x3d70e40a	0.058811225
40	0x3dcb6f37	0.09933322
41	0xbdc52672	-0.096264735
42	0x3b1b52ad	0.0023700402
43	0x3d2ec696	0.042669855
44	0x3c3ce306	0.011528736
45	0xbc934a36	-0.017979722
46	0xbb7fce2f	-0.0039032807
47	0xbce1de88	-0.027571931
48	0xbda446e3	-0.08021333
49	0xbd79bd43	-0.06097151
50	0xbcac1963	-0.0210082
51	0x3d833e89	0.06408412
52	0x3c248a93	0.010042804
53	0xbc362485	-0.011117105
54	0xbd5f78df	-0.05455863
55	0x3cc04764	0.023471542
56	0xbd826fc4	-0.06368974
57	0x3cef1355	0.029184023
58	0x3d795f8a	0.06088213
59	0xbdd83af0	-0.105581164
60	0xbb9d5ed9	-0.0048025665
61	0xbc96936b	-0.018380841
62	0x3cc26ffa	0.023735035
63	0xbbf1434f	-0.00736276
64	0xbd7eec47	-0.06223705
65	0xbca1d42e	-0.019754495
66	0xbc8cd036	-0.017189126
67	0x3ce39f4d	0.027785921
68	0xbd230ce0	-0.0398072
69	0x3cd52ae7	0.026021434
70	0xbd8dbfd7	-0.06921356
71	0xbcb70efb	-0.02234601
72	0xbc0d028e	-0.008606566
73	0x3c85db2e	0.016339865
74	0x3b21cf07	0.0024690048
75	0xbc1a8b11	-0.00943257
76	0x3c78310f	0.015148415
77	0x3c9e564f	0.019328265
78	0xbd0ce9ab	-0.03440253
79	0xbc5fa378	-0.013649814
80	0xbd05536c	-0.03255026
81	0x3cb0415b	0.021515539
82	0xbcf68815	-0.030094186
83	0xbdb91293	-0.09036746
84	0x3daee50b	0.0853978
85	0x3c53927a	0.012913341
86	0xbbeaac80	-0.007161677
87	0x3ca54a80	0.020177126
88	0xbcd438ca	-0.025905985
89	0xbd2b9be3	-0.041896712
90	0xbd1dcf0a	-0.038527526
91	0x3cc8680b	0.024463674
92	0x3d8efcc4	0.06981805
93	0xbd2e8109	-0.042603526
94	0x3d1fe735	0.039038856
95	0x3c00c02b	0.007858316
96	0xbd5b6308	-0.05356124
97	0xbd09ef6b	-0.033675592
98	0x3c38d002	0.011280062
99	0x3d68bcba	0.05682061
100	0x3d65fbdf	0.056148406
101	0xbd7d6b9d	-0.061870206
102	0x3c959f95	0.018264571
103	0xbd0bb1ae	-0.034104995
104	0xbd4d8608	-0.05017665
105	0x3d49aab7	0.049235072
106	0xbd593cb8	-0.05303642
107	0x3c70de0a	0.014701376
108	0xbb0bfc93	-0.0021360263
109	0xbd19d43a	-0.03755591
110	0x3c9b1eff	0.018935679
111	0xbce3c203	-0.027802473
112	0x3c54f883	0.012998703
113	0x3da56012	0.080749646
114	0x3c857e3a	0.016295541
115	0x3c32b6a4	0.010907803
116	0xbc70b378	-0.014691226
117	0xbd9957a2	-0.07487418
118	0x3cb2875f	0.021793066
119	0x3d895217	0.067051105
120	0x3dabe288	0.08392817
121	0xbc85362c	-0.016261183
122	0x3d58c3db	0.052921157
123	0xbd43059f	-0.047612783
124	0xbd824603	-0.0636101
125	0xbaf648cd	-0.0018790007
126	0xbd24394e	-0.040093713
127	0x3d4d54a8	0.050129563
128	0xbd3483eb	-0.04407112
129	0x3d88caa1	0.066792734
130	0xbcdec2ea	-0.027192552
131	0x3d8649c0	0.065570354
132	0xbc7d0052	-0.015441971
133	0x3d1a4cce	0.037670903
134	0xb9d6c52f	-0.00040964174
135	0x3d6332db	0.05546842
136	0x3ccaa798	0.024738118
137	0x3caa6b33	0.02080307
138	0x3d3187c7	0.043342378
139	0xbc619c3b	-0.013770158
140	0xbcaac10f	-0.02084401
141	0x3d06f050	0.032944024
142	0xb92cf0b1	-0.00016492863
143	0xb9b96bae	-0.00035366177
144	0xbcff9c17	-0.03120236
145	0xbd1a5c9b	-0.03768597
146	0x3cf08ba0	0.029363453
147	0xbd873ac8	-0.066030085
148	0x3d292114	0.04129131
149	0x3d3edba8	0.0465962
150	0x3c7f5442	0.0155840535
151	0x3db7e4dc	0.08979198
152	0xbd98ef06	-0.07467465
153	0xbc9c4208	-0.019074455
154	0x3b3507be	0.0027623023
155	0xbcdb0148	-0.02673401
156	0x3d497b65	0.049189944
157	0xba8d76bf	-0.0010792835
158	0xbdb4b4cb	-0.08823546
159	0xbcfa1da2	-0.030531708
160	0xbd305aa4	-0.04305519
161	0x3d6be740	0.057593584
162	0x3ccafb7c	0.02477812
163	0xbd0b6bfa	-0.03403852
164	0xbb1103c8	-0.0022127498
165	0x3d604b80	0.054759502
166	0xbd2e3e13	-0.042539667
167	0xbd11a033	-0.03555317
168	0x3df1fa68	0.11815339
169	0xbdae38ae	-0.085069045
170	0xbbc235c5	-0.00592682
171	0xbcf06c33	-0.029348468
172	0xbb8c3eb1	-0.0042799343
173	0x3bd91bd8	0.0066256337
174	0xbdbc8f17	-0.0920698
175	0xbd28229a	-0.041048624
176	0x3d09e667	0.033666994
177	0x3d315ff5	0.043304402
178	0xba2a8051	-0.0006504106
179	0x3d307c15	0.043087084
180	0x3cc64fab	0.02420791
181	0x3c9689b0	0.018376201
182	0xbd9cbccf	-0.076532
183	0x3d31ebcb	0.04343776
184	0xbda0bba7	-0.07848292
185	0xbb6946eb	-0.003559525
186	0x3cfb6ea0	0.030692399
187	0x3c8a1bb4	0.016858913
188	0x3d75bea7	0.059996273
189	0x3d23c0ad	0.03997867
190	0x3b80885f	0.0039225067
191	0xba1b4ff3	-0.0005924694
192	0x3d2655fa	0.040609337
193	0xbd82fc00	-0.063957214
194	0x3d5a881b	0.053352457
195	0x3d47ab22	0.04874719
196	0x3b20b3b3	0.0024521172
197	0x3ce7dacb	0.02830257
198	0xbcd7455b	-0.026278188
199	0xbd1a6dcf	-0.037702378
200	0x3cb3b2b2	0.021935795
201	0x3d31ae2e	0.043379
202	0x3bb70c91	0.005586215
203	0x3c8fcef2	0.017554734
204	0x3d9482c8	0.07251507
205	0xbba67302	-0.005079628
206	0xbd0fba2b	-0.035089653
207	0xbcc7f5cb	-0.024409195
208	0xbd1aa2b7	-0.037752833
209	0xbd440171	-0.047852937
210	0x3d792f07	0.060835864
211	0xbce8411a	-0.028351355
212	0x3d4f1d05	0.050564785
213	0xbc9819a9	-0.018566923
214	0x3cb5940b	0.022165319
215	0xbcabf400	-0.020990372
216	0x3d963db6	0.07335989
217	0x3d1c67ad	0.03818481
218	0xbd4bfd2f	-0.049802
219	0x3d5a26c5	0.05325963
220	0x3cb661ce	0.022263434
221	0xbd9ecec5	-0.07754282
222	0xbc8fcfce	-0.017555144
223	0xbd298277	-0.041384187
224	0x3d1cb317	0.03825673
225	0x3d8e6b05	0.06954006
226	0xbdb51497	-0.08841818
227	0xbb587b93	-0.003303264
228	0x3db27a51	0.08714736
229	0x3b2380fa	0.0024948702
230	0x3c80aa0c	0.015706085
231	0xbdbf79ac	-0.09349379
232	0x3dbaafd0	0.09115565
233	0x3c903ba0	0.017606556
234	0xbcd90eed	-0.026496375
235	0x3b664b93	0.003514026
236	0x3c99f979	0.018795716
237	0x3d580de8	0.052747637
238	0x3c529e0d	0.012855065
239	0x3bdc4390	0.0067219213
240	0x3daf530f	0.08560764
241	0xbbaa93d4	-0.0052056108
242	0x3d7d5610	0.061849654
243	0xbd03e407	-0.032199886
244	0x3dc0eacd	0.09419785
245	0xbdd69387	-0.10477357
246	0x3cacdff9	0.021102892
247	0x3be0f2fd	0.006864904
248	0x3d57eb7a	0.052714802
249	0xbdbd62d1	-0.09247363
250	0xbc1e2170	-0.009651527
251	0x3d25eadd	0.040507186
252	0x3d1e93a6	0.038715027
253	0xbd0498e7	-0.03237238
254	0xbacaf317	-0.0015483823
255	0xba33aaa6	-0.00068537367

fc1.bias f4 [256]
0	0xbd2c673f	-0.04209065
1	0x3e2b694b	0.16739385
2	0x3d2c9dd0	0.04214269
3	0x3c87cdca	0.01657762
4	0x3e1e7378	0.15473735
5	0x3cf2d710	0.029643565
6	0xbcba0e76	-0.022711974
7	0x3cbbec87	0.022939933
8	0x3bfcb1e5	0.0077116364
9	0x3d20239f	0.03909647
10	0x3c9ee442	0.019395951
11	0xbd57de50	-0.052702248
12	0xbd13e431	-0.036106292
13	0xbdaaaa77	-0.08333295
14	0x3c7e72cb	0.015530298
15	0xbd7f0777	-0.06226298
16	0xbd174e65	-0.036939997
17	0x3d460d05	0.04835226
18	0x3dd62d9f	0.1045792
19	0xbd99ce5b	-0.07510062
20	0xbcee869b	-0.02911692
21	0xbd9f151b	-0.077676974
22	0x3d94b783	0.072615646
23	0xbd3c3351	-0.045947377
24	0x3d3b024b	0.045656484
25	0xbd28a39a	-0.041171648
26	0xba68873a	-0.0008870248
27	0xbd070ea0	-0.03297293
28	0x3c24115c	0.010013904
29	0xbdc372e4	-0.09543398
30	0x3cca54ef	0.024698703
31	0x3b5798bd	0.0032897436
32	0xbbf72b55	-0.0075430074
33	0xbd381f82	-0.044951923
34	0xbd3c777b	-0.046012383
35	0x3dc9d56c	0.0985516
36	0x3c68a3b3	0.014199185
37	0x3d047c32	0.032345004
38	0x3cb43c67	0.022001458
39	0x3ad487af	0.0016214753
40	0xbd2e2c85	-0.042522926
41	0xbd2058f7	-0.039147343
42	0xbce883ab	-0.028383097
43	0xbd32b544	-0.0436299
44	0x3d35cbc0	0.044383764
45	0x3d34633f	0.04403996
46	0x3b9ffc4d	0.0048823715
47	0xbce312bd	-0.027718896
48	0xbdd775e5	-0.105205335
49	0x3d19b59a	0.037526704
50	0x3d9ef1cf	0.07760965
51	0x3dd045eb	0.10169586
52	0xbaa9debf	-0.001296006
53	0x3c513b55	0.0127704935
54	0x3c8087fd	0.015689844
55	0x3cae266d	0.021258557
56	0xbc6aceb7	-0.014331511
57	0xbc0280af	-0.007965251
58	0xbcfd75e0	-0.030939996
59	0x3d3cce4f	0.04609519
60	0xba84d7f2	-0.0010135157
61	0x3ca312d1	0.019906433
62	0xbc417825	-0.01180843
63	0x3ca87f13	0.020568406
64	0x3d4b7e93	0.049681257
65	0xbc3979e4	-0.011320565
66	0xbd225628	-0.039632946
67	0xbd2a5444	-0.04158427
68	0xbd953d5f	-0.07287096
69	0x3b9212e1	0.004457817
70	0xbd43ffe3	-0.047851454
71	0xbd585728	-0.052817494
72	0x3d5c8d10	0.053845465
73	0x3c4ead50	0.012614563
74	0xbce87087	-0.02837397
75	0xbd4697a4	-0.04848446
76	0xbbd6325d	-0.0065367655
77	0x3cda7258	0.026665851
78	0xbbc25943	-0.005931051
79	0x3d52b618	0.05144319
80	0x3d15f2c8	0.036608487
81	0xbbfd3732	-0.007727527
82	0x3d026fc4	0.03184487
83	0xbb3b6d8a	-0.0028599226
84	0x3cab1794	0.020885266
85	0xbca30f2f	-0.019904701
86	0xbda2705b	-0.07931586
87	0x3cb1876c	0.02167102
88	0x3d2f128b	0.042742293
89	0xbcd7d9d0	-0.026348978
90	0xbd7218dd	-0.059105743
91	0x3d72c3ba	0.05926869
92	0x3db3f3a8	0.08786708
93	0x3d5021d0	0.050813496
94	0xbd4f68da	-0.050637104
95	0xbc51ccaf	-0.012805148
96	0x3ca4c83b	0.020115009
97	0xbbbc64b2	-0.0057493085
98	0x3d2bb735	0.041922767
99	0x3bde5c43	0.006785901
100	0x3de69ecd	0.112607576
101	0x3d94d3a4	0.0726693
102	0xbc5ce97d	-0.013483402
103	0x3dd1b52d	0.10239635
104	0x3d28e92b	0.04123799
105	0xbcc43168	-0.02394934
106	0xbce698b8	-0.028148994
107	0xbc7f074a	-0.015565703
108	0x3c966b51	0.01836172
109	0x3ca3a02d	0.019973839
110	0xbdf27108	-0.11837965
111	0x3ce8fdea	0.028441388
112	0xbdf96fd7	-0.12179535
113	0xbd7be43a	-0.06149695
114	0xbd3c5fc5	-0.04598977
115	0x3d634db0	0.05549401
116	0xbcb69ccb	-0.022291562
117	0xbd3e4fc8	-0.046462804
118	0xbb23d8a3	-0.0025000952
119	0x3c4e92f7	0.012608281
120	0xbd64e785	-0.055884857
121	0x3cee42df	0.029084621
122	0x3d89c7a7	0.06727534
123	0xbdc5345b	-0.09629127
124	0x3cbacd26	0.0228029
125	0xbd324df9	-0.04353139
126	0x3cbe1a35	0.023205856
127	0xbd8d35cc	-0.068950266
128	0xbd8c24b7	-0.0684294
129	0x3d2f67e1	0.042823676
130	0x3d653c8f	0.055965956
131	0xbce633f7	-0.02810095
132	0x3ca25f7b	0.01982092
133	0x3d71ada0	0.059003472
134	0x3cb33c57	0.021879358
135	0xbcc83f13	-0.024444139
136	0x3c1b705a	0.009487236
137	0xbc417117	-0.011806748
138	0xbcc62e42	-0.02419198
139	0x3c59fd67	0.013305045
140	0x3d9a25b7	0.07526725
141	0x3ccc2942	0.024922017
142	0xbb85c869	-0.0040827286
143	0x3d099950	0.033593476
144	0xbc62e635	-0.013848831
145	0x3d4e68ba	0.050392844
146	0xbced3c9a	-0.028959561
147	0x3cdadbea	0.026716191
148	0x3c8dad5d	0.01729458
149	0xbd711bbf	-0.05886435
150	0x3c7b70e2	0.015346738
151	0xbd8dc7f9	-0.069229074
152	0x3ca78ca1	0.0204528
153	0xbce1596b	-0.027508458
154	0xbbe9e0eb	-0.007137408
155	0xbb63b7e2	-0.0034747054
156	0x3c1deb5d	0.0096386345
157	0xbca10428	-0.019655302
158	0xbd34ab2e	-0.044108562
159	0x3d42e9fb	0.047586422
160	0xbd909d6c	-0.07061276
161	0xbb1297ca	-0.0022368305
162	0x3db29197	0.08719175
163	0xbcca4340	-0.02469027
164	0xbc825faf	-0.015914766
165	0x3ddf7b63	0.10912206
166	0xbd3170e0	-0.043320537
167	0x3db2eecf	0.087369554
168	0xbc6406cd	-0.013917637
169	0xbcd7723f	-0.026299594
170	0xbd28dc97	-0.041225996
171	0x3d170ded	0.036878515
172	0xbc9c4293	-0.019074714
173	0x3be96798	0.007122945
174	0xbbdf93fd	-0.0068230615
175	0xbcd788b2	-0.026310299
176	0xbd0932d0	-0.033495724
177	0xbce62e5a	-0.028098274
178	0x3c67b5d0	0.014142469
179	0x395d2d8a	0.00021093167
180	0xbd488ad7	-0.048960533
181	0xbd0e16a1	-0.03468955
182	0x3d33dea4	0.0439135
183	0x3d454a73	0.048166703
184	0xbc4de245	-0.012566154
185	0x3d240650	0.040045083
186	0x3ca5ee6c	0.02025529
187	0xbbd9eac8	-0.0066503026
188	0xbc88865a	-0.016665626
189	0xbdc207cb	-0.09474143
190	0x3c866534	0.01640568
191	0xbd6784c5	-0.056523103
192	0xbca6a8f9	-0.020344244
193	0x3cee1fc2	0.029067878
194	0x39ddeb68	0.00042327796
195	0xbb337404	-0.0027382383
196	0xbcfd9dc8	-0.030959025
197	0x3cab9bb3	0.020948267
198	0xbdbf0918	-0.09327906
199	0xbd673abf	-0.05645251
200	0x3bc13fbb	0.00589749
201	0xbd4b5043	-0.04963709
202	0x3c8fc3fe	0.017549511
203	0xbd2fcc6e	-0.04291957
204	0x3dc6443b	0.09680983
205	0xbc9c0704	-0.019046314
206	0xbcdbb0d5	-0.026817719
207	0x3c85bca5	0.016325304
208	0xbd970db1	-0.07375658
209	0x3bd72365	0.0065654987
210	0xbdab937f	-0.08377742
211	0x3dab229f	0.08356213
212	0x3d71ccb5	0.059033114
213	0xbc676d87	-0.014125234
214	0x3c8ac036	0.016937356
215	0x3df0878a	0.11744602
216	0xbc8291ff	-0.015938757
217	0x3a8c7675	0.0010716455
218	0xbbb14715	-0.005410085
219	0x3d938516	0.072031185
220	0x3c509902	0.012731792
221	0x3cfd577f	0.03092551
222	0xbd85bbcb	-0.06529959
223	0xbc885967	-0.016644193
224	0x3d0bdd7d	0.034146775
225	0x3dad3c41	0.08458758
226	0xbc6642d0	-0.014054015
227	0x3c8969ae	0.016774025
228	0xbd4b2abc	-0.0496013
229	0x3d10e012	0.03536994
230	0xbaf15f68	-0.0018415274
231	0xbcc2a0a0	-0.023758233
232	0xbd96a717	-0.073560886
233	0xbd0c8327	-0.034304764
234	0x3be48bca	0.006974672
235	0x3d3fffa2	0.04687465
236	0x3d805d73	0.06267824
237	0xbcaab0ee	-0.02083632
238	0xbca5f29e	-0.02025729
239	0x3cfb4738	0.030673608
240	0x3c959677	0.018260224
241	0x3cb86bcd	0.02251234
242	0xbcde716f	-0.027153699
243	0xbc9e12fb	-0.01929616
244	0x3d520428	0.051273495
245	0x3d2c0c06	0.042003654
246	0x3d9cf884	0.07664588
247	0xbdc96971	-0.098345645
248	0x3e0bdb86	0.1365796
249	0xbddf2318	-0.108953655
250	0xbd2a4b5e	-0.041575782
251	0xbc03bd34	-0.008040715
252	0x3d642580	0.055699825
253	0x3d635237	0.055498328
254	0xbd975f12	-0.0739118
255	0x3c843daf	0.016142694

fc2.weight f4 [256, 256]
0	0x3bb69718	0.005572211
1	0x3d7a4837	0.061104026
2	0xbd7b8098	-0.061401933
3	0x3ca9a822	0.020710055
4	0x3d38602a	0.045013584
5	0xbdc50fd9	-0.09622163
6	0xbbff1fe2	-0.007785783
7	0xbd0352ed	-0.032061506
8	0x3cceb6d8	0.025233671
9	0xbd186006	-0.03720095
10	0xbd4e1b95	-0.050319273
11	0xbb3b6ed7	-0.0028600001
12	0xbc90af4c	-0.017661713
13	0xbd9b8da6	-0.07595377
14	0x3d005aff	0.03133678
15	0x3bd472bb	0.0064834035
16	0xbd79019a	-0.060792543
17	0x3d8365d9	0.0641591
18	0xbcb6fcd3	-0.022337353
19	0xbd7ea145	-0.062165517
20	0x3bbb2d9e	0.005712225
21	0xbb6f8f0d	-0.003655377
22	0x3c1fea02	0.009760382
23	0x3d9c399a	0.07628174
24	0xbdb77eff	-0.089597695
25	0xbce6d690	-0.028178483
26	0x3d0d0c42	0.034435518
27	0xbdc13bfa	-0.09435268
28	0x3d1e5279	0.03865287
29	0x3cdcdbe2	0.026960317
30	0xbda6da00	-0.08147049
31	0x3dcc2eeb	0.099698864
32	0x3856101a	5.103657e-05
33	0xbd223bee	-0.039607935
34	0xbca9b8bd	-0.020717973
35	0x3d616e70	0.055036962
36	0xbd9c04e9	-0.07618124
37	0x3d95530f	0.07291233
38	0xbc9f1aca	-0.019421954
39	0x3d962e1c	0.073330134
40	0x3c463b15	0.012099047
41	0x3d7c1262	0.06154097
42	0xbda04afd	-0.07826803
43	0x3d30a221	0.04312337
44	0xbcbc20b5	-0.022964815
45	0x3d2d7c40	0.042354822
46	0x3d7257cf	0.059165772
47	0x3da4a439	0.080391355
48	0xbc8c17f1	-0.01710126
49	0xbcd7f290	-0.02636078
50	0xbc6d8eba	-0.014499361
51	0x3cbbbfe2	0.022918645
52	0xbb865700	-0.0040997267
53	0x3da62ae3	0.08113649
54	0x3c921505	0.017832289
55	0xbda17fef	-0.078857295
56	0x3bd24f1a	0.006418121
57	0xbda028ca	-0.0782028
58	0xbceeebf7	-0.029165251
59	0x3dcd8443	0.100349925
60	0x3c7dce90	0.015491143
61	0xbdaaf589	-0.08347613
62	0xbd322839	-0.04349539
63	0x3af5166a	0.0018698697
64	0xbcc1acca	-0.023641963
65	0xbcce0bfb	-0.025152197
66	0x3d16a92c	0.03678243
67	0xbb7dd3a0	-0.0038730875
68	0xbdb42922	-0.08796908
69	0xbd18661b	-0.03720675
70	0x3cdae9b0	0.026722759
71	0x3cf5b2c3	0.029992467
72	0xbcc38399	-0.023866462
73	0x3d86726f	0.06564795
74	0xbd9ec9f9	-0.07753367
75	0x3dcd4a22	0.10023905
76	0xbd60440b	-0.05475239
77	0xbd45eba7	-0.04832044
78	0xbd3daf03	-0.046309482
79	0x3ce4f677	0.027949555
80	0x3d2c51d5	0.04207023
81	0xbcea2847	-0.028583659
82	0xbc1ec655	-0.009690841
83	0xbcaf4623	-0.021395748
84	0x3dc8ed79	0.09810919
85	0xbd865bf7	-0.0656051
86	0xbd85b7f7	-0.06529229
87	0xbcb23836	-0.02175532
88	0xbcedea80	-0.029042482
89	0x3ccae019	0.024765061
90	0x3dbefc17	0.09325426
91	0xbb8e3bba	-0.004340616
92	0x3dc24c3c	0.09487197
93	0xbd35e7ae	-0.0444104
94	0x3c86c1bf	0.016449807
95	0xbc6496cd	-0.013951969
96	0xbd7f9525	-0.062398095
97	0xbdb4e5cd	-0.088328935
98	0xbdae29d7	-0.08504074
99	0x3cbd7968	0.02312918
100	0xbca02285	-0.01954771
101	0x3b9cf4b1	0.0047899117
102	0xbce9fa0a	-0.02856161
103	0x3d9349be	0.071917996
104	0xbce7ed4b	-0.028311392
105	0xba99f1c9	-0.0011745031
106	0xbc9402bf	-0.018067716
107	0xbcd06d20	-0.02544266
108	0x3ca4027d	0.020020718
109	0x3d191066	0.037369154
110	0xbdaec939	-0.08534474
111	0xbdeb829f	-0.11499523
112	0x391012c5	0.00013739902
113	0xbd61f285	-0.055162925
114	0x3d0fa8f2	0.03507323
115	0x3d9f4b57	0.07778042
116	0xbc529e13	-0.012855071
117	0xbda15425	-0.078773774
118	0x3d409da9	0.047025356
119	0xb9e03a53	-0.00042768064
120	0xbd8573cb	-0.065162264
121	0xba8d9dfe	-0.0010804532
122	0x3be5e3bd	0.007015674
123	0x3d475afa	0.048670746
124	0x3a42a318	0.00074248156
125	0x3d9e5b87	0.07732301
126	0x3d745ab8	0.05965683
127	0x3d5d7762	0.05406893
128	0x3d18d0d2	0.03730852
129	0x3d24dcb7	0.040249553
130	0xbca0d5ce	-0.0196332
131	0x3ccdbdfa	0.025115002
132	0xbe05beaf	-0.13061021
133	0xbc4bff17	-0.012450955
134	0x3d05c3b7	0.03265735
135	0x3cec3b23	0.028836792
136	0x3c4a9523	0.0123646585
137	0xbd95a26d	-0.07306371
138	0xbd3809ab	-0.044931095
139	0x3d318186	0.043336414
140	0xbd54d2e3	-0.05195893
141	0xbcea5c9f	-0.028608618
142	0xbaee096a	-0.0018160765
143	0x3c0b6fbd	0.008510527
144	0x3cb1823f	0.021668551
145	0xbb1ff906	-0.0024409904
146	0xbbb9c8a9	-0.0056696725
147	0xbae04aa0	-0.0017112084
148	0x3c81bd2e	0.015837278
149	0x3b2915f1	0.0025800432
150	0x3d854fee	0.06509386
151	0x3c3f36d3	0.011670786
152	0xbdaf93f7	-0.08573144
153	0x3cfaf0d8	0.030632421
154	0xbd040c2b	-0.032238167
155	0xbc450275	-0.012024512
156	0x3c313bb4	0.010817457
157	0xbcac96eb	-0.021068057
158	0xbcda8450	-0.02667442
159	0x3ccd1117	0.025032563
160	0xbc8842f7	-0.016633494
161	0xbbe34f6f	-0.0069369595
162	0xbd6c43ca	-0.057681836
163	0x3d279810	0.040916502
164	0x3d881ed7	0.06646507
165	0xbb90bd75	-0.0044171163
166	0xbd2ce37e	-0.04220914
167	0xbbeff580	-0.007322967
168	0x3a06f566	0.00051482616
169	0x3d908a1d	0.07057593
170	0xbb918210	-0.0044405535
171	0xbd200140	-0.039063692
172	0xbbe795d2	-0.0070674205
173	0x3c3b7751	0.0114420215
174	0x3dec49f5	0.11537544
175	0xbc95efe1	-0.01830286
176	0x3cc4a0d3	0.024002468
177	0x3d0294b0	0.03188008
178	0x3c032a97	0.00800576
179	0x3d12e71d	0.035864938
180	0x3d2cdc5a	0.04220233
181	0xbd2aa7f8	-0.041664094
182	0xbcab27e2	-0.020893041
183	0x3c87a572	0.016558383
184	0x3d2c88b4	0.042122558
185	0x3cc7cdd5	0.02439014
186	0xbd1ecc23	-0.0387689
187	0xbbddf2a8	-0.0067733116
188	0x3cd808e8	0.026371434
189	0x3da2087f	0.07911777
190	0xbd193ebc	-0.037413344
191	0x3bd9958a	0.006640141
192	0x3c93ba1f	0.018033085
193	0x3bc7a7a4	0.0060929824
194	0x3bf6f45b	0.0075364537
195	0xbcfb5b8b	-0.0306833
196	0xbcda7a1b	-0.026669553
197	0xbd91d8ca	-0.07121427
198	0x3d0d2c1a	0.034465887
199	0x3dbbecf4	0.091760546
200	0x3d1c8a38	0.038217753
201	0xbcd3a745	-0.025836596
202	0xbd1345f8	-0.0359554
203	0x3d83d508	0.06437117
204	0x3bc4d586	0.0060068993
205	0x3d1c41d5	0.03814872
206	0xbd1bf0c3	-0.038071405
207	0x3d9864ba	0.07441087
208	0xbd3a3182	-0.04545737
209	0x3c3549a7	0.011064923
210	0x3c958953	0.018253958
211	0x3cb77d3a	0.02239858
212	0xbcad48eb	-0.021152934
213	0x3dceb827	0.10093718
214	0x3d9c5935	0.076342024
215	0x3d849bdb	0.064750396
216	0x3cac94b3	0.021066999
217	0xbd956db3	-0.07296314
218	0x3dbae791	0.09126199
219	0xbcb47ce5	-0.02203221
220	0x3d6f5ae3	0.058436286
221	0xbd08dc9c	-0.033413514
222	0x3cecbeef	0.028899638
223	0xbdf7e372	-0.121039286
224	0x3d275f9c	0.040862665
225	0xbd7969c0	-0.060891867
226	0xbb7bb255	-0.0038405855
227	0xbc0e938f	-0.008702173
228	0xbcfa5b38	-0.030561075
229	0x3d2af6a8	0.041739136
230	0x3dad6d9b	0.08468171
231	0xbd273949	-0.040826116
232	0xbd3d152b	-0.046162765
233	0x3c19515a	0.009357775
234	0x3de83567	0.11338311
235	0x3b555ce3	0.0032556586
236	0x3d57137a	0.05250881
237	0x3def63fb	0.11688992
238	0xbd401ccf	-0.046902474
239	0xbd7e4df2	-0.062086053
240	0x3c0fd100	0.008777857
241	0xbd204c4f	-0.039135274
242	0x3cc1e456	0.02366845
243	0xbd1b46f9	-0.03790948
244	0x3c649e03	0.013953689
245	0x3c866344	0.016404755
246	0xbd28fc6e	-0.04125636
247	0x3b891557	0.004183452
248	0x3d57c98b	0.05268244
249	0xbd107b6a	-0.035273947
250	0x3cd24cfd	0.025671476
251	0x3bf7f0c5	0.0075665438
252	0xbce9cb4a	-0.028539319
253	0xbc9f34f4	-0.01943443
254	0x3c598a3d	0.0132775875
255	0x3cebcedd	0.028785164

fc2.bias f4 [256]
0	0xbcab5973	-0.020916676
1	0xbc5653b0	-0.013081476
2	0x3d4cdd32	0.050015636
3	0xbd211659	-0.039327953
4	0x3c0adc13	0.008475321
5	0x3d2b7133	0.041856002
6	0x3c94e4a9	0.01817544
7	0x3a1ce103	0.0005984457
8	0x3c728d30	0.01480417
9	0x3d41128c	0.04713683
10	0x3d39ab3b	0.045329314
11	0x3a9e6664	0.0012084958
12	0xbd07d4eb	-0.03316204
13	0x3d74195f	0.05959451
14	0xbc381a9a	-0.011236811
15	0x3b1dd0ed	0.0024080828
16	0x3d08619d	0.033296216
17	0x3da5493d	0.0807061
18	0x3d0468f5	0.032326657
19	0x3d7a73f8	0.061145753
20	0xbcee4aef	-0.029088465
21	0xbdc1219b	-0.09430238
22	0x3d1ac23b	0.03778289
23	0x3d272de9	0.040815268
24	0x3cd02dc5	0.02541245
25	0xbd63bc52	-0.055599518
26	0x3bf78cf2	0.007554644
27	0xbd28101e	-0.041030996
28	0xbcece4a5	-0.02891762
29	0xbdde7b38	-0.10863346
30	0xbcd672fd	-0.026177878
31	0x3db58044	0.08862355
32	0x3ab1ea33	0.0013573825
33	0x3d6801bf	0.05664229
34	0xbd177d91	-0.036984984
35	0x3d4084e6	0.04700174
36	0x3d5bab6a	0.05363027
37	0x3d40c26f	0.047060426
38	0xbdb5ad7f	-0.088709824
39	0xbd1cb3a7	-0.038257267
40	0xbdbb452b	-0.09144052
41	0xbb06e237	-0.0020581612
42	0x3dc48df2	0.095973864
43	0xbd29b1f1	-0.041429464
44	0x3ccecafb	0.025243273
45	0xbce9d71f	-0.02854496
46	0x3daa9481	0.08329106
47	0x3b4d5fa3	0.0031337522
48	0xbcb32df2	-0.021872494
49	0xbb4c5dad	-0.0031183765
50	0x3d5279f7	0.051385846
51	0xbcd1497a	-0.025547732
52	0x3d510b7d	0.051036347
53	0x3d68d3e5	0.056842703
54	0x3da41a96	0.08012883
55	0x3d67e96a	0.056619085
56	0x3d18797d	0.037225235
57	0x3aa21f0b	0.0012368871
58	0xbca536b2	-0.020167682
59	0xbd4ed4c3	-0.050495874
60	0x3cd56a8f	0.026051788
61	0xbd198088	-0.037476093
62	0x3d94bd2c	0.07262644
63	0xbcff6d4d	-0.031180048
64	0x3d67e980	0.056619167
65	0x3cf1dfc0	0.029525638
66	0xbbcce95f	-0.006253406
67	0xbcd6a6d2	-0.026202593
68	0x3cce720a	0.025200862
69	0x3d6ecf37	0.058303084
70	0x3d84bfb5	0.06481878
71	0xbcc71a0f	-0.024304418
72	0xbbcfea0a	-0.0063450383
73	0xbca6b163	-0.020348256
74	0xbd95515d	-0.072909094
75	0x3cc3b041	0.023887755
76	0x3d819659	0.06327505
77	0xbcccd6f0	-0.025004834
78	0x3d485e7d	0.048918236
79	0xbdc29307	-0.095006995
80	0x3bd7a3f2	0.006580823
81	0xbd8ff5dc	-0.07029316
82	0xbd9a8469	-0.075447865
83	0xbe0977cf	-0.1342461
84	0x3dd6103b	0.104523145
85	0xbc761798	-0.015020274
86	0xbd96b92e	-0.07359539
87	0x3cef1ac8	0.029187575
88	0xbd488b11	-0.04896075
89	0xbd258eed	-0.040419508
90	0x3cdb0b8f	0.02673891
91	0x3cd72283	0.026261574
92	0x3d260000	0.040527344
93	0x3df03148	0.1172815
94	0x3c5b247b	0.013375397
95	0x3d469e39	0.048490737
96	0x3d89ad19	0.06722469
97	0x3d2478ca	0.040154256
98	0x3ca0f934	0.01965008
99	0xbd7c1193	-0.061540198
100	0xbca3a459	-0.019975828
101	0xbd069228	-0.03285423
102	0xbd6ba417	-0.057529535
103	0x399ce9bb	0.0002992878
104	0x3cd150c7	0.025551213
105	0x3d8be1d7	0.06830185
106	0x3d5d2ac2	0.053995855
107	0xbc9ef832	-0.019405458
108	0x3cfe63db	0.031053474
109	0x3cc5a673	0.02412722
110	0xbd6a5e7b	-0.05721901
111	0xbccc3197	-0.02492599
112	0xbc951b8b	-0.01820161
113	0x3af3d5ea	0.001860318
114	0x3b99bcc6	0.004691693
115	0x3d889e21	0.06670786
116	0xbd449463	-0.047993075
117	0x3b89a804	0.004200937
118	0x3d8cc928	0.06874305
119	0x3c32e39f	0.010918527
120	0x3da6e02f	0.081482284
121	0x3d87a02f	0.066223495
122	0x3c1323cb	0.008980702
123	0xbd557e83	-0.052122604
124	0x3b4fb552	0.0031693769
125	0xbc8053df	-0.015664993
126	0xbce66662	-0.028124992
127	0x3d540c3b	0.051769476
128	0x3d5a7f7b	0.05334423
129	0xbc972905	-0.018452177
130	0xbb8a4e4e	-0.0042207604
131	0xbcde3afb	-0.027127733
132	0xbd3699df	-0.044580337
133	0xbb44282c	-0.002993117
134	0xbd30c92d	-0.043160606
135	0x3cd8685a	0.026416946
136	0x3c3b6bc0	0.011439264
137	0xbd85366d	-0.065045215
138	0x3cf97cfb	0.030455103
139	0xbc1e9f4f	-0.009681537
140	0x3d1bb073	0.038010072
141	0xbcc969d3	-0.024586594
142	0x3d9a3366	0.07529335
143	0x3cd80d78	0.02637361
144	0x3c02c2cb	0.007981013
145	0x3c943fdb	0.018096855
146	0xbd979a85	-0.07402519
147	0x3d48be67	0.049009707
148	0xbd777010	-0.060409606
149	0xbe079c25	-0.13243158
150	0xbc8f7f0a	-0.017516632
151	0xb915b0d9	-0.00014275628
152	0x3d068de5	0.032850165
153	0xbd1d5c34	-0.03841801
154	0x3d48b970	0.049004972
155	0x3e18f398	0.14936674
156	0xbc6ceebd	-0.0144612165
157	0x3d8dc32b	0.06921991
158	0x3d59d1f8	0.053178757
159	0xbe33555f	-0.17513035
160	0xbcf1d5cd	-0.029520893
161	0x3d3108ab	0.043221157
162	0x3d64c7e0	0.05585468
163	0x3c2aec21	0.010432274
164	0x3c825945	0.015911708
165	0xbd970325	-0.07373647
166	0xbcf62275	-0.030045727
167	0x3d158ae0	0.036509395
168	0x3d704edb	0.058668952
169	0x3d9a6535	0.07538835
170	0x3db5e437	0.08881419
171	0xbac90303	-0.001533598
172	0x3d86e797	0.06587141
173	0xbc43039f	-0.011902719
174	0x3d5c94d2	0.053852864
175	0x3d2d4941	0.04230619
176	0x3d711e27	0.058866646
177	0x3ccbf02b	0.024894794
178	0xbe037c68	-0.12840426
179	0xbdddab27	-0.1082366
180	0xbd09886e	-0.033577375
181	0x3d454123	0.048157822
182	0xbd0a9230	-0.03383082
183	0x3dbf7059	0.093476005
184	0x3d0cc2d7	0.0343655
185	0x3dde707b	0.10861298
186	0xbcb36ff7	-0.021903975
187	0xbbe7982f	-0.0070677022
188	0xbcc17fa4	-0.023620434
189	0x3d321ac2	0.04348255
190	0x3d788f1d	0.06068336
191	0xbc6fb195	-0.014629741
192	0x3d4e21f8	0.050325364
193	0xbd14d92c	-0.036339924
194	0xbca0dbda	-0.019636083
195	0xbd8c6499	-0.06855125
196	0xbaa5dc84	-0.001265422
197	0xbd182592	-0.037145205
198	0x3dbde57b	0.092722856
199	0x3d19d52b	0.03755681
200	0x3c134003	0.00898743
201	0xbc7d851f	-0.015473633
202	0x3c00371c	0.007825639
203	0xbd57ee68	-0.052717596
204	0x3d3b34b1	0.045704547
205	0xbc35ca9d	-0.01109567
206	0x3d3cbe76	0.046080075
207	0xbd628657	-0.055303898
208	0x3d364c18	0.044506162
209	0x3bf932e2	0.0076049427
210	0x3c66ed60	0.014094681
211	0xbdd32202	-0.10309221
212	0x3d30ef4f	0.043196972
213	0x3d9efae3	0.077626966
214	0xbd876579	-0.06611151
215	0x3d6714cf	0.05641633
216	0x3b1542df	0.0022775454
217	0x3d28f99d	0.041253675
218	0x3cff4de0	0.031165063
219	0xbcc53bb4	-0.02407632
220	0x3c5e52f8	0.013569586
221	0xbd3a2396	-0.045444094
222	0x3d06bbdf	0.03289401
223	0xbcb4ea6f	-0.022084443
224	0xbcf9f0c7	-0.03051032
225	0xbd613668	-0.054983526
226	0x3d757ddb	0.05993448
227	0xbbd1669f	-0.006390407
228	0xbd11bc43	-0.03557993
229	0xbde142c0	-0.1099906
230	0xbd93cb03	-0.07216456
231	0xbd363d7f	-0.04449224
232	0xbd8016ff	-0.06254386
233	0xbdf27497	-0.11838644
234	0xbc95c1d5	-0.018280903
235	0xbca3b0ad	-0.019981707
236	0xbcfc8fb3	-0.03083024
237	0xbbade8cc	-0.0053072926
238	0xbdb962b7	-0.090520315
239	0xbc2b7cca	-0.010466764
240	0x3c025426	0.007954633
241	0xbd943c37	-0.072380476
242	0xbd4a3407	-0.049366023
243	0x3c84af43	0.016196853
244	0x3bfcc1a5	0.007713514
245	0x3d4f1275	0.05055471
246	0x3d56e8db	0.052468162
247	0x3c077ed7	0.008269987
248	0x3d72b5e5	0.0592555
249	0x3d1ca1e8	0.038240343
250	0xbdd344ea	-0.10315879
251	0xbb9ccd8d	-0.0047852458
252	0x3d8c5267	0.068516545
253	0xbcb374a6	-0.021906208
254	0x3d9de907	0.07710462
255	0x3bac832d	0.005264661

fc_mean.weight f4 [7, 256]
0	0x3de204d3	0.110360764
1	0x3b9ec967	0.0048457864
2	0x3ce90358	0.028443977
3	0xbd048208	-0.03235057
4	0x3e1d6e92	0.1537421
5	0x3be20ebd	0.0068987296
6	0xbd7b415b	-0.061341625
7	0xbd3560de	-0.044281833
8	0xbd61f373	-0.055163812
9	0xbd114480	-0.035465717
10	0xba81800f	-0.0009880083
11	0x3be3ed87	0.0069558057
12	0x3c52d765	0.012868737
13	0x3d1868d3	0.037209343
14	0xbc8fdd73	-0.01756165
15	0xbda2430b	-0.07922944
16	0x3d184d0b	0.03718285
17	0x3dac3ffb	0.08410641
18	0xbc8058db	-0.01566737
19	0x3c849303	0.016183382
20	0x3d2e4e01	0.04255486
21	0x3deae09f	0.11468624
22	0xbc1216da	-0.008916581
23	0xbd611dfb	-0.054960232
24	0x3da66bb6	0.08126013
25	0x3d9ffcba	0.07811876
26	0xbe06cc53	-0.13163881
27	0xbc154fbc	-0.009113248
28	0x3d047a5b	0.03234325
29	0x3d633927	0.055474427
30	0xbe072087	-0.13196002
31	0x3d87e7b3	0.0663599
32	0xbdda8f75	-0.106718935
33	0x3adea6a8	0.0016986923
34	0xbccd7e2a	-0.025084574
35	0xbd216114	-0.03939922
36	0xbd269ae5	-0.040675063
37	0xbd2709ac	-0.04078071
38	0x3c5df5e0	0.013547391
39	0x3d61c130	0.05511588
40	0xbcd28915	-0.025700131
41	0x3caac536	0.02084599
42	0xbd461723	-0.04836191
43	0xba8c89ee	-0.0010722259
44	0xbd335ade	-0.04378783
45	0x3c8efc87	0.017454399
46	0x3d7e0a9b	0.062021833
47	0xbdc016f3	-0.09379377
48	0xbcf806e3	-0.030276721
49	0x3c14e548	0.009087868
50	0x3c11726f	0.008877381
51	0x3a92210c	0.0011148765
52	0xbdf51dab	-0.11968549
53	0x3d2140d7	0.039368477
54	0x3c713155	0.014721234
55	0xbca3901b	-0.019966176
56	0x3c0357d6	0.008016547
57	0xbc430fc0	-0.011905611
58	0xbd3c05a8	-0.04590383
59	0xbc94c7cd	-0.018161679
60	0x3c629c07	0.013831145
61	0xbc9c7f75	-0.019103745
62	0xbd0aeba6	-0.033916138
63	0x3db6a4c7	0.089181475
64	0x3b5c3315	0.0033599783
65	0xbc282850	-0.0102635175
66	0xba9367b9	-0.0011246122
67	0xbd3e06e2	-0.046393283
68	0xbc8e45cf	-0.017367272
69	0x3d9330a5	0.071870126
70	0x3d36fdc3	0.0446756
71	0x3ca40995	0.0200241
72	0x3b7a5332	0.003819656
73	0xbcea4728	-0.028598383
74	0x3d177852	0.03697998
75	0x3d072e97	0.033003416
76	0x3cb31607	0.02186109
77	0x3d2504b3	0.040287685
78	0xbca82ba3	-0.02052862
79	0xbca95e84	-0.020674951
80	0x3cfd1147	0.030892028
81	0x3cb6400c	0.022247337
82	0xbd303260	-0.04301679
83	0x3cdd18fb	0.02698945
84	0xbdac2f09	-0.08407409
85	0xbd229da1	-0.039701108
86	0x3d5f8462	0.05456961
87	0xbd6bee53	-0.05760033
88	0xbcb6cbee	-0.022314038
89	0x3cb41305	0.021981725
90	0xbc19d057	-0.009388051
91	0xbc4b533c	-0.012409981
92	0x3c74142a	0.014897386
93	0xbd1fd2c7	-0.039019372
94	0xbbd16e05	-0.006391289
95	0xbd2c789f	-0.04210722
96	0x3d32251c	0.04349242
97	0xbd145160	-0.036210418
98	0xbd231bc2	-0.039821394
99	0xb93ce409	-0.00018014027
100	0xbd785e80	-0.060636997
101	0x391058a9	0.00013765939
102	0xbd4ee023	-0.050506722
103	0xbcc52ca6	-0.024069142
104	0x3d11aebe	0.035567038
105	0xbc99b669	-0.018763738
106	0x3ab8bc5f	0.0014094225
107	0xbb24e1b7	-0.002515895
108	0xbc97302c	-0.018455587
109	0xbd5d1257	-0.05397257
110	0x3c8d6375	0.017259339
111	0x3ccfaf05	0.02535201
112	0xbd00c75e	-0.03144013
113	0xbc002529	-0.00782136
114	0xbd6cbce8	-0.057797343
115	0xbd7e9218	-0.062151045
116	0xbc8d6d17	-0.017263932
117	0x3d7a5722	0.061118253
118	0xbdc0e63c	-0.09418914
119	0xbd7f01f5	-0.062257726
120	0x3d9fee8a	0.078091696
121	0xbcd82a6d	-0.026387418
122	0xbd729ec2	-0.059233434
123	0x3d52a837	0.051429953
124	0xbd819615	-0.06327454
125	0x3d07463f	0.033025976
126	0x3dc9d300	0.09854698
127	0xbd21ab3b	-0.03946994
128	0x3d8e38e9	0.069444485
129	0xbb58f963	-0.003310763
130	0xbd124d04	-0.03571798
131	0x3cc0ff52	0.023559246
132	0x3cdcb92a	0.026943762
133	0x3d9a7b21	0.07543016
134	0x3d720815	0.05908974
135	0xbd078c5b	-0.033092838
136	0xbd966112	-0.073427334
137	0xbd06bb3c	-0.032893404
138	0xbd0f8abc	-0.035044417
139	0x3d815cbc	0.06316516
140	0xbd4a3567	-0.049367335
141	0xbccdfb60	-0.025144279
142	0x3c76e765	0.015069817
143	0xbc7925dd	-0.015206781
144	0xbd31b3fc	-0.043384537
145	0x3afd6890	0.001933353
146	0x3c65eb38	0.014033131
147	0xbcb3347e	-0.021875616
148	0xbd797053	-0.060898136
149	0x3c21668b	0.009851108
150	0xbd319990	-0.04335934
151	0x3d2959a3	0.04134525
152	0x3c249803	0.010046008
153	0xbcbf4dbd	-0.023352498
154	0x3ce28d8a	0.027655382
155	0xbd64bbb0	-0.055843055
156	0x3d07fb32	0.033198543
157	0xbd9d61f6	-0.076847
158	0xbc4e75ea	-0.012601355
159	0x3d8836e0	0.066510916
160	0xbc127793	-0.0089396415
161	0x3cadf948	0.02123703
162	0x3d078828	0.033088833
163	0x3cbd0027	0.023071362
164	0xbd8e8d37	-0.06960528
165	0x3d57d888	0.052696735
166	0xbbb0f6e9	-0.0054005277
167	0xbb91d244	-0.0044501144
168	0xbd2361d6	-0.039888225
169	0xbbedeb45	-0.0072607123
170	0xbd9f8b84	-0.07790282
171	0xb95d1df8	-0.00021087367
172	0x3ccedaa0	0.025250733
173	0xbdffcbca	-0.124900416
174	0x3d4a539e	0.04939615
175	0x3d82b53b	0.06382223
176	0xbd35e517	-0.04440793
177	0x3c9d7941	0.019222857
178	0x3cd208bd	0.025638932
179	0xbc48d87f	-0.012258648
180	0xbc97abf3	-0.018514609
181	0x3d572bbf	0.052531954
182	0xbd4fa232	-0.05069179
183	0x3d2f4311	0.04278857
184	0xbe120032	-0.14257887
185	0x3ce0460d	0.027377153
186	0xbc4e67af	-0.012597962
187	0x3db59954	0.08867136
188	0xbd2cad42	-0.04215742
189	0x3cc96107	0.024582399
190	0x3dfca492	0.12336077
191	0x3df026b2	0.117261305
192	0x3dcac130	0.09900129
193	0xbc4ea648	-0.012612887
194	0xbcb04630	-0.021517843
195	0xbcc51261	-0.024056615
196	0xbdd2dce5	-0.102960385
197	0xbc7534d3	-0.014966208
198	0x3b657b9b	0.0035016302
199	0xbd502a1d	-0.050821412
200	0x3d325bf4	0.043544725
201	0x3d625300	0.055254936
202	0x3d838bae	0.06423126
203	0xbd4b4532	-0.049626537
204	0x3db8f910	0.0903188
205	0xbd24cbf2	-0.04023356
206	0x3a7e1a90	0.0009693289
207	0xbdd67cff	-0.1047306
208	0xbd0fc77f	-0.035102364
209	0x3cce4058	0.025177166
210	0xbba722ab	-0.0051005683
211	0x3be8e26f	0.007107071
212	0x3b53f69a	0.003234303
213	0xbd5412e3	-0.051775824
214	0xbc407b09	-0.011748084
215	0xbd21ea81	-0.03953028
216	0xbd08ed0a	-0.033429183
217	0xbd4430b8	-0.047898024
218	0xbb8451fa	-0.0040380927
219	0x3d4d9485	0.050190467
220	0x3bac5cef	0.005260102
221	0xbc5a5ec2	-0.013328256
222	0x3c57a0d5	0.013160904
223	0x3dd66d43	0.10470059
224	0x3ded2097	0.11578482
225	0x3c01cdf1	0.007922635
226	0x3d742320	0.05960381
227	0x3d6c1268	0.05763474
228	0xbd6d07ad	-0.05786865
229	0xbd8cc6f4	-0.06873885
230	0xbd43452f	-0.0476734
231	0xbd81942e	-0.06327091
232	0x3d07571f	0.03304207
233	0xbbf56238	-0.007488515
234	0x3d915e97	0.0709812
235	0xbd870a54	-0.06593767
236	0xbdd75c65	-0.1051567
237	0xbdd80278	-0.10547346
238	0x3d1912f6	0.0373716
239	0x3cd2599b	0.025677493
240	0x3d13f735	0.036124427
241	0xbcbe6eb1	-0.023246141
242	0x3da2488c	0.079239935
243	0xbcd4fa2b	-0.025998196
244	0x3df00380	0.117194176
245	0xbcb63cb7	-0.022245748
246	0x3c9f866f	0.019473283
247	0xbcc73c71	-0.024320813
248	0xba86e99f	-0.0010293013
249	0x3da3075b	0.07960387
250	0x3d6bc8f5	0.057564694
251	0xbd7f65e3	-0.062353026
252	0x3d2b8ac7	0.041880395
253	0xbd43f2aa	-0.047838844
254	0xbd1f55bb	-0.03890012
255	0x3d8f093b	0.069841824

fc_mean.bias f4 [7]
0	0x3dc87f66	0.09789924
1	0x3c2cb0c6	0.010540193
2	0xbd57e57a	-0.05270908
3	0x3ce8f637	0.028437717
4	0xbc780ad0	-0.015139297
5	0xbdd96c80	-0.10616398
6	0xbdc9a24c	-0.09845409
