ga_weights/ga2/Pusher-v5/SAC/weights10.pt (torch, 297837 bytes, 6 tensors)

fc1.weight f4 [256, 23]
0.021645335 -0.026277462 0.06904409 -0.01339629 -0.0290721 -0.074662976 -0.027168378 0.008577044
0.07088407 -0.02980558 0.035329647 -0.1342349 0.057374593 -0.052453477 -0.00030743954 -0.047666356
-0.0036005955 0.029226212 0.00039244542 0.014956998 -0.019540539 0.03030308 0.007314201 0.04733942
-0.018398678 -0.037201773 -0.075375006 0.07117243 -0.033950415 0.08643583 0.058429074 0.00020817274
-0.003726545 0.052014243 -0.14551589 0.03368784 -0.0467937 0.036341775 0.03376361 0.060079463
0.044032525 0.079255536 -0.003799349 -0.004303899 0.079047725 0.02077066 -0.034112807 0.054941576
-0.042987645 -0.028090319 -0.06004482 0.0011080706 0.051918603 -0.055746287 0.044236835 0.01296959
-0.028169895 0.046829596 -0.03497409 -0.0042185043 -0.068408415 -0.031162446 -0.033598598 -0.0070733526
-0.0022739575 -0.030482044 -0.0077405744 -0.09399966 -0.026008844 0.0460668 -0.0720238 -0.012878256
0.05500582 0.032201808 0.008312823 -0.0007690532 0.08328489 0.047132496 -0.032048628 0.019000378
-0.014940867 0.04134835 -0.046342406 -0.012944247 -0.04900598 0.06054725 -0.043534547 -0.030387212
-0.09331241 0.048689872 0.014411755 -0.113524616 0.028598448 0.038538754 0.0036387958 0.046374198
0.11249351 0.074374996 0.0006652131 0.011509563 -0.03606137 -0.0145806465 -0.042691242 0.0041765245
0.0075747906 -0.054537725 -0.022534974 0.032456253 0.04586383 0.08915673 -0.055888172 0.027022053
-0.02353554 -0.043433037 0.027566528 0.03248931 0.064017706 -0.04894618 -0.074514925 -0.05419193
0.02939812 -0.003669833 0.03185194 -0.0867789 -0.012558217 0.019977955 0.022856945 -0.057804246
0.062016618 -0.06460894 0.028408347 -0.039805956 0.12719186 -0.0073940903 -0.021732187 0.016960423
-0.05552071 0.03840149 0.018909888 0.048679996 0.07027832 -0.056167144 0.042255666 0.07951721
-0.026397342 -0.042785786 0.05777487 0.019701524 0.040189315 -0.0085676825 -0.026419623 -0.043093674
-0.032574993 -0.03221589 -0.025310382 -0.103724316 0.020025026 -0.05571224 -0.0073579387 -0.0074783997
-0.0037133296 0.0072738724 -0.049640384 -0.009385208 -0.01312522 -0.11933333 0.0045173015 0.004609636
0.028151482 -0.088082485 0.010279103 0.04969081 0.1398146 -0.0461235 0.007917051 -0.022312092
-0.039382216 -0.03913746 -0.0018325311 -0.03788534 0.033885393 0.01907187 -0.004674453 -0.008804131
-0.0109111685 -0.038956013 0.06743029 0.04020076 0.009529202 -0.030164659 0.061103012 -0.020995606
0.114215866 0.0154155465 -0.00032259666 0.12245995 0.014558503 -0.016351428 -0.07141107 -0.05028513
0.018262733 0.05521608 -0.043305624 0.017249031 0.12605353 0.0013950866 0.024033966 0.01953459
-0.15182976 -0.003372168 -0.07875549 -0.089425676 -0.046393923 0.019448996 0.017329954 0.07139253
-0.15098731 0.016052557 -0.0124782985 0.03860752 -0.04571591 0.069729164 -0.053547293 0.06367548
0.0664699 0.08055376 -0.060880333 0.008571836 -0.0477941 -0.042491224 -0.045216586 -0.029206743
-0.04458536 0.060025986 0.040946823 -0.0879092 -0.036790695 0.007097666 -0.051229782 -0.009898922
-0.04223045 0.030861152 0.0057413983 -0.026904708 0.02057474 -0.045787334 0.025541265 0.07583712
0.017927071 -0.061429914 -0.025167814 0.0034408716 -0.009699768 -0.001279436 0.0093214465 -0.079567924
00000000: 8f51 b13c d543 d7bc fd66 8d3d 1d7c 5bbc
00000010: 9d28 eebc e7e8 98bd 3890 debc bb86 0c3c
00000020: ab2b 913d d52a f4bc d2b5 103d e074 09be
00000030: 9f01 6b3d 75d9 56bd d62f a1b9 cc3d 43bd
00000040: f8f7 6bbb cf6b ef3c 22c1 cd39 320e 753c
00000050: 7b13 a0bc 2a3e f83c f7ab ef3b fbe6 413d
00000060: d3b8 96bc e360 18bd 365e 9abd dac2 913d
00000070: 970f 0bbd 4505 b13d 5353 6f3d f248 5a39
00000080: 0d39 74bb e30c 553d 1e02 15be 43fc 093d
00000090: c0aa 3fbd 1ddb 143d b64b 0a3d e215 763d
000000a0: 735b 343d ba50 a23d 80fe 78bb b907 8dbb
000000b0: c6e3 a13d 3b27 aa3c dfb9 0bbd 6b0a 613d
000000c0: d013 30bd ab1d e6bc 8ff1 75bd ae3c 913a
000000d0: 9aa8 543d 3856 64bd af31 353d 677e 543c
000000e0: 8dc4 e6bc 64d0 3f3d fe40 0fbd 613b 8abb
000000f0: b619 8cbd 6348 ffbc af9e 09bd 95c7 e7bb
00000100: ad06 15bb 7bb5 f9bc a5a4 fdbb e582 c0bd
00000110: 8010 d5bc 8ab0 3c3d 3781 93bd 52ff 52bc
00000120: c84d 613d 0be6 033d 8232 083c 499a 49ba
00000130: 4591 aa3d 010e 413d 6c45 03bd aea6 9b3c
00000140: 8aca 74bc e35c 293d 89d1 3dbd 1b14 54bc
00000150: 7fba 48bd 6500 783d 4851 32bd 9aee f8bc
00000160: 941a bfbd 086f 473d 481f 6c3c 987f e8bd
00000170: 4b47 ea3c d0da 1d3d dd78 6e3b dff2 3d3d
00000180: ff62 e63d eb51 983d b261 2e3a 9b92 3c3c
00000190: 16b5 13bd aae3 6ebc 03dd 2ebd 3adb 883b
000001a0: f335 f83b f362 5fbd 449b b8bc d9f0 043d
000001b0: b6db 3b3d ce97 b63d ffea 64bd 5a5d dd3c
000001c0: 9bcd c0bc d7e6 31bd 33d3 e13c 8313 053d
000001d0: b71b 833d ca7b 48bd 489b 98bd 5bf8 5dbd
000001e0: 53d4 f03c 9581 70bb 2e77 023d 23b9 b1bd
000001f0: fbc0 4dbc cfa8 a33c 7d3e bb3c 25c4 6cbd
00000200: 2305 7e3d b151 84bd 9fb8 e83c 920b 23bd
00000210: 953e 023e 204a f2bb b307 b2bc 96f0 8a3c
00000220: af69 63bd e14a 1d3d e9e8 9a3c ad64 473d
00000230: 14ee 8f3d 850f 66bd 4714 2d3d ebd9 a23d
00000240: 3d3f d8bc 2640 2fbd 58a5 6c3d 1765 a13c
00000250: 8d9d 243d 775f 0cbc f76d d8bc fe82 30bd
00000260: 5b6d 05bd cff4 03bd b857 cfbc 6a6d d4bd
00000270: 860b a43c 8532 64bd dd1a f1bb 5d0d f5bb
00000280: 555b 73bb aa59 ee3b b753 4bbd 6ac4 19bc
00000290: 2a0b 57bc 0865 f4bd df05 943b 6e0c 973b
000002a0: f09d e63c 9764 b4bd af69 283c 9788 4b3d
000002b0: 8f2b 0f3e ffeb 3cbd 85b6 013c d9c7 b6bc
000002c0: 3f4f 21bd 9a4e 20bd 8a31 f0ba a92d 1bbd
000002d0: 69cb 0a3d 9c3c 9c3c 272c 99bb 343f 10bc
000002e0: c2c4 32bc 5790 1fbd e418 8a3d 8da9 243d
000002f0: 5f20 1c3c e01b f7bc 2747 7a3d fafe abbc
00000300: 02ea e93d 7d91 7c3c 3122 a9b9 48cc fa3d
00000310: ca86 6e3c 6ef3 85bc f83f 92bd c8f7 4dbd
00000320: ba9b 953c 422a 623d 3d61 31bd d74d 8d3c
00000330: 2d14 013e 57db b63a e1e2 c43c 0107 a03c
00000340: 4379 1bbe 97ff 5cbb 8f4a a1bd cf24 b7bd
00000350: 8e07 3ebd 8053 9f3c 8cf7 8d3c 3f36 923d
00000360: 6b9c 1abe a780 833c c771 4cbc eb22 1e3d
00000370: 9b40 3bbd 2ace 8e3d 6854 5bbd 4a68 823d
00000380: 5f21 883d 5ff9 a43d a85d 79bd e370 0c3c
00000390: bfc3 43bd 470b 2ebd 0735 39bd fb42 efbc
000003a0: 239f 36bd cfdd 753d dbb7 273d bd09 b4bd
000003b0: d7b1 16bd 8a93 e83b 52d6 51bd 172f 22bc
000003c0: d6f9 2cbd 87d0 fc3c 5722 bc3b 4367 dcbc
000003d0: 5b8c a83c 808b 3bbd ea3b d13c 7e50 9b3d
000003e0: cbdb 923c ef9d 7bbd bb2c cebc 3f80 613b
000003f0: c7eb 1ebc c0b2 a7ba fbb8 183c 82f4 a2bd

fc1.bias f4 [256]
0.0039427085 -0.029205164 0.10394748 0.0880089 -0.027602999 0.006725233 0.018086093 0.006237908
-0.10127832 0.0021089735 0.010976258 -0.01789373 -0.04505389 -0.034880396 -0.03643454 -0.0888001
0.052158684 -0.070815705 0.024644641 -0.0035907791 0.07412737 -0.031480443 0.020122094 -0.02076195
-0.036713373 0.020496376 -0.07862672 0.03673894 0.04927988 0.057297703 0.0046467665 -0.00568144
0.0605246 0.0019098258 0.023669815 -0.045286026 0.05726958 -0.02343256 -0.03385805 -0.08304288
-0.053988706 0.015159989 0.08314339 0.03844436 0.0736764 -0.0018655614 -0.074298464 -0.0015661085
-0.033610564 0.13265157 -0.0599328 0.019178918 -0.0057596536 -0.04710675 0.10337843 0.0121689085
0.035800833 0.04058508 0.027299395 0.0728666 -0.039672036 0.024506161 0.024403885 0.06341208
-0.026552891 0.0843511 0.010228319 0.05200047 0.101023436 0.04122309 -0.06920939 0.10243776
0.08444162 -0.055397827 -0.02889075 0.071508855 -0.015169861 -0.12199094 0.03870391 -0.008824234
-8.009589e-05 0.03174073 0.017001478 0.05882574 0.045604695 0.021151269 0.0048079016 -0.0755559
0.016828185 -0.042464588 -0.02957412 -0.037527528 0.08169277 -0.019173898 -0.046585787 -0.027410952
-0.04916745 0.10699826 0.0045576408 0.050740477 0.044179022 -0.016114762 0.0037777636 -0.101132445
0.12477646 0.032755386 -0.10423642 -0.04112144 -0.053446706 -0.016010454 0.06581173 -0.00054544676
-0.055657286 -0.08223097 0.04608084 0.027872318 0.02310568 -0.0034635656 0.0070304754 0.04089619
0.104609124 0.05417483 -0.00380682 0.017438322 0.0027482298 0.055434156 -0.07493775 0.01772673
-0.053115387 -0.029347582 -0.0016599445 0.13174152 -0.01285882 -0.012902299 0.035024483 0.009349883
-0.06355244 0.013840306 0.019330215 0.09230479 0.1103541 0.0151738245 0.04567985 0.039768126
0.00826992 -0.04440206 0.008628893 0.038455866 0.05126048 -0.028625054 0.05170195 0.07060062
-0.035333667 0.030592889 -0.056422293 -0.112844326 -0.088346064 -0.078037195 0.028719518 -0.051058866
-0.036318775 0.024359146 0.015982855 0.046019137 -0.022541426 0.036140572 -0.08218599 0.03524638
-0.057700314 -0.009694399 0.014587938 0.070194446 -0.024656199 -0.09078978 0.08916585 0.024090653
-0.036325727 0.025475672 0.039859407 0.0061229225 0.0520688 0.094997175 -0.010160303 0.016049089
0.1180807 0.02612247 0.004814057 -0.01571354 -0.14869134 0.0034143 0.0026727086 -0.04860812
-0.040853426 -0.061148264 0.013239743 -0.10141303 -0.0003225827 0.024785105 0.07483708 -0.08533647
0.032392267 0.033686716 -0.062070895 0.0004489792 0.02214435 -0.0319029 0.10489613 0.03731413
0.018875686 0.027269078 -0.06584086 0.009721222 0.034957547 0.09000745 -0.00905536 0.10396744
-0.012384797 0.049364995 -0.028842429 -0.017114598 0.06443336 0.051786166 0.0023997016 0.052777436
-0.029711196 -0.08763141 -0.000839957 0.054468747 -0.017950462 -0.031830523 0.023174724 0.08810044
0.032945197 0.08826108 -0.009067284 -0.0077369013 -0.013686217 0.03911681 -0.038868237 0.0062049185
-0.06160113 0.01986665 -0.047199484 -0.06714174 0.12077892 -0.015175263 -0.062633954 -0.030068656
0.0022002382 -0.00666159 0.045415577 -0.006236614 -0.10594475 -0.008590783 -0.016242556 0.024341052
00000000: d631 813b ab3f efbc 6be2 d43d 033e b43d
00000010: af1f e2bc 585f dc3b 4929 943c 5d67 cc3b
00000020: 026b cfbd b436 0a3b c3d5 333c df95 92bc
00000030: 6e8a 38bd bfde 0ebd 623c 15bd d4dc b5bd
00000040: 58a4 553d d307 91bd 8fe3 c93c 4753 6bbb
00000050: 17d0 973d a3f1 00bd 17d7 a43c f714 aabc
00000060: c360 16bd 04e8 a73c 0c07 a1bd 927b 163d
00000070: b3d9 493d ffb0 6a3d e743 983b 5f2b babb
00000080: a5e8 773d 1f53 fa3a 33e7 c13c d77d 39bd
00000090: 8293 6a3d a4f5 bfbc bdae 0abd 6312 aabd
000000a0: 4323 5dbd 9a61 783c 1547 aa3d d577 1d3d
000000b0: a7e3 963d da85 f4ba cb29 98bd e245 cdba
000000c0: 3bab 09bd d0d5 073e 187c 75bd 1b1d 9d3c
000000d0: 7abb bcbb 02f3 40bd 12b8 d33d 1a60 473c
000000e0: e5a3 123d 8a3c 263d fba2 df3c 153b 953d
000000f0: 257f 22bd 25c1 c83c a8ea c73c 31de 813d
00000100: 7385 d9bc 45c0 ac3d ae94 273c 72fe 543d
00000110: 60e5 ce3d 8bd9 283d a7bd 8dbd e3ca d13d
00000120: baef ac3d d5e8 62bd 4bac ecbc 3c73 923d
00000130: 028b 78bc 63d6 f9bd fe87 1e3d 8593 10bc
00000140: 27f9 a7b8 9102 023d af46 8b3c 42f3 703d
00000150: fdcb 3a3d 6d45 ad3c 9a8b 9d3b 0dbd 9abd
00000160: 43db 893c 59ef 2dbd 6d45 f2bc 77b6 19bd
00000170: 8a4e a73d 9412 9dbc bdd0 3ebd ef8c e0bc
00000180: cf63 49bd e721 db3d 4358 953b 3fd5 4f3d
00000190: 10f5 343d 1b03 84bc 5b94 773b 871e cfbd
000001a0: cd8a ff3d 832a 063d e779 d5bd f46e 28bd
000001b0: efea 5abd 5b28 83bc 4dc8 863d 50fc 0eba
000001c0: e5f8 63bd b668 a8bd 43bf 3c3d 7d54 e43c
000001d0: 1f48 bd3c fdfc 62bb e75f e63b c382 273d
000001e0: 4f3d d63d 6de6 5d3d d77b 79bb d0da 8e3c
000001f0: a51b 343b ed0e 633d f778 99bd a637 913c
00000200: 858f 59bd 576a f0bc 7f92 d9ba 40e7 063e
00000210: cdad 52bc 2a64 53bc d575 0f3d 4030 193c
00000220: c827 82bd 73c2 623c 665a 9e3c 4b0a bd3d
00000230: 5501 e23d a29b 783c cb1a 3b3d e7e3 223d
00000240: 8f7e 073c efde 35bd 3360 0d3c e683 1d3d
00000250: 82f6 513d 177f eabc 6dc5 533d 0f97 903d
00000260: 09ba 10bd f09d fa3c 101b 67bd ed1a e7bd
00000270: c8ee b4bd f7d1 9fbd 3245 eb3c 1a23 51bd
00000280: ffc2 14bd d58c c73c 7aee 823c 907e 3c3d
00000290: cca8 b8bc 2308 143d 2151 a8bd 825e 103d
000002a0: 2a57 6cbd 42d5 1ebc 3f02 6f3c 1bc2 8f3d
000002b0: ccfb c9bc feef b9bd 969c b63d c359 c53c
000002c0: 49ca 14bd 5bb2 d03c 9e43 233d cca2 c83b
000002d0: 1846 553d e18d c23d 6677 26bc 6179 833c
000002e0: 4bd4 f13d cafe d53c 3dbf 9d3b afb9 80bc
000002f0: 8b42 18be 73c2 5f3b 9c28 2f3b 4f19 47bd
00000300: ec55 27bd 9a76 7abd 82eb 583c a2b1 cfbd
00000310: 5120 a9b9 220a cb3c 2f44 993d e3c4 aebd
00000320: c1ad 043d 15fb 093d 0d3e 7ebd f864 eb39
00000330: 1168 b53c 9eac 02bd c8d3 d63d b4d6 183d
00000340: 2fa1 9a3c 6763 df3c 93d7 86bd c345 1f3c
00000350: a52f 0f3d d355 b83d ef5c 14bc e2ec d43d
00000360: 9be9 4abc f332 4a3d f546 ecbc ea33 8cbc
00000370: a3f5 833d bb1d 543d 5044 1d3b 272d 583d
00000380: e564 f3bc 1978 b3bd 8f30 5cba 9f1a 5f3d
00000390: d90c 93bc b960 02bd ebd8 bd3c 016e b43d
000003a0: 8bf1 063d 3ac2 b43d f28e 14bc d585 fdbb
000003b0: 283c 60bc f338 203d 4d34 1fbd a152 cb3b
000003c0: 7751 7cbd 63bf a23c 3f54 41bd 9c81 89bd
000003d0: f05a f73d aba1 78bc 3b46 80bd 8b52 f6bc
000003e0: df31 103b 7849 dabb af05 3a3d 835c ccbb
000003f0: 90f9 d8bd 5bc0 0cbc 1c0f 85bc e366 c73c

fc2.weight f4 [256, 256]
0.031759564 -0.03535913 0.017082794 -0.06479682 -0.05727597 -0.013187855 -0.083499536 -0.07284093
-0.07669082 -0.04087806 -0.0871745 0.03983058 0.05139151 -0.020178428 0.03352533 -0.06379539
0.051686116 -0.010324096 0.09315186 -0.049346954 -0.05050833 -0.06625256 0.11234534 0.006394341
0.048486616 0.016783424 -0.0644296 -0.07603852 -0.1019363 -0.0707899 0.032449935 -0.0040609725
-0.021723697 -0.0531542 -0.048361894 -0.059657354 0.011670044 0.029568134 -0.014429161 0.014088019
0.004019926 -0.03193307 0.021874169 0.020578707 0.057836134 -0.026592849 -0.011013004 -0.03336798
0.07995912 -0.05928662 0.026573315 -0.13296933 0.01994865 0.07243357 -0.13969304 0.06471837
-0.011887847 -0.04771153 0.09661393 0.05275176 0.01380521 -0.021469519 -0.02771542 -0.06935694
-0.011230915 -4.6004996e-05 0.014442398 -0.033456508 0.02316588 0.018712142 0.009475509 -0.050216474
0.0539579 0.029234383 0.09652325 0.0066000507 0.0902409 -0.007755571 -0.020717062 -0.020415654
0.067293756 0.044743214 -0.02355921 0.014298744 -0.030829832 -0.046140015 -0.04361685 -0.03795185
-0.054063726 -0.041701186 0.04101149 0.0068181204 -0.028840292 -0.008171791 -0.05760739 0.10758952
-0.08235981 -0.11784475 0.021771315 -0.003491122 0.05793732 -0.0062811486 -0.029316915 -0.017108625
-0.03501126 -0.016828185 -0.016033417 -0.16741057 0.025390832 0.013002302 -0.032451987 -0.031460304
0.0083753085 -0.034117583 -0.04700091 0.023348354 0.055888355 0.022493305 -0.0035635796 0.026379844
-0.034781486 -0.06302419 -0.03973382 -0.00060352596 -0.053411674 -0.11348808 0.09163412 -0.036830664
-0.012099554 0.034211315 0.032084912 -0.014259358 -0.063531645 0.022044128 -0.0841308 0.008466889
0.05439323 -0.030022575 0.0009784586 -0.033364255 0.052702587 -0.06805505 -0.031826466 0.049865954
0.08759368 -0.035349704 0.04777559 -0.0785908 0.041390955 -0.057486232 -0.007463228 -0.02039695
0.021143027 -0.02528811 0.03320325 0.030941317 -0.024780728 0.021077259 -0.10816338 -0.06637218
0.05033843 -0.028458653 0.030483214 0.02479948 -0.032378577 0.020863974 0.065877125 -0.028028524
-0.026612151 -0.008203185 0.124898545 0.010829078 -0.032939352 0.037995756 -0.016469365 -0.10402321
0.03166283 0.109657764 -0.061780907 -0.009381318 -0.07138982 -0.010383099 -0.012662304 -0.07864498
-0.04434691 0.017158803 0.048079766 -0.025581533 0.0041861827 -0.06895315 -0.027192978 -0.0059892605
-0.08392776 -0.016385948 -0.04058717 -0.04912804 -0.029398212 -0.0066287383 0.03587884 -0.022970507
0.057837315 0.019712983 -0.025531342 0.008147487 -0.0023890894 -0.03853771 -0.019174898 0.03153445
-0.09047218 -0.002711531 0.027032817 0.02025884 -0.07859015 0.027000135 -0.03289041 -0.06882944
-0.10594066 0.0061337524 -0.016032672 -0.03805631 -0.07646713 -0.07099884 -0.010671525 -0.096514836
0.04204497 -0.037808966 0.027950022 0.09328238 -0.09085726 0.06819334 -0.0026434474 0.02510572
-0.021235889 0.023889363 0.02824963 0.070974566 0.041810278 -0.055973094 0.024140252 0.0004618067
-0.010095702 -0.075416096 -0.0112065915 0.03418701 0.08405459 0.03548943 0.01739519 0.015262586
0.08436731 0.024440637 0.013459625 0.055035986 -0.03940712 -0.0056167855 -0.033737596 0.034857478
00000000: 5116 023d bcd4 10bd 37f1 8b3c 32b4 84bd
00000010: 359a 6abd df11 58bc ce01 abbd a02d 95bd
00000020: 1410 9dbd c16f 27bd 8b88 b2bd 6425 233d
00000030: e77f 523d 3b4d a5bc db51 093d 28a7 82bd
00000040: d2b4 533d 6626 29bc 67c6 be3d 0820 4abd
00000050: d3e1 4ebd 6caf 87bd 5015 e63d 9f87 d13b
00000060: e799 463d 647d 893c abf3 83bd 15ba 9bbd
00000070: fbc3 d0bd 4cfa 90bd 39ea 043d e811 85bb
00000080: e5f5 b1bc 38b8 59bd 1f17 46bd 455b 74bd
00000090: b633 3f3c df38 f23c 4a68 6cbc 6fd1 663c
000000a0: 95b9 833b 40cc 02bd 7531 b33c ad94 a83c
000000b0: 95e5 6c3d 3fd9 d9bc e36f 34bc ddac 08bd
000000c0: 9bc1 a33d 87d6 72bd 48b0 d93c 1d29 08be
000000d0: 5a6b a33c 0d58 943d b10b 0fbe 118b 843d
000000e0: 3fc5 42bc 2a6d 43bd 86dd c53d 3b12 583d
000000f0: 3f2f 623c d8e0 afbc 730b e3bc 030b 8ebd
00000100: df01 38bc 7df5 40b8 cf9f 6c3c b109 09bd
00000110: 5fc6 bd3c 354a 993c 2a3f 1b3c caaf 4dbd
00000120: f502 5d3d f27c ef3c fbad c53d 3d45 d83b
00000130: 39d0 b83d 7222 febb d4b6 a9bc bb3e a7bc
00000140: 4fd1 893d a944 373d 3fff c0bc 4745 6a3c
00000150: d88e fcbc 50fd 3cbd 95a7 32bd 6673 1bbd
00000160: ed71 5dbd ddce 2abd aafb 273d 8a6a df3b
00000170: 7a42 ecbc fae2 05bc baf5 6bbd e557 dc3d
00000180: 43ac a8bd 9758 f1bd c259 b23c 4fcb 64bb
00000190: af4f 6d3d 18d2 cdbb 072a f0bc 6327 8cbc
000001a0: f867 0fbd 43db 89bc 8358 83bc ad6d 2bbe
000001b0: 6f00 d03c 9b07 553c 60ec 04bd 85dc 00bd
000001c0: 9738 093c e1be 0bbd 0784 40bd 0c45 bf3c
000001d0: 30eb 643d e143 b83c f28a 69bb 8b1a d83c
000001e0: 0877 0ebd d412 81bd eebf 22bd f135 1eba
000001f0: 33c6 5abd 706c e8bd abaa bb3d c0db 16bd
00000200: 353d 46bc 2a21 0c3d 786b 033d 15a0 69bc
00000210: e11c 82bd e395 b43c c54c acbd b5b8 0a3c
00000220: 6fcb 5e3d e7f1 f5bc 9f3f 803a f5a8 08bd
00000230: abde 573d 7260 8bbd 785c 02bd 3e40 4c3d
00000240: 5164 b33d daca 10bd 56b0 433d 37f4 a0bd
00000250: 9089 293d af76 6bbd 188e f4bb 8117 a7bc
00000260: 2434 ad3c 0329 cfbc 2200 083d a578 fd3c
00000270: f400 cbbc 37aa ac3c c384 ddbd 23ee 87bd
00000280: ab2f 4e3d 1f22 e9bc efb7 f93c 4728 cb3c
00000290: 669f 04bd edea aa3c 96ea 863d 139c e5bc
000002a0: ba01 dabc a766 06bc cfca ff3d 726c 313c
000002b0: 6aeb 06bd 70a1 1b3d c3ea 86bc 1f0a d5bd
000002c0: e2b0 013d 4094 e03d fa0d 7dbd 1ab4 19bc
000002d0: d334 92bd e01d 2abc 8d75 4fbc 9f10 a1bd
000002e0: 1ba5 35bd 9e90 8c3c 4aef 443d 5d90 d1bc
000002f0: 3f2c 893b 4f37 8dbd cfc3 debc 8f41 c4bb
00000300: 51e2 abbd d33b 86bc bb3e 26bd 7c3a 49bd
00000310: 85d4 f0bc e335 d9bb b1f5 123d a52c bcbc
00000320: d2e6 6c3d 1f7d a13c 1b27 d1bc 0a7d 053c
00000330: 4592 1cbb b8d9 1dbd ad14 9dbc 442a 013d
00000340: 7a49 b9bd f1b3 31bb ed73 dd3c def5 a53c
00000350: dff3 a0bd 632f dd3c 18b8 06bd 73f6 8cbd
00000360: 6bf7 d8bd a5fd c83b f356 83bc efe0 1bbd
00000370: cc9a 9cbd d767 91bd 9fd7 2ebc 92a9 c5bd
00000380: 5937 2c3d 93dd 1abd 72f7 e43c d50a bf3d
00000390: 5f13 babd f3a8 8b3d b03d 2dbb 83aa cd3c
000003a0: e3f6 adbc a0b3 c33c c56b e73c 1d5b 913d
000003b0: 4141 2b3d 0b44 65bd c7c1 c53c a51e f239
000003c0: 7168 25bc c173 9abd da9b 37bc ae07 0c3d
000003d0: d024 ac3d 5d5d 113d 5c80 8e3c ed0f 7a3c
000003e0: c5c8 ac3d bb37 c83c c285 5c3c 6a6d 613d
000003f0: 5c69 21bd 030d b8bb 6f30 0abd b7c6 0e3d

fc2.bias f4 [256]
-0.065247916 -0.0099356845 -0.0019844116 0.0071792877 0.04007213 0.054588266 -0.07259796 0.015053284
0.08124415 0.04498552 0.029060394 0.042251017 0.042729914 0.015440804 -0.039164286 0.035861228
-0.036794085 -0.024057975 0.009802914 -0.01416176 0.027564496 0.06536664 -0.023684502 0.006085525
-0.03156693 -0.04158292 -0.073262885 0.008078569 -0.0011719005 0.007891728 -0.09599384 -0.046256013
-0.0123828985 0.063734785 -0.0011353415 -0.08129657 0.022360014 0.010447203 0.0076667066 0.026725262
0.06384711 0.047075953 0.005248736 -0.0035086896 -0.049200937 0.05569875 -0.038614906 0.06713616
-0.08589397 -0.04914218 0.016959269 -0.02955792 0.026837299 0.027861759 0.0048793475 0.066739395
-0.0011493849 -0.10221759 -0.018615989 0.064264275 0.015951259 0.020954331 -0.017707577 -0.042029504
-0.09710504 -0.034306947 0.009223987 0.013955426 -0.016714437 -0.03921365 0.0103197135 -0.029160757
0.0028624088 -0.034940664 -0.030460512 0.04697548 -0.07141663 -0.03562279 -0.022294728 -0.06667233
0.023534885 0.07908826 -0.09582384 0.04430067 -0.042202752 0.03469407 -0.03116254 -0.01608357
0.060195554 0.029140878 -0.0046221386 -0.03188866 -0.047897782 -0.07940601 -0.00568128 -0.001080599
0.032157756 -0.023058178 0.047232125 -0.025113 -0.060677357 -0.06441381 0.063476115 -0.059340484
0.03417308 -0.0008848955 -0.008119456 0.0060869996 -0.0031684511 0.07284351 -0.015158108 0.028658053
-0.024089975 -0.030756835 -0.04365104 -0.03263833 -0.081101805 -0.019833626 0.0022847806 -0.05473108
0.041590214 -0.043870565 0.041316357 0.01257004 0.04639997 0.030493516 -0.057050195 -0.025291665
-0.011048478 0.02779656 0.04970003 -0.017532326 0.0022961407 0.052281298 0.046134096 -0.05589646
-0.010562295 0.04430019 -0.007979545 -0.00031022538 0.0070938356 0.08948879 -0.026256615 -0.058482505
-0.002248672 -0.0546341 -0.05722971 0.026389956 0.007274625 -0.02571272 0.024648068 0.0078059062
-0.07174665 0.037964165 -0.03534409 0.034875553 -0.02595279 -0.11329474 -0.10810729 0.015674928
-0.052589267 -0.01658108 -0.07315155 0.04576096 -0.025244882 0.036931638 0.00030781984 -0.04139365
0.07308857 0.07702514 0.08101123 0.0068641095 0.071224794 -0.06758084 0.08000182 -0.054377634
-0.038320374 0.032706805 -0.09957492 -0.0679237 -0.052489858 0.0416791 0.05061963 0.009319833
-0.059320956 0.060697444 0.04684049 -0.042640716 -0.036819275 0.0043538967 0.04158024 -0.039551437
-0.027436996 -0.03470396 0.00012718941 -0.009169429 0.06896368 -0.010395614 0.024486376 0.05792433
-0.04077647 -0.020961618 0.08256256 0.073148616 -0.0029672016 -0.040787928 0.05641176 -0.032358322
0.023621555 -0.023758067 0.095815346 -0.00800276 0.015581605 0.031373788 -0.007385859 -0.009747127
0.025286114 0.06255451 -0.07234632 -0.02302507 -0.023038553 0.0358337 0.012243554 -0.08340132
0.021514682 0.06889831 -0.0003607731 -0.1158965 0.012853011 -0.079331875 0.021633884 0.068503514
-0.037702095 0.011167866 -0.05754238 -0.037566707 -0.09424469 0.014588988 -0.09235478 -0.01597651
-0.15326856 -0.090509705 -0.075046584 0.0762745 -0.022192141 -0.095866404 -0.010920621 -0.0025267857
0.1297159 -0.013475058 0.015729485 0.014364205 0.017753942 -0.026738433 0.0048821815 0.06377729
00000000: b3a0 85bd 48c9 22bc e70c 02bb 3b40 eb3b
00000010: ac22 243d f297 5f3d 3dae 94bd 0da2 763c
00000020: 5563 a63d bd42 383d 1010 ee3c 670f 2d3d
00000030: 9005 2f3d 6dfb 7c3c bb6a 20bd 39e3 123d
00000040: 65b5 16bd 3b15 c5bc 679c 203c ba06 68bc
00000050: f0ce e13c f2de 853d 0006 c2bc 1569 c73b
00000060: 534c 01bd da52 2abd da0a 96bd f95b 043c
00000070: 759a 99ba 4e4c 013c 6b98 c4bd f276 3dbd
00000080: a4e1 4abc 6287 823d bdcf 94ba d17e a6bd
00000090: 592c b73c bf2a 2b3c ff38 fb3b f0ee da3c
000000a0: 46c2 823d b7d2 403d 97fd ab3b 0bf2 65bb
000000b0: ec86 49bd 5f24 643d aa2a 1ebd af7e 893d
000000c0: 2ee9 afbd 4f49 49bd 2aee 8a3c 7323 f2bc
000000d0: e5d9 db3c 583e e43c efe2 9f3b aaae 883d
000000e0: f5a6 96ba 7557 d1bd 8f80 98bc fd9c 833d
000000f0: 37ac 823c 6ba8 ab3c 7b0f 91bc 2127 2cbd
00000100: 02df c6bd 7185 0cbd 3520 173c 4da5 643c
00000110: b7ec 88bc 7e9e 20bd 0414 293c 8ae2 eebc
00000120: 4097 3b3b f11d 0fbd 5388 f9bc 5c69 403d
00000130: e242 92bd 34e9 11bd 6fa3 b6bc 818b 88bd
00000140: 3bcc c03c 07f9 a13d 4a3f c4bd 9f74 353d
00000150: cbdc 2cbd 5f1b 0e3d 9548 ffbc b1c1 83bc
00000160: 9d8f 763d dab8 ee3c 4f75 97bb af9d 02bd
00000170: 7730 44bd 9e9f a2bd 082a babb e3a2 8dba
00000180: dab7 033d 81e4 bcbc 7976 413d c7b9 cdbc
00000190: d288 78bd 63eb 83bd c4ff 813d 020f 73bd
000001a0: 12f9 0b3d 55f8 67ba 7707 05bc 7475 c73b
000001b0: caa5 4fbb fa2e 953d b759 78bc 4bc4 ea3c
000001c0: 5758 c5bc c2f5 fbbc 6fcb 32bd c5af 05bd
000001d0: b418 a6bd 217a a2bc 42bc 153b b22d 60bd
000001e0: 805a 2a3d 9fb1 33bd 573b 293d 92f2 4d3c
000001f0: e50d 3e3d 8acd f93c 77ad 69bd 7730 cfbc
00000200: ad04 35bc 9db5 e33c 4292 4b3d f49f 8fbc
00000210: d97a 163b ea24 563d 1bf7 3c3d b0f3 64bd
00000220: 7a0d 2dbc 1e74 353d a3bc 02bc bfa5 a2b9
00000230: 6873 e83b e645 b73d 1d18 d7bc 5a8b 6fbd
00000240: 755e 13bb 02c8 5fbd b369 6abd c02f d83c
00000250: fa5f ee3b 7ba3 d2bc bfea c93c b0c8 ff3b
00000260: e8ef 92bd 5080 1b3d f7c4 10bd abd9 0e3d
00000270: f29a d4bc 1307 e8bd 5b67 ddbd b568 803c
00000280: d867 57bd 0cd5 87bc 7bd0 95bd d86f 3b3d
00000290: 5bce cebc a145 173d e162 a139 638c 29bd
000002a0: 76af 953d 5bbf 9d3d 37e9 a53d 53ec e03b
000002b0: 4ede 913d d367 8abd ffd7 a33d 15bb 5ebd
000002c0: d3f5 1cbd 92f7 053d f0ed cbbd 951b 8bbd
000002d0: 9bff 56bd b4b7 2a3d 8756 4f3d 36b2 183c
000002e0: 88fa 72bd e29d 783d d0db 3f3d 08a8 2ebd
000002f0: cfcf 16bd 22ab 8e3b 0b50 2a3d b000 22bd
00000300: 8dc3 e0bc bd25 0ebd 265e 0539 5f3b 16bc
00000310: d43c 8d3d 5e52 2abc a797 c83c 1042 6d3d
00000320: 3a05 27bd b3b7 abbc 8f16 a93d f1ce 953d
00000330: 6275 42bb 3e11 27bd 0510 673d 298a 04bd
00000340: fe81 c13c 47a0 c2bc d63a c43d 021e 03bc
00000350: fd49 7f3c cd81 003d 1305 f2bb 6ab2 1fbc
00000360: d324 cf3c 941c 803d 4f2a 94bd 129f bcbc
00000370: 59bb bcbc 5cc6 123d 3099 483c 50ce aabd
00000380: 8f3f b03c 8f1a 8d3d 2526 bdb9 255b edbd
00000390: 6f95 523c c078 a2bd 8b39 b13c 924b 8c3d
000003a0: 836d 1abd 6df9 363c 8fb1 6bbd 8cdf 19bd
000003b0: 5c03 c1bd a706 6f3c 8124 bdbd 2be1 82bc
000003c0: 6ff2 1cbe 275d b9bd 06b2 99bd ce35 9c3d
000003d0: 4bcc b5bc 9b55 c4bd 68ec 32bc 6e98 25bb
000003e0: 3fd4 043e 7dc6 5cbc 1fdb 803c d857 6b3c
000003f0: b770 913c 8f0a dbbc b5fa 9f3b ab9d 823d

fc_mean.weight f4 [7, 256]
0.005053364 -0.0819883 -0.029118408 0.0385199 -0.019631669 0.026222838 0.011798661 0.031435072
-0.01573239 0.0061877677 -0.11089398 0.0021609457 0.02532929 0.0074594016 0.1081769 0.0350763
0.077828705 -0.03138998 -0.0764597 0.009679565 -0.048093762 -0.04822309 0.10189612 0.04608944
-0.06876304 -0.039587688 0.06669647 -0.01043181 0.056333452 -0.07689252 0.17671685 0.0454525
-0.0036607205 0.048849314 -0.0035305817 0.016130172 -0.0047462815 0.029277036 -0.0016412961 0.037293963
-0.063315086 -0.02763914 -0.049682915 -0.05439322 0.011990344 0.026128901 -0.014852496 -0.06542345
0.04892258 -0.08201292 0.069250315 0.11615717 -0.024913685 -0.046807747 0.053090196 -0.03469184
0.009863313 -0.004350985 -0.019082056 -0.0042753825 0.09773879 0.0032476634 -0.102574386 0.03936548
0.0051640994 0.032943513 -0.042638034 -0.0055935606 -0.04750208 -0.03352208 0.05886197 -0.090064965
-0.10309656 -0.0028010162 -0.011314133 -0.0012873596 -0.07525949 0.008931843 0.013316941 -0.07701966
0.084713556 -0.007757516 0.0066697965 -0.01986113 0.021723708 -0.03158639 -0.033096146 0.038798228
-0.12301453 0.03559215 -0.03031056 0.021893144 -0.033755135 -0.05650858 -0.036222078 0.024194023
-0.022934241 0.07940712 0.0983149 0.009045168 0.050460238 0.022726482 -0.087687775 0.059118044
0.024245843 -0.015605278 0.06023351 0.025465647 -0.053052645 0.06061377 0.0040099104 -0.030296648
-0.033231087 0.03072144 -0.035481285 0.06902093 -0.05033123 0.014166541 0.15743493 0.057466097
-0.022979913 0.07116323 -0.06625468 0.00047094966 -0.0071465396 0.03688086 0.010626259 0.052268434
0.07027526 -0.05612951 -0.075229146 0.07137645 -0.07995315 0.00890821 0.0036232818 -0.016713077
-0.032861102 0.027715286 0.0064925104 -0.030652288 0.058757063 0.091818884 0.02106412 0.0004454521
0.0003555121 -0.03391781 -0.1294161 -0.06321945 -0.08765613 0.04912079 -0.030633787 0.030614957
-0.017324062 0.04079066 -0.036812082 0.0064693876 -0.0044494695 -0.011830061 -0.08801808 -0.05264101
0.017589495 0.07032474 -0.038278263 0.020849962 -0.081747614 0.035704162 0.03979067 0.051520724
-0.107702374 -0.04749223 0.07851947 -0.006332837 0.046117254 -0.009672843 0.013832818 0.035130266
-0.031004554 0.048730712 -0.04248087 0.03298974 0.07497177 0.018061465 0.07605162 0.01630005
-0.06625671 -0.03998958 -0.07934158 0.026178623 0.020013591 -0.008526609 -0.053672373 0.0024920248
-0.059555765 -0.06306325 0.010611284 0.06265903 0.02672928 -0.0005205517 -0.011082868 0.040821083
-0.00859483 -0.046942465 0.0005131489 0.015493977 0.012222584 0.022645583 -0.047642842 -0.08497272
-0.043085303 0.006951321 -0.017231146 -0.016177893 0.046037905 0.05412683 -0.065595776 0.015649134
-0.100399174 -0.02536272 -0.017425671 0.005381655 -0.0068309098 -0.013895303 0.00014869122 0.018426927
0.04388718 0.048866566 -0.0014161115 0.027213741 0.06564795 -0.02191503 -0.015394366 0.005783285
-0.0059537548 0.10613014 0.01787491 0.036608603 -0.025726754 0.079304956 -0.025558084 -0.03994712
0.0021264718 -0.026614143 -0.095866315 0.010196467 -0.06965083 0.006691426 -0.042586453 0.0591585
0.03210051 -0.06010839 -0.02916721 -0.07383459 0.038655814 0.04278182 -0.046279777 0.0044373972
00000000: b196 a53b 7be9 a7bd ba89 eebc 0bc7 1d3d
00000010: 98d2 a0bc 47d1 d63c 2c4f 413c 10c2 003d
00000020: 37e1 80bc c2c2 ca3b 621c e3bd a79e 0d3b
00000030: 5f7f cf3c ff6d f43b da8b dd3d 2bac 0f3d
00000040: a864 9f3d c892 00bd e796 9cbd 0a97 1e3c
00000050: f7fd 44bd 9385 45bd eaae d03d 48c8 3c3d
00000060: a3d3 8cbd b326 22bd 2998 883d 2fea 2abc
00000070: e8bd 663d d379 9dbd 43f5 343e 672c 3a3d
00000080: b3e8 6fbb 3816 483d 5561 67bb 6c23 843c
00000090: b286 9bbb 65d6 ef3c c220 d7ba 8ec1 183d
000000a0: 57ab 81bd 7a6b e2bc 5080 4bbd 6dcb 5ebd
000000b0: 2673 443c 470c d63c e257 73bc bbfc 85bd
000000c0: 0b63 483d 64f6 a7bd 1cd3 8d3d cfe3 ed3d
000000d0: c917 ccbc 7bb9 3fbd 1b75 593d 0819 0ebd
000000e0: bc99 213c b592 8ebb f951 9cbc 8218 8cbb
000000f0: 462b c83d c0d6 543b 8512 d2bd b33d 213d
00000100: 9b37 a93b c7ef 063d 38a5 2ebd 304a b7bb
00000110: 8b91 42bd 734e 09bd 4019 713d fb73 b8bd
00000120: 4a24 d3bd 4191 37bb ea5e 39bc 9fbc a8ba
00000130: a621 9abd dd56 123c 4d2f 5a3c 7cbc 9dbd
00000140: 4d7e ad3d c332 febb 4f8e da3b cfb3 a2bc
00000150: ebf5 b13c bb60 01bd d38f 07bd e4ea 1e3d
00000160: 0bef fbbd 13c9 113d da4d f8bc 4059 b33c
00000170: d342 0abd 8a75 67bd 9a5d 14bd 8b32 c63c
00000180: 97e0 bbbc 33a0 a23d 5359 c93d 2f32 143c
00000190: 65af 4e3d e32c ba3c a695 b3bd c325 723d
000001a0: 389f c63c 48ad 7fbc 6ab7 763d 559d d03c
000001b0: bb4d 59bd 2546 783d 9165 833b ad30 f8bc
000001c0: 521d 08bd 88ab fb3c d354 11bd d85a 8d3d
000001d0: 1f28 4ebd c81a 683c 9f36 213e 9261 6b3d
000001e0: 5f40 bcbc 07be 913d 89b0 87bd cbe9 f639
000001f0: 852d eabb 6210 173d c319 2e3c 6d17 563d
00000200: 7aec 8f3d 0fe8 65bd bd11 9abd d12d 923d
00000210: 7abe a3bd bef3 113c 9574 6d3b dde9 88bc
00000220: 5d99 06bd 2b0b e33c 20bf d43b 821a fbbc
00000230: 3fab 703d 8a0b bc3d a98e ac3c 928b e939
00000240: 0764 ba39 67ed 0abd a785 04be 3379 81bd
00000250: 0f85 b3bd e232 493d b5f3 fabc 38cc fa3c
00000260: 31eb 8dbc 1b14 273d 44c8 16bd 28fd d33b
00000270: dbcc 91bb dfd2 41bc d342 b4bd 1a9e 57bd
00000280: d817 903c 6b06 903d abc9 1cbd 8acd aa3c
00000290: 4b6b a7bd 873e 123d 8bfb 223d 6507 533d
000002a0: 1093 dcbd 3687 42bd d1ce a03d b083 cfbb
000002b0: 72e5 3c3d d87a 1ebc 0ba3 623c c1e4 0f3d
000002c0: 43fd fdbc db99 473d 6c00 2ebd 4020 073d
000002d0: cd8a 993d a3f5 933c f4c0 9b3d af87 853c
000002e0: 99b1 87bd 1dcc 23bd d77d a2bd 8d74 d63c
000002f0: 8bf3 a33c 31b3 0bbc 90d7 5bbd 3d51 233b
00000300: bff0 73bd 4e27 81bd f3da 2d3c 6153 803d
00000310: 5df7 da3c a275 08ba eb94 35bc 0234 273d
00000320: 54d1 0cbc be46 40bd d784 063a 73da 7d3c
00000330: 3c41 483c 3b83 b93c 2425 43bd 2d06 aebd
00000340: 377a 30bd e8c7 e33b 5528 8dbc 8087 84bc
00000350: 3e92 3c3d 18b4 5d3d 1457 86bd 9d32 803c
00000360: 159e cdbd 7bc5 cfbc 48c0 8ebc 9858 b03b
00000370: d3d5 dfbb 20a9 63bc ffe9 1b39 11f4 963c
00000380: 0bc3 333d 4f28 483d d19c b9ba 5aef de3c
00000390: 6f72 863d 2687 b3bc a738 7cbc b681 bd3b
000003a0: b717 c3bb c25a d93d 676e 923c e7f2 153d
000003b0: eac0 d2bc a36a a23d 305f d1bc 979f 23bd
000003c0: 475c 0b3b e705 dabc 8f55 c4bd 150f 273c
000003d0: 18a5 8ebd c043 db3b 226f 2ebd 2f50 723d
000003e0: d37b 033d 3734 76bd 13f0 eebc 9736 97bd
000003f0: 8f55 1e3d fd3b 2f3d dd8f 3dbd 9667 913b

fc_mean.bias f4 [7]
-0.03296776 0.04464438 -0.012744601 -0.008684204 0.0392874 -0.04397532 0.03339876
00000000: 3409 07bd 07dd 363d bbce 50bc 3148 0ebc
00000010: d3eb 203d 771f 34bd 23cd 083d
