ga_weights/ga2/Pusher-v5/TD3/weights5.pt (torch, 297825 bytes, 6 tensors)

fc1.weight f4 [256, 23]
000000 e4 a8 b9 bd 73 d3 19 3d c7 27 13 3d 7e 4c 87 3c
       -0.090654165 0.03755517 0.035926607 0.016515967
000010 89 44 0e 3d f8 29 b7 3c a9 44 ca bd 5d 5f 72 bd
       0.03473333 0.02235888 -0.09876377 -0.059172977
000020 25 28 14 3d f7 c0 06 3e 27 0c 12 3d 73 55 d1 3d
       0.036171097 0.13159548 0.03565612 0.10221376
000030 2f 55 24 bd 5d b6 71 bd a7 09 ba bc 3c 4e 9b 3c
       -0.0401203 -0.059011806 -0.02270968 0.018958203
000040 82 f8 01 bd 87 71 e0 3c e8 61 b0 bd 33 5e 46 bd
       -0.031731136 0.027397884 -0.08612424 -0.04842968
000050 91 9b 88 3c c4 3e 42 bc 60 a5 19 3d 76 d0 0e 3d
       0.016675742 -0.011855785 0.03751123 0.034866773
000060 a8 8c 5c 3d 77 dd 00 bc c2 43 76 bd 52 2e 73 3c
       0.053845078 -0.007865301 -0.060123213 0.014842587
000070 93 11 43 3d c9 c1 12 bd b0 bf 19 ba a8 1e dc bc
       0.047624182 -0.03582934 -0.00058650505 -0.026870087
000080 5a 30 45 bd 97 51 5c bd 94 dd 23 38 6c ff b6 bd
       -0.048141815 -0.053788748 3.906859e-05 -0.089354366
000090 cd 8e 8c 3d 23 e2 1e bd fe 85 15 3c 5a df 08 bd
       0.068631746 -0.03878988 0.0091261845 -0.03341613
0000a0 28 c1 65 bd 47 49 92 bc 3f 41 40 bc 4f be f4 bc
       -0.05609241 -0.017857207 -0.011734306 -0.029875902
0000b0 87 b1 07 bc 1b 5f 7b bd 15 b9 77 bd 15 b8 a4 bd
       -0.008282072 -0.061369997 -0.060479242 -0.08042923
0000c0 40 37 6f 3c ef c4 2b bd 28 8f 18 bd b0 a0 53 3d
       0.014600575 -0.041935857 -0.0372459 0.051666915
0000d0 c5 87 bd bd ad 4d ba bd c3 84 41 3c 9a 6f fc 3c
       -0.092544116 -0.09096847 0.011811438 0.030814935
0000e0 45 48 95 bd 8a 3c d4 3c 30 b1 3d bc 53 fe c7 3d
       -0.07289175 0.025907774 -0.011577889 0.09765305
0000f0 7a 52 14 3d 02 38 2d bd 2f 8d d4 bc 30 08 5b 3d
       0.03621147 -0.04228974 -0.025946228 0.053474605
000100 37 02 2e ba 2e 54 44 bc d2 2b 11 3c cd 2c eb bd
       -0.0006637903 -0.011982961 0.008860545 -0.114831544
000110 44 ec 3d 3d 2f 9b f6 3c 5b 52 35 ba 1c 7b c1 b9
       0.0463679 0.030103294 -0.0006916874 -0.00036903552
000120 d7 b6 83 bc 38 2e 81 3c d6 1b 9d bb 98 41 5d bd
       -0.016078396 0.01576911 -0.004794578 -0.054017633
000130 20 07 24 3b 78 f6 b7 3c 4d 05 94 bc f8 7f 66 bd
       0.002502866 0.022456393 -0.018068934 -0.056274384
000140 d5 70 84 bc 9f 5b 4c 3d fc 59 aa bd 16 c7 03 3d
       -0.016167084 0.049892064 -0.083179444 0.032172285
000150 2c 31 1c 3d 11 91 85 bb 78 20 f6 bd 8c 0b 82 3c
       0.03813283 -0.004076131 -0.12017912 0.015874647
000160 74 1b 9b 3c 00 ec e4 bc fb bd 13 ba 0f 7f 02 3c
       0.01893399 -0.027944565 -0.0005635914 0.007964863
000170 85 66 e7 b6 da 63 58 3b 10 72 2a 3d bf a2 83 bc
       -6.8962713e-06 0.00330185 0.041612685 -0.016068814
000180 ea 78 4f 3a c1 11 2b 3d 6b d7 47 bd 5d e8 5b bd
       0.0007914441 0.04176498 -0.048789423 -0.053688396
000190 bd 83 98 bd 80 ce 9c bc 8b fe d5 bb 0c ca 1b 3c
       -0.07447002 -0.019141436 -0.006530588 0.009508621
0001a0 a7 cf 8f 3d 71 45 8b bd fa b4 47 bd af 08 89 bd
       0.070220284 -0.06800354 -0.048756577 -0.066911094
0001b0 bd bd ce 3c 94 0c 96 3d bb db b3 3d 2e c6 ad 3c
       0.025236959 0.07326618 0.08782145 0.021212664
0001c0 a2 bb fc 3b bb 9b c8 bc 33 46 17 bd e3 ba 6e 3d
       0.0077127973 -0.02448832 -0.03693218 0.058283698
0001d0 71 4e 27 3b e5 fd bb 3d 97 46 89 3d e4 a1 1a 3e
       0.0025528932 0.09179286 0.06702917 0.15100819
0001e0 6e 47 0a bd eb 61 ae bd b4 4e 90 bd ad 39 ea bc
       -0.033759527 -0.0851477 -0.070462614 -0.028591955
0001f0 ef 94 58 bd 53 05 f7 bc e5 3a 19 be 1b 2c 94 bc
       -0.05287641 -0.030153906 -0.14963873 -0.018087437
000200 a1 6b 97 3a 03 b2 1a 3d 1b 15 80 bd cf 6d 08 bd
       0.0011552462 0.03776742 -0.062540255 -0.033307847
000210 52 ea d8 3b 97 7a 7c bd 80 8a 1a 3e 5f cf bc 3d
       0.00661973 -0.06164035 0.15091896 0.092192404
000220 22 21 e4 bc 78 93 70 3d 1c 7d 47 3d 3d 52 d2 bc
       -0.02784783 0.058734387 0.048703298 -0.02567398
000230 88 8c 03 bd 9d 0d a9 3c b5 c1 56 3c ed 75 00 bd
       -0.032116443 0.020636374 0.013107707 -0.031362463
000240 2d d9 60 3d bb 16 7d bd 5a ca ea bb 27 5a 11 3d
       0.054894615 -0.061789256 -0.0071652355 0.035486367
000250 58 8f 73 bd d7 d4 3d 3c 73 c5 54 3d 43 e2 06 bd
       -0.059462875 0.0115863895 0.051946115 -0.032930624
000260 b3 93 6e 3c a1 3f bc bd df c7 b3 bc 8f 00 f9 bc
       0.014561581 -0.09191824 -0.021945892 -0.030395774
000270 e0 a1 eb bc 2b ab 8a 3d fb 34 ba 3d e0 ab 90 bb
       -0.028763711 0.06770929 0.090921365 -0.0044150203
000280 6b b7 b0 3c 49 25 8b bd 23 3e 94 ba 8f cd 3e 3d
       0.021571836 -0.06794221 -0.0011310022 0.046582755
000290 57 e4 8b bc b5 e4 91 3d df b3 31 3d 5a 43 1d bb
       -0.017076654 0.071237005 0.04338443 -0.0023996443
0002a0 5f 89 4a 3b 6f 4e e9 bc 0d 2e 84 3b 43 98 73 3d
       0.0030904633 -0.028479783 0.00403381 0.05947138
0002b0 49 e3 08 3d 1e 41 23 bd ca 1b 66 bc 6a bf f3 3c
       0.03341988 -0.039857022 -0.014044711 0.02975436
0002c0 2e 5f 2b 3d 28 a2 38 3d 43 1d 49 bd bf a7 a8 bd
       0.041838817 0.04507652 -0.04910017 -0.0823512
0002d0 b2 06 b5 3c a4 99 ae 3d 57 74 c3 3c 5b 10 ff 3c
       0.02209792 0.085253984 0.023859186 0.031135729
0002e0 e6 78 b5 bd e0 07 e4 3c 1f cc 1e 3d e8 cb 0e 3d
       -0.0886095 0.027835786 0.038768884 0.03486243
0002f0 05 58 f8 bc 54 16 3f 3d 50 18 28 3d ae c4 4c bd
       -0.030315408 0.046652153 0.04103881 -0.049992256
000300 89 67 88 bd 13 f1 96 3b de 56 8f bd 3a e6 a0 3d
       -0.06660373 0.004606375 -0.069989905 0.07856412
000310 58 c7 06 3e ff 55 47 bd 00 e7 93 bc 6b db 04 3d
       0.13161981 -0.048665997 -0.018054485 0.032435816
000320 ab ad 0a bd 62 d5 71 bd 5b d0 e5 bb b3 9f c6 ba
       -0.03385703 -0.05904139 -0.0070133633 -0.0015153795
000330 23 7f c5 bd 3b cc cf 3c 17 03 3d 3c f8 01 1d 3d
       -0.0964339 0.02536594 0.011536381 0.038331956
000340 7f 89 84 3c 6a 91 1d 3d 77 3a 98 bd ba 97 72 bd
       0.016178844 0.038468756 -0.07433026 -0.05922673
000350 6f d9 88 3c 5d a4 f9 bc 65 95 a7 bc 88 35 ec bd
       0.016705243 -0.030473882 -0.020456979 -0.11533648
000360 be d2 a9 3b c2 85 2c 3c 4f 42 d0 3c 87 b3 57 3c
       0.005182593 0.010529937 0.025422243 0.013165361
000370 e3 1f 2d b9 f5 9c 75 3c 61 03 17 3c e7 23 b2 bc
       -0.00016510444 0.014991035 0.009217114 -0.021745635
000380 46 3d a6 bd 2e 14 8f bd 33 4a d7 3c c2 69 a3 bd
       -0.08117156 -0.06986271 0.026280498 -0.07979156
000390 9d f7 da bc d2 56 4e 3c fe 37 a4 bc ef 02 3f bd
       -0.0267294 0.012593942 -0.02004623 -0.046633657
0003a0 17 f0 f0 3c 0b ac 0a bc 43 bb a2 bc 02 d7 26 bc
       0.029411359 -0.00846387 -0.019864684 -0.010183098
0003b0 2b 4f fd 3b 04 61 2c 3d 59 39 29 3d 0f 28 8b bd
       0.007730385 0.04208471 0.041314457 -0.0679475
0003c0 95 bc ce 3d 8a 2e 29 3c d4 8b 31 3c e0 e5 6d bd
       0.10094563 0.010326037 0.01083656 -0.058080554
0003d0 5f 67 0b ba 87 96 3c bb 4f 1e 0a bd e0 a5 d1 3d
       -0.00053178327 -0.0028776245 -0.03372031 0.10236716
0003e0 c0 e3 8b bc 67 23 66 3d 88 f7 c0 bd b6 0c 40 ba
       -0.017076373 0.056186106 -0.09422213 -0.0007326113
0003f0 a8 32 fb b8 0f 29 cb bc 12 30 be 3c 20 97 e4 3c
       -0.00011978048 -0.024799852 0.023216281 0.027904093

fc1.bias f4 [256]
000000 0f 89 0e be e8 26 d3 3c 43 a9 6e bd ea 54 5e 3d
       -0.13919471 0.025775388 -0.05826689 0.0542802
000010 65 1f 84 3d d9 66 89 bc 2f d9 8f 3d 9a 4d 22 3c
       0.064513005 -0.016772674 0.07023846 0.009906197
000020 46 32 c1 3d 35 72 ad 3c 2e 6b 2f 3d 72 1a 22 bb
       0.09433417 0.021172622 0.042826824 -0.0024735
000030 73 c1 13 bd 55 43 23 3d 58 6c 53 3d ea 66 6b bd
       -0.03607316 0.039859135 0.051616997 -0.057471193
000040 1f f0 71 3d 4b 97 ac 3d 76 74 40 3d 3b e0 c2 3c
       0.059066888 0.08427294 0.046986066 0.023788562
000050 34 56 a8 bd 00 ba be 3b 4b 79 bb bd 53 b6 3b bc
       -0.08219567 0.005820513 -0.09153994 -0.011457044
000060 c9 7e 1b 3c a7 bd f3 bb 1d af 1d bc 7c e0 b1 bd
       0.009490677 -0.00743838 -0.00962427 -0.08685395
000070 ed 9f 8f 3d 03 5d 00 bc 0a f6 5b 3b e7 61 da 3c
       0.07012925 -0.007834676 0.0033563399 0.026658012
000080 1b d8 b2 3d b7 3e ba bd c5 22 66 bd 88 6f 65 bd
       0.08732625 -0.09093993 -0.056185503 -0.056014568
000090 cf 2d 2c 3d 8a c4 ce 39 e8 8b 96 bd 43 28 93 bd
       0.042035874 0.00039437815 -0.07350904 -0.07185414
0000a0 2c 20 32 bd cb 9c 14 bd 42 f7 3d 3d 61 71 3b bd
       -0.043487713 -0.036282342 0.04637838 -0.045762423
0000b0 8f 7a ac bb 4e 42 90 bc 63 f3 bb 3d 3b c4 b2 bd
       -0.0052636336 -0.017609742 0.09177282 -0.08728834
0000c0 3a d3 f4 bb fb 9c 13 bb 27 77 10 bc f3 4a c5 bc
       -0.007471469 -0.0022523988 -0.008817471 -0.02408359
0000d0 1a be 6f 3d d2 2e 31 bd 59 3c b7 3d 51 15 11 bd
       0.058530904 -0.043257542 0.08947057 -0.03542072
0000e0 c0 87 58 3d bf c4 5b bc 53 90 98 3b 98 e5 b5 3d
       0.052863836 -0.013413607 0.0046558767 0.08881682
0000f0 ca d1 b8 bc 73 c6 30 3d 5c 6c cb 3c 9a 65 63 3c
       -0.022560973 0.043158006 0.024831943 0.013879204
000100 31 94 ca 3a f1 9e be 3c f2 c1 1f 3c d0 55 1c bd
       0.0015455541 0.023269149 0.00975083 -0.038167775
000110 27 45 33 3d 83 65 d4 3c c7 85 66 3d bb de 77 3c
       0.04376712 0.02592731 0.056279924 0.015128787
000120 a2 5c 3d bc 8f 68 46 bd 86 d9 8f bd fb b5 29 3d
       -0.01155773 -0.04843956 -0.07023911 0.041433316
000130 8a 55 74 bd a3 cc 93 bd ba cf be 3c 4d 37 84 3d
       -0.05965189 -0.07216766 0.023292411 0.0645586
000140 ba 04 6c bd 87 8b a9 bb 03 53 d4 bc 8f 67 21 bd
       -0.057621695 -0.0051741037 -0.02591849 -0.0394054
000150 93 f6 08 bd 18 c2 7a 3c 92 f1 39 3d ab c8 16 bd
       -0.033438276 0.015305065 0.045396395 -0.036812466
000160 63 7e 7b bb d5 5c fc bc 2f fc ff 3c 23 ee 3b bd
       -0.0038374893 -0.030805985 0.03124818 -0.0458814
000170 3d 4e 3f bb 1c 87 8b 3c fa 5a 54 3c 46 6a 19 bd
       -0.002919092 0.017032199 0.012961144 -0.037454866
000180 8f 7f a0 bc 53 c3 e6 bd b5 95 03 bd 73 6a 5c bd
       -0.019592075 -0.11267724 -0.032125194 -0.053812455
000190 5b 44 2a 3d 81 96 c4 bd 83 f5 4d 3a 17 d5 94 3c
       0.041569095 -0.09599019 0.00078567135 0.018168015
0001a0 79 0d b6 bc d5 b7 b1 3d 3b 2a 0c bd 99 11 82 bd
       -0.022223221 0.08677641 -0.03421996 -0.06351013
0001b0 63 9d b9 3d 38 5f 55 bc 05 64 3f bd 78 b4 13 3d
       0.09063222 -0.01302319 -0.046726245 0.03606078
0001c0 2e 20 9a 3d f2 9d d6 b9 84 da 0b 3b 47 e3 35 bc
       0.07525669 -0.0004093494 0.0021339962 -0.01110155
0001d0 c1 c5 03 bc a3 4d 4d bb 65 ab ef 3c eb e5 f9 3b
       -0.008042754 -0.0031326793 0.029256532 0.0076262853
0001e0 18 6a 4b 3d ed 19 ce bc c7 b8 74 bc 48 51 d0 3d
       0.049661726 -0.025158847 -0.0149366325 0.10171753
0001f0 e9 d7 49 3d 1d 76 a6 bd 47 76 bf bc 4f ff 6c 3b
       0.049278174 -0.08127997 -0.023371829 0.0036162918
000200 3e 48 b3 bd a8 f5 b2 3d 62 ad 64 3d 5f 42 90 3d
       -0.087540135 0.087382615 0.055829413 0.07043909
000210 05 9c c5 3c 24 33 a7 bb 4f ba 65 3d d4 c5 00 bc
       0.024122247 -0.005102532 0.05608588 -0.007859666
000220 3b e2 19 3c fb f9 97 3c 1a 67 27 3d d3 ac 57 3c
       0.009392316 0.018551817 0.04086981 0.013163763
000230 50 90 81 3d 39 1e 19 3d 7a 10 e0 bb 1f 48 ba bc
       0.063263535 0.03738234 -0.0068379017 -0.022739468
000240 95 d0 35 bd 1f e5 77 3d a8 38 67 3c 59 2d ba ba
       -0.044388372 0.06052124 0.014112629 -0.0014204188
000250 f5 2d 54 bd 85 cd e0 bd 5b 4a 84 39 a9 0c 86 3d
       -0.05180164 -0.109767 0.000252324 0.065453835
000260 c1 4f 47 bd cd c4 41 3c e2 dc 21 bd 4d af 07 bd
       -0.048660044 0.011826706 -0.03951729 -0.033126164
000270 a6 c6 9d bb c6 5d 34 3c 21 ad 18 bc b7 e8 8b 3c
       -0.0048149405 0.011008685 -0.009318621 0.01707874
000280 20 f2 fc bb 69 37 b8 3c ba b7 84 3d 67 e1 48 3d
       -0.0077192932 0.02248736 0.064803556 0.049043085
000290 f2 b6 59 bd e7 be a6 bc b9 58 be 3d df ab a8 bd
       -0.053152986 -0.020354701 0.09294266 -0.08235907
0002a0 55 37 c5 bd 2b 0e be bb d7 10 ed bb a5 ac 67 bd
       -0.09629694 -0.005800029 -0.0072346735 -0.05656113
0002b0 5b b5 ad bc 3b b7 8a 3b 65 d3 00 3e a0 1a 12 bc
       -0.021204641 0.0042332686 0.1258064 -0.008917481
0002c0 ff 57 db 3d 07 e2 c7 bc 30 36 20 3d bd 0b 68 3d
       0.10710143 -0.02439977 0.039114177 0.05665182
0002d0 e0 1d 89 3d 6a 18 a8 3d 73 a6 df 3b 8a 14 ce 3b
       0.06695151 0.082077816 0.006825262 0.0062890695
0002e0 70 6f fb 3c 1a cb ea 3c c0 5e 50 3d dc a8 b4 3c
       0.030692786 0.0286613 0.05087161 0.022053175
0002f0 56 b8 35 3d be 7d a1 3c 90 47 c6 3d 80 cb 9b bc
       0.04436525 0.019713279 0.09681618 -0.019017935
000300 e6 37 3a 3d e2 ee 2b 3c 69 f8 a7 bb e0 6d f3 3b
       0.045463465 0.010493966 -0.0051260483 0.0074288696
000310 49 f6 21 3d 7a 95 9d bd 25 fd 03 3d 88 e7 89 bd
       0.039541516 -0.07694526 0.03222384 -0.06733614
000320 f2 8c ed bc 1c c9 24 3c 90 cf 6a 3d 6b 62 03 3d
       -0.028997872 0.010057714 0.057326853 0.03207628
000330 83 b5 35 3c 32 b8 ae bd bc a5 1b 3d 83 d6 fa 3c
       0.011090639 -0.08531226 0.037999853 0.030619865
000340 44 a3 bb 3c 2a 99 46 3d 37 95 86 3d ea 6c d7 3b
       0.022905 0.048485912 0.06571429 0.006574263
000350 45 5f 59 bc fd 03 d0 bb 03 ee 52 3d 3f ac 2d 3b
       -0.013267343 -0.0063481317 0.051496517 0.0026500372
000360 23 b8 78 3d e5 ff 92 bd 5b 97 40 bb 2f f5 02 3c
       0.06072248 -0.07177714 -0.002938709 0.007993027
000370 c5 a9 d2 3b 7b 15 4f bc 22 0e 67 3c bf 25 38 3d
       0.0064289295 -0.012639399 0.014102491 0.044957872
000380 97 93 17 bd 96 bc 46 3d 0f 94 e8 bd 38 8f 54 bb
       -0.037005987 0.048519693 -0.11356365 -0.0032433998
000390 4a 54 20 3d cb b2 20 bd ff db f0 3d 44 83 2b bd
       0.039142884 -0.03923301 0.11760711 -0.04187323
0003a0 43 e2 6f bd 80 2a 5f bc 03 9c 2c ba 26 08 42 3d
       -0.05856539 -0.013620973 -0.0006584527 0.047371052
0003b0 bb b2 26 3d 40 db c4 3c 61 ef 0c bd cb a8 9c 3c
       0.040697794 0.024030328 -0.034407977 0.019123456
0003c0 b5 5d d7 bb e2 c9 1c 3c 38 c5 e3 bd 0e 73 97 bc
       -0.00657245 0.009569617 -0.11121601 -0.01848748
0003d0 4f 94 b0 3d 30 68 e1 bd 33 30 00 3d 24 e0 c7 3d
       0.086220376 -0.110062 0.031295966 0.09759548
0003e0 15 69 01 3d 55 e5 50 3d af c9 6d bd a6 81 03 bd
       0.031594355 0.050999958 -0.05805367 -0.032106064
0003f0 42 fc 25 bd ee 64 a4 3c bc ad 87 bd 3f a5 70 3d
       -0.040523775 0.020067658 -0.06624934 0.05875134

fc2.weight f4 [256, 256]
000000 88 cf a7 3c 2a 0d d1 3c 8a 2d 8b bc 27 b3 e9 3c
       0.0204847 0.025518972 -0.016989488 0.02852781
000010 06 87 41 3d 95 62 e9 3c 8b db 12 3d 43 4d 25 bd
       0.04724791 0.02848939 0.035853904 -0.040356886
000020 6a 6f 51 bd 92 fc 5e bd 5c 19 19 3d c4 2b bc 3c
       -0.051131643 -0.05444009 0.0373777 0.022970088
000030 db 4f da 3c 5d 9a d1 3a 20 28 d6 3d ea f0 51 bd
       0.026649406 0.0015991438 0.10456872 -0.051255144
000040 d4 95 1c bd 65 0b fd 3a 42 95 58 ba 5c 15 30 bd
       -0.038228825 0.0019305764 -0.0008261987 -0.04298912
000050 52 b4 ec bd 16 f0 89 3d bf bb 16 bd 9d 8c a7 3b
       -0.11557831 0.06735246 -0.036800142 0.005113198
000060 39 1e cb bc 68 3c ff 3b 3d 38 0c 3d a5 79 6d 3d
       -0.024794685 0.0077891834 0.03423332 0.057977337
000070 d5 31 9d bd 5a 12 7b bd 5d 01 0f 3d 9f 70 80 bc
       -0.0767552 -0.0612968 0.03491341 -0.015678702
000080 3d 79 74 bd af 8b 84 bd 41 e6 ac bb 32 dc d0 bc
       -0.059685934 -0.06471955 -0.005276472 -0.025495622
000090 da 4e d5 bd 90 15 29 bd bf 0c d5 3c fd c4 6e 3c
       -0.1041543 -0.04128033 0.026007054 0.014573333
0000a0 0f 35 24 ba e7 73 89 bc ea aa e5 bd ea 48 71 3d
       -0.000626401 -0.0167789 -0.1121424 0.058907427
0000b0 25 72 54 bd 78 58 ba 3b 6b b5 8d bc 73 a9 07 bc
       -0.05186667 0.005686816 -0.01729842 -0.008280146
0000c0 af a1 2b 3d f7 6a 83 3d 75 df 8f 3b ce de 12 3d
       0.04190224 0.06416886 0.004390652 0.035857014
0000d0 8f 50 4a bd a1 c3 11 3d 98 52 aa 3c 6d 45 4f 3d
       -0.049393233 0.035586957 0.020791337 0.05060332
0000e0 0d b5 0a bd ff 4d 04 3d 27 9c 82 bd bb d2 11 3d
       -0.03386407 0.032300945 -0.0637744 0.03560136
0000f0 4c 11 95 bc 52 00 e1 3c bd 2f 18 3d 45 ae 6a 3d
       -0.018196724 0.027465973 0.0371549 0.057295103
000100 b8 56 7c bc f8 d9 4a bd b5 ab cf 3c 42 9b 02 3d
       -0.015401535 -0.049524277 0.025350431 0.031886347
000110 33 ca 9c bd f8 8c 6f 3c 30 61 af 3b 62 4b 7e bc
       -0.07655754 0.014621012 0.005352162 -0.015520902
000120 39 61 8d bd a2 fe dd 3d ca 43 0c bd 9f aa 23 3d
       -0.069033094 0.10839583 -0.034244336 0.03995764
000130 27 7a 8f bc 58 46 3d 3d 2f 78 e2 bc 17 15 f6 3b
       -0.017514301 0.046209663 -0.027645199 0.0075098383
000140 04 67 c4 bb d5 98 7e bd b5 8b f5 3a 78 1b d6 bc
       -0.0059937257 -0.06215747 0.0018733653 -0.026136145
000150 12 d7 0e 3c c8 d2 8b bb 28 f0 7c 3c cc 07 c3 3c
       0.008718269 -0.0042670704 0.015438117 0.023807429
000160 62 2e cc 3c 76 a5 a8 3c a5 2c 9c bd a8 38 56 3b
       0.02492446 0.02058671 -0.07625703 0.0032687578
000170 fb 9d 56 3d 2f c1 f4 3c 07 40 89 bb a8 10 de ba
       0.052396756 0.029877273 -0.004188541 -0.001694222
000180 1f a6 1c 3d 45 09 d1 bc 75 18 67 3d 55 8e 8e bd
       0.038244363 -0.025517115 0.05641981 -0.069607414
000190 51 6e 80 bc 8a 28 62 3d b5 99 83 3d 03 dc 14 bd
       -0.015677603 0.055214442 0.06425802 -0.036342632
0001a0 ac 28 15 3c e2 da 55 3d 5d f6 5e bd ad 05 8d 3c
       0.009103935 0.052210696 -0.05443417 0.01721462
0001b0 57 82 88 3d 08 06 df 3b 9e 15 9b bc 05 27 6a 3d
       0.06665485 0.006806139 -0.018931206 0.05716612
0001c0 29 29 8d 3c 16 5f 28 3d cf 7b 75 3c f3 14 ee bc
       0.01723154 0.041106306 0.014983132 -0.029062724
0001d0 6f 48 b2 bd e0 6e f5 bc 32 c4 f9 3c a7 7c af 3d
       -0.08705222 -0.029960096 0.030489061 0.085686974
0001e0 6f 2e de 3c 31 67 47 3c 7a fb ee bc 0d 11 05 3d
       0.02712175 0.012170599 -0.029172648 0.032486964
0001f0 93 62 d0 bc e7 68 b8 bc 81 83 a3 3b df 89 c9 3d
       -0.025437629 -0.022510959 0.0049900417 0.0984075
000200 56 22 bd 3c db fc 84 bd 47 82 7a 3c 9a e2 5a 3d
       0.023087662 -0.06493541 0.01528985 0.05343876
000210 23 53 39 bc 56 f1 b7 3a 57 fe e4 3d 80 e2 7e 3d
       -0.011311325 0.0014033716 0.11181324 0.062227726
000220 50 ac b6 3d ec 4e 4a bc 09 f2 24 bc 56 0e 9a 3c
       0.08919585 -0.012347918 -0.010067471 0.018805664
000230 79 82 9b bc 9f 2f d7 bd 3b 14 34 bc ed d6 8a bd
       -0.018983113 -0.1050713 -0.010991151 -0.06779275
000240 ec dc c5 bc d5 4b 1f 3d 17 5d d0 bc 1e c7 9b 3d
       -0.024153195 0.03889068 -0.025435014 0.07606338
000250 16 73 98 3d 28 bf cc bc 3b 7a 47 bd 83 ae de bd
       0.07443826 -0.024993494 -0.048700552 -0.10873129
000260 01 15 89 bc 3b 79 00 3c b7 a3 f2 3d 82 c1 c2 bc
       -0.016733648 0.007841404 0.118476324 -0.023773912
000270 72 34 3c 3d 52 8c 31 3b 65 87 cf bc 3f 7e ae 3c
       0.045948453 0.0027091694 -0.025333116 0.021300433
000280 4e 6e 00 bc 75 30 c6 bc ab a2 28 bd 32 2d fb 3c
       -0.007838799 -0.024193028 -0.041170757 0.0306612
000290 b5 b9 8a ba 91 43 04 bc 58 37 fc 3b 01 36 9b bc
       -0.001058391 -0.00807275 0.007697027 -0.01894665
0002a0 3d b2 b8 3c 15 16 80 bd eb bf 30 bd 0f e3 1b 3d
       0.022545928 -0.06254212 -0.043151777 0.038058337
0002b0 f0 a1 96 bd 35 3a 25 3c 1f 37 25 bd 97 d6 e8 3a
       -0.07355106 0.010084678 -0.04033577 0.0017764148
0002c0 bd e3 a2 3d 46 df b9 bd 52 54 99 bd dd 2a 6d 3d
       0.07953594 -0.09075789 -0.07486786 0.057902206
0002d0 bd 50 60 3d 2d 29 c2 bc 3e 99 99 3b f2 88 70 bd
       0.054764498 -0.023701275 0.0046874573 -0.05872435
0002e0 fa d3 57 3d 37 11 da bc 62 54 0a 3b 80 cf 5a 3b
       0.05269239 -0.026619537 0.0021107425 0.003338784
0002f0 2f bd 2d bc 31 45 20 bd db 8a 15 3d bd f9 6f bd
       -0.010604187 -0.039128486 0.036509376 -0.05858778
000300 e3 b3 19 bd d3 63 62 3d 10 ff f2 bc 7a b2 a8 bd
       -0.03752507 0.05527098 -0.029662639 -0.08237167
000310 b2 55 46 bd 5b 58 97 bb c0 64 e3 bc a5 8c 0d bc
       -0.04842157 -0.004618687 -0.027758002 -0.008639489
000320 d5 90 60 3d 79 f8 a2 bd ea 32 0e bd a2 4e bf bd
       0.054825623 -0.07957549 -0.034716524 -0.0934117
000330 5f db 3d bd 81 88 ad bd 71 c9 3a bc a7 3b 3f 3c
       -0.046351787 -0.08473302 -0.011400566 0.011671937
000340 c6 d5 1c 3d 13 b8 0a 3d ba 78 3d bc 32 9f c4 3d
       0.038289808 0.033866953 -0.011564428 0.096006766
000350 9f 45 33 bd 83 24 20 3d 13 e7 f2 bb 7a 11 97 bc
       -0.043767568 0.03909732 -0.0074128 -0.01844095
000360 33 87 69 3c 55 07 df bc df 17 d0 bc 4c 6f 8b 3c
       0.014253425 -0.027225176 -0.025402008 0.017020844
000370 f2 0d 0d bc d2 73 69 bc f4 c0 ac bd 42 6c 56 3d
       -0.008609282 -0.014248805 -0.084352404 0.052349336
000380 63 ae 4e 3d 67 f6 6f bd 07 50 61 bb b0 6a e8 bb
       0.050459277 -0.058584597 -0.0034379975 -0.0070927963
000390 b5 bf b7 bc 60 db 52 bc aa 79 dc 3d c5 c5 ec 3c
       -0.02243028 -0.012869686 0.10765393 0.028902898
0003a0 1c c9 99 3b ff 0b b1 bd f0 9a 4c bc d5 89 a7 3d
       0.0046931636 -0.08644866 -0.012488112 0.08180586
0003b0 6a f3 b8 3d ec 52 b8 bb 04 25 b8 bd 8b 40 dc ba
       0.090308025 -0.0056251194 -0.08991435 -0.0016803903
0003c0 a0 b8 ee bc af 0d 97 bd 13 e5 22 bd 63 12 71 3c
       -0.02914077 -0.07375657 -0.039769243 0.014713856
0003d0 ea be c4 3b 11 af a0 bc 43 15 4e bd 3e b1 2c 3c
       0.006004204 -0.019614728 -0.050313246 0.010540305
0003e0 1f 2b ec bd b6 79 cb 3d 27 fb 2c 3b e3 8e ab 3d
       -0.11531662 0.09935324 0.0026394816 0.08376863
0003f0 32 89 3d 3d 0f e8 8e 3d 64 b6 99 3d 52 4f 96 3d
       0.046273418 0.069778554 0.075054914 0.07339348

fc2.bias f4 [256]
000000 6d a7 d4 bd 72 2f 33 bd 70 21 d0 bc a3 67 13 3c
       -0.103834964 -0.04374642 -0.02540657 0.008996877
000010 1b 4c 13 3d 0a e4 79 bd 53 51 25 bd b2 62 57 3d
       0.03596125 -0.06100849 -0.04036076 0.052584358
000020 fa b8 91 bc c5 b7 c8 bc 31 98 07 3d 05 68 54 bd
       -0.017788399 -0.02450169 0.033104125 -0.051857013
000030 82 7f 2a 3d b7 27 fd bc 37 16 e5 3a db a7 52 bd
       0.041625507 -0.030902727 0.0017477934 -0.05142961
000040 fe ff 3b bd 9a 17 0f 3d af c7 ff bc 27 b9 54 3d
       -0.04589843 0.034934618 -0.031223146 0.051934388
000050 55 b3 94 bd 03 b5 08 bd 15 f0 85 3c b7 fc ed ba
       -0.07260767 -0.03337575 0.016349832 -0.001815698
000060 d7 4e 89 3c 02 92 45 bd e2 68 2c 3d 80 bc 56 3d
       0.016761227 -0.048234947 0.04209221 0.05242586
000070 61 39 48 bd ff 2f 85 bd 4a d5 14 3d e3 b1 0e bc
       -0.048882846 -0.06503295 0.03633622 -0.008709404
000080 ce e1 bb bb ac d9 8c bc 55 7a 44 3d 3c ee b4 bc
       -0.005733705 -0.017193638 0.047968227 -0.022086255
000090 f4 48 a7 b8 2e 07 a0 3d f0 68 8d bc 74 37 be bd
       -7.976769e-05 0.078138694 -0.017261952 -0.092879206
0000a0 a2 13 1e 3d f3 f1 42 3c 73 92 23 3d 68 11 4e 3c
       0.038592942 0.0118985055 0.039934587 0.012577392
0000b0 4a 15 e2 bd 7d 9b 76 3d 2c 39 b3 bc c8 e7 e5 bd
       -0.11039217 0.06020688 -0.021877848 -0.112258494
0000c0 6c 5e 33 3d bf 96 cb bc 88 6f 06 3d df d6 b4 bc
       0.04379122 -0.024852155 0.03282121 -0.022075115
0000d0 c3 9a c7 3d 43 22 c1 bb 67 7a 49 3d 31 8f 88 3c
       0.09746315 -0.005893977 0.049188998 0.016669841
0000e0 70 7a db 3a 37 a8 8f 3c 6f 80 27 3d 77 3c 87 bd
       0.0016744863 0.017536266 0.04089397 -0.0660333
0000f0 d6 b3 c0 3b 26 e2 2f 3d 23 ad d0 bd 01 f6 2a 3d
       0.005880813 0.04294028 -0.10189273 0.041738514
000100 35 a1 7a bd cf 8b ff 3c 3b 1d 6a bc 9f ab a5 3c
       -0.061188895 0.031194596 -0.014289196 0.020223437
000110 a3 90 b4 bc e3 0e db bc 13 37 f7 bc 46 dd 32 3d
       -0.022041624 -0.026740497 -0.030177629 0.043668054
000120 eb 15 93 bd 4f e2 a9 3d cf 8a 24 3d 93 9c 26 bd
       -0.07181915 0.08295118 0.04017144 -0.040676665
000130 9e ae b8 bd 29 66 2d bc 9d 2e b4 bd 9f 7b d8 bd
       -0.090176806 -0.010583439 -0.08797953 -0.10570454
000140 d7 56 7a bd 07 28 9b 3d e3 35 a5 bb da af 5d 3d
       -0.061117973 0.07575994 -0.005041824 0.054122783
000150 74 f1 a9 3b e3 bb 8e bc f6 dc 94 3c f3 b0 e2 bd
       0.005186254 -0.017423576 0.018171769 -0.11068907
000160 7b ff 29 3d 1a 73 07 3d c3 84 13 bd 77 97 33 3d
       0.04150341 0.033068754 -0.036015283 0.04384562
000170 ef 25 12 bc e8 ca ae bd 98 4e 9a 3d 63 bc ca ba
       -0.008920177 -0.08534795 0.07534522 -0.001546752
000180 69 9b 1d 3d 44 37 af bd 2d 25 ae 3c a2 ae c7 3d
       0.03847829 -0.08555463 0.021257961 0.097501054
000190 73 e4 03 3c 73 42 26 3d 25 22 2c 3c f5 d1 e7 3d
       0.008050072 0.040590715 0.010506188 0.11319343
0001a0 9a 82 e7 3c 13 6c 9f 3d 32 62 71 bd 81 9a 31 bd
       0.028260518 0.077842854 -0.058931537 -0.043360237
0001b0 3f 46 1f 3c 3d cb 11 bd c2 1d d3 3c b0 62 f0 bc
       0.009721338 -0.035594214 0.025771026 -0.029343933
0001c0 ff 78 1a 3d 5e 21 0d 3d 01 57 bd 3c 45 c8 94 3d
       0.037713047 0.03445565 0.023112776 0.07264761
0001d0 23 5e 35 bc 93 c8 28 3d 17 f9 80 bd 5b 59 58 bc
       -0.011069807 0.041206907 -0.0629751 -0.013204898
0001e0 02 84 ba bd 02 59 25 3d ef ed a6 bc 89 cf 42 bd
       -0.0910721 0.040368088 -0.020377127 -0.047561202
0001f0 3b 14 6f bd 6f bc 07 3d 53 41 23 3a 8b 79 bd bc
       -0.058368903 0.03313869 0.00062276906 -0.023129245
000200 c3 a9 ce 3a c7 ac 1e bc ad d5 d2 bc 7d ac 63 bd
       0.0015767146 -0.009684748 -0.025736654 -0.05558442
000210 40 b2 7c 3d 62 3f 69 3d 13 27 4a 3d 8b 35 9c bd
       0.06169343 0.056945212 0.04935367 -0.076274
000220 a2 3b 54 3d e9 39 a1 3d a8 dd 7c 3c 23 03 92 3c
       0.051814683 0.078723736 0.015433706 0.017823761
000230 15 a0 7b bc 6a dd 67 3d e3 3c bc 3d c2 f4 f2 bc
       -0.015357991 0.05660764 0.09191301 -0.029657725
000240 cb aa b4 bd c4 bf 8e 3c 68 8c 98 3d d2 89 ab 3d
       -0.08821639 0.017425425 0.07448655 0.083758965
000250 55 81 94 3d fd e6 dd bd 4e 3f 3b 3d 60 94 bc bd
       0.072512306 -0.10835073 0.04571467 -0.09207988
000260 5f be 70 bd 1b 49 05 bc 1d 4d f5 3c 39 b4 34 bd
       -0.058775302 -0.0081351055 0.029943997 -0.044117186
000270 17 c4 ae bc fa b8 5e bd 7b ca 36 3d c2 93 99 3d
       -0.021333737 -0.054375626 0.044626694 0.07498886
000280 19 48 9a 3d 15 c6 e1 3b 8f 0c 6a 3d e1 f5 a3 bd
       0.07533283 0.0068900683 0.057140883 -0.08005882
000290 f8 1f 32 bd 38 70 92 bd 7b 82 8e 3d 0e 7b 06 3c
       -0.04348752 -0.0715031 0.06958481 0.008208049
0002a0 1f a2 82 bd 23 b5 82 bc 1d 71 45 3c 57 a3 d4 3c
       -0.063785784 -0.015955513 0.012050894 0.025956793
0002b0 8b 30 5c bc 90 bb 99 bd 62 21 ec bc 9e 3f 25 3c
       -0.013439308 -0.07506478 -0.028824512 0.010085968
0002c0 26 d7 0b 3d 15 5d fb 3d 67 b2 3c 3d db b1 ca 3d
       0.03414073 0.12273613 0.046068575 0.098972045
0002d0 f3 2b 11 be 37 8b 46 bd 74 7f 2e bd 0e 77 12 3d
       -0.14176922 -0.04847261 -0.042602018 0.03575807
0002e0 91 25 95 3b bf be 2e bd cd 60 56 bd 72 6f 11 bd
       0.0045515974 -0.04266238 -0.05233841 -0.035506673
0002f0 bd 99 d3 bc 7f c4 30 3d 8a e4 28 3d 5a 59 32 3b
       -0.025830144 0.043156143 0.041233577 0.0027213902
000300 a7 07 0a 3d 5c a8 2a bd 4f ea ee 3c 2f 18 5f 3d
       0.033698704 -0.041664466 0.029164461 0.054466423
000310 19 15 c9 bc 5a 5d 16 bc 80 a0 dc 3c 6b b5 6d bc
       -0.024546193 -0.00917753 0.026932001 -0.014508585
000320 f6 c3 9a bc c2 ab 01 3d 33 3c ae bd 25 ed 15 3d
       -0.01889227 0.03165794 -0.08507576 0.03660311
000330 d9 58 90 bc b6 37 01 bd da f6 ac bd 8b bf dc bc
       -0.01762049 -0.03154727 -0.08445521 -0.026946804
000340 bd be 75 3d d4 fd 29 3c 0a c8 63 bd b2 c7 57 bb
       0.059996355 0.010375459 -0.055610694 -0.0032925424
000350 08 4f 19 bd 83 89 04 bd 2c 70 8f 3d 12 1e 5c bd
       -0.037428886 -0.032357704 0.07003817 -0.053739615
000360 37 55 04 bd c0 b9 53 bd d8 8d f4 bb 67 a5 55 3c
       -0.03230783 -0.051690817 -0.007463198 0.013039923
000370 00 37 35 3d 67 82 ea bd a2 26 d8 bc ba 67 87 3c
       0.044241905 -0.114506535 -0.026385609 0.016528953
000380 ff 06 b1 bd 80 b8 05 3d 0b d6 ef 3c 96 60 37 bd
       -0.086439125 0.032646656 0.029276868 -0.044769846
000390 70 d7 29 3d a3 07 09 bd 0f 28 0e 3d 0d c0 78 3b
       0.041465223 -0.03345455 0.03470617 0.0037956268
0003a0 71 e6 b2 3c 94 7b 8d bc 9b e9 14 3d c8 ff 70 3d
       0.021838399 -0.01727084 0.036355596 0.058837682
0003b0 a2 44 56 bc e9 46 1f 3d 38 d5 a9 bd f7 c6 0a bd
       -0.013077887 0.038885985 -0.082926214 -0.033881154
0003c0 9f 4b f4 3c 2a 92 e0 3d cd e3 6a 3b 2b e6 63 bb
       0.029821215 0.109653786 0.0035841346 -0.0034774642
0003d0 5e 71 05 3e e7 0a 2a 3d d7 0d d3 3d 30 46 f6 3d
       0.13031527 0.041514304 0.10305374 0.12025106
0003e0 53 fb 88 3d 85 12 56 bd 3b 70 f6 bc ce 2e 97 3b
       0.06688561 -0.052263755 -0.030082813 0.004613734
0003f0 3b 91 c0 bd 13 59 b2 bd 10 5b 69 3c 95 13 d3 bd
       -0.094027005 -0.08708396 0.014242902 -0.10306469

fc_mu.weight f4 [7, 256]
000000 75 99 e7 3d 44 0e 8e 3d 78 fa ca 3c c7 02 00 3d
       0.113085665 0.06936315 0.024777636 0.03125265
000010 38 82 d4 bd c0 e1 c8 3b 9a 73 d6 bc 17 f2 1a bd
       -0.103764 0.006130427 -0.02617817 -0.03782853
000020 bf 0d c0 3c 5d 03 6c bd 9d b0 da 3b d3 78 1e bc
       0.023444055 -0.057620395 0.006673886 -0.009672361
000030 46 90 bd bc 67 3f 55 3d 7e be 24 3d 55 d8 a2 bc
       -0.023140084 0.05206242 0.04022073 -0.019878546
000040 19 00 2a bc d8 06 88 3d 0d f0 5b bc 83 e3 a5 3d
       -0.010376 0.0664193 -0.013423932 0.08100035
000050 d5 a1 db 3c 4d b5 a7 3d d3 c9 8a 3d 95 51 63 3d
       0.026810566 0.08188877 0.06776776 0.055497725
000060 60 f8 0f 3d d2 bd 70 bd c0 e1 f1 bc 67 de d2 bb
       0.03514898 -0.058774777 -0.029526591 -0.006435204
000070 17 42 75 3c e8 61 fe b7 1b e0 d8 bb 9f 34 84 bd
       0.01496937 -3.032475e-05 -0.0066185123 -0.06455349
000080 b0 70 36 3d e6 3a 9b 3d 0b 64 1c 3d 17 d3 e3 bc
       0.04454106 0.07579593 0.038181346 -0.027810616
000090 bc 1a 00 bb ca b2 8d 3b 07 f5 ad 3c fa 87 05 bc
       -0.0019547185 0.004324292 0.021235002 -0.008150095
0000a0 7c e4 0a 3d 2c 32 b2 bc 38 e8 61 3d eb ed e1 bd
       0.033909306 -0.02175244 0.0551531 -0.110317074
0000b0 c4 e3 90 bd f3 53 3e 3d 92 aa 1d bd c7 d8 7d 3d
       -0.07074693 0.04646678 -0.038492747 0.061974313
0000c0 4d 6d b4 3c 59 a8 b9 bd 57 6e 0a 3c 19 49 b1 3c
       0.022024775 -0.09065313 0.008449159 0.021641301
0000d0 2a f2 4d 3d 95 a2 42 3c fd 58 21 3d f8 ba f9 bc
       0.050279774 0.011879583 0.039391506 -0.030484661
0000e0 23 6c 3e 3d 38 18 75 3d e7 f8 71 3c 29 1a 4c bd
       0.046489846 0.05983755 0.014768816 -0.049829636
0000f0 b7 02 92 bc 9b 83 55 bc ef a6 c0 3d 8d d0 cd 3d
       -0.01782356 -0.0130318655 0.0940684 0.100495435
000100 47 be 92 3d 0b 12 29 bd 3d b8 63 3c 1f b3 ba 3d
       0.07165199 -0.041276973 0.013898906 0.09116196
000110 47 eb b5 3c 99 fb 0d 3d 97 aa 39 bd 35 30 e8 bc
       0.022206916 0.03466377 -0.045328703 -0.0283433
000120 ca 45 ca 3c 7b 06 06 bd ab 69 36 bc 1d 2c 55 bd
       0.024691481 -0.032721024 -0.011133592 -0.052044023
000130 f3 93 f2 bc 72 15 48 3c d2 43 d1 3c e4 95 98 3d
       -0.029611563 0.012212144 0.025545035 0.07450464
000140 a1 66 ca 3c 8b c7 2a 3d db 65 d4 3b aa d7 a2 bc
       0.02470714 0.041694205 0.0064818687 -0.019878227
000150 13 68 7f bc b8 d5 53 3c c7 73 1a bb 4d 41 21 bd
       -0.015588778 0.0129293725 -0.0023567544 -0.039368916
000160 54 40 aa 3c b8 fe eb 3d 35 60 36 3c 4f 46 bc 3d
       0.020782627 0.11523193 0.011131336 0.09193098
000170 ef c0 04 3d d6 71 bf 3d 55 9f 27 3d ed 4e 4e bd
       0.03241056 0.09347884 0.040923435 -0.05036824
000180 71 d6 86 3c cb 52 f4 3b ef 13 13 bb c5 13 b4 bc
       0.016459676 0.0074561588 -0.0022442301 -0.021982083
000190 60 63 d4 bc 8e 35 41 bd 8f 81 4c 3d 1d 24 41 bb
       -0.025926292 -0.047170214 0.049928244 -0.0029470988
0001a0 b3 5c b6 bc ce d3 46 bb d7 ae c8 3d d7 e5 91 bd
       -0.022261 -0.0030338648 0.09798973 -0.071239166
0001b0 62 6c 26 bd 60 94 8f 3d 1c fb 05 bd 58 c2 a9 bc
       -0.040630706 0.07010722 -0.03271018 -0.020722553
0001c0 73 22 71 3d 64 14 a7 3d e2 ae 63 3c ae 77 be 3b
       0.058870744 0.08158186 0.013896676 0.005812607
0001d0 18 1f 05 bb fc 5e cb bc 7b 3e c2 bd db d5 ad 3d
       -0.0020312723 -0.024825566 -0.094845735 0.08488055
0001e0 ff 17 11 3d e3 3f 39 3c df b8 0c 3d f7 1a 85 3b
       0.035423275 0.011306736 0.034355994 0.0040620524
0001f0 d7 9c 85 bd c2 94 2b 3d 7d 4d a5 bc 12 7a 5f bd
       -0.065240555 0.041889913 -0.02017855 -0.054559775
000200 df 1f d5 bc ab 3c 8b 3c 0a 0e 9d 3c 7b 82 1d bd
       -0.026016174 0.016996702 0.019171733 -0.038454514
000210 f7 61 2a bd d1 bb 05 bd cc 85 95 bc 5b a5 cb bd
       -0.041597333 -0.03264982 -0.018252276 -0.099436484
000220 31 3c c8 3c ef a2 48 bc 00 eb 49 bd c8 b7 a0 bd
       0.024442764 -0.012245878 -0.04929638 -0.078475535
000230 8f c4 80 bb ee 0a c0 3c 17 76 e0 3c 5f 0d 8c 3b
       -0.0039296816 0.023442712 0.02740006 0.004274055
000240 e8 af 6f bd bf f6 da 3c be b4 3a bd a1 f7 3b 3c
       -0.058517367 0.026728986 -0.045582525 0.011472614
000250 87 76 09 3d 43 2b f5 bb 93 43 e8 ba 96 25 a2 3d
       0.033560302 -0.007481964 -0.0017720334 0.07917325
000260 77 24 d7 3c 17 80 05 3c 4b f3 ad 3c 05 57 13 3d
       0.026262505 0.008148215 0.021234175 0.03597166
000270 6e 3b b7 bc a3 82 00 3d c4 b4 82 bd 93 37 2e 3d
       -0.022367205 0.031374585 -0.063821346 0.04253347
000280 5b 65 bd 3c a7 ab 34 3d 4f b4 3a 3d 36 a8 9e 3c
       0.02311962 0.044109013 0.045582112 0.019367319
000290 1a 25 8f bd 84 01 a4 bc 9c df 98 bb f7 c0 1e 3d
       -0.069894984 -0.020020254 -0.004665328 0.038758244
0002a0 9d b2 ce 3b 65 42 a8 bd 17 f1 86 bd 6b 86 af 3d
       0.0063079135 -0.08215789 -0.06588953 0.0857056
0002b0 69 ec 96 3a 96 8d 24 3c f7 53 20 bc 0a 3c 98 3d
       0.0011514548 0.010043522 -0.009785644 0.074333265
0002c0 2a 19 6a bb 17 49 f8 3c 97 de 5b 3d 73 88 b0 ba
       -0.0035720565 0.03030829 0.053679075 -0.0013468399
0002d0 3a 0a c9 3b 78 5c 4c 3c b3 9c 21 bd 20 5d ac bc
       0.0061352523 0.012473218 -0.03945608 -0.0210405
0002e0 9a 92 e7 3c bb f1 cd 3d 46 48 14 bd c7 ec 24 3c
       0.028268147 0.10055872 -0.036201738 0.010066218
0002f0 cc 9c 23 bb 43 b2 f3 bc 71 81 8b 3c e3 07 b0 bd
       -0.0024965284 -0.029748088 0.017029496 -0.08595254
000300 60 99 a2 bd 0f dc 77 3d 5d 07 a9 bd 5d ca f0 3c
       -0.0793941 0.0605126 -0.082533576 0.02939337
000310 23 c4 5b bd 21 f7 9d 3c a7 f3 37 bb a7 5f af bc
       -0.053653847 0.01928288 -0.0028068812 -0.021407915
000320 1f 5f 05 3c 05 cc 0c bd 92 38 cc 3d 50 55 44 3d
       0.008140354 -0.034374256 0.099717274 0.047932923
000330 d1 1c 15 bd c9 57 82 3d ce d9 12 39 e5 e8 85 3d
       -0.036404435 0.063644 0.00014004784 0.06538562
000340 f0 65 ec bc 9c c6 10 bb ba 50 18 3d ef ac d1 bd
       -0.028857201 -0.0022091037 0.03718636 -0.102380626
000350 07 ff 7b ba 01 09 2a 3d 97 ce 32 bc 58 2b a1 3c
       -0.0009612892 0.041512493 -0.010913513 0.019673988
000360 27 cc 7c 39 8b b7 61 bc 09 42 83 bd 70 32 89 3c
       0.00024108645 -0.01377667 -0.064090796 0.016747683
000370 43 b2 30 3d 1b a2 60 bd c2 05 7b bd 50 fa 5b 3c
       0.043138754 -0.054842096 -0.061284788 0.013426378
000380 8b 64 0e 3d 9b 60 9c 3d ad f8 78 bd 5f 69 89 3d
       0.034763854 0.076356135 -0.06078403 0.06709551
000390 6a 1c 6b bd 5f a5 9c bc d7 76 60 3d 4a 21 c3 bd
       -0.057400145 -0.019121824 0.054800835 -0.09527834
0003a0 9c 94 c3 3c 9a c9 f9 3c e7 8a 96 bd b4 b4 48 3d
       0.023874573 0.030491639 -0.07350712 0.049000457
0003b0 a0 66 8b 3c 00 fd 43 bd be fc 40 bd ed 89 7e bc
       0.017016709 -0.0478487 -0.047116034 -0.015535814
0003c0 03 f2 a1 3c 08 17 53 bd 18 b5 9c 3c b3 84 80 3c
       0.01976872 -0.051535636 0.019129321 0.015688276
0003d0 57 c7 a6 3c 32 bc 5a bd 35 37 2d bd 6b 10 85 3c
       0.020358725 -0.053402133 -0.042288978 0.01624318
0003e0 33 18 29 3c 39 9d 15 bc ba da 80 3d 93 8e d7 3c
       0.010320711 -0.009131723 0.06291719 0.026313102
0003f0 ac 2e 80 bd 97 76 6e 3c cd 69 04 3e 50 a4 60 bc
       -0.06258902 0.014554641 0.12930985 -0.01371105

fc_mu.bias f4 [7]
000000 4a 06 d4 3b 60 b7 e2 3d b8 3c ba bc 1e c1 a0 bc
       0.0064704763 0.11070132 -0.022734031 -0.019623335
000010 5b 06 5f bd ee 99 41 3c 80 6a 0d 3b
       -0.05444942 0.011816485 0.0021578372
