ga_weights/ga1/Hopper-v5/TD3/weights1.pt (torch, 281441 bytes, 6 tensors)

fc1.weight f4 [256, 11]
0	0x3db29078	0.087189615
1	0x3e11155f	0.14168309
2	0x3e23ad9f	0.159842
3	0xbe5a24ab	-0.2130305
4	0xbea02358	-0.31276965
5	0xbccdc86a	-0.025119979
6	0x3dba7b2f	0.09105527
7	0xbd1dbc60	-0.038509727
8	0x3b91a15c	0.0044442844
9	0xbdc98c4e	-0.09841214
10	0x3ec6c7bf	0.3882427
11	0xbe22c600	-0.15895844
12	0x3ed31caa	0.41232806
13	0xbd5267cb	-0.051368516
14	0xbb748fa0	-0.0037317052
15	0xbe2f48c7	-0.17117606
16	0x3dd6bdb9	0.104854055
17	0xbd8b28f6	-0.06794922
18	0x3c9eca88	0.019383684
19	0x3e310c62	0.1728988
20	0x3d5b58d0	0.053551495
21	0x3e46008f	0.1933615
22	0xbdf50f52	-0.11965813
23	0x3e4b0e48	0.19829667
24	0xbef5699d	-0.4793214
25	0x3d3d15f4	0.046163514
26	0x3deb3674	0.114849955
27	0x3eb06cec	0.344581
28	0x3be0429c	0.006843878
29	0xbc815625	-0.015788147
30	0xbe1c1947	-0.15244018
31	0x3d8facb8	0.07015365
32	0xbeb16349	-0.3464606
33	0x3e82a212	0.25514275
34	0xbdc8eba5	-0.098105706
35	0x3e0cdbd2	0.1375573
36	0x3ec45a31	0.3835006
37	0xbd8eb672	-0.069683924
38	0xbeaba633	-0.33525237
39	0x3e093cfb	0.13402168
40	0x3dcc81d4	0.099857
41	0x3d80ffff	0.062988274
42	0x3ec18e8e	0.37804073
43	0xbe4cd64c	-0.20003623
44	0x3d880cbb	0.06643053
45	0x3e1b35e3	0.15157275
46	0xbb171d88	-0.0023058373
47	0xbe0c6f0c	-0.13714236
48	0xbeb75859	-0.3580959
49	0xbe2fc862	-0.17166284
50	0x3d152ee2	0.036421664
51	0x3d7ae979	0.061257813
52	0x3e7b1e31	0.24523236
53	0x3e934a4d	0.28767624
54	0xbe03a578	-0.1285609
55	0x3d8ca427	0.06867247
56	0x3e3f3492	0.18672398
57	0x3c3a2164	0.0113605
58	0x3b5c0670	0.0033573173
59	0x3e1b1cea	0.15147749
60	0x3ca3664e	0.019946244
61	0xb9b9c700	-0.00035434216
62	0xbb7a9d40	-0.00382407
63	0xbed9e78b	-0.42559466
64	0xbcb96378	-0.022630438
65	0xbec9e053	-0.39428958
66	0xbdd6645b	-0.1046836
67	0x3e87e605	0.26542678
68	0x3d0f5cec	0.035000727
69	0xbba07c20	-0.0048976094
70	0x3b56f080	0.0032797158
71	0x3ce4aa53	0.027913248
72	0x3c13d2d6	0.009022435
73	0x3e0d770f	0.13814948
74	0x3e3fd51a	0.18733636
75	0x3df0e880	0.11763096
76	0xbe92ef67	-0.28698274
77	0xbd3a555f	-0.045491572
78	0xbdda7d58	-0.10668439
79	0xbe38f270	-0.18061233
80	0x3e5a88b6	0.21341214
81	0x3cd65dec	0.026167832
82	0x3e9f4b50	0.31112146
83	0x3df3d0f7	0.11905091
84	0xbeb3743e	-0.35049623
85	0xbea8958e	-0.329266
86	0xbd9de515	-0.077097096
87	0x3e8c1d99	0.2736633
88	0x3c7ad47c	0.015309449
89	0x3e4da8ee	0.20083973
90	0xbd221db1	-0.039579097
91	0x3dda1b64	0.106497556
92	0x3e5568c3	0.20840745
93	0x3e18fb58	0.1493963
94	0x3b0547c0	0.0020336956
95	0x3e719e80	0.23595619
96	0xbd39b208	-0.0453358
97	0xbd75670c	-0.059912726
98	0x3df983ac	0.121833175
99	0x3db86f3c	0.09005591
100	0x3eb827ca	0.35967857
101	0x3deef6d9	0.11668176
102	0x3e7b4217	0.2453693
103	0xbbbd5440	-0.0057778656
104	0x3cc271a8	0.023735836
105	0x3cc91cc2	0.024549846
106	0xbe86c085	-0.26318756
107	0xbdb9d51f	-0.09073853
108	0x3c5af8c8	0.013364978
109	0xbcb915e7	-0.022593452
110	0x3e1b3385	0.15156372
111	0xbe00596c	-0.12534112
112	0x3e84b3f3	0.2591854
113	0xbd391f42	-0.045195825
114	0x3da98ca9	0.08278782
115	0xbd43e447	-0.047825124
116	0xbe089962	-0.13339761
117	0x3e16bd91	0.14720751
118	0xbdac61b3	-0.08417072
119	0x3deab9a9	0.11461193
120	0xbea19fde	-0.3156728
121	0xbe60ce3e	-0.21953675
122	0x3e5edec6	0.21764669
123	0x3e8a41da	0.27003366
124	0xbd5d6e08	-0.054060012
125	0x3ee0ebe6	0.43929976
126	0xbe543f2b	-0.20727222
127	0x3eb29285	0.3487741
128	0xbe29dff8	-0.16589344
129	0x3d91211a	0.07086392
130	0xbc999790	-0.018749028
131	0xbe5173b8	-0.204543
132	0xbcb08b6e	-0.02155086
133	0x3e5a427a	0.21314421
134	0x3f175da1	0.5912724
135	0xbddc0cf4	-0.10744658
136	0xbe863ded	-0.2621912
137	0x3ea4fcef	0.32224223
138	0x3d92b79a	0.071639255
139	0xbd444ef0	-0.047926843
140	0xbd2b8254	-0.041872337
141	0xbd8444f0	-0.06458461
142	0xbe45bb5f	-0.19309758
143	0x3dd42f15	0.10360543
144	0xbe3c9380	-0.18415642
145	0xbd5b8c34	-0.053600505
146	0x3e221c10	0.15831017
147	0xbc31b5d6	-0.010846576
148	0x3c391241	0.011295856
149	0x3e1e34ac	0.1544978
150	0xbcf9f4d8	-0.030512258
151	0xbe8ed744	-0.2789861
152	0x3e8475c6	0.25871104
153	0x3d861092	0.06546129
154	0xbc9ade78	-0.01890491
155	0x3e5416e5	0.20711859
156	0xbe6f8b33	-0.23392944
157	0x3dfb2909	0.12263686
158	0x3d51b4dc	0.05119787
159	0x3e80832a	0.2510007
160	0xbd979159	-0.0740077
161	0xbeb28a29	-0.34871033
162	0xbe86bb27	-0.2631466
163	0x3e48e6e2	0.19619325
164	0xbdc37b82	-0.095450416
165	0x3e576c8e	0.21037504
166	0x3e70b68a	0.23507133
167	0x3e87ddc3	0.26536378
168	0x3eabbc40	0.3354206
169	0xbea26b80	-0.3172264
170	0xbe22ed0f	-0.15910743
171	0x3e135f42	0.14391807
172	0x3e2ba1f9	0.16761006
173	0x3c95610e	0.018234756
174	0xbdc83321	-0.09775377
175	0x3da58f4e	0.08083974
176	0xbea3e0f8	-0.32007575
177	0x3e49aa2c	0.19693822
178	0xbe27d0a9	-0.16388191
179	0x3da48573	0.08033266
180	0x3ef149a4	0.47126496
181	0x3d90ba47	0.070667796
182	0xbd1b12ee	-0.03785985
183	0x3dd6a461	0.104805715
184	0x3db1d97c	0.0868406
185	0x3da6db85	0.08147339
186	0xbd0b521c	-0.034013852
187	0xbe17fc89	-0.14842428
188	0x3dbd093b	0.09230276
189	0x3d28b10e	0.041184478
190	0x3e301143	0.17194085
191	0x3b9a05b8	0.0047003888
192	0x3de32de1	0.11092735
193	0xbd36d42f	-0.044635948
194	0x3e4aa444	0.19789225
195	0x3d9bedac	0.07613692
196	0x3ea85900	0.32880402
197	0x3cc42a5c	0.02394598
198	0xbcf05ab5	-0.029340127
199	0x3eb2e8de	0.3494329
200	0x3e295e4c	0.16539878
201	0xbb3c2460	-0.0028708205
202	0xbca8a808	-0.020587936
203	0xbd401a56	-0.046900116
204	0xbde26866	-0.11055069
205	0x3d28029c	0.041018113
206	0x3e084074	0.13305837
207	0x3dfbab6e	0.12288557
208	0x3e4e0e5f	0.2012267
209	0x3d97cd48	0.07412201
210	0x3dd3db96	0.10344617
211	0xbdfeb469	-0.12436754
212	0x3de0fc04	0.10985568
213	0x3eec5bea	0.46163875
214	0xbdf261b5	-0.118350424
215	0xbd24433a	-0.040103175
216	0x3e637657	0.22213112
217	0xbe29694f	-0.16544078
218	0xbe5a4c39	-0.21318139
219	0x3d852558	0.065012634
220	0xbe11ba22	-0.1423116
221	0xbd0ec006	-0.034851097
222	0x3e516255	0.20447667
223	0x3c137898	0.00900092
224	0x3e580e39	0.21099176
225	0x3a7b8940	0.0009595342
226	0x3e146060	0.14489889
227	0x3e09f8b1	0.13473774
228	0x3e649535	0.22322543
229	0x3c0554a0	0.008137852
230	0x3ea0c192	0.31397682
231	0xbe9acb69	-0.30233315
232	0x3c9e23cb	0.019304177
233	0x3da4d9be	0.080493435
234	0xbe54eb60	-0.20792913
235	0x3dd4031a	0.10352154
236	0xbbc599a0	-0.0060302764
237	0x3ca36c38	0.019949064
238	0xbc7e29b1	-0.01551287
239	0x3e352001	0.1768799
240	0xbe855243	-0.26039323
241	0xbe2156ae	-0.15755722
242	0xbd75534a	-0.059893884
243	0x3e40e6bf	0.18838023
244	0x3da76404	0.08173373
245	0xbe315f92	-0.17321613
246	0x3e8828e6	0.26593703
247	0xbded1d98	-0.1157791
248	0xbcbb7fa5	-0.022888014
249	0x3e012cb9	0.12614717
250	0x3d99ad06	0.07503705
251	0x3c8bd5ec	0.01706978
252	0x3ce6cd3e	0.028174039
253	0xbde7ce82	-0.11318685
254	0x3c9fba38	0.019497976
255	0xbe938c95	-0.28818193

fc1.bias f4 [256]
0	0xbe202740	-0.15639973
1	0xbe13efe2	-0.14446977
2	0x3e1723f0	0.14759803
3	0x3d301d13	0.042996477
4	0x3dcf56ec	0.10124001
5	0x3e15897c	0.14603227
6	0x3e8ebb51	0.27877286
7	0xbe6792fe	-0.22614667
8	0xbe2898bc	-0.16464514
9	0x3dfd17a2	0.12358023
10	0x3e8aefba	0.27136022
11	0xbcc3651d	-0.023851926
12	0x3e049266	0.12946472
13	0x3e4af4a9	0.19819893
14	0xbcf527d8	-0.029926226
15	0x3e0d267d	0.13784213
16	0x3e297afb	0.1655082
17	0x3d361b0e	0.044459395
18	0x3d7c5d4c	0.061612412
19	0xbc92812e	-0.017883863
20	0xbdf75dfa	-0.120784715
21	0x3de893c8	0.11356312
22	0xbe21b069	-0.15789951
23	0x3d966b02	0.07344629
24	0x3d581618	0.052755445
25	0xbea28459	-0.31741598
26	0xbd115841	-0.035484556
27	0xbd2eaa90	-0.04264313
28	0xbe184336	-0.14869389
29	0x3d625336	0.055255137
30	0xbdce2396	-0.10065381
31	0xbd142caf	-0.036175426
32	0xbd5d3e4a	-0.05401448
33	0xbd007cd4	-0.031369045
34	0xbebc0d50	-0.36728907
35	0xbddc853f	-0.10767602
36	0x3d32ef8f	0.043685492
37	0xbdc4920f	-0.09598171
38	0xbe7ad4ba	-0.24495211
39	0xbdfa9c83	-0.122368835
40	0xbb7a26a8	-0.0038170014
41	0x3da9bb1c	0.082876414
42	0x3e1e013a	0.15430155
43	0x3db25fa5	0.08709649
44	0x3d9be1c2	0.07611419
45	0x3de0ff57	0.10986202
46	0xbdb617d7	-0.08891266
47	0xbe5b7960	-0.2143302
48	0x3d1805c4	0.037114874
49	0xbda91297	-0.08255499
50	0x3d8437fd	0.064559914
51	0xbd47b898	-0.048760027
52	0x3e0cabf8	0.13737476
53	0x3e90ab12	0.28255516
54	0x3e298fad	0.16558714
55	0xbc8b1da4	-0.016981907
56	0xbe0d941f	-0.13826035
57	0xbe9b227e	-0.30299753
58	0xbde4a8eb	-0.11165031
59	0xbe70b030	-0.2350471
60	0x3d90f64c	0.070782274
61	0x3e0d3839	0.13790978
62	0x3d18629a	0.03720341
63	0x3d168b66	0.036754034
64	0x3d20d59e	0.03926622
65	0x3dadd8f0	0.08488643
66	0x3d3c307e	0.045944683
67	0x3de65419	0.11246509
68	0xbc5fd14c	-0.01366074
69	0x3e8cbc7a	0.27487546
70	0x3eaceaf4	0.33773005
71	0xbd95f6a0	-0.073224306
72	0x3bfeeab0	0.007779442
73	0xbeb0a99c	-0.34504402
74	0xbe924b7e	-0.2857322
75	0xbe95a498	-0.29227138
76	0x3e803a30	0.25044394
77	0xbd8d5e9c	-0.06902811
78	0xbc1bcbd4	-0.009509046
79	0x3e157ea5	0.14599092
80	0xbe96fa6d	-0.29487935
81	0xbe45f7c0	-0.1933279
82	0xbe04f240	-0.12983036
83	0xbe418c0e	-0.18901083
84	0xbcc093d6	-0.023507994
85	0x3e45fd9c	0.19335026
86	0x3df647eb	0.12025436
87	0xbe0f0034	-0.13964921
88	0x3c4cf1e0	0.012508839
89	0x3e157ba9	0.14597954
90	0x3cfa77c7	0.030574692
91	0xbe851b15	-0.25997224
92	0xbdd5ef94	-0.104460865
93	0xbdb6c502	-0.08924295
94	0x3d782281	0.06057978
95	0x3d0a2bce	0.03373318
96	0xbeffcf07	-0.49962637
97	0x3df2e29f	0.11859631
98	0xbe3d18d5	-0.18466504
99	0xbdc75bd6	-0.09734313
100	0x3e2dcb4e	0.16972086
101	0xbd3e90ce	-0.046524815
102	0x3d1545c1	0.036443476
103	0x3e0122ee	0.12610981
104	0xbd970ffa	-0.07376094
105	0xbe31db9a	-0.17368928
106	0xbdc74d9c	-0.097316
107	0xbe68ec76	-0.22746453
108	0x3e36acdf	0.17839383
109	0xbc263d5c	-0.010146465
110	0x3eadb256	0.33925122
111	0xbe439ad1	-0.19102027
112	0x3bd10510	0.0063787773
113	0x3e491d6d	0.19640131
114	0x3e93d9ec	0.288772
115	0xbdc216f0	-0.09477031
116	0xbe277348	-0.1635257
117	0xbe578b87	-0.21049319
118	0x3e2bd496	0.16780314
119	0x3ca0df4c	0.019637726
120	0xbe9cc5a7	-0.30619547
121	0x3cb7d998	0.022442624
122	0xbcdb7c44	-0.026792653
123	0x3d70e306	0.058810256
124	0x3e62e044	0.22155863
125	0xbba7aa00	-0.005116701
126	0x3d6c94ea	0.057759203
127	0xbe74c8e5	-0.2390476
128	0xbc9f68c8	-0.019459143
129	0xbcc8291c	-0.024433665
130	0xbd8a326a	-0.06747897
131	0x3d605fdd	0.054778922
132	0x3da8a8d8	0.082353294
133	0x3df5faec	0.1201075
134	0x3d1d2fcc	0.03837566
135	0x3e7c1af7	0.24619661
136	0x3db7b63a	0.08970304
137	0x3e178e60	0.14800406
138	0x3e48b117	0.19598804
139	0x3df4c86a	0.119522884
140	0x3db09a18	0.08623141
141	0x3e39fe05	0.18163307
142	0xbda9a67c	-0.082837075
143	0xbd63a393	-0.05557592
144	0xbe0ea5be	-0.13930413
145	0x3da383a6	0.07984094
146	0xbe0cf755	-0.13766225
147	0xbdd2e3cc	-0.10297355
148	0xbe2dc322	-0.16968969
149	0xbe54f93b	-0.20798199
150	0xbe3eae4e	-0.1862118
151	0x3cc0dbf2	0.023542378
152	0x3ed3bae6	0.4135353
153	0x3d84c3dd	0.064826705
154	0xbed91f9e	-0.42406934
155	0x3e669070	0.22516036
156	0x3deade5c	0.11468193
157	0x3de3497c	0.110980004
158	0xbe797659	-0.24361552
159	0x3dcdafd2	0.10043301
160	0xbe5e3f29	-0.21703781
161	0xbde320d7	-0.11090248
162	0xbd71eab2	-0.059061714
163	0xbdcda2ef	-0.10040843
164	0x3e25f328	0.16206038
165	0xbdcd01b3	-0.1001009
166	0xbd9281a0	-0.0715363
167	0xbecfca2c	-0.40583932
168	0x3db62246	0.08893256
169	0x3ddd0795	0.10792462
170	0x3e2794ab	0.16365306
171	0xbd863a13	-0.065540455
172	0xbe17bbba	-0.14817706
173	0xbe38118c	-0.17975444
174	0xbd945a46	-0.07243781
175	0xbeb7bd3b	-0.3588656
176	0xbe17d4d2	-0.14827278
177	0xbd24d752	-0.040244408
178	0x3e8a7296	0.27040547
179	0xbc8e52c8	-0.017373458
180	0xbe34febc	-0.17675298
181	0x3eaff515	0.3436667
182	0xbe434912	-0.19070843
183	0x3d2e9aae	0.042627983
184	0xbe0bea6a	-0.1366364
185	0xbdc27eef	-0.09496867
186	0xbd733064	-0.05937232
187	0xbe83f445	-0.257723
188	0xbd057d5e	-0.032590263
189	0x3d07ef86	0.03318741
190	0xbeeb002e	-0.45898575
191	0xbd34ebaa	-0.04417006
192	0xbd5c0358	-0.053714126
193	0x3e9fa1eb	0.3117822
194	0x3d34bfd4	0.044128254
195	0x3e49dec4	0.19713885
196	0xbe64d4ee	-0.22346851
197	0xbd541880	-0.051781178
198	0xbd7d9e2e	-0.06191843
199	0xbe99a1c0	-0.30006218
200	0xbe9dcd8c	-0.30820882
201	0x3d106b66	0.035258673
202	0xbdd0730a	-0.10178192
203	0x3de9bdfa	0.11413188
204	0xbda0d63d	-0.07853363
205	0x3d65b166	0.056077383
206	0xbbe4db1e	-0.0069841286
207	0x3dfdc9d0	0.12392008
208	0x3e76456a	0.24049917
209	0xbe2b1f80	-0.16711235
210	0x3e800070	0.25000334
211	0x3dc354ee	0.095376834
212	0x3cf4177c	0.029796354
213	0xbc3c91e0	-0.011509389
214	0x3e406458	0.18788278
215	0x3e139986	0.14414033
216	0x3d6eaabf	0.058268305
217	0xbe23a905	-0.15982445
218	0xbd85ea0b	-0.06538781
219	0xbd014db4	-0.031568244
220	0xbe4083a3	-0.18800215
221	0x3d653302	0.055956848
222	0x3d0b4768	0.034003645
223	0xbc33f3ee	-0.01098345
224	0x3e6d30c1	0.2316313
225	0x3e544895	0.20730813
226	0x3db3c6b7	0.08778136
227	0xbbb0cab6	-0.005395259
228	0xbeb7a0b8	-0.35864806
229	0x3db4c7b7	0.08827155
230	0xbe0c15ab	-0.1368014
231	0x3e0b8558	0.13625085
232	0x3e984abf	0.29744527
233	0xbe1bb786	-0.15206727
234	0xbe0a578d	-0.1350996
235	0x3e11aaa6	0.14225253
236	0xbdf94ef9	-0.12173266
237	0xbe1000ba	-0.14062777
238	0x3d665a18	0.056238264
239	0x3df18e8c	0.11794767
240	0x3e73477e	0.23757741
241	0xbdda04d9	-0.10645456
242	0x3edbcd74	0.42930186
243	0xbdafbd17	-0.08580988
244	0xbed43c7a	-0.4145239
245	0xbc1cebf4	-0.00957774
246	0xbe893437	-0.2679765
247	0x3e016af1	0.12638451
248	0xbe64074b	-0.22268407
249	0x3e080dd0	0.13286519
250	0x3eb87dc4	0.36033452
251	0xbea01ad0	-0.31270456
252	0x3e2c12e2	0.16804078
253	0x3e07368c	0.13204402
254	0x3e3add57	0.18248497
255	0xbd1287c4	-0.035774007

fc2.weight f4 [256, 256]
0	0x3e3af092	0.18255833
1	0xbd7bd8e4	-0.06148614
2	0xbda64496	-0.081185505
3	0xbe1b13e9	-0.15144314
4	0x3c3a6228	0.011375941
5	0xbeeff67f	-0.4686775
6	0x3dc8af4a	0.09799059
7	0x3e47d342	0.19514182
8	0x3e0b3572	0.13594607
9	0x3e470a05	0.19437416
10	0xbe0c0fa6	-0.13677844
11	0x3cf54469	0.029939847
12	0x3edbd45c	0.42935455
13	0x3daf9304	0.08572963
14	0xbc260170	-0.010132179
15	0xbe24664a	-0.16054645
16	0xbe041ac7	-0.1290084
17	0x3cf6f95a	0.030148197
18	0x3c2236f0	0.009900793
19	0x3dcc5bec	0.0997847
20	0xbe5b0247	-0.21387587
21	0x3e5d2031	0.21594311
22	0xbbb25f54	-0.005443493
23	0x3dcdd08a	0.10049541
24	0xbc0a1b11	-0.008429305
25	0xbd3dc7a0	-0.046332955
26	0xbe353656	-0.17696509
27	0xbe98f4f3	-0.2987438
28	0xbe9b2be4	-0.30306923
29	0x3e9798ba	0.2960871
30	0x3d1874b1	0.03722066
31	0x3e6932a8	0.2277323
32	0xbdae0107	-0.0849629
33	0xbdf1c028	-0.11804229
34	0xbd80e8f5	-0.06294433
35	0xbca1a3d8	-0.019731447
36	0x3e095c7f	0.1341419
37	0x3e8dc5e0	0.2769003
38	0xbde323ad	-0.11090789
39	0xbcce7acb	-0.025205037
40	0xbe0b38f5	-0.13595946
41	0xbe721e34	-0.23644334
42	0xbd782a9b	-0.060587507
43	0x3a911350	0.0011068378
44	0xbe862c3b	-0.2620562
45	0xbed4e070	-0.41577482
46	0xbd5da7b3	-0.05411501
47	0xbe2ed93d	-0.17075057
48	0xbeb6fe24	-0.3574077
49	0x3e580860	0.21096945
50	0x3e2d86d4	0.16945964
51	0xbe3f8124	-0.18701607
52	0x3e236da0	0.15959787
53	0xbed2e22e	-0.41188186
54	0xbd802b1e	-0.06258224
55	0xbe994be5	-0.29940715
56	0xbd59a9ff	-0.053140637
57	0xbd592b4e	-0.053019814
58	0xbc06c381	-0.008225323
59	0xbda361ab	-0.07977613
60	0x3e2d31b2	0.16913489
61	0xbeafaece	-0.34313053
62	0x3e4440c0	0.19165325
63	0x3db66a4e	0.08906995
64	0xbe8e29b6	-0.27766198
65	0x3de7d768	0.11320382
66	0xbde79212	-0.113071576
67	0x3dd28098	0.102784336
68	0xbe4c183a	-0.19931117
69	0x3e0cbf25	0.13744791
70	0xbe10c84f	-0.14138912
71	0xbd8c34b9	-0.068459935
72	0x3c068c85	0.008212213
73	0x3e351fc7	0.17687903
74	0x3e07dc47	0.13267623
75	0x3ead62f0	0.33864546
76	0xbcc60828	-0.024173811
77	0x3d8b162e	0.0679134
78	0xbd06e63a	-0.032934405
79	0xbde72df4	-0.11288062
80	0xbd500694	-0.050787523
81	0xbe09b8ae	-0.13449356
82	0xbdf85f0f	-0.12127506
83	0xbe4e8e2c	-0.20171422
84	0x3ecbcbcf	0.3980393
85	0xbda818cb	-0.08207854
86	0xbe68b6aa	-0.22725931
87	0x3e2a0326	0.16602764
88	0xbe001f48	-0.12511933
89	0xbe245862	-0.1604934
90	0x3e1364b6	0.14393887
91	0xbd33c5b0	-0.0438897
92	0x3ddcd27a	0.10782333
93	0xbcf483e4	-0.029848047
94	0x3e2a30fd	0.1662025
95	0x3e9f3156	0.31092328
96	0xbda66a71	-0.08125771
97	0xbcbf09b0	-0.023320049
98	0xbe5fd9ad	-0.2186038
99	0xbf00c061	-0.50293547
100	0xbd1576a9	-0.036490116
101	0xbd7f1da5	-0.06228413
102	0xbe99a426	-0.30008048
103	0xbd006288	-0.031343967
104	0xbdf7312b	-0.12069925
105	0xbdc58d87	-0.09646135
106	0x3d7158c7	0.058922555
107	0xbd29e405	-0.041477222
108	0xbe100397	-0.1406387
109	0xbc8f0886	-0.017460119
110	0xbc3f4108	-0.0116732195
111	0xbd45d30c	-0.048296973
112	0x3e375838	0.17904747
113	0xbcf511f6	-0.029915791
114	0x3c948ba4	0.018132992
115	0xbc1da286	-0.009621268
116	0xbe8b75df	-0.27238366
117	0x3d992d58	0.07479352
118	0x3e1dec25	0.15422113
119	0x3e969f3c	0.2941836
120	0xbbfe04a0	-0.007752016
121	0xbcc0ae7c	-0.0235207
122	0xbe70340b	-0.23457353
123	0xbe145542	-0.14485648
124	0xbe391d2d	-0.18077536
125	0x3c892cf0	0.01674506
126	0xbe39d535	-0.18147738
127	0x3e2e9b5f	0.17051457
128	0x3e292e6e	0.16521618
129	0x3af1f0b0	0.0018458571
130	0xbe0ad4de	-0.13557765
131	0x3d3b82fc	0.045779213
132	0xbdd9d662	-0.106365934
133	0x3e29685d	0.16543718
134	0x3d568ec9	0.052382264
135	0x3c944522	0.018099371
136	0x3d3b9cb7	0.04580375
137	0x3e38dda4	0.18053299
138	0xbd8f4426	-0.0699542
139	0xbe59594d	-0.21225472
140	0xbeaaf16d	-0.33387318
141	0x3de06391	0.10956491
142	0x3d3a813e	0.04553341
143	0x3d76d873	0.060265016
144	0x3e1e08c7	0.15433036
145	0x3d855a1a	0.06511326
146	0x3e1d8d97	0.15386043
147	0x3dd67e54	0.10473314
148	0x3eef0ddb	0.46690258
149	0xbe410029	-0.18847717
150	0xbd0586b6	-0.032599173
151	0x3dfef3f4	0.12448874
152	0xbd1e2d94	-0.038617685
153	0x3eaec024	0.34130967
154	0xbb4d5340	-0.0031330138
155	0xbc752b84	-0.014963988
156	0xbe01882e	-0.12649605
157	0xbd6edd70	-0.058316648
158	0xbe04a030	-0.12951732
159	0x3df9045f	0.12159037
160	0xbea664ef	-0.3249888
161	0xbe6a358e	-0.22871992
162	0x3d51af08	0.051192313
163	0x3be45300	0.006967902
164	0x3d88a725	0.06672505
165	0x3ed0b179	0.407604
166	0x3cdbc2a1	0.026826205
167	0x3c995cd2	0.018721018
168	0xbe7e5343	-0.2483645
169	0xbd1aebd8	-0.037822574
170	0xbe165c76	-0.14683709
171	0xbdec95d6	-0.115520164
172	0x3ee721bd	0.45142928
173	0x3cdceb58	0.02696769
174	0x3e52c95a	0.20584622
175	0xbd0dbb5e	-0.034602515
176	0xbe2649f8	-0.16239154
177	0xbe4d3c5e	-0.2004256
178	0x3e285bea	0.16441312
179	0x3e496fee	0.19671604
180	0xbe10a760	-0.14126348
181	0x3e0d67f6	0.13809189
182	0x3d3d879d	0.04627191
183	0x3e02474b	0.12722509
184	0xbdee3881	-0.11631871
185	0xbd8cafd5	-0.06869475
186	0x3da8dc6e	0.082451686
187	0xbdf64350	-0.120245576
188	0xbdedb5d2	-0.11606945
189	0x3e2ef2fd	0.1708488
190	0xbd2a60e8	-0.041596323
191	0x3d6c1700	0.057639122
192	0xbd5899aa	-0.05288092
193	0xbb94b140	-0.0045377314
194	0xbdf3fd03	-0.119134925
195	0xbe0748cf	-0.13211368
196	0xbdb9c0c8	-0.09069973
197	0xbe57315d	-0.21014924
198	0x3dae951d	0.08524535
199	0xbcea70d0	-0.028618246
200	0xbe2763fa	-0.16346732
201	0x3e80eada	0.25179178
202	0x3da77e20	0.08178353
203	0xbed0125c	-0.40639007
204	0xbe74c54c	-0.23903388
205	0xbd7ea288	-0.06216672
206	0xbdd2e002	-0.10296632
207	0x3d753ac1	0.059870485
208	0x3dd58c43	0.104271434
209	0x3dadbd0d	0.08483324
210	0xbd22826e	-0.03967517
211	0x3e4ef176	0.20209298
212	0x3da0c09b	0.078492366
213	0xbec4f315	-0.38466707
214	0x3dcbed4d	0.09957371
215	0xbde43495	-0.11142842
216	0x3e8b6881	0.27228168
217	0x3e911ac6	0.2834074
218	0x3dd4b6fa	0.103864625
219	0xbaa30ca0	-0.0012439676
220	0x3e33d302	0.17560962
221	0xbdaceb0c	-0.08443269
222	0xbeb90632	-0.3613754
223	0x3ee848c2	0.4536801
224	0xbd7b82b8	-0.06140396
225	0x3e00ef29	0.12591232
226	0xbd185b60	-0.037196517
227	0xbd3df618	-0.04637727
228	0xbe9381c1	-0.28809932
229	0x3da55d5d	0.08074448
230	0x3b32d0a8	0.0027285013
231	0x3de7227f	0.112858765
232	0x3d84e2b2	0.06488551
233	0xbdeeaec0	-0.11654425
234	0x3e0027cf	0.12515186
235	0xbe4f3a22	-0.2023702
236	0x3ea1468d	0.31499138
237	0x3c497784	0.012296561
238	0xbd9a5fc2	-0.075377956
239	0xbe186e48	-0.14885819
240	0x3e81f88a	0.25384933
241	0x3c7fe694	0.015618939
242	0xbd8501c1	-0.06494475
243	0xbe83ab8c	-0.25716817
244	0x3e3d980f	0.18515037
245	0x3ec1b155	0.37830606
246	0xbe0bca80	-0.13651466
247	0x3eaa04cb	0.33206782
248	0x3e864425	0.26223865
249	0xbdcd41fd	-0.10022352
250	0xbcc9308c	-0.024559282
251	0xbcd26174	-0.025681235
252	0xbeba9710	-0.36443377
253	0x3e0ae1ca	0.13562694
254	0xbe0c36d6	-0.13692793
255	0xbda34e03	-0.07973864

fc2.bias f4 [256]
0	0xbcc68c33	-0.024236774
1	0x3e13a9c7	0.14420234
2	0x3d5ae7d2	0.053443737
3	0x3e9e4e86	0.30919284
4	0xbd1e93ff	-0.03871536
5	0xbd938526	-0.072031304
6	0xbc152056	-0.009101948
7	0x3d1cb4f0	0.038258493
8	0x3ee2830a	0.442406
9	0xbd528d83	-0.051404487
10	0x3e1c1e8b	0.15246026
11	0x3ee9183a	0.45526296
12	0x3ce01fe4	0.027358957
13	0xbe3d804a	-0.1850597
14	0x3e63a72d	0.22231741
15	0x3de9f1e9	0.11423094
16	0x3e99d20d	0.3004307
17	0x3e3099b2	0.1724613
18	0x3e1fc6a1	0.15603115
19	0xbe6e4ee3	-0.2327228
20	0xbd52247e	-0.051304333
21	0x3e97e8a8	0.2966969
22	0x3d02be90	0.031920016
23	0xbe05863d	-0.13039489
24	0x3e51617c	0.20447344
25	0x3e3a3fd4	0.18188411
26	0xbe4f9d10	-0.20274758
27	0x3d86d209	0.0658303
28	0x3a164600	0.0005732477
29	0x3b8800e0	0.004150495
30	0xbdafdb50	-0.085867524
31	0xbe88177c	-0.26580417
32	0x3c6a6148	0.01430542
33	0xbdb1e706	-0.08686642
34	0xbd48ab4c	-0.048991486
35	0x3d71c0b3	0.059021663
36	0x3dc6371d	0.09678481
37	0x3dc2924a	0.09500559
38	0x3e6e3022	0.23260549
39	0xbc9139fc	-0.017727844
40	0x3db59213	0.08865752
41	0x3e9595b4	0.29215777
42	0xbea77dd2	-0.3271318
43	0x3e8d4dab	0.27598318
44	0xbcc1afcd	-0.023643399
45	0x3e9b90ff	0.3038406
46	0x3e737343	0.23774438
47	0xbb996921	-0.004681722
48	0xbe3fbcdc	-0.18724388
49	0x3e6b2964	0.22965008
50	0x3e542cfc	0.20720285
51	0x3b578180	0.0032883584
52	0x3e5035d4	0.20333034
53	0xbeacf27a	-0.33778745
54	0xbe91c30c	-0.2846912
55	0x3dd281ef	0.10278689
56	0xbea6face	-0.32613224
57	0x3eb4f5ec	0.35343874
58	0xbcc27dee	-0.023741689
59	0xbe4129f4	-0.1886366
60	0xbdea6f40	-0.114470005
61	0xbd0f7b2a	-0.035029568
62	0x3e93f457	0.28897354
63	0x3b118cc0	0.0022209138
64	0xbe31168c	-0.17293757
65	0xbb117c0c	-0.0022199182
66	0x3e2d4bc1	0.16923429
67	0x3d40129a	0.04689274
68	0xbe126645	-0.14296825
69	0xbe80ad47	-0.251322
70	0x3e158f74	0.14605504
71	0xbdac0829	-0.08399994
72	0x3e2c0184	0.16797453
73	0xbe3c4265	-0.18384703
74	0xbd169305	-0.036761303
75	0x3dd25dc3	0.1027179
76	0xbd1c6e7a	-0.038191296
77	0x3e00c4ec	0.1257512
78	0xbb7c2800	-0.003847599
79	0xbde6ee2c	-0.112758964
80	0x3e79d50a	0.24397674
81	0x3e7e333d	0.24824233
82	0x3e2269f5	0.15860732
83	0xbd981468	-0.07425767
84	0xbc2159e0	-0.009848088
85	0x3e1ea2a2	0.15491727
86	0x3d528f28	0.051406056
87	0x3ec1feb5	0.3788964
88	0x3e86b7ee	0.26312202
89	0xbe2160db	-0.15759604
90	0x3d0f67e0	0.035011172
91	0xbd61b47d	-0.055103768
92	0x3cf23a50	0.029568821
93	0xbe1dbf23	-0.15404944
94	0xbdc8382d	-0.0977634
95	0x3e09722f	0.13422464
96	0x3e7b4a18	0.24539983
97	0x3d2daaa4	0.042399064
98	0x3e9994ae	0.29996246
99	0x3dadf36a	0.08493693
100	0xbec89076	-0.39172715
101	0xbe142d80	-0.14470482
102	0xbdd872c8	-0.10568768
103	0x3c92e374	0.017930724
104	0xbcf52016	-0.029922526
105	0x3e6d4948	0.23172486
106	0x3eba8161	0.36426833
107	0xbd52a395	-0.051425535
108	0xbd60d651	-0.054891888
109	0xbd85b3ea	-0.065284565
110	0x3e3c55fe	0.18392178
111	0xbd41ad46	-0.047284387
112	0xbcae01a6	-0.02124102
113	0xbd199af4	-0.03750129
114	0x3eeb23d0	0.4592576
115	0xbdcb04b7	-0.09913009
116	0x3d4911f0	0.049089372
117	0x3db34fd6	0.08755462
118	0xbdc8588d	-0.09782515
119	0xbdafef06	-0.08590512
120	0xbdba2250	-0.09088576
121	0x3e969832	0.2941299
122	0x3dcc7eb9	0.09985108
123	0xbe1224e4	-0.14271885
124	0xbba35730	-0.004984759
125	0x3c4a2f12	0.012340324
126	0xbdec1815	-0.11528031
127	0xbe585941	-0.21127798
128	0x3e394160	0.18091345
129	0x3d67ad86	0.05656197
130	0xbcdfd811	-0.027324708
131	0xbe31510f	-0.17316078
132	0x3e8d1272	0.27553135
133	0x3e750952	0.23929337
134	0xbc1d332c	-0.00959472
135	0xbe021e56	-0.12706885
136	0x3dd6edc4	0.10494569
137	0x3e38cf81	0.18047906
138	0x3d7e3df5	0.062070806
139	0xbe1e8a97	-0.15482555
140	0x3ef21b48	0.4728644
141	0xbe8d8e01	-0.27647403
142	0x3e39ccf0	0.18144584
143	0x3e7c8353	0.24659471
144	0xbe1309de	-0.14359233
145	0xbe73310c	-0.23749179
146	0xbd63fbba	-0.055659987
147	0x3df3fd6a	0.11913569
148	0xbd434a5a	-0.04767833
149	0xbdd5df27	-0.104429536
150	0xbe23bd88	-0.15990269
151	0x3e799c9b	0.24376146
152	0x3defb889	0.11705119
153	0x3ef00c49	0.46884373
154	0x3e9448ef	0.28961894
155	0xbdd81417	-0.10550707
156	0x3bf31ca0	0.007419184
157	0x3e196392	0.1497939
158	0xbda89e14	-0.08233276
159	0xbd7ad8aa	-0.061241783
160	0x3da3ed72	0.080042735
161	0x3e548400	0.20753479
162	0x3d41aca2	0.047283776
163	0xbd1bd5cd	-0.038045693
164	0xbce6fde4	-0.028197236
165	0x3e73f6f4	0.23824674
166	0xbeaab4dd	-0.33341113
167	0xbd8f3d65	-0.06994132
168	0x3db2a53a	0.08722921
169	0xbc9b36ea	-0.018947084
170	0x3e2aa131	0.16663052
171	0x3db17f79	0.086668916
172	0x3e24df26	0.1610075
173	0x3e1d4e25	0.15361841
174	0xbe2bbbe8	-0.167709
175	0xbdc5c0e0	-0.096559286
176	0x3dfae675	0.122509874
177	0x3e3fd937	0.18735205
178	0xbe22b1e4	-0.15888172
179	0xbd2d34cc	-0.04228668
180	0xbe5b8076	-0.21435723
181	0xbe27868c	-0.1635992
182	0x3cc2ce78	0.023780093
183	0xbdfce7ec	-0.12348923
184	0x3deaa17e	0.114565834
185	0xbe85d945	-0.26142326
186	0x3f07ccb5	0.53046733
187	0x3d300331	0.042971794
188	0x3e12ae03	0.14324193
189	0xbdef515c	-0.1168544
190	0x3e02a6f4	0.12759
191	0x3e8b1d10	0.2717061
192	0x3e13c054	0.14428836
193	0xbe7ab4e6	-0.2448307
194	0x3d5e659d	0.054296125
195	0x3e820ece	0.2540192
196	0xbb64ea50	-0.00349297
197	0x3e05949e	0.13044974
198	0xbe376531	-0.17909695
199	0xbe152713	-0.14565687
200	0x3d9ca3ca	0.07648428
201	0x3d5ae42b	0.053440254
202	0xbe214dde	-0.1575236
203	0xbe513e2d	-0.20433874
204	0xbea992d0	-0.33119822
205	0x3de03cba	0.10949083
206	0x3e8455c1	0.25846675
207	0xbdb86c15	-0.0900499
208	0x3ead3194	0.33826888
209	0x3da1b496	0.07895772
210	0xbe591e82	-0.21203044
211	0xbe0ea613	-0.1393054
212	0xbec401a8	-0.38282514
213	0x3dcce652	0.100048676
214	0x3dc894d0	0.09794009
215	0x3dfb640d	0.122749425
216	0xbdf377bd	-0.11888073
217	0x3eb524df	0.35379693
218	0xbdd5a59d	-0.10431979
219	0x3e1b345d	0.15156694
220	0xbe57670d	-0.21035405
221	0x3ce74470	0.028230876
222	0xbe69effe	-0.22845456
223	0xbdf98ba7	-0.1218484
224	0x3da90383	0.08252623
225	0x3da86a66	0.08223419
226	0xbe31bd6a	-0.17357412
227	0xbdffe1ec	-0.12494263
228	0xbea96429	-0.3308423
229	0x3e82d4b8	0.25552917
230	0xbd6244d0	-0.055241406
231	0x3e6ad3f0	0.2293241
232	0x3e857c61	0.26071456
233	0x3e4bd90c	0.19907016
234	0xbdea8a50	-0.11452162
235	0x3d1e9d66	0.038724326
236	0x3e9b91ff	0.30384824
237	0x3e090e9e	0.13384482
238	0xbec46ee9	-0.38365868
239	0xbe641243	-0.22272591
240	0xbe59f9fa	-0.21286765
241	0xbe158bbf	-0.1460409
242	0x3edd2021	0.43188575
243	0x3e9bb223	0.30409345
244	0xbe981bba	-0.29708654
245	0x3e08be2c	0.13353795
246	0x3e017282	0.12641338
247	0xbe8199a8	-0.25312543
248	0xbe16fea8	-0.14745581
249	0x3e4e92c8	0.2017318
250	0x3eca766a	0.39543468
251	0xbe2ea0a7	-0.17053472
252	0x3de42486	0.11139779
253	0x3e3ac724	0.18240029
254	0x3dbf71c2	0.093478695
255	0xbc03447e	-0.008011935

fc_mu.weight f4 [3, 256]
0	0xbe3b0966	-0.18265304
1	0xbe0a62c9	-0.13514246
2	0x3d95f86a	0.07322772
3	0xbde7073e	-0.11280678
4	0x3d374159	0.044740055
5	0x3dbb7df9	0.09154887
6	0x3e583156	0.2111257
7	0xbdae8eb2	-0.08523311
8	0xbe8054ec	-0.2506479
9	0xbddc49bb	-0.107562505
10	0x3d3c4559	0.045964573
11	0x3e8ab29a	0.27089387
12	0x3e89b570	0.26896238
13	0xbe0cf2a2	-0.13764432
14	0xbe6c6548	-0.2308551
15	0xbdf99f40	-0.12188578
16	0xbda9757c	-0.082743615
17	0xbca05a9e	-0.01957446
18	0xbe78c7ab	-0.24294917
19	0x3c137ff8	0.009002678
20	0xbe92fe1e	-0.287095
21	0x3e45035c	0.19239563
22	0xbec8261f	-0.39091584
23	0xbe08c276	-0.13355431
24	0xbdf55a8f	-0.11980163
25	0xbdc82079	-0.09771819
26	0xbe9e9c89	-0.30978802
27	0x3e2d5e10	0.16930413
28	0xbe538b9e	-0.20658728
29	0x3eb65140	0.35608864
30	0xbd1c7659	-0.038198803
31	0x3e6f8efa	0.23394385
32	0x3e18c306	0.14918146
33	0xbdf5d501	-0.12003518
34	0x3d8b3b37	0.06798404
35	0x3ec5f09e	0.3866014
36	0xbda8db1c	-0.08244917
37	0x3e0e74d4	0.13911754
38	0xbebb2898	-0.36554408
39	0xbe062a27	-0.13102017
40	0x3e20e3c8	0.15711892
41	0x3de1b148	0.11020142
42	0xbd567e01	-0.05236626
43	0x3e5b2323	0.21400122
44	0x3e155835	0.1458443
45	0xbeca767e	-0.39543527
46	0x3b134000	0.0022468567
47	0x3db59cf0	0.08867824
48	0x3e063f13	0.13109998
49	0x3ede15c0	0.4337597
50	0x3e466478	0.19374263
51	0x3e77561c	0.24153942
52	0xbd091ed0	-0.03347665
53	0x3e010894	0.12600929
54	0xbe90b1a4	-0.2826053
55	0xbc94b4b2	-0.018152568
56	0xbdf39e22	-0.11895396
57	0x3e661968	0.22470629
58	0xbda0262b	-0.0781978
59	0xbc002dd8	-0.00782343
60	0x3dab3bee	0.0836104
61	0x3e82a7a7	0.25518534
62	0xbe6e2fb5	-0.23260386
63	0xbdddd31c	-0.108312815
64	0x3cfc2d5a	0.030783344
65	0x3e790c1d	0.24321027
66	0x3dba3be7	0.09093457
67	0xbd969b78	-0.07353872
68	0xbe140f82	-0.14459041
69	0xbd0e7761	-0.034781817
70	0xbc3407bb	-0.010988171
71	0xbc6443de	-0.013932196
72	0xbd468862	-0.04846991
73	0x3e57a167	0.21057664
74	0xbd72907c	-0.059219822
75	0x3e81cd1d	0.25351802
76	0xbd81b9a4	-0.06334236
77	0xbde7ca55	-0.11317889
78	0x3e6c56f5	0.23080046
79	0x3df8dd08	0.12151533
80	0xbcddd770	-0.027080268
81	0x3e988b86	0.29793948
82	0xbddf55cf	-0.109050386
83	0xbbf5cd18	-0.0075012557
84	0xbe1c730b	-0.1527826
85	0xbd693c0c	-0.05694203
86	0xbd896496	-0.06708638
87	0xbe063be4	-0.13108784
88	0x3d6623ac	0.056186363
89	0xbe1d752e	-0.15376732
90	0x3db7260d	0.089428045
91	0x3d64016b	0.055665415
92	0xbdb8267d	-0.08991716
93	0xbe9780f4	-0.2959057
94	0x3ee7860a	0.4521945
95	0xbdf08d46	-0.11745696
96	0xbdb64673	-0.08900156
97	0x3e21d5d7	0.1580423
98	0xbd92c919	-0.071672626
99	0x3dd74100	0.10510445
100	0xbd80c609	-0.06287772
101	0xbe4068a1	-0.18789913
102	0x3e8e0123	0.27735242
103	0xbd5df5fe	-0.054189675
104	0xbd523fb2	-0.051330276
105	0xbe0bd4ee	-0.13655445
106	0xbe7d1c11	-0.24717738
107	0xbf08c32f	-0.53422827
108	0x3a7d3680	0.0009659305
109	0x3ebefa76	0.37300462
110	0xbdd1711c	-0.10226652
111	0xbe24dcbc	-0.16099828
112	0x3e3561c4	0.17713076
113	0x3e70b83f	0.23507784
114	0xbcb1cdf4	-0.021704651
115	0x3e88ae8c	0.2669567
116	0x3e28d1d2	0.1648629
117	0x3df94c04	0.12172702
118	0xbe9e28e3	-0.3089057
119	0x3d6c1e65	0.057646174
120	0x3e755ffb	0.23962395
121	0x3df59f1f	0.119932406
122	0x3d940da2	0.07229163
123	0x3e3292aa	0.1743876
124	0x3dc7005a	0.09716864
125	0xbc209484	-0.009801034
126	0xbe6cd946	-0.23129758
127	0xbd234202	-0.03985787
128	0xbd243414	-0.040088728
129	0xbe3a79de	-0.18210551
130	0xbe0164e4	-0.12636143
131	0xbe0c1250	-0.1367886
132	0x3d3a225b	0.04544292
133	0xbebba4a9	-0.36649063
134	0xbe12eba5	-0.14347704
135	0x3dc7434c	0.09729633
136	0xbdf401ad	-0.11914382
137	0x3f12fbac	0.5741527
138	0xbd120cad	-0.03565662
139	0xbe718983	-0.23587613
140	0x3df65d11	0.1202947
141	0x3e1ba260	0.1519866
142	0xbdd8e3cc	-0.10590324
143	0xbc948bf6	-0.018133145
144	0xbe0ee2f6	-0.13953766
145	0xbea3ab61	-0.3196669
146	0x3daf16ea	0.085492924
147	0x3e7f68ff	0.24942397
148	0xbe20f5fd	-0.15718837
149	0x3ede4d8d	0.43418542
150	0xbe8de306	-0.27712268
151	0x3ea36bd5	0.31918207
152	0x3da68e1a	0.081325725
153	0x3e478cf7	0.19487368
154	0xbbb95080	-0.0056553483
155	0xbe4a5020	-0.19757128
156	0x3e572c7d	0.21013065
157	0x3ddbbce4	0.107293874
158	0x3e4122b9	0.18860902
159	0xbe78445a	-0.24244824
160	0x3f02b632	0.5105926
161	0xbda71051	-0.08157409
162	0xbea7d530	-0.32779837
163	0xbe78a5b8	-0.24281967
164	0xbe25ac0c	-0.16178912
165	0xbd10ab1b	-0.03531943
166	0x3d0fd4c8	0.035115033
167	0xbe0ee715	-0.13955338
168	0x3e052b28	0.13004744
169	0x3d846f04	0.06466487
170	0xbc4f1840	-0.012640059
171	0x3e58671b	0.21133082
172	0x3e3dfdbe	0.18553826
173	0x3cbfbf83	0.02340675
174	0x3d842878	0.06453031
175	0xbd9d3af0	-0.07677257
176	0xbb3f5c58	-0.0029199328
177	0xbef3aee0	-0.47594357
178	0x3addbfa0	0.0016918071
179	0xbe13309e	-0.14374015
180	0xbeedc0d9	-0.46436194
181	0xbecd693f	-0.4011936
182	0xbde7ac5b	-0.11312171
183	0xbe826fd4	-0.25475943
184	0x3e2af835	0.16696246
185	0xbcc3f823	-0.023922032
186	0xbe278194	-0.16358024
187	0xbd8ce2e7	-0.06879216
188	0xbd55533c	-0.05208133
189	0xbde32550	-0.11091101
190	0xbd8d3267	-0.06894379
191	0xbe5c3b0a	-0.21506897
192	0x3d432f38	0.047652453
193	0xbd9cccc4	-0.076562434
194	0xbca21d3f	-0.019789336
195	0x3e862e62	0.26207262
196	0x3c05df24	0.008170877
197	0x3da532df	0.080663435
198	0xbe00a130	-0.12561488
199	0x3e44bb2a	0.19212022
200	0xbeb91579	-0.36149195
201	0x3e809d03	0.2511979
202	0xbd26c59e	-0.040715806
203	0xbe9ef76f	-0.31048152
204	0xbe0f22e7	-0.13978158
205	0xbcc494f0	-0.0239968
206	0xbd85d47b	-0.06534668
207	0x3d0bdcc0	0.03414607
208	0xbd12d4ef	-0.0358476
209	0x3e9b181f	0.3029184
210	0xbd8a9c22	-0.06768061
211	0xbe00b416	-0.12568697
212	0x3e2dfa0d	0.16989918
213	0xbe51294d	-0.20425911
214	0x3e92d07d	0.2867469
215	0xbd717c97	-0.05895671
216	0xbdafe2ca	-0.085881785
217	0x3d31a50a	0.043370284
218	0x3dd647b2	0.104628935
219	0x3e9f4127	0.31104395
220	0xbc1929fd	-0.00934839
221	0xbe2edc56	-0.17076239
222	0x3ddd00bc	0.10791156
223	0xbdee9922	-0.116503015
224	0x3c38cdf0	0.011279568
225	0x3db435eb	0.087993465
226	0x3d671a5d	0.056421626
227	0xbe4b0626	-0.19826564
228	0x3e0ef4d5	0.13960584
229	0xbc468888	-0.0121175125
230	0xbe9ea1bd	-0.30982772
231	0x3d2c5d87	0.042081382
232	0xbe2bccd6	-0.16777357
233	0x3e111bb8	0.1417073
234	0x3e9ef591	0.31046727
235	0x3d172c04	0.03690721
236	0x3dd60590	0.1045028
237	0x3da86e9e	0.082242236
238	0xbe028495	-0.12745889
239	0x3bf32058	0.007419627
240	0x3e0bcddc	0.13652748
241	0xbd223f9e	-0.03961145
242	0xbdf197ec	-0.11796555
243	0x3cca5b6a	0.024701793
244	0xbc8d32d2	-0.017236147
245	0x3e02a4dc	0.12758201
246	0xbda28f4b	-0.07937487
247	0xbe1a7c67	-0.15086518
248	0x3e432278	0.19056118
249	0x3e0edc3c	0.139512
250	0x3e8d7b40	0.27633095
251	0xbda698f0	-0.08134639
252	0xbd2db0a2	-0.04240478
253	0x3c4e65dc	0.012597527
254	0x3f04b014	0.51831174
255	0x3e9ddebc	0.30833995

fc_mu.bias f4 [3]
0	0x3dd1273f	0.10212564
1	0xbd83b2d1	-0.06430591
2	0xbd8c4a27	-0.06850081
