ga_weights/ga1/Hopper-v5/TD3/weights10.pt (torch, 281453 bytes, 6 tensors)

fc1.weight f4 [256, 11]
000000 c2 9c 91 bd 36 8f 15 3e 04 a7 e6 bc dc 45 b5 bc
       -0.07109977 0.14605412 -0.028155811 -0.022128038
000010 d0 d1 c4 3e e8 8a e6 bd 8d 2d a9 bd 5a cc 29 3d
       0.38441324 -0.11256963 -0.08260641 0.04145465
000020 80 d1 3c be c2 05 2d 3e f4 d9 53 be a5 5c 8e bd
       -0.18439293 0.16896728 -0.20688611 -0.06951264
000030 09 00 31 be c0 42 64 3b 2e 59 ee bc a8 c0 87 bd
       -0.1728517 0.0034829825 -0.029095259 -0.06628543
000040 b4 6e 53 bc 4a b9 e4 3d e5 16 e5 3d ad c0 9f 3d
       -0.012904812 0.111681536 0.111860074 0.07800422
000050 24 4b e3 bd 0d da 08 3e 49 dd 2b be 96 7c b2 3d
       -0.11098316 0.1336443 -0.16783632 0.08715169
000060 4a 3b ca bd 78 60 a1 bb 53 16 b3 3d 30 af 86 3e
       -0.0987459 -0.00492483 0.087444924 0.26305532
000070 94 10 14 be 50 dc 95 bd 62 7f fb 3d d8 5c 5c bd
       -0.14459449 -0.07317412 0.12280156 -0.05379948
000080 14 c0 8f bd 34 d1 ea 3d 5f 3d 9e bd 03 9d 0d 3e
       -0.07019058 0.114656836 -0.07726549 0.13829426
000090 67 7e 89 3e 70 43 89 3e 29 35 08 be fa 49 59 bd
       0.2685425 0.26809263 -0.13301529 -0.053049065
0000a0 40 0c 41 ba 20 cd e5 3b 09 b2 3a bd f7 d9 e4 bd
       -0.0007364191 0.007012978 -0.045579944 -0.11174386
0000b0 db ac 51 be b4 2e f8 3d 1f ba 86 bd 4a 22 6a bc
       -0.20476095 0.12118283 -0.065784685 -0.014290402
0000c0 7c 75 e3 3d f4 95 97 3d cb 39 2c 3e 20 e3 61 3e
       0.11106393 0.07401648 0.16818921 0.22059298
0000d0 68 e0 3a bc d4 4b 0f 3e 39 4d b3 bd 9d 7c f4 3d
       -0.011406042 0.1399377 -0.087549634 0.119378306
0000e0 dd de 5e 3e 9d 2b b5 bd f6 cb 47 be eb e7 2a be
       0.21764703 -0.08846209 -0.19511399 -0.16690032
0000f0 74 b2 65 bd 8b e8 5b 3e 4b 7e a1 3d 2a f4 65 3e
       -0.05607839 0.21475427 0.078854166 0.22456422
000100 4a c2 84 be 4f f1 19 be 7c b7 e2 3d e2 76 75 3e
       -0.2592948 -0.15033458 0.11070153 0.23971131
000110 04 84 46 3e d0 e3 1a bd 2e 72 ac 3d 95 4b 52 be
       0.19386297 -0.037814915 0.084202155 -0.20536645
000120 6f c7 75 be bd c7 29 3e e6 84 18 3e 95 d1 ad be
       -0.24001859 0.165801 0.14894447 -0.3394896
000130 42 da 5e 3c 80 cd 39 bb 80 26 53 3d 89 fc 31 3d
       0.013601841 -0.0028351247 0.05155039 0.043453727
000140 c3 66 37 bd ba 71 ce bd 60 dc f2 be c0 dd 7c 3d
       -0.044775736 -0.10080285 -0.47433758 0.061734915
000150 c2 2e 47 bd 15 5f 35 3e ec 8f 3a 3c c3 1e 54 3e
       -0.048628576 0.17712052 0.011386853 0.2071486
000160 d0 59 f8 bd 4a 7b 34 be 56 4b 53 bc 48 6c be bd
       -0.121265054 -0.17625156 -0.012896379 -0.09297997
000170 e9 70 7d 3d fa 12 0c 3e 7c c9 9f 3d 38 fc 97 bd
       0.061875258 0.13679114 0.07802102 -0.07421154
000180 1c 01 20 bc b7 ae ba 3d d4 1e 8a bd 1f 20 00 3e
       -0.0097658895 0.091153555 -0.06744161 0.12512253
000190 2c d5 ad 3d 24 10 fd 3d 02 8b 87 be 8f 05 d4 bd
       0.08487925 0.12356594 -0.26473242 -0.10352623
0001a0 36 e7 44 be 45 44 ea 3d 7e 87 2a bd 6e 6e 6c bc
       -0.19228825 0.11438803 -0.04163312 -0.014430625
0001b0 56 41 a7 be 40 d5 65 3c 22 12 ae bd da f8 83 be
       -0.32667035 0.014027894 -0.08499552 -0.25775796
0001c0 d0 ea 90 3d 30 39 8f 3d 30 fa 67 3c 8d 35 13 3d
       0.07076037 0.069933295 0.01415877 0.035939742
0001d0 34 41 21 bd 50 84 43 3e e1 36 5b 3e ea 6a a4 be
       -0.039368823 0.19093442 0.21407653 -0.3211282
0001e0 d6 5c da 3d 84 97 9a bd 0f 34 5b bd 39 70 d1 3e
       0.10662238 -0.075484306 -0.053516444 0.40905932
0001f0 38 b3 70 bd a2 50 1e be c1 e5 7e 3e ac 31 45 3e
       -0.058764666 -0.15460446 0.24892332 0.1925723
000200 76 a5 74 3e a2 31 33 3e ac ae 26 3e 98 be 27 bd
       0.23891243 0.17499402 0.1627757 -0.04095325
000210 46 2d b3 bc 34 8b 60 3e 00 6d 4b bc 84 e4 8d be
       -0.021872174 0.21928102 -0.012416124 -0.27713406
000220 3c 34 99 3c 4a 10 60 3d 11 40 a9 bd 60 12 bf bc
       0.018701665 0.054703034 -0.08264173 -0.023324192
000230 ad cf 92 3e f6 7d 90 bd 49 e4 6c be 14 12 9e bc
       0.2867407 -0.07055275 -0.23133959 -0.01929573
000240 19 7e 7a be e7 3f 3a 3e 1c 72 24 be a7 84 eb bc
       -0.24462165 0.1818844 -0.16059154 -0.028749777
000250 92 20 46 3d 6a db 19 be 7c 04 29 3e 7f a5 72 3d
       0.048370905 -0.15025106 0.16505617 0.05923986
000260 c3 0a 96 3d 2a a7 60 be ce 2d f0 3d 0c d1 b9 3d
       0.073262714 -0.21938768 0.117274866 0.09073076
000270 a5 a0 2f 3e 00 9b 08 3a c6 c3 bd 3e 5a 65 8e 3d
       0.17151125 0.0005211085 0.37063426 0.06952925
000280 0a 77 94 3e 60 df 05 3e a4 ca 90 3c 5f 42 80 3c
       0.2899707 0.13073492 0.017674752 0.015656648
000290 b4 56 7c be 7b f7 26 3d 7c 45 ec 3d a8 ae ae be
       -0.2464245 0.04076336 0.115366906 -0.34117627
0002a0 25 e5 c5 bd f6 91 4d 3e 09 ab 83 bc dc 0b 4f bc
       -0.096628465 0.20075211 -0.016072767 -0.012637105
0002b0 1b 42 94 3e ab df 59 3d 28 6a 5b be 8c 97 91 bd
       0.28956684 0.053191822 -0.21427214 -0.071089834
0002c0 1a da 90 be 9a f3 7d bd 9c 4f 22 be b4 44 20 bd
       -0.28291398 -0.061999895 -0.15850681 -0.03912802
0002d0 b4 c6 7b be 56 fa 0b be 56 99 5d be d4 cf 98 3d
       -0.24587518 -0.13669714 -0.21640524 0.07461515
0002e0 46 38 1c 3d 6d 08 b7 3d 98 79 ae 3d f7 c1 4c be
       0.038139604 0.08937154 0.08519286 -0.19995867
0002f0 d7 48 4f be 8a 7d cc 3c 93 56 da 3d 9e c6 63 3e
       -0.2024263 0.024962205 0.10661044 0.22243735
000300 4a df 8f bd 72 25 8d be 71 bc 5d 3e 94 03 99 bb
       -0.07025011 -0.2756763 0.21653916 -0.004669616
000310 9e aa 09 3e 84 79 27 be a0 44 9c 3d 56 21 51 3e
       0.13443992 -0.16354948 0.07630277 0.20422873
000320 d9 67 d8 bc 24 c4 b5 bb 64 0f 86 3e e2 82 1d 3c
       -0.026416706 -0.0055470634 0.26183617 0.009613724
000330 ef 14 4b bd ce b2 3c 3e 0f 60 08 be 44 4f cb bc
       -0.04958051 0.18427584 -0.13317893 -0.02481807
000340 25 0f fa be 3a 40 c9 3d 5a b7 bb 3e 61 46 63 3d
       -0.4883968 0.09826703 0.36663324 0.05548704
000350 1c 57 bb 3e b0 12 d4 3d 57 a2 47 be 80 5d ee 3d
       0.36589897 0.10355127 -0.19495521 0.116389275
000360 d8 4a 23 3e be f7 35 3e 94 a9 4a bd 94 74 a9 3d
       0.1594652 0.17770287 -0.04947813 0.08274189
000370 96 89 ee 3d 78 69 62 be 28 7d df bd e4 ce 2a be
       0.11647336 -0.22110546 -0.109125435 -0.16680485
000380 77 b5 69 bd 26 81 27 3e f4 65 79 bd 98 8f b4 bc
       -0.057057824 0.1635786 -0.060888246 -0.022041127
000390 58 0a 2d 3e 4c be 2a be 3f 1e 96 3e f0 ff bb bc
       0.16898477 -0.16674155 0.2931995 -0.022949189
0003a0 2f ac fd bd 55 26 13 3e 82 4c 4b 3e 22 7d 40 3d
       -0.12386357 0.14370091 0.19853404 0.046994336
0003b0 06 18 2d bd 01 1b 63 be d0 13 88 3b b4 b9 10 be
       -0.04225924 -0.2217827 0.0041527525 -0.1413334
0003c0 60 60 fd 3b 81 d5 db 3d b0 8f cd 3d 6b eb 15 bd
       0.007732436 0.10734082 0.10037172 -0.036601465
0003d0 21 46 aa 3d 81 36 4e be 10 1b 69 3c 19 e6 74 3e
       0.08314157 -0.20137979 0.014227644 0.239159
0003e0 db 60 f2 3d e2 4a c0 3d 04 9b f6 bd 78 be 42 3c
       0.1183488 0.09389283 -0.12041286 0.011886232
0003f0 1e 84 b0 3d 35 6a e4 3d 8c d4 44 be 9b 9d 9f 3e
       0.08618949 0.1115307 -0.19221705 0.3117493

fc1.bias f4 [256]
000000 94 23 11 3e 41 9b 22 3e ba 7a cc bd 90 37 c3 bb
       0.14173728 0.15879537 -0.09984346 -0.0059575513
000010 6b 11 ee bd ce 12 1f be dc 4d 24 3e 51 59 15 be
       -0.11624416 -0.15534517 0.16045326 -0.14584853
000020 f5 1a 39 3e 38 ad bc bb 40 44 95 bd 79 92 b6 3c
       0.1807669 -0.005757954 -0.07288408 0.02228664
000030 7b 20 48 be 14 57 24 3e bd 07 44 3e 1b 42 ab 3e
       -0.1954364 0.16048843 0.19143577 0.33448872
000040 84 8f 31 be 11 94 f2 bd 10 cf 3a 3e 43 6e d0 bd
       -0.17339903 -0.11844648 0.1824305 -0.10177281
000050 40 01 50 3d 56 b4 a3 3e f8 15 b0 be 67 65 4d 3e
       0.050782442 0.31973523 -0.3439176 0.20058213
000060 68 fc 00 be da bd da 3c 56 68 fe 3d c4 e1 0f be
       -0.12596285 0.026701856 0.12422244 -0.14050967
000070 0c 21 b9 bd 40 be db 3c d1 e1 2f 3d 3c 0e 19 3e
       -0.09039506 0.026824117 0.042939965 0.14946836
000080 a9 5c fd bd da ac 46 bd fd b9 a1 bd 92 f4 93 3d
       -0.12371189 -0.048504688 -0.078968026 0.072243825
000090 2f 61 8e 3d b9 2e be 3d 1b 37 5e 3e 75 1c 74 be
       0.0695213 0.092862554 0.21700709 -0.2383898
0000a0 22 49 06 be a2 5c a1 bd 5a 9c c8 3e fa 69 26 bd
       -0.13113835 -0.078789964 0.39181787 -0.04062841
0000b0 ba 1d 83 3e 5b fa 58 be 1c d9 80 bd 08 01 59 be
       0.25608617 -0.21189253 -0.0629141 -0.211918
0000c0 1c 77 d3 3e a6 d6 43 be b8 50 95 3c 7c 25 fb 3e
       0.4130181 -0.1912485 0.018226966 0.49052036
0000d0 fb 62 d8 3c 20 f8 26 be 57 b7 fe 3d 18 29 b6 3d
       0.026414385 -0.1630559 0.12437313 0.08894557
0000e0 6a f0 9d 3d ab b4 06 be f1 cb ae be 00 31 df 38
       0.07711871 -0.13154857 -0.3413997 0.000106425956
0000f0 38 42 f5 bc b1 d4 f0 bd fb 15 f7 3c 19 64 64 3e
       -0.029938802 -0.11759318 0.030161848 0.22303809
000100 39 4f ca 3e bd b4 5e 3e aa 27 c3 3b f6 5d 9e 3e
       0.39513567 0.21748634 0.005955656 0.30931062
000110 78 64 f7 bd 48 5b 16 be b9 4c 95 be 52 32 d5 3d
       -0.1207971 -0.14683259 -0.29160097 0.104099885
000120 7e b0 25 be d2 04 91 bd d5 01 9a be 9e 79 2e bd
       -0.16180608 -0.070809975 -0.30079523 -0.042596452
000130 50 0f 37 3d 93 63 56 bd bb c0 25 be ad e0 9a 3e
       0.044692338 -0.052341055 -0.16186802 0.3024954
000140 cc 3c a2 3d e1 f6 ee be 16 3a 5f bd f4 14 2a bd
       0.07921752 -0.4667273 -0.054498754 -0.04152389
000150 93 ce 94 be df 4b 86 3e c8 28 23 3e ec f5 b1 3e
       -0.29063854 0.2622976 0.15933526 0.34757936
000160 e7 f6 89 be e6 b7 2b 3e e0 f7 08 be f4 cc b5 3d
       -0.26946184 0.1676937 -0.13375807 0.08876982
000170 0f d9 d0 3c 93 10 f4 3c fc 10 71 bd ff fa 53 3e
       0.025494127 0.02979306 -0.05885409 0.20701216
000180 c4 e8 9e 3d 7f e7 15 3c 76 ee 94 bd 3f 8e 00 be
       0.0775924 0.009149431 -0.07272045 -0.12554263
000190 53 89 33 bd a2 73 a5 3d 40 56 ea bc 4d 2d 27 3e
       -0.043832134 0.08078696 -0.02860558 0.16325875
0001a0 20 d2 27 be 8a e6 ea bd 8b 8b f4 3d c8 49 35 3e
       -0.1638875 -0.11469753 0.11940678 0.17703927
0001b0 de ec af bc 72 6f 74 3d 3b 41 e8 3d 5e 46 e0 3c
       -0.021475252 0.059676595 0.11340567 0.027377304
0001c0 f6 a9 86 bd d0 c1 84 3e f2 2b 13 be 24 76 38 be
       -0.06575386 0.25929117 -0.14372233 -0.18013817
0001d0 24 eb 0e 3c f0 80 33 3a 11 07 7b 3d 8f 0b a6 bd
       0.008723054 0.0006847521 0.061286036 -0.081076734
0001e0 65 9a a3 be 88 fa 8d 3e df 2f 83 3e ce 18 f2 3d
       -0.3195373 0.27730203 0.2562246 0.11821137
0001f0 0f 70 59 be 73 be 95 3e dd cb 32 3e d0 48 18 3e
       -0.21234153 0.29246864 0.1746058 0.14871526
000200 3e df 49 3e 24 c1 18 3d 93 f1 03 3e 1f b2 03 bd
       0.19714066 0.03729357 0.12885122 -0.03215229
000210 dd 54 86 be f9 dc c5 be 60 4f f5 bc f4 d5 b1 bd
       -0.2623662 -0.3864515 -0.029945076 -0.086833864
000220 4c de a8 be 74 58 1c be c6 0c f6 bd b6 70 50 be
       -0.329821 -0.15268117 -0.12014155 -0.20355496
000230 15 f0 13 3e 9d 93 fe bd 65 8d 06 be f2 e3 92 be
       0.14447053 -0.12430499 -0.13139875 -0.28689533
000240 5c 8a 9e 3e 48 0b a5 3e 8b c7 0a 3e ae 15 ae bd
       0.30964935 0.3223517 0.13552682 -0.08500229
000250 28 b3 26 bb d0 7c 07 bc 1d 8b 0b 3e 4f 3f 81 bc
       -0.0025436375 -0.008269504 0.13627286 -0.015777258
000260 0a bb 92 3e 1e e7 22 be 4f 99 f3 3d 9e 17 26 3e
       0.28658324 -0.15908477 0.11894476 0.16219947
000270 d8 c4 3f bd be 8e 70 bc ae 14 23 be 00 00 4f be
       -0.046818584 -0.01468247 -0.15925857 -0.20214844
000280 53 c5 21 bd 6e 03 84 3c d4 91 5d 3c 94 c7 37 3d
       -0.039494824 0.016114917 0.013523538 0.044868067
000290 8a 78 60 bb 60 15 a3 bd f5 36 05 be 03 7f bd 3e
       -0.0034251534 -0.07963061 -0.13009246 0.37010965
0002a0 98 61 67 3e e7 d1 fb bd b9 45 ba 3d f8 d5 b4 be
       0.22595823 -0.12295895 0.0909533 -0.35319495
0002b0 dc d1 2b be 1b 83 6d 3e 4a 67 90 3e 71 1e c1 be
       -0.16779274 0.23194544 0.28203803 -0.37718537
0002c0 a8 fb c4 3d 26 04 16 be d5 29 00 3e 8b be f4 bd
       0.09618312 -0.1465002 0.12515958 -0.11950406
0002d0 0c 3d a3 bb 44 d9 0b 3c da ca 84 3d ad d9 43 3e
       -0.0049816426 0.008535687 0.06484003 0.19126005
0002e0 b7 f7 cf bc 05 06 35 3e f2 5c 1c 3e 48 df 8b be
       -0.025386674 0.17678078 0.15269831 -0.27318788
0002f0 ef b6 99 bd 96 b8 32 3e 44 26 95 be fd f5 7f bd
       -0.07505595 0.17453226 -0.29130757 -0.062490452
000300 77 16 bd 3e d4 7c e4 3b b0 d6 0e 3b b4 d6 57 bd
       0.36931202 0.0069728885 0.0021795444 -0.05269499
000310 32 95 7d bd 60 1f cc 3d 5e c9 90 3d 63 89 32 3d
       -0.061909862 0.09966922 0.07069658 0.043588053
000320 16 4b 03 3d 32 10 07 3e eb c3 b1 3d ba 9c ab be
       0.03205403 0.13189772 0.086799465 -0.3351801
000330 d6 10 51 bd a0 fb 44 be 3d 40 3e 3e d4 4c b6 3d
       -0.051041447 -0.19236612 0.18579192 0.089013726
000340 e7 37 0d 3e 35 d7 58 3d 29 21 5b be e9 55 23 3e
       0.13790856 0.052939612 -0.21399368 0.15950741
000350 c0 81 84 bd 87 28 15 be 42 86 a4 3e 9c 51 eb bd
       -0.0647006 -0.14566241 0.3213368 -0.11490175
000360 c3 37 01 3e 80 4f 6e be db eb 87 3e 18 2e bc bd
       0.12618928 -0.23272514 0.2654713 -0.09188479
000370 34 d4 4d be f7 48 d9 3d df 95 27 be c0 9d fe 3c
       -0.2010048 0.1060962 -0.16365765 0.03108108
000380 c4 96 4c 3c b4 f1 d4 3d 5e 9c c7 3d 66 ea 56 3e
       0.012487117 0.10397664 0.097466215 0.20987853
000390 5e 36 f1 bd 97 b7 95 3e f3 1f 93 3e cb e9 47 3e
       -0.11777948 0.2924163 0.28735313 0.19522779
0003a0 65 d0 99 3e 85 d1 19 3e 5d a4 ea 3d 94 22 3b 3d
       0.30041805 0.15021332 0.11457131 0.045687273
0003b0 78 62 0d bc 67 f0 63 3e d6 c9 05 bd 8c 46 86 3d
       -0.008629434 0.22259675 -0.03266319 0.065564245
0003c0 8e b6 a5 be 96 f6 10 be 5c c4 c4 bc 28 2d ef 3b
       -0.3236584 -0.14156565 -0.024019413 0.007299084
0003d0 8a ff 44 3e 08 0d 0c bd 1b 26 6a 3e b0 7b ab bd
       0.19238105 -0.034192115 0.22866099 -0.08373201
0003e0 94 1c 79 3d 3f f9 34 be c6 35 10 3d ed be 8c 3e
       0.06081827 -0.17673205 0.035207532 0.27489415
0003f0 9d 04 f0 3d 1e 32 7d 3e ae 71 64 bd d5 df 3f be
       0.1171963 0.2472615 -0.055772476 -0.18737729

fc2.weight f4 [256, 256]
000000 f8 7c 9f 3e 10 06 79 3d a4 74 82 3c e6 f2 cc be
       0.3115003 0.060796797 0.01592476 -0.40029067
000010 f3 a3 4e bd b7 dc 0d be 39 af 96 be 8f 6e a7 be
       -0.050449323 -0.13853727 -0.2943056 -0.32701537
000020 e6 8a a9 bd 80 df 75 bd 23 47 de 3d de 2c 45 bd
       -0.08278446 -0.0600276 0.10853412 -0.04813849
000030 ce e9 da bb ae 50 60 3e 0c 13 ac 3c 0f bb d7 3d
       -0.0066807037 0.21905777 0.021005176 0.105337255
000040 d0 46 9c 3d ae 3a 8d 3e 76 2b 6f be 5a c7 30 3d
       0.07630694 0.27583832 -0.23356423 0.043158866
000050 f5 f8 0c be 00 91 94 3e 39 35 92 3e c6 5b c8 3d
       -0.13766845 0.29016876 0.2855623 0.097831294
000060 94 68 8c bd e4 55 e3 bd 66 3a 2a bd e8 e3 86 3d
       -0.06855884 -0.11100367 -0.0415596 0.065864384
000070 c0 25 2c 3d 6f 09 4b 3e a5 b0 5b bd e0 ba 3d be
       0.04202819 0.19827817 -0.05363526 -0.18528318
000080 28 f6 18 bd ba 6c d5 bd c0 cf 7d ba 71 7f 87 bd
       -0.037344128 -0.104211286 -0.0009682141 -0.066161044
000090 db 64 4c be 4a e0 69 be c5 c1 03 3d 36 72 16 be
       -0.19960348 -0.22839466 0.032167215 -0.14692006
0000a0 70 6d 14 bd 2d 40 35 3e 36 0c 98 bd 37 2f 37 3d
       -0.03623718 0.17700262 -0.07424204 0.044722762
0000b0 98 0c 61 3d 44 96 04 be 96 19 88 bd 90 fb 1d 3e
       0.05494365 -0.12947947 -0.06645505 0.15427995
0000c0 55 33 88 3d d5 c1 91 3e 9b fc ae 3e ac fb d7 bd
       0.06650416 0.28468195 0.34177098 -0.105460495
0000d0 e2 c6 c8 bc b5 cc 4c bd a6 a8 7e 3e 20 db a0 be
       -0.024508897 -0.04999991 0.24869022 -0.3141718
0000e0 21 af 13 be 2d 01 94 bd 54 23 1d bd 00 3b 83 3e
       -0.14422275 -0.07226787 -0.03836377 0.2563095
0000f0 6e e8 aa bc 10 0a 8e 3d 69 1b a7 bd 55 ba 15 3e
       -0.020862784 0.06935513 -0.08159525 0.14621861
000100 12 7b fa 3d 9c 1b 3e bd 2d 2a b7 be f2 4e 16 be
       0.12230505 -0.04641305 -0.35774365 -0.14678553
000110 ce 2f be bd 04 1a 78 be 47 ae ad 3d 8c 2b 28 3c
       -0.09286462 -0.24228674 0.084805064 0.010264289
000120 b0 c1 c9 3d 06 5f 66 bd 80 4b 84 3b 52 a5 03 be
       0.09851396 -0.056242965 0.0040373206 -0.12856033
000130 80 ae 0c ba 48 04 ab bc fc f5 87 bd 7e 51 d6 3d
       -0.00053665787 -0.020876065 -0.06638715 0.10464762
000140 ca 1b 3a 3d 25 86 01 3d 37 29 42 3d 8d 38 88 3d
       0.045436658 0.03162207 0.047402587 0.06651411
000150 57 63 02 3e ab b3 21 be 82 93 84 be 4d 37 a2 3e
       0.12733208 -0.15791194 -0.2589379 0.31682816
000160 e0 75 e3 bc d8 86 b1 bd 18 f5 a8 bd 03 e4 80 bd
       -0.027766168 -0.086682975 -0.08249873 -0.0629349
000170 26 d3 de 3d ea a6 50 3e 18 47 fe bc 56 cc 31 3d
       0.10880117 0.20376173 -0.03103976 0.04340776
000180 dd f4 c5 3d 66 1d 4a 3e 0b 6a 31 3d cd 74 63 3d
       0.096658446 0.19737777 0.04331402 0.05553131
000190 30 dd 8d be 03 21 6b be 8c 99 8b 3e 05 48 20 be
       -0.27707815 -0.22961812 0.27265584 -0.15652473
0001a0 98 5a 86 bd 69 69 ee 3d 40 25 a7 3c 1c f8 1d 3e
       -0.06560248 0.11641199 0.020403504 0.15426677
0001b0 52 04 88 3e 2c 81 9c bd f8 6e 32 bd f1 22 9c 3e
       0.26565796 -0.07641825 -0.04356286 0.30495408
0001c0 78 8d 1d be a7 51 e7 3d d3 8d a1 be 52 9b 34 be
       -0.15385997 0.11294871 -0.31553516 -0.17637375
0001d0 e0 05 ab 3b 43 3b 30 be 90 f8 8f 3d ee 7b 31 bc
       0.005219206 -0.17210107 0.070298314 -0.01083277
0001e0 c8 3e 0c 3e 30 0e 06 3c ec 51 e7 bd e8 0e 39 3c
       0.13695824 0.0081820935 -0.11294922 0.011295058
0001f0 f6 a9 94 be 56 76 ad bc 75 45 47 be 96 7b a0 be
       -0.2903592 -0.021174591 -0.1946009 -0.3134429
000200 8f 6e c0 3d ee 06 33 bd a1 60 a5 3d 70 0e da bc
       0.093960874 -0.04370778 0.08075071 -0.026618212
000210 b2 97 af be bc 78 c7 be 81 20 9c be df c0 cf bd
       -0.34295422 -0.389593 -0.3049355 -0.10144209
000220 9b 00 fa 3d b1 bc 0c 3e f6 55 b5 bd 88 3e 6b bd
       0.12207147 0.13743855 -0.088542864 -0.05743268
000230 87 44 98 be 24 cb c5 bb 8a c5 3d 3e e1 f2 72 3d
       -0.29739782 -0.006036179 0.18532386 0.05931366
000240 a2 0b 8a 3d 5f 6e 44 bd 04 3d 6c bd 6a a3 1d 3e
       0.067405 -0.04795682 -0.057675377 0.15394369
000250 8c 4e 5c 3e fc 79 83 3d b9 5d f4 bd a0 63 aa ba
       0.21514338 0.06419751 -0.11931939 -0.0012999661
000260 28 ba cb 3d 94 43 28 3e e5 25 e8 bd b4 2d 85 bc
       0.09947616 0.16432029 -0.11335353 -0.016257145
000270 67 bb 0e 3e 58 b7 f7 bd 14 c9 f3 bc 3c 9b 63 3e
       0.13938676 -0.12095517 -0.029758967 0.22227186
000280 38 81 10 3d 31 c8 ad bd 7c aa 59 bc 3e ff 46 be
       0.035279483 -0.08485449 -0.013285276 -0.19433305
000290 5e d2 01 3d 40 0e 8b bd 76 57 09 3e d6 23 86 3c
       0.031694762 -0.06789827 0.1341227 0.01637451
0002a0 8b 58 17 be 30 b7 08 bb 24 08 58 be aa c7 ae 3c
       -0.1477987 -0.0020861141 -0.21096855 0.021335442
0002b0 a6 c7 da 3d 7e 85 7c bb 9b 46 a1 3d f1 0b ca bd
       0.10682611 -0.0038531716 0.07874795 -0.09865559
0002c0 e0 cd 43 3e f8 e7 c1 3e 55 cb cc be a1 36 25 be
       0.19121504 0.3787229 -0.3999888 -0.1613412
0002d0 e3 11 a2 3d 3d ef 35 3e 07 08 70 be 92 d8 c7 3c
       0.07913568 0.17767043 -0.23440562 0.024395261
0002e0 4a 59 51 3e 01 1a b8 3d 54 96 09 3e 66 7d e0 3d
       0.20444217 0.08989335 0.13436252 0.10961418
0002f0 5b d1 d2 be 19 11 c5 bd ed a6 84 3d 3d 22 a8 3d
       -0.4117535 -0.09622402 0.06477151 0.082096554
000300 1f 91 6d 3d 99 ce b2 3d 65 7b 8d 3e 09 46 fd bd
       0.057999726 0.087308116 0.27633205 -0.12366874
000310 d9 dd a0 be cc 1b fc bd d4 9e 0c bc 9f c8 10 3e
       -0.31419256 -0.12309989 -0.008582789 0.14139031
000320 f2 d1 99 bd 66 72 82 3e 7e f7 b6 bd 94 49 67 be
       -0.07510747 0.25477904 -0.08933924 -0.22586662
000330 52 19 8f 3e 42 76 50 be e8 31 cd bd 60 18 a6 3a
       0.27949005 -0.20357612 -0.100192845 0.0012672059
000340 bb ac 34 be 1f d4 d7 3d c8 fa 2a 3e 8b 0c ca be
       -0.17644016 0.10538506 0.16697228 -0.39462695
000350 ff 2b e1 bd 98 be 0c 3e f5 6a 6f be 0a 1c 2d 3e
       -0.1099472 0.13744581 -0.23380645 0.16905227
000360 ff af 41 3e c4 5a 1d bc 0e be 8b bc 5b 19 59 bd
       0.18914793 -0.00960416 -0.017058399 -0.053002696
000370 44 c5 20 3e 50 ab f8 bc f6 7f 86 bd 4d ee 4a be
       0.15700251 -0.030355126 -0.06567375 -0.19817467
000380 6d 47 92 be a0 70 97 be aa b7 87 3e cc c9 98 3d
       -0.2857012 -0.29578114 0.26507312 0.07460365
000390 6d 0f 2b 3d 51 9d 30 bd 54 77 eb 3e 83 1e 9a be
       0.041762758 -0.04311878 0.45989478 -0.30101404
0003a0 59 f2 4d bd d1 27 9f bc ea 52 bd 3d 2a 1a 8e bd
       -0.05027995 -0.019428166 0.0924433 -0.06938584
0003b0 91 2c 78 3e 44 1f cb bd 74 61 2b be ce cf 94 3e
       0.2423575 -0.09918073 -0.16736394 0.29064792
0003c0 cb fe c9 bc 1e aa 2c 3d cf 76 0b be be d2 7c be
       -0.024657628 0.042154424 -0.1361954 -0.24689767
0003d0 e4 bf 39 3e 1f 79 80 bc 51 da e4 3d ab 96 66 3e
       0.18139607 -0.015682755 0.11174453 0.22518413
0003e0 66 f1 90 be 27 a7 12 bd 74 5a 1d be d8 a2 80 3c
       -0.28309172 -0.03580394 -0.15366536 0.01570265
0003f0 80 2b 85 bd 6d ef c7 bd 96 fa 29 be c6 4c 8e 3d
       -0.065024376 -0.09762464 -0.16599497 0.06948237

fc2.bias f4 [256]
000000 84 75 a8 bd 4d b3 14 be 54 f7 c6 3d 7c d4 a1 3c
       -0.08225539 -0.14521523 0.09715143 0.01975464
000010 13 6e ba bd 3a 9f 49 3e 2a 90 b5 bd 7c e8 89 3c
       -0.09103026 0.19689646 -0.08865388 0.01683449
000020 b7 eb 15 3e 46 e0 9e 3d 1a 53 43 be b8 04 57 be
       0.146407 0.077576205 -0.1907467 -0.20997894
000030 27 8a 0f 3d ef 35 92 3e d0 7f a6 be b4 3f cb 3e
       0.03504386 0.28556773 -0.32519388 0.3969704
000040 88 55 e5 bc 41 ff 08 3e 90 30 e0 bd 10 6c 3d bd
       -0.027994886 0.13378622 -0.109467626 -0.046245635
000050 7d 23 0c be 7a 70 a7 bc ec b1 12 3e be cb a2 3c
       -0.13685413 -0.020439375 0.14325684 0.019872542
000060 95 6d 83 be f2 ef 50 3e 12 fc 7d 3d 20 c2 34 bd
       -0.25669542 0.20404032 0.06200797 -0.044130445
000070 f2 cd b8 3d f0 86 64 3b 21 94 26 3e da 70 f1 3d
       0.09023656 0.0034870468 0.16267444 0.11789103
000080 7e c8 46 3e aa 65 5d 3d 04 02 92 3d da de b6 3d
       0.19412419 0.054052033 0.07129291 0.08929224
000090 aa af de 3c 1c 49 6e 3e e2 d8 69 be 4e d9 3e 3e
       0.027183373 0.23270077 -0.2283664 0.18637583
0000a0 c2 82 84 be 76 3e db bd e4 f7 91 bd 74 68 88 be
       -0.2588101 -0.10705273 -0.071273595 -0.2664219
0000b0 dc cc 4f 3d 9b 00 86 bd 9a 8f 90 3d 7e 08 d6 3d
       0.05073248 -0.06543084 0.0705864 0.104508385
0000c0 1d 99 b7 3e cc c1 0f bd 8e 44 9f 3d 4e 8b 68 3d
       0.35859004 -0.03509693 0.07776748 0.056773476
0000d0 ae b6 1d bd d0 e9 bf bc f3 2d 86 3e 30 d3 e8 bb
       -0.038504295 -0.02342692 0.2620693 -0.0071052536
0000e0 90 9d 0e 3b d4 7a 69 be 44 c4 c8 bd bd 22 69 3d
       0.0021761395 -0.22800761 -0.0980306 0.056917895
0000f0 ac 37 d5 bc 40 8d af ba 00 05 5f bd b8 5d bb 3b
       -0.026027523 -0.0013393536 -0.054448128 0.0057179593
000100 88 e7 05 bd 4c 12 fa bc ff 49 32 3d a0 78 90 3d
       -0.03269151 -0.030526303 0.0435276 0.070542574
000110 c3 8f 8a 3e 49 dd 03 3e 34 5c 51 3e 9b ba b5 3e
       0.27062806 0.12877382 0.20445329 0.3549393
000120 4c 95 e9 3e 4e d3 4a be f0 10 3e 3d 3e d9 b0 bb
       0.45621717 -0.19807169 0.04640287 -0.005396991
000130 0d ac ba 3d 25 d8 f1 3e 03 c0 c9 3e f5 41 7c bd
       0.09114847 0.47235218 0.39404306 -0.06158634
000140 4b d3 9c be 89 44 a8 be bf e1 3e be 6f aa 1a 3e
       -0.30629954 -0.32864788 -0.18640803 0.15104078
000150 c4 a2 fe 3d 40 9e 2d be ae 5b bd 3d 7c f9 78 be
       0.12433389 -0.16954899 0.09246002 -0.2431392
000160 f4 a4 38 3e 6e e2 7f 3e 0c 67 5e 3e ce c7 f4 bc
       0.18031675 0.2498872 0.21718997 -0.02988043
000170 8a 53 74 bd 0b e4 c1 3d 28 2e 3f bd bc c0 2f be
       -0.05964998 0.09467324 -0.046674877 -0.17163366
000180 7c 3d 9a 3c 37 03 00 3e 18 cb d9 3d a4 1b a5 3e
       0.018828146 0.12501226 0.1063444 0.3224765
000190 a0 05 4e 3d ff a9 01 3e 8a 7d 05 be 57 b4 84 3d
       0.050298333 0.12662505 -0.1303617 0.064797096
0001a0 7c 11 fb bc 5c 20 dc 3d b8 3c e1 bd c9 ad 82 3e
       -0.030647986 0.107483596 -0.10997909 0.25523213
0001b0 a7 60 96 3e b3 8e 5f 3e 1c 91 2a 3e 67 e0 8c be
       0.29370615 0.21831779 0.16656917 -0.27514955
0001c0 68 78 47 3b 8c c9 cc bd d0 39 e6 bd 8d e4 e9 bd
       0.0030436758 -0.099993795 -0.112414956 -0.11420546
0001d0 0c bb 38 be 40 7c 02 3d 8f 07 fd bd ad d3 44 3d
       -0.18040103 0.031856775 -0.12354957 0.048053432
0001e0 7a 4f c9 3c 09 5c 89 3e 73 46 78 3e 76 05 8e 3e
       0.02457403 0.2682803 0.24245624 0.2773854
0001f0 ce fd d0 bd 7b 64 09 3e 96 ca 3d be 8d cd 91 3e
       -0.102046594 0.13417237 -0.18534312 0.28477135
000200 4e 06 ab 3e 0c d7 57 3d 83 47 42 3d f5 11 b3 bd
       0.33403248 0.05269532 0.04743148 -0.087436594
000210 44 ca 12 be 90 52 39 be 2d 5f 01 3e 64 df f1 3e
       -0.1433497 -0.18097901 0.12633963 0.47240746
000220 80 1d 02 be c2 24 15 3e 14 f6 6b 3e a0 b5 af bb
       -0.12706566 0.14564803 0.2304309 -0.0053622276
000230 66 d6 a5 3d 45 77 c6 3d 86 ab 2f 3c ee 50 fe 3d
       0.08097534 0.096907176 0.010722047 0.1241778
000240 84 f3 4e bd 1b ba 71 bd bc 6d eb bd 70 74 25 3d
       -0.050525203 -0.059015375 -0.114955395 0.040394247
000250 4b 4d f8 bc 11 87 d1 bd c5 6d 20 be fc 93 5d be
       -0.030310294 -0.1023084 -0.15666874 -0.21638483
000260 69 65 82 3d 48 9b a7 bd d4 19 cd 3d 0e 18 cd bc
       0.06366999 -0.081839144 0.10014692 -0.025035884
000270 2c 68 49 bc c8 8a a7 bd 8d 61 9b 3d 00 80 d8 38
       -0.012292903 -0.08180767 0.07586966 0.000103235245
000280 3d f9 9f 3d 81 a5 40 be ce ae 6f 3d c6 d9 73 3c
       0.0781121 -0.18813135 0.058516316 0.014883464
000290 c9 87 ab be cc ac 05 3e 8e e6 f1 bd 1a 26 b5 3c
       -0.33502033 0.13054198 -0.11811553 0.022112895
0002a0 03 b3 31 be 51 4e e3 bd 16 c4 3c 3e 80 86 fb bd
       -0.17353444 -0.11098922 0.18434176 -0.12281513
0002b0 eb 3c a2 3d e0 a3 9a 3d d0 6f 44 bd 6a e1 e0 3d
       0.079217754 0.07550788 -0.047958195 0.10980494
0002c0 38 79 1a bd ea 46 8c 3d fe cc 3a bd 91 f5 e5 bc
       -0.03771326 0.06849463 -0.045605652 -0.028071197
0002d0 0b af f9 3d 41 31 90 bd 24 74 e2 3e 07 a2 eb 3d
       0.1219159 -0.070406444 0.44229233 0.11505514
0002e0 2e e5 06 3e 01 dc 87 be 3c ab c3 3d d8 fa 20 3e
       0.13173363 -0.26535037 0.09554145 0.1572069
0002f0 22 9a cb 3e f3 f8 47 bd 4a e9 74 be d9 36 43 be
       0.39766032 -0.0488214 -0.23917118 -0.19063891
000300 d8 8a 41 be 17 74 14 3e 88 ce c7 bd 91 e7 e5 bd
       -0.18900621 0.1449741 -0.097561896 -0.112258084
000310 f8 2b 4a 3e 84 b5 e3 bd 4a c7 c8 bc 6c 16 39 3c
       0.19743335 -0.11118606 -0.02450909 0.01129685
000320 b6 22 7f bd ce f1 19 bc 10 e3 16 3e 12 11 ad bd
       -0.062288962 -0.00939603 0.14735055 -0.084505215
000330 61 93 b6 3e 22 20 4b be fe 97 23 3d e4 a6 8a 3d
       0.35659316 -0.19836476 0.039939873 0.06770113
000340 52 a4 b4 bd dd bd 3d 3e 9b c8 0f 3e 64 10 07 3c
       -0.08820404 0.18529458 0.14041369 0.008243654
000350 b2 1a 93 3c 1e ed c7 3d d0 a3 db 3e 8b 23 90 be
       0.017957065 0.097620234 0.42898417 -0.28152117
000360 10 b6 d9 bd 90 06 dc 3c 07 d2 80 3e 3c f9 7e 3e
       -0.10630429 0.026858598 0.25160238 0.24899763
000370 f0 ad 55 3c 80 ae 65 3e 85 5d 00 be 1b 60 11 3e
       0.013041958 0.22429848 -0.12535675 0.14196818
000380 2a 3f d3 3c aa 13 59 be 4e 1f 51 be 84 80 d6 bd
       0.025786955 -0.21198907 -0.20422098 -0.10473731
000390 42 92 cd 3e 60 d7 0f 3e 9f fd 9d be 80 73 3a bd
       0.40150648 0.14047003 -0.3085756 -0.045520306
0003a0 d0 74 5b bd dd 51 59 3e 50 38 f1 3c 5a f9 ee 3c
       -0.053578198 0.21222635 0.029445797 0.029171634
0003b0 dc 19 c9 3d 74 3a 84 bd e1 46 2b 3d 4e 4b 05 3d
       0.098193854 -0.064564615 0.041815642 0.03254252
0003c0 6a 08 1d 3d 9b e7 04 be 0e 31 84 3e 4e 29 3d bd
       0.038338102 -0.12978975 0.25818676 -0.04618197
0003d0 9e 21 2a bd 1e b2 6c 3e a4 1b 2b be 0f 76 85 3d
       -0.041535966 0.23114821 -0.16709763 0.065166585
0003e0 5d 4c a6 3e 49 42 cf bd 4b 53 78 be de d9 c3 3d
       0.32480136 -0.10120065 -0.24250524 0.09563039
0003f0 cb 01 8b be 30 ff 72 bc 03 95 08 be a2 59 92 3d
       -0.27149805 -0.014831349 -0.13338093 0.07146002

fc_mu.weight f4 [3, 256]
000000 61 73 7c 3e c1 fd 30 3e 21 35 db bd 56 97 8b 3e
       0.24653389 0.172843 -0.10703493 0.27263898
000010 b1 8c a9 3d de 1f e3 3d 3a b7 43 be ef ea 4e 3e
       0.08278788 0.110900626 -0.19112864 0.20206808
000020 4c 9f 85 be 22 1b ec bd 44 ec e5 3d e2 30 e8 bd
       -0.26098096 -0.11528613 0.11226705 -0.11337449
000030 e4 2c a1 3d e7 21 b3 bd 45 9e 28 3e ca d0 fa 3c
       0.0786989 -0.08746701 0.16466625 0.030617137
000040 ca 3b 39 bd 64 54 91 3c e6 cc c2 3d 58 57 88 bb
       -0.045223035 0.017740436 0.095117375 -0.004160803
000050 70 6a 51 3e aa 1d 89 3c d5 36 9d bd 66 f6 20 3c
       0.20450759 0.016737778 -0.07676474 0.009824371
000060 27 fa f8 3d 98 47 ed bc 74 b9 44 3e 1d a2 e1 3d
       0.12157088 -0.028964803 0.1921137 0.11017249
000070 53 99 09 3d 73 1a fe 3d 24 d9 d1 3d 29 cd ac bd
       0.033593487 0.124073885 0.102464944 -0.08437569
000080 b0 03 71 bd e2 76 36 3e bd cc 16 3e 5e dd 95 bd
       -0.058841407 0.17818788 0.14726539 -0.07317613
000090 3e 5d 97 3c 6d 0b a5 be bf e3 a8 bd 2a 1b 64 3d
       0.018477079 -0.3223528 -0.08246564 0.05568997
0000a0 8a 60 12 3e b6 e6 c9 bd 8b 7a 85 be f3 dc 1a 3e
       0.14294639 -0.09858458 -0.26070055 0.15123348
0000b0 a2 39 1b 3e fc 93 63 be c5 e3 d6 bd 12 28 91 3e
       0.15158704 -0.2222442 -0.10492662 0.28350884
0000c0 f0 17 31 be 22 70 35 3e 54 88 43 3e 84 d3 8a bd
       -0.17294288 0.17718557 0.19094974 -0.06778625
0000d0 70 2d 71 3c 2d aa d6 bd c1 53 6f 3e 16 9e 5d be
       0.014720306 -0.10481677 0.23371793 -0.21642336
0000e0 d5 67 4c 3d cf f3 a9 be b0 67 66 be fe d0 bf bd
       0.04990371 -0.33193824 -0.22500491 -0.09366034
0000f0 73 bf 89 be c7 1c 33 3e 4f ec 52 3d 70 95 f6 3d
       -0.26903877 0.17491446 0.051494893 0.12040222
000100 7a d2 bd 3d b7 42 39 be 74 5d 97 3e f8 2b 5b 3e
       0.09268661 -0.18091856 0.29563487 0.21403491
000110 b4 28 34 3e f1 48 22 3e 07 0b 5e be 15 ae c3 bd
       0.17593652 0.15848137 -0.21683894 -0.09554688
000120 42 c7 c5 3d bf ca 91 3e ca 81 e0 bd ae 74 4d 3e
       0.09657146 0.28474995 -0.10962255 0.20064041
000130 04 2f f2 3e 8a 30 f3 bd 2a d3 70 be b8 69 af bd
       0.47301495 -0.118744925 -0.23518053 -0.08565086
000140 1a 83 2b 3e b7 d8 89 bd b2 a1 e2 3d f8 48 ce 3d
       0.1674923 -0.06730788 0.11065997 0.100725114
000150 10 41 26 be ac 47 b4 bd b1 f1 38 3e e0 41 dd 3d
       -0.16235757 -0.08802733 0.18060948 0.1080358
000160 87 f3 c1 be ee b6 32 bd 28 cc a1 3d d6 54 fc bc
       -0.3788111 -0.043631487 0.07900268 -0.030802172
000170 d7 e4 64 be ab 63 b5 be dc 36 4c 3d b5 67 7c bb
       -0.2235292 -0.35427603 0.049857005 -0.0038513963
000180 ac 0c 03 be ba 70 ed bd 46 33 5f be 8a b9 40 3e
       -0.12797803 -0.115937665 -0.21796903 0.18820778
000190 d0 fa 02 be d8 a7 e8 3d 22 f6 5b 3d aa b5 ab bc
       -0.1279099 0.11360139 0.053701527 -0.020960648
0001a0 fa 37 cf 3d f5 b5 31 3e aa 89 f6 bd 67 72 52 be
       0.101180986 0.17354567 -0.12037976 -0.20551454
0001b0 25 a4 9e 3c f9 6a b1 3d db 05 43 3e f7 ab 52 3e
       0.01936538 0.086629815 0.19045202 0.20573412
0001c0 c8 8e 19 bd d9 b5 50 be b2 71 45 bd 19 5a 2f 3e
       -0.037489682 -0.2038187 -0.04820413 0.17124213
0001d0 9a df 22 bd cc a8 8a 3d a4 f6 27 3d 28 2e 4d be
       -0.039764024 0.06770477 0.0410067 -0.20037138
0001e0 b0 a4 80 3e df 55 53 3e 6e 1b 61 3d 30 0a a5 be
       0.25125647 0.20638226 0.0549578 -0.32234335
0001f0 a4 11 17 3d 40 e2 de bd 12 05 89 be bd 92 93 3e
       0.036882058 -0.108829975 -0.2676168 0.2882289
000200 0b e6 14 3c a6 f6 c0 3e c7 ba b4 3e 1d ad 87 3d
       0.00908805 0.37688178 0.3529875 0.066248156
000210 29 f4 75 3d ec 91 a8 3c 52 81 81 3e 54 80 16 be
       0.060047302 0.020577393 0.25293976 -0.14697391
000220 04 af 2b 3e fd 2e dd 3c 23 60 8d bd 92 02 b6 3d
       0.16765982 0.026999945 -0.06903102 0.08887209
000230 76 5c f7 3c 88 8d 92 3c 10 21 37 3b 30 e3 32 3e
       0.030195456 0.017889753 0.002794329 0.17469478
000240 66 28 88 3d 9b 01 60 3e 7b 51 e5 be 9c 97 5b 3e
       0.066483304 0.21875612 -0.44788727 0.21444553
000250 6e 71 2e 3e 7c f4 3f be ca 4f e6 bc ae 81 ed 3d
       0.17035457 -0.18745607 -0.028114218 0.11597
000260 1a 53 be bd 20 ea 1b 3b 8e 5c 8d bd 13 4a 17 3d
       -0.09293194 0.0023790672 -0.06902419 0.036935877
000270 d4 08 df 3d 2c 60 08 3d 57 ce 5f bd 5e 69 3f 3e
       0.10890356 0.03329484 -0.05464014 0.18692538
000280 25 64 8c bd ae 2d 25 3c a6 c0 7e be d4 51 05 3d
       -0.068550386 0.010081692 -0.24878177 0.03254874
000290 47 ef a4 bd 15 76 1f bd 60 d2 bd bc 8e 1c c9 3d
       -0.08053451 -0.03893097 -0.023171604 0.098198995
0002a0 40 4e d6 bd 7c 38 de bc c4 ab b1 3c 36 48 9c 3e
       -0.10464144 -0.027126543 0.02168835 0.30523843
0002b0 cc 57 1c be 1f 3a 39 3d da f7 be 3d b8 e8 08 3e
       -0.15267867 0.045221444 0.09324618 0.13370025
0002c0 ef 82 45 3e 62 60 20 3e c3 e9 f3 3e 69 03 2e 3e
       0.19288228 0.15661767 0.47639284 0.16993488
0002d0 ab 9c 91 3d f4 f7 ba bd d6 45 2e be 17 42 5e 3e
       0.0710996 -0.091293246 -0.17018828 0.21704899
0002e0 55 48 80 3e 96 fb 41 3d ae 24 9c be 7e 58 39 be
       0.25055185 0.04735907 -0.30496734 -0.18100163
0002f0 4e 6c 15 3d d2 ba 2e 3e b9 aa ea 3c ee b5 d4 3d
       0.03648024 0.17063454 0.02864586 0.10386263
000300 10 ab 84 3d 2d 90 63 be c8 c5 d3 bd f4 2c 55 3e
       0.0647794 -0.22222967 -0.10340458 0.2081793
000310 2a 04 42 be 21 a1 87 be 33 c9 6e bd 09 0c e7 3c
       -0.18946901 -0.2649012 -0.058297347 0.028203981
000320 60 65 55 bb af 82 6b 3e 0c e2 c9 3c 25 60 13 3e
       -0.0032561645 0.2299907 0.02464392 0.14392145
000330 bb 1b d9 bd 70 05 db bd 93 2f 87 3d 60 0a 22 3e
       -0.10600992 -0.106943965 0.06600871 0.1582427
000340 14 da 33 3d f7 4a 1f 3e c2 35 90 bd bc 53 3b 3e
       0.043909147 0.1555594 -0.070415035 0.18293661
000350 e7 6a e5 3c 9c f4 4d 3e 42 a3 18 3d 9a b3 09 3f
       0.028005077 0.20112842 0.03726507 0.53789675
000360 ce 24 20 3e c0 74 f4 3b 12 4e 49 3e ba 06 98 be
       0.1563904 0.0074602067 0.19658688 -0.29692632
000370 ee b9 06 bd 66 58 d5 3c 81 42 dd 3d 1c 43 2f be
       -0.03289216 0.026043128 0.108037 -0.17115444
000380 e7 0b 91 bd 52 db 07 3e 66 43 0b bd 1c ff 59 be
       -0.07082348 0.13267258 -0.033999823 -0.21288723
000390 60 8c 8c 3e 64 c8 0e be e8 be 30 bc 58 74 b9 3d
       0.27450848 -0.1394363 -0.010787703 0.09055394
0003a0 de cc f8 3d 74 d9 a8 bd a6 85 78 bd 52 dd d5 3d
       0.1214845 -0.08244601 -0.060674332 0.10442604
0003b0 a8 5d 71 bd 6a 42 4d 3d 52 9c 65 3e f9 08 ad bd
       -0.05892721 0.050112166 0.22422913 -0.08448977
0003c0 a2 7d 8b bd 26 4d 69 bc 58 e8 35 3e b0 f1 85 be
       -0.06811072 -0.014239585 0.17764413 -0.26160955
0003d0 84 0a 20 bd d1 b0 c5 be c6 7b b3 3d 6a 5e e2 3d
       -0.03907253 -0.38611463 0.08763842 0.11053164
0003e0 95 1e b4 be e3 c0 54 be 77 a7 55 3d 1b c7 ed bd
       -0.35179582 -0.20776705 0.05216166 -0.11610242
0003f0 98 67 cd 3c 52 03 86 3d 08 0b e3 3d 86 93 b2 be
       0.025073811 0.06543602 0.110860884 -0.34878176

fc_mu.bias f4 [3]
000000 5a 44 1f bb 8e 7b cb bd b9 7e 2f 3e
       -0.0024302215 -0.099356756 0.17138185
