ga_weights/ga1/Hopper-v5/TD3/weights9.pt (torch, 281441 bytes, 6 tensors)

fc1.weight f4 [256, 11]
-0.110956624 0.3682466 0.13983282 -0.08620641 0.41878748 0.071046814 -0.23864031 -0.019558884
-0.1009617 -0.04052107 0.118193224 -0.02308071 -0.06754801 0.012685269 0.13249478 0.03583012
0.08422803 -0.21648563 -0.14626159 -0.25040275 -0.017719045 -0.10702438 -0.1474955 0.27330887
-0.12445706 0.34477508 -0.30583686 0.081484936 0.16911697 -0.0778832 0.1970369 -0.5673112
0.14085317 0.21059139 0.20263031 0.21144333 0.4379551 -0.18554991 0.36327755 -0.23580256
-0.055454813 0.18679102 -0.24436662 -0.083739154 -0.21616235 0.22529632 0.15343787 -0.35544163
0.06916383 -0.16523516 0.0016671419 -0.3420124 -0.25436077 -0.08418452 0.11918647 -0.07770643
0.0743164 0.37372816 -0.15167554 -0.23044318 0.2839931 0.012862761 -0.11124876 -0.0057270713
-0.09715312 -0.08620943 -0.047193434 0.019617878 0.08503543 0.097532816 -0.038362432 0.22059971
-0.027030788 -0.3449269 0.34063333 0.11389804 0.1402654 0.021212332 0.015968103 -0.00015905872
0.098577894 -0.07663175 0.21118943 0.109424084 -0.158341 0.18447857 0.09564572 -0.017483242
0.05103359 -0.6062499 -0.0792948 -0.34048307 0.026168726 0.030953163 0.11984491 0.009004269
-0.61089647 0.023710955 -0.0535597 -0.29391146 0.22646564 -0.41641134 0.35964245 -0.35909244
-0.32644776 -0.10643956 0.030271638 -0.38508973 0.028334305 0.1034794 0.18245557 0.08220228
0.029790603 -0.24397404 0.0839964 0.04867573 -0.29628056 -0.01747255 -0.4012204 -0.061429188
-0.3087736 -0.18455741 -0.001525145 -0.08232291 0.047072448 -0.007428432 0.1678712 -0.052914295
0.23837736 0.21882907 -0.0046665072 -0.17650996 0.21189785 -0.12694676 -0.1405766 0.16745003
-0.12371703 0.1322211 0.13314179 0.064945735 -0.14848836 0.23744194 0.12407386 -0.07516918
-0.4499883 0.14761452 0.3002236 0.25665826 -0.14603323 -0.31069082 -0.3221979 0.006001821
0.12811965 0.16610338 0.21324852 0.22050062 0.2585529 0.0915229 0.16688594 0.4315172
0.09067403 -0.13917248 -0.3601701 0.11422192 0.39688998 -0.3337874 -0.05807429 -0.18479876
0.042553373 -0.3832719 0.10405656 -0.0933688 -0.2571574 0.3388085 0.185368 -0.33675322
-0.047389776 -0.13954738 -0.1955455 0.3894951 -0.13519776 -0.08512783 -0.09235617 -0.27070287
0.04971216 -0.014276594 -0.051063005 -0.027451832 -0.18028137 0.019931056 0.13549563 0.02645716
-0.2297883 -0.1154283 -0.06733076 0.3149649 0.06303461 -0.0143559 -0.03225276 0.04156868
-0.10841879 -0.029333033 0.015115421 -0.10689385 -0.366527 -0.022008814 -0.1276575 0.2153803
0.0074478015 -0.024698649 -0.2474794 0.090446904 0.039001554 0.030215234 -0.016891755 -0.15011063
-0.19497472 0.01654435 0.3005441 -0.039624404 0.07864134 0.0022269525 -0.0031391233 -0.2451259
0.024075164 0.13495114 0.15551326 -0.00940495 -0.16216354 0.057295866 -0.046455286 0.10537973
-0.0012579574 0.16989347 -0.062192813 -0.14708419 0.08758245 -0.18048425 0.009021997 -0.24427935
-0.40586153 0.18990597 -0.30296963 -0.061671376 0.16962881 0.04487821 -0.058311634 0.07625059
-0.09748738 -0.06537159 -0.18127567 0.22645889 0.2689023 -0.20826678 0.013510298 0.13061292
00000000: 3a3d e3bd d18a bc3e 5630 0f3e fc8c b0bd
00000010: 506b d63e fe80 913d 205e 74be f439 a0bc
00000020: 02c5 cebd 6cf9 25bd 4a0f f23d c213 bdbc
00000030: 9c56 8abd e0d5 4f3c b6ac 073e 9bc2 123d
00000040: bf7f ac3d 69ae 5dbe 99c5 15be ca34 80be
00000050: 8827 91bc 992f dbbd 0f09 17be 24ef 8b3e
00000060: 58e3 febd 5c86 b03e a696 9cbe 93e1 a63d
00000070: 002d 2d3e 3a81 9fbd 0bc4 493e 4f3b 11bf
00000080: d03b 103e 45a5 573e 527e 4f3e 9a84 583e
00000090: a73b e03e cc00 3ebe 84ff b93e 3a76 71be
000000a0: 9624 63bd 2546 3f3e 3e3b 7abe 6f7f abbd
000000b0: aa59 5dbe 14b4 663e d11e 1d3e 72fc b5be
000000c0: c4a5 8d3d 6833 29be 0084 da3a 401c afbe
000000d0: 933b 82be ef68 acbd 0918 f43d 8c24 9fbd
000000e0: 3233 983d 4c59 bf3e d550 1bbe 4cf9 6bbe
000000f0: 8b67 913e 54be 523c 64d6 e3bd 28aa bbbb
00000100: 37f8 c6bd 928e b0bd e74d 41bd acb5 a03c
00000110: 0e27 ae3d 49bf c73d ed21 1dbd e4e4 613e
00000120: ac6f ddbc 429a b0be 7e67 ae3e 6043 e93d
00000130: bca1 0f3e 7cc5 ad3c 8acf 823c 00c9 26b9
00000140: 35e3 c93d 1bf1 9cbd 0b42 583e bc19 e03d
00000150: 2524 22be f3e7 3c3e e7e1 c33d 0439 8fbc
00000160: 9908 513d 3233 1bbf 5065 a2bd cc53 aebe
00000170: cc5f d63c 7d91 fd3c 4071 f53d a486 133c
00000180: b663 1cbf 7a3d c23c 6a61 5bbd 907b 96be
00000190: 9ce6 673e de33 d5be 0e23 b83e f7da b7be
000001a0: 2924 a7be fcfc d9bd 3afc f73c 7b2a c5be
000001b0: 581d e83c 02ed d33d a2d5 3a3e ab59 a83d
000001c0: 6c0b f43c 55d4 79be 4e06 ac3d 3460 473d
000001d0: 16b2 97be 9822 8fbc c36c cdbe 2c9d 7bbd
000001e0: 9317 9ebe 9efc 3cbe 60e7 c7ba ea98 a8bd
000001f0: 0acf 403d 346a f3bb 6ee6 2b3e a9bc 58bd
00000200: 3219 743e ba14 603e 80e9 98bb 07bf 34be
00000210: c0fb 583e 55fe 01be 50f3 0fbe 0578 2b3e
00000220: 5b5f fdbd f864 073e 5256 083e 4502 853d
00000230: 550d 18be fb23 733e 701a fe3d 4df2 99bd
00000240: de64 e6be 4328 173e e8b6 993e b668 833e
00000250: bc89 15be de12 9fbe 20f7 a4be ecaa c43b
00000260: cc31 033e 0117 2a3e d25d 5a3e eaca 613e
00000270: 0c61 843e 5c70 bb3d 26e4 2a3e d3ef dc3e
00000280: 4eb3 b93d 3b83 0ebe 3768 b8be 2fed e93d
00000290: 2a35 cb3e 2fe6 aabe 4fdf 6dbd e33b 3dbe
000002a0: 724c 2e3d 373c c4be 9b1b d53d 2438 bfbd
000002b0: 22aa 83be 4f78 ad3e 1cd1 3d3e eb6a acbe
000002c0: c81b 42bd 82e5 0ebe 143d 48be e76b c73e
000002d0: 4871 0abe 8057 aebd 3b25 bdbd 9199 8abe
000002e0: fa9e 4b3d 60e8 69bc 7127 51bd aae2 e0bc
000002f0: ae9b 38be 7446 a33c 5ebf 0a3e b0bc d83c
00000300: a04d 6bbe ac65 ecbd b6e4 89bd 1443 a13e
00000310: 4a18 813d 0235 6bbc 781b 04bd ec43 2a3d
00000320: ac0a debd d44b f0bc aca6 773c 2aeb dabd
00000330: 6da9 bbbe d44b b4bc a6b8 02be a78c 5c3e
00000340: b00c f43b d254 cabc 3d6b 7dbe 3a3c b93d
00000350: 18c0 1f3d f085 f73c 9460 8abc 9ab6 19be
00000360: 74a7 47be 0488 873c ebe0 993e 334d 22bd
00000370: b60e a13d 10f2 113b c0b9 4dbb 4902 7bbe
00000380: 4739 c53c a230 0a3e de3e 1f3e 3817 1abc
00000390: 330e 26be 12af 6a3d e647 3ebd 54d1 d73d
000003a0: 0ce2 a4ba 8ef8 2d3e e4bd 7ebd 3d9d 16be
000003b0: 6d5e b33d ddd0 38be 00d1 133c 5e24 7abe
000003c0: 15cd cfbe b676 423e d61e 9bbe 209b 7cbd
000003d0: 2db3 2d3e 37d2 373d 2ed8 6ebd 4529 9c3d
000003e0: 77a7 c7bd 8ae1 85bd 54a0 39be d7e4 673e
000003f0: 90ad 893e e343 55be 4c5a 5d3c 65bf 053e

fc1.bias f4 [256]
0.41980928 -0.15360579 0.10998071 -0.32837477 0.2559659 0.22289732 0.11348757 -0.42445275
0.1342147 -0.13743222 0.14744508 -0.02862355 -0.15727311 -0.22780484 0.09227545 -0.06931159
-0.0052066967 0.08254907 -0.15598002 -0.11079615 -0.38714084 0.08597744 -0.018663764 0.21269298
0.07181307 -0.18238509 -0.10428735 0.16623187 -0.23691098 -0.034614995 0.04719774 -0.006889552
-0.35120276 0.09067148 0.0019836985 -0.12064113 0.13647364 -0.034521665 -0.087144494 -0.11665181
-0.050328404 -0.016397879 -0.12869097 -0.07253385 0.02632149 -0.067621276 -0.1058876 0.09493952
-0.030401837 0.14682719 -0.19851463 -0.1976144 0.13231142 -0.24925417 0.010721371 -0.09050232
0.23174015 -0.03422914 -0.114204496 0.031658657 -0.10850795 -0.15987852 0.22632681 0.20422862
-0.43676817 -0.006958697 0.23344627 0.014949497 0.32153827 -0.527083 0.0017075613 -0.3828391
-0.3782683 0.09945652 0.060770713 0.33965978 -0.1274998 0.06123399 -0.2437717 0.23358007
0.32245207 -0.3417755 0.12912801 0.0037295613 -0.2006323 -0.14426409 0.1853968 0.12373678
-0.041424684 -0.12989408 -0.039468367 -0.2744856 -0.16418043 0.30243775 -0.095090985 -0.2584229
0.081700414 0.020836627 -0.21212782 0.06306443 -0.12265238 -0.14467885 0.098531105 -0.09550714
0.20128612 -0.09664149 -0.09593634 0.17008044 0.06280968 -0.47500432 -0.3983501 -0.1713823
-0.11091509 0.42434505 0.25888458 0.032603137 -0.14123198 -0.11180459 0.039119333 0.14383164
-0.16165194 0.35546246 0.0274794 -0.544805 -0.05596226 -0.22415236 0.21743086 0.03659393
-0.09557579 -0.050882805 0.18172416 -0.012226187 -0.38760647 -0.26377526 0.22636698 0.013083046
0.0768302 0.012772001 -0.13801958 0.20476359 0.108632624 0.020922873 -0.24047862 0.0002146326
-0.2532556 0.2029117 0.018758781 0.41623875 -0.1447405 0.18052365 0.44977167 -0.14019763
0.016987197 -0.18938565 0.19780007 -0.22942816 0.33478147 -0.04783629 -0.13934988 0.06722416
-0.17007476 0.03818719 -0.0074113645 -0.3260322 0.33804736 -0.1212206 0.2772122 -0.077363804
-0.017776348 -0.018551558 -0.02169152 0.2740968 -0.28291225 0.053061396 0.13371748 -0.15618834
0.2886694 0.22647679 -0.023976555 0.21168008 0.025509886 0.010586208 -0.31401017 0.19988033
-0.29862136 0.15093848 -0.11013347 -0.06675774 0.19659476 -0.13266698 -0.34101945 0.012077425
-0.32771707 -0.022891099 -0.17344499 0.21140102 0.11630888 -0.20894437 -0.07918888 -0.028031256
0.19103555 -0.07363382 0.18252423 -0.3227265 0.13213687 0.08791068 0.090325326 0.14607014
-0.2966139 -0.0767099 -0.45426095 0.17939699 0.041663025 0.07410481 0.2100463 0.049137622
0.2455884 0.20299856 0.10455044 -0.10662902 0.23955497 0.18034539 -0.21228117 -0.27025548
-0.012929743 -0.23802634 0.21722111 0.09822039 0.27958208 -0.039256997 -0.124139175 0.07460819
0.4747996 -0.02419592 -0.1912179 0.016122466 0.027773164 -0.019065864 -0.30847833 -0.06161528
-0.009068633 -0.084544174 0.04264994 0.23137748 -0.07074995 -0.1668334 -0.07450171 0.1339849
-0.03947075 -0.2337669 0.217576 -0.07430209 0.10130532 -0.1357065 0.30706975 0.13293442
00000000: 3ef1 d63e d64a 1dbe 913d e13d bd20 a8be
00000010: f60d 833e 323f 643e 2c6c e83d df51 d9be
00000020: 946f 093e 08bb 0cbe d8fb 163e ef7b eabc
00000030: 340c 21be ac45 69be e9fa bc3d 3cf3 8dbd
00000040: f09c aabb 7d0f a93d 3ab9 1fbe 18e9 e2bd
00000050: 5337 c6be f114 b03d c0e4 98bc 30cc 593e
00000060: bb12 933d 28c3 3abe 9b94 d5bd b038 2a3e
00000070: cb98 72be 74c8 0dbd 6b52 413d c0c1 e1bb
00000080: d9d0 b3be f8b1 b93d f000 023b b212 f7bd
00000090: bfbf 0b3e 9766 0dbd d078 b2bd 25e7 eebd
000000a0: 2825 4ebd d854 86bc 91c7 03be a18c 94bd
000000b0: 2aa0 d73c 067d 8abd 99db d8bd a76f c23d
000000c0: 460d f9bc de59 163e 6b47 4bbe 6e5b 4abe
000000d0: a57c 073e 7c3c 7fbe b0a8 2f3c 4859 b9bd
000000e0: 4a4d 6d3e db33 0cbd 0ce4 e9bd 82ac 013d
000000f0: 6b39 debd 32b7 23be 37c2 673e 4f21 513e
00000100: 14a0 dfbe c805 e4bb 8a0c 6f3e bcee 743c
00000110: aaa0 a43e e9ee 06bf 40d0 df3a 7d03 c4be
00000120: 62ac c1be dcaf cb3d b6ea 783d e3e7 ad3e
00000130: 4f8f 02be 7ed0 7a3d 4a9f 79be 9d2f 6f3e
00000140: 7018 a53e 33fd aebe 223a 043e a86b 743b
00000150: 8e72 4dbe f7b9 13be a9d8 3d3e b569 fd3d
00000160: eeac 29bd f402 05be 95a9 21bd 6089 8cbe
00000170: ea1e 28be 1fd9 9a3e 10bf c2bd 0250 84be
00000180: 8c52 a73d 93b1 aa3c 0938 59be ed27 813d
00000190: 2c31 fbbd b126 14be adca c93d 3f99 c3bd
000001a0: f31d 4e3e f9eb c5bd 467a c4bd 9129 2e3e
000001b0: 5da2 803d c433 f3be 8bf4 cbbe d77e 2fbe
000001c0: 7327 e3bd c143 d93e 858c 843e de8a 053d
000001d0: 1e9f 10be cef9 e4bd 983b 203d 9a48 133e
000001e0: 1688 25be 2dff b53e 7b1c e13c 5778 0bbf
000001f0: af38 65bd 3288 65be 32a6 5e3e 84e3 153d
00000200: 3dbd c3bd 7d6a 50bd e615 3a3e 5850 48bc
00000210: 5b74 c6be 8d0d 87be bfcc 673e 465a 563c
00000220: 2759 9d3d a841 513c 0155 0dbe 8cad 513e
00000230: c87a de3d 7266 ab3c 0740 76be 000f 6139
00000240: b8aa 81be 16c8 4f3e 04ac 993c 3f1d d53e
00000250: db36 14be 31db 383e 7948 e63e f88f 0fbe
00000260: bc28 8b3c 50ee 41be 1a8c 4a3e 37ef 6abe
00000270: 7a68 ab3e fcef 43bd bcb1 0ebe d2ac 893d
00000280: 1428 2ebe 2c6a 1c3d 08db f2bb b1ed a6be
00000290: 8b14 ad3e 8242 f8bd c2ee 8d3e ea70 9ebd
000002a0: b49f 91bc 70f9 97bc 6ab2 b1bc 6a56 8c3e
000002b0: e0d9 90be e856 593d 3ced 083e d6ef 1fbe
000002c0: 7acc 933e 88e9 673e 7b6a c4bc aac2 583e
000002d0: 1cfa d03c c671 2d3c f1c5 a0be 6ead 4c3e
000002e0: e6e4 98be 9e8f 1a3e a88d e1bd 48b8 88bd
000002f0: 2350 493e dad9 07be 1a9a aebe 64e0 453c
00000300: 88ca a7be 1d86 bbbc 909b 31be 8279 583e
00000310: 5a33 ee3d 83f5 55be c82d a2bd cea1 e5bc
00000320: d39e 433e 54cd 96bd a2e7 3a3e 683c a5be
00000330: e34e 073e 840a b43d 7cfc b83d 6993 153e
00000340: c7dd 97be 141a 9dbd e494 e8be d8b3 373e
00000350: d9a6 2a3d 43c4 973d 6116 573e 8844 493d
00000360: 877b 7b3e dbde 4f3e 8b1e d63d 5160 dabd
00000370: e64d 753e 76ac 383e 3c60 59be ed5e 8abe
00000380: 46d7 53bc 2dbd 73be 366f 5e3e c627 c93d
00000390: 6225 8f3e f2cb 20bd ae3c febd 2ecc 983d
000003a0: ef18 f33e 8636 c6bc a0ce 43be 4313 843c
000003b0: 8c84 e33c 0430 9cbc dff0 9dbe 4e60 7cbd
000003c0: 9b94 14bc 7f25 adbd b4b1 2e3d 38ee 6c3e
000003d0: 5ae5 90bd 60d6 2abe 5a94 98bd 5633 093e
000003e0: 15ac 21bd 9760 6fbe 3ecc 5e3e b22b 98bd
000003f0: 2a79 cf3d a5f6 0abe 3f38 9d3e f61f 083e

fc2.weight f4 [256, 256]
0.04449679 0.35022235 -0.0029868074 0.41957456 -0.06645186 -0.22473614 0.22150551 -0.12586887
-0.18085498 -0.10776308 -0.33288646 -0.0750369 0.0486963 -0.26445818 -0.11963639 -0.11842166
-0.29360974 -0.12724678 -0.18512607 0.31060413 0.24207969 -0.024170248 0.16163003 -0.025205046
0.004809417 -0.27663258 -0.03347601 0.27747995 0.05342108 0.25478688 0.1472877 0.2258357
0.21571277 0.16515869 0.11621146 -0.070511036 -0.45389587 -0.28623325 -0.15891364 0.09639759
0.11835453 0.278149 0.24353836 0.20249636 0.03809999 0.18284512 0.07272593 -0.11581889
-0.2079625 0.21792452 0.23857173 -0.48587507 -0.0019604266 -0.18076272 -0.047094904 0.10631945
0.26497385 -0.032531604 -0.11920513 0.21400899 0.32480606 -0.09247789 0.46729082 -0.11510663
0.08795039 -0.2050689 -0.5913973 0.2597611 -0.0033567399 -0.13253057 0.08518134 -0.0437078
0.27524868 -0.50296545 0.23664325 -0.03940533 -0.021931771 0.08582339 0.15034503 0.14845285
-0.21874455 -0.051058587 -0.15522587 0.37811798 0.07515373 0.32225078 -0.08421418 0.11476201
0.1162696 0.21164033 0.084568694 -0.313645 -0.15755424 -0.08441802 0.0036278479 0.2834099
0.028042302 0.069736466 0.15532038 0.022275932 0.12230683 -0.030612845 0.37242654 -0.19766727
-0.069721036 -0.043234013 0.10119519 -0.30227113 0.09283027 -0.06661484 -0.21085228 0.08388255
-0.19581087 0.33348215 -0.020052101 -0.2748547 0.11139847 -0.24933141 0.15652114 -0.1958708
-0.18327023 0.061490174 0.012940653 -0.10059789 -0.018880865 -0.043379687 0.2502319 0.028188009
-0.114861615 -0.43241003 -0.016069833 0.13977632 -0.023055978 -0.10978745 -0.015128738 0.2057127
0.33364865 -0.44661736 -0.0072164685 -0.05163426 0.09774972 0.1377896 0.0756397 -0.14665225
0.2175511 0.15220763 -0.1906092 0.111208275 0.20954123 0.13847321 -0.022328664 -0.09786357
0.19406739 -0.18959339 0.08501433 -0.04915157 0.121242434 0.14106053 0.0021777991 0.3764118
0.21229398 -0.055554338 -0.31373906 -0.24018112 -0.01422272 -0.22553924 0.13296746 0.047746126
-0.10660662 0.04425565 0.1814315 -0.12136797 -0.2015202 -0.082189985 -0.4098989 -0.073592566
0.49639526 -0.12770203 -0.38835946 -0.1739236 -0.046852585 -0.031385116 0.21268561 0.13523956
0.10367368 0.3157872 -0.09752706 -0.27830377 0.03170187 -0.19322433 0.17120646 0.0025967844
-0.10952644 -0.20218945 -0.14527154 0.044190396 0.03741849 -0.027905222 0.16486737 -0.37965986
-0.018070336 -0.31496745 0.21826984 -0.22800235 -0.058675203 -0.29251966 -0.2591633 -0.011278456
-0.064421766 -0.16362087 0.31775743 -0.012482802 -0.23227338 -0.018055893 -0.008928355 0.030518256
0.19987537 0.2139459 0.0058226846 -0.062072083 0.098604076 -0.16077112 -0.09807665 -0.0111999335
-0.13099808 0.27324945 -0.15908971 -0.14536473 0.009771548 -0.3156297 -0.36653608 -0.36744887
0.10377367 -0.04212994 0.06975109 0.08184365 -0.0352339 0.09501632 -0.064133115 0.099247605
-0.3304221 -0.36086613 -0.05586002 0.0644695 -0.1488081 0.020281784 -0.18211243 0.07914518
0.043810867 0.12473382 -0.044526715 0.01009712 -0.06937358 -0.36523262 -0.25140846 -0.057619855
00000000: 4442 363d 5850 b33e 50be 43bb 7ad2 d63e
00000010: ea17 88bd 3b21 66be 57d2 623e c5e3 00be
00000020: 0c32 39be e4b2 dcbd 1870 aabe f2ac 99bd
00000030: c575 473d 1067 87be ec03 f5bd 0e87 f2bd
00000040: 0454 96be fb4c 02be b091 3dbe 8107 9f3e
00000050: bde3 773e af00 c6bc 5882 253e d07a cebc
00000060: 5098 9d3b c9a2 8dbe 241e 09bd da11 8e3e
00000070: 10d0 5a3d 6d73 823e 96d2 163e 7941 673e
00000080: cfe3 5c3e 5c1f 293e 4600 ee3d 1768 90bd
00000090: 0a65 e8be 2a8d 92be 42ba 22be 1a6c c53d
000000a0: dc63 f23d 8c69 8e3e 1f62 793e 355b 4f3e
000000b0: bc0e 1c3d c03b 3b3e 55f1 943d 7432 edbd
000000c0: 1ff4 54be 9b27 5f3e 264c 743e 9ec4 f8be
000000d0: 807a 00bb dd19 39be 96e6 40bd 03be d93d
000000e0: a7aa 873e dc3f 05bd d221 f4bd 2c25 5b3e
000000f0: fb4c a63e 0c65 bdbd be40 ef3e 06bd ebbd
00000100: 561f b43d 95fd 51be d065 17bf 68ff 843e
00000110: c0fc 5bbb 18b6 07be 8e73 ae3d f306 33bd
00000120: 65ed 8c3e 58c2 00bf 9c52 723e 7c67 21bd
00000130: 42aa b3bc 2cc4 af3d 0cf4 193e 0604 183e
00000140: 92fe 5fbe cf22 51bd 88f3 1ebe ae98 c13e
00000150: 33ea 993d 0efe a43e 7c78 acbd 5808 eb3d
00000160: c21e ee3d 3eb8 583e 5a32 ad3d 1496 a0be
00000170: e655 21be 5be3 acbd 30c1 6d3b 1a1b 913e
00000180: f8b8 e53c fed1 8e3d 4e0c 1f3e 047c b63c
00000190: 017c fa3d cac7 fabc b1ae be3e 4a69 4abe
000001a0: e7c9 8ebd 2616 31bd 6c3f cf3d 48c3 9abe
000001b0: cc1d be3d 5c6d 88bd a9e9 57be 9dca ab3d
000001c0: a582 48be 2cbe aa3e 4e44 a4bc c1b9 8cbe
000001d0: e224 e43d bc50 7fbe 1447 203e 5b92 48be
000001e0: 31ab 3bbe 1fdd 7b3d 0805 543c 4406 cebd
000001f0: 0bac 9abc e6ae 31bd 651e 803e 8aea e63c
00000200: 913c ebbd d964 ddbe e2a4 83bc 8621 0f3e
00000210: e4df bcbc 3ed8 e0bd 87de 77bc 5aa6 523e
00000220: ffd3 aa3e 08ab e4be 2078 ecbb 727e 53bd
00000230: 0131 c83d b818 0d3e fde8 9a3d 022c 16be
00000240: b7c5 5e3e 51dc 1b3e 0f2f 43be 2ac1 e33d
00000250: fa91 563e eccb 0d3e 9aea b6bc b26c c8bd
00000260: 9ab9 463e c524 42be fe1b ae3d 2853 49bd
00000270: f44d f83d 2c72 103e 68b9 0e3b 0cb9 c03e
00000280: 9863 593e f28c 63bd 68a2 a0be 0af2 75be
00000290: 6906 69bc c2f3 66be 9f28 083e 7191 433d
000002a0: 9254 dabd 6a45 353d 2ec9 393e c58f f8bd
000002b0: 505b 4ebe 3953 a8bd 45de d1be b3b7 96bd
000002c0: 8527 fe3e 52c4 02be 0dd7 c6be 0719 32be
000002d0: 7fe8 3fbd ae8d 00bd 42ca 593e 3d7c 0a3e
000002e0: de52 d43d dcae a13e 44bc c7bd d57d 8ebe
000002f0: d2d9 013d 99dc 45be bf50 2f3e d02e 2a3b
00000300: 664f e0bd c00a 4fbe 10c2 14be fd00 353d
00000310: 2144 193d 7e99 e4bc fed2 283e c762 c2be
00000320: 3e08 94bc 6a43 a1be 2182 5f3e 7379 69be
00000330: 6955 70bd 23c5 95be 0db1 84be 46c9 38bc
00000340: 8fef 83bd 3b8c 27be 1ab1 a23e ab84 4cbc
00000350: 13d9 6dbe f4e9 93bc 3c48 12bc 6c01 fa3c
00000360: 21ac 4c3e a214 5b3e 38cc be3b 4c3f 7ebd
00000370: eff0 c93d 2fa1 24be 69dc c8bd ed7f 37bc
00000380: 5c24 06be 5ae7 8b3e 6ae8 22be 7eda 14be
00000390: d818 203c 379a a1be 9eaa bbbe 4222 bcbe
000003a0: 4a87 d43d 7290 2cbd a9d9 8e3d a59d a73d
000003b0: 6c51 10bd eb97 c23d 3958 83bd 5442 cb3d
000003c0: 162d a9be 72c3 b8be 7acd 64bd 9608 843d
000003d0: 2761 18be fc25 a63c ae7b 3abe de16 a23d
000003e0: 0673 333d 7274 ff3d a561 36bd 646e 253c
000003f0: bc13 8ebd c5ff babe 9cb8 80be cc02 6cbd

fc2.bias f4 [256]
-0.01768227 0.23229884 -0.28547835 -0.040586095 -0.060239065 -0.08595076 -0.20506462 0.4040637
-0.001637971 -0.11145894 -0.03627891 0.061928116 0.30158848 -0.18926126 -0.09550886 0.18008056
-0.063996665 0.024904864 0.20923412 0.026435545 -0.35446596 -0.2315959 0.034254882 0.049814127
-0.27504385 0.2503908 0.10643852 0.32261696 -0.043107204 -0.2745954 0.08335948 -0.017124806
0.039844632 0.17992768 -0.057840344 -0.01738784 0.16305673 -0.26181543 -0.16952853 -0.1089061
-0.067286685 0.17404726 -0.18800555 -0.21170132 -0.119899735 0.40328974 -0.07069288 0.36543772
0.029591156 -0.06994953 -0.1648304 -0.00696852 -0.27605385 -0.20936032 -0.11473973 -0.30363464
0.20710331 0.040309347 -0.10919088 -0.30618602 -0.2663769 0.12533268 0.11048377 -0.012343459
0.06371796 0.1330325 0.12621303 0.017727815 -0.072191015 -0.049896754 0.07591853 0.0047608837
0.117857836 -0.031797703 -0.15602021 -0.6094213 0.15046756 0.35877633 -0.08582496 -0.07686593
-0.051627323 0.08584307 -0.21815595 -0.17703517 0.37301505 0.20702645 0.014902612 0.091921546
0.011998288 0.05392645 -0.08457987 0.0889239 0.0055065863 -0.06541954 -0.043102562 -0.15162781
0.0057222317 -0.06728368 -0.20598866 0.5826625 -0.04656297 0.19525753 0.047144882 -0.37604898
-0.116884775 0.11389134 0.26680478 -0.14448735 0.047151525 0.05947288 0.24350299 0.51108956
-0.3670422 -0.011726711 0.2804343 -0.042216506 0.070941776 0.08776148 0.15082683 -0.014230005
-0.028310748 -0.03972382 -0.16305298 -0.06569898 -0.4667538 -0.2927974 0.14582875 0.0120546855
-0.50957364 0.002831459 -0.040104717 -0.20465872 -0.019443402 -0.09019819 0.23778884 0.44547695
-0.030470222 0.01892918 0.26241127 0.038273495 -0.3099582 0.16407776 0.08341959 0.13229881
-0.16685534 0.07240184 -0.36335054 -0.011671232 0.15451732 -0.574124 -0.0021488443 0.20641868
-0.3080657 0.1599716 -0.4005896 0.17370994 -0.041859195 -0.15565 -0.13915388 0.2394573
-0.00588879 -0.14862433 0.036847807 0.51374024 0.019672178 0.25180542 0.20593451 -0.18174905
-0.27955976 0.08217611 0.30452654 0.14339402 -0.22352633 0.017992109 -0.16294526 0.109141245
-0.17445041 -0.49947613 -0.027142536 -0.4111216 0.022385031 0.27572358 0.11442335 -0.044470787
-0.40004897 -0.3175458 0.025506616 -0.081284896 0.36633843 0.14079994 0.28219253 0.13377945
-0.15087 0.10942177 0.07563503 -0.32100278 -0.20607446 -0.025673836 0.07371949 0.057015397
-0.14430836 -0.27630264 0.061142728 -0.087258935 -0.19589016 0.070969716 0.16099705 0.07989408
-0.14197284 -0.22718276 0.082350954 0.15666434 0.29988524 -0.035171933 -0.013664711 0.1008033
-0.083319046 0.006012053 0.13952471 0.017480345 0.01589568 -0.0055945804 -0.1502644 -0.2838159
-0.014999704 0.447366 -0.100591995 0.023393624 0.237626 -0.2094723 -0.03794685 0.18738088
0.09445653 -0.28884995 -0.21251902 0.25041163 0.03535955 0.05432134 0.0913737 -0.17450753
-0.13921224 0.1715246 0.16299447 0.20020646 0.07709678 0.17306104 0.040714327 -0.030302156
0.03390281 -0.062419582 0.087920845 -0.080532745 0.032903824 0.22834814 -0.26104304 -0.06659436
00000000: 68da 90bc bfdf 6d3e 382a 92be 9b3d 26bd
00000010: 3dbd 76bd f406 b0bd 76fc 51be 70e1 ce3e
00000020: 30b1 d6ba 9644 e4bd 3299 14bd 56a8 7d3d
00000030: ce69 9a3e b4cd 41be 269a c3bd 0a67 383e
00000040: af10 83bd 4905 cc3c 7841 563e 5b8f d83c
00000050: 907c b5be 7a27 6dbe d94e 0c3d e609 4c3d
00000060: 8cd2 8cbe 3933 803e 70fc d93d 0d2e a53e
00000070: 2e91 30bd c597 8cbe 60b8 aa3d 5249 8cbc
00000080: 2034 233d f63e 383e ffe9 6cbd f270 8ebc
00000090: 58f8 263e ac0c 86be e398 2dbe 290a dfbd
000000a0: 9acd 89bd 7239 323e 8784 40be 3bc8 58be
000000b0: fe8d f5bd fe7b ce3e 6ec7 90bd a71a bb3e
000000c0: 2769 f23c b341 8fbd 4dc9 28be 2f58 e4bb
000000d0: ee56 8dbe 8d62 56be aafc eabd 0076 9bbe
000000e0: e412 543e 6a1b 253d 789f dfbd 6ac4 9cbe
000000f0: 8e62 88be 3657 003e 5145 e23d 383c 4abc
00000100: 907e 823d ac39 083e fd3d 013e ec39 913c
00000110: e2d8 93bd 8a60 4cbd 2d7b 9b3d 3001 9c3b
00000120: 735f f13d 4f3e 02bd c3c3 1fbe 0903 1cbf
00000130: 2b14 1a3e 88b1 b73e ffc4 afbd e26b 9dbd
00000140: 2c77 53bd 7ece af3d 4664 5fbe b548 35be
00000150: d4fb be3e befe 533e 162a 743c 5d41 bc3d
00000160: 7894 443c fbe1 5c3d 3638 adbd bc1d b63d
00000170: 9870 b43b aefa 85bd 508c 30bd 5244 1bbe
00000180: 8f81 bb3b 07cc 89bd b1ee 52be 5f29 153f
00000190: d0b8 3ebd 97f1 473e fe1a 413d 7e89 c0be
000001a0: 4961 efbd dd3f e93d a39a 883e 7ef4 13be
000001b0: f521 413d d699 733d d958 793e c4d6 023f
000001c0: f5ec bbbe 6421 40bc 1695 8f3e 37eb 2cbd
000001d0: ec49 913d 4abc b33d 5972 1a3e f824 69bc
000001e0: f1eb e7bc 72b5 22bd 5cf7 26be 308d 86bd
000001f0: 5bfa eebe 8ae9 95be 2254 153e 0481 453c
00000200: 6b73 02bf 0090 393b d844 24bd 0e92 51be
00000210: c547 9fbc d4b9 b8bd eb7e 733e 8e15 e43e
00000220: b09c f9bc 5e11 9b3c c55a 863e abc4 1c3d
00000230: d7b2 9ebe 0004 283e e4d7 aa3d 5779 073e
00000240: 20dc 2abe 6a47 943d 1509 babe b238 3fbc
00000250: ca39 1e3e caf9 12bf a0d3 0cbb 6b5f 533e
00000260: caba 9dbe 98cf 233e 141a cdbe 05e1 313e
00000270: 8c74 2bbd b762 1fbe 5b7e 0ebe 4b34 753e
00000280: c0f6 c0bb fa30 18be baed 163d 7b84 033f
00000290: 8c27 a13c a4ec 803e 7fe0 523e 6c1c 3abe
000002a0: 7522 8fbe f34b a83d e7ea 9b3e e2d5 123e
000002b0: 16e4 64be 3064 933c 1fdb 26be 7285 df3d
000002c0: 21a3 32be 56bb ffbe 065a debc 887e d2be
000002d0: d060 b73c a42b 8d3e ca56 ea3d 0027 36bd
000002e0: 38d3 ccbe 5d95 a2be 40f3 d03c b278 a6bd
000002f0: b690 bb3e dc2d 103e 8a7b 903e 7bfd 083e
00000300: aa7d 1abe 8518 e03d 8ae6 9a3d 7a5a a4be
00000310: 2f05 53be f051 d2bc 3efa 963d fa88 693d
00000320: 92c5 13be 8a77 8dbe cc70 7a3d d0b4 b2bd
00000330: 6e97 48be 9258 913d 69dc 243e 829f a33d
00000340: 5461 11be 99a2 68be 9ea7 a83d 9e6c 203e
00000350: 8f8a 993e 7210 10bd f4e1 5fbc f671 ce3d
00000360: 2da3 aabd c200 c53b 91df 0e3e f132 8f3c
00000370: a837 823c be52 b7bb e9de 19be 5150 91be
00000380: 52c1 75bc 280d e53e 2d03 cebd fca3 bf3c
00000390: 3b54 733e e87f 56be 286e 1bbd c6e0 3f3e
000003a0: 6d72 c13d 24e4 93be 969e 59be f435 803e
000003b0: 2dd5 103d 0e80 5e3d 2222 bb3d 1ab2 32be
000003c0: a78d 0ebe 25a4 2f3e 06e8 263e ec02 4d3e
000003d0: ebe4 9d3d ea36 313e 11c4 263d 3a3c f8bc
000003e0: acdd 0a3d adab 7fbd d80f b43d 5aee a4bd
000003f0: 29c6 063d 18d4 693e 6fa7 85be a062 88bd

fc_mu.weight f4 [3, 256]
0.06352844 -0.2315689 0.14701065 0.29578257 0.5134016 0.15970325 -0.3766292 -0.3048173
-0.20463686 -0.02320246 -0.22158328 -0.16459432 0.27372468 0.2775745 0.08246833 -0.19882393
-0.21412447 -0.15957811 -0.07500358 -0.1048065 0.040336125 -0.13716833 0.10244529 0.1987006
0.39346164 -0.11825095 -0.09683471 -0.039584693 -0.18902634 0.2235424 0.046481773 0.051421978
0.0034475224 -0.22425757 0.38689882 -0.24809712 0.37081152 -0.12946121 -0.19619413 0.107210495
-0.069791265 0.32793215 0.38124153 -0.2004315 0.19366783 0.42383304 0.061418135 0.09574446
-0.026486924 0.05579688 -0.27105534 -0.23514713 0.16215008 -0.3766416 0.03437131 0.33858842
-0.16610083 -0.14412695 0.06529173 0.22344688 0.2289947 -0.092379555 -0.04235826 -0.0021454096
-0.19593002 0.26129857 0.12653375 -0.21378429 -0.09937614 -0.0743969 -0.107826024 0.1372397
0.09685611 0.1264 -0.07157251 0.097601995 -0.027096752 0.023933526 0.30794355 -0.00539528
0.013234312 -0.10609344 -0.29907387 -0.0591019 0.02449499 0.2791729 0.20244083 0.053195737
0.09538476 0.29849878 -0.04916227 0.2895732 0.06108124 -0.3082864 0.17785785 -0.062467426
-0.00026660226 0.06440762 -0.12855873 -0.07685733 0.091969565 -0.3613441 0.078640744 0.35344514
-0.23758735 -0.05387691 0.002636239 0.18933955 0.45664033 -0.26548865 -0.123721674 -0.08095619
-0.006245993 -0.13775074 -0.24347691 0.31203276 0.16945685 0.31892598 0.33638245 0.16136405
-0.08766198 0.18961117 0.18786243 0.05138317 0.018470485 0.14817399 -0.3166861 0.29532045
-0.10937257 0.29600364 -0.26600558 0.21264933 -0.1004695 0.070659935 -0.022049341 -0.3017507
-0.25323743 0.111427896 0.010599963 -0.3423588 0.24109621 0.029481359 0.07720448 0.15135628
-0.084979184 0.13404128 0.5031899 0.13929288 0.34163168 -0.31231028 -0.19436407 0.010779865
0.2030237 0.11087801 0.1445747 0.1650239 -0.13159737 -0.19892004 -0.12373577 0.047090404
-0.066412464 -0.031440116 0.047470547 -0.04148265 0.24090938 -0.08422288 0.22738695 -0.07569132
0.17698373 0.17352651 -0.48065063 -0.02226369 -0.10506107 0.28419232 -0.044281356 -0.020359432
0.2586808 -0.26804686 0.1394389 -0.069299 -0.4568905 0.099630095 0.17422083 -0.05910894
-0.18731244 -0.3635194 -0.17248201 -0.2181267 -0.15431105 -0.21851891 0.041784905 -0.09323313
-0.022046572 0.009683372 0.21113697 -0.13999163 -0.07333664 -0.23876464 -0.14336678 -0.12795055
0.17285298 0.11521649 0.2357237 0.16056539 -0.0018965043 -0.039148536 -0.105569474 0.26735342
0.19816308 0.23403275 0.17130783 0.11249683 0.07080516 -0.18658477 0.019240936 0.07863003
-0.030999523 -0.037434276 0.058041874 -0.017655224 -0.53560764 0.016911335 0.16893323 -0.11023139
0.08568709 0.15099473 0.05262098 0.25377828 0.03388361 -0.18970688 0.20598798 -0.14906397
-0.21838154 0.25445673 0.10565557 -0.39524376 0.036935113 0.17751789 0.09164186 0.1654132
0.044999715 0.41699985 0.011505373 0.27567837 0.19869149 0.33843267 -0.29990306 -0.07564573
-0.19804227 -0.042580828 -0.14392027 0.32705575 -0.23814225 -0.0049575865 0.3154082 0.18082091
00000000: 331b 823d 6620 6dbe f689 163e d070 973e
00000010: 4a6e 033f 4089 233e 8bd5 c0be 0311 9cbe
00000020: 538c 51be 1613 bebc bae6 62be 6a8b 28be
00000030: a425 8c3e 3f1e 8e3e 28e5 a83d 8098 4bbe
00000040: 7243 5bbe 7268 23be 7a9b 99bd caa4 d6bd
00000050: 7e37 253d db75 0cbe d6ce d13d 2c78 4b3e
00000060: ce73 c93e 8e2d f2bd 4751 c6bd 8f23 22bd
00000070: 1f90 41be 4de8 643e ac63 3e3d da9f 523d
00000080: d4ef 613b c7a3 65be 9a17 c63e 2c0d 7ebe
00000090: 02db bd3e 7b91 04be 1de7 48be 2d91 db3d
000000a0: b9ee 8ebd b9e6 a73e 1732 c33e ea3d 4dbe
000000b0: dc50 463e a500 d93e 9591 7b3d ac15 c43d
000000c0: 1bfb d8bc 458b 643d c4c7 8abe 69ca 70be
000000d0: ac0a 263e 2bd7 c0be eec8 0c3d 765b ad3e
000000e0: 5616 2abe 0496 13be acb7 853d 42cf 643e
000000f0: 967d 6a3e 7e31 bdbd db7f 2dbd 009a 0cbb
00000100: e1a1 48be edc8 853e 1092 013e 45ea 5abe
00000110: b885 cbbd 675d 98bd e4d3 dcbd 9088 0c3e
00000120: 7f5c c63d 006f 013e 9c94 92bd 8ee3 c73d
00000130: 02fa ddbc 3e10 c43c c7aa 9d3e e4ca b0bb
00000140: bad4 583c 8447 d9bd 3620 99be d514 72bd
00000150: b8a9 c83c c0ef 8e3e a64c 4f3e c6e3 593d
00000160: 1659 c33d d5d4 983e 605e 49bd f042 943e
00000170: 5330 7a3d b7d7 9dbe 5e20 363e d8dd 7fbd
00000180: c0c6 8bb9 24e8 833d e6a4 03be 6067 9dbd
00000190: 8a5a bc3d 1802 b9be 660e a13d c3f6 b43e
000001a0: 194a 73be 09ae 5cbd c0c4 2c3b 3ae2 413e
000001b0: c3cc e93e 21ee 87be ca61 fdbd 5ccc a5bd
000001c0: 30ab ccbb 880e 0dbe 0352 79be c2c2 9f3e
000001d0: 1986 2d3e 444a a33e 523a ac3e 9e3c 253e
000001e0: 2088 b3bd 6e29 423e 025f 403e 2977 523d
000001f0: 6a4f 973c ecba 173e ae24 a2be 3e34 973e
00000200: bafe dfbd ca8d 973e e231 88be bfc0 593e
00000210: f4c2 cdbd 28b6 903d d2a0 b4bc 117f 9abe
00000220: 56a8 81be 4f34 e43d 78ab 2d3c a749 afbe
00000230: ede1 763e e482 f13c 621d 9e3d 24fd 1a3e
00000240: 9109 aebd 1e42 093e 0ed1 003f cba2 0e3e
00000250: 59ea ae3e 22e7 9fbe 6007 47be 089e 303c
00000260: 72e5 4f3e 0314 e33d 640b 143e 06fc 283e
00000270: 76c1 06be b2b1 4bbe 2e69 fdbd dee1 403d
00000280: 4203 88bd 5ac7 00bd 7a70 423d b6e9 29bd
00000290: f3b0 763e 0c7d acbd 20d8 683e 0d04 9bbd
000002a0: 393b 353e efb0 313e d717 f6be 5862 b6bc
000002b0: 422a d7bd a881 913e 5e60 35bd d3c8 a6bc
000002c0: cf71 843e 703d 89be 12c9 0e3e a2ec 8dbd
000002d0: 8ded e9be dd0a cc3d f266 323e 371c 72bd
000002e0: d5ce 3fbe 371f babe 209f 30be 9b5c 5fbe
000002f0: b703 1ebe 6cc3 5fbe a626 2b3d 03f1 bebd
00000300: 039b b4bc 02a7 1e3c 4a34 583e f759 0fbe
00000310: 8531 96bd b87e 74be bece 12be 7805 03be
00000320: 5f00 313e a0f6 eb3d 8e61 713e 416b 243e
00000330: 2094 f8ba 375a 20bd cf34 d8bd 8ce2 883e
00000340: 43eb 4a3e 48a6 6f3e 526b 2f3e bd64 e63d
00000350: 4c02 913d 1410 3fbe 2b9f 9d3c c808 a13d
00000360: b6f2 fdbc af54 19bd 51bd 6d3d b0a1 90bc
00000370: 951d 09bf a489 8a3c d5fc 2c3e ffc0 e1bd
00000380: b77c af3d 5d9e 1a3e 1989 573d 3aef 813e
00000390: 8ac9 0a3d 8542 42be 83ee 523e 3aa4 18be
000003a0: 699f 5fbe 2748 823e f361 d83d 645d cabe
000003b0: 4649 173d 40c7 353e baae bb3d 1462 293e
000003c0: 9f51 383d 0181 d53e 0881 3c3c b725 8d3e
000003d0: c875 4b3e 0c47 ad3e e58c 99be 26ec 9abd
000003e0: 98cb 4abe 3c69 2ebd d65f 13be da73 a73e
000003f0: 90db 73be 4073 a2bb 2f7d a13e 1e29 393e

fc_mu.bias f4 [3]
0.39300725 -0.2439761 -0.04527578
00000000: 3f38 c93e dfd4 79be 1973 39bd
