ga_weights/ga1/Ant-v5/SAC/weights5.pt (torch, 382817 bytes, 6 tensors)

fc1.weight f4 [256, 105]
-0.01677116 -0.05964278 -0.028416587 0.0063202665 0.02124774 -0.011916033 -0.002079965 0.002622791
-0.041536834 -0.012454803 -0.03906376 -0.008938783 -0.00644375 0.009462598 0.05243379 -0.08808749
-0.09109891 -0.04879153 0.044886827 0.03872462 0.052571017 0.044212174 -0.054455336 0.04464793
0.07023063 -0.033789966 -0.07029887 -0.038571704 -0.027582768 -0.040067665 0.03523653 0.029649077
-0.115296625 -0.02422811 -0.03794263 0.034903552 -0.06352669 0.029264916 0.011638503 0.038676802
-0.05944812 -0.0449423 0.021108016 -0.009564836 0.031576928 0.03133693 -0.015831597 -0.049159627
0.013749908 0.012410245 0.044916276 0.07980532 -0.022400081 -0.06531104 0.001268892 0.06675594
-0.025604505 0.05554181 -0.071489595 0.031213699 -0.024174428 0.014357095 -0.013246571 0.035017043
-0.00972757 0.018567221 0.013863719 -0.006553938 -0.084434725 -0.056640852 -0.028593857 0.06952872
0.028357554 0.091507725 0.020159615 0.009718339 -0.102626584 -0.07561313 0.10038593 -0.05554777
-0.032743912 0.023561543 0.03797963 0.010543163 0.0071460432 -0.080127336 -0.0061090733 0.01299909
-0.09277257 -0.048782088 0.052427616 0.02026152 0.003564635 0.0067578084 -0.019344417 -0.046527326
0.04628783 -0.06674704 0.0039680754 -0.011886152 -0.07767161 -0.0624413 0.047191653 0.004314765
-0.07292877 0.014575401 0.09236219 0.0020459783 -0.02592896 -0.05445818 -0.029055974 0.05388577
-0.037120845 0.14598288 0.03583866 0.15750505 0.011086412 0.04128068 -0.019517755 -0.122983016
-0.085774295 0.035943925 -0.046643186 -0.018509282 0.0106609175 -0.055507656 -0.013262458 0.050510313
0.030083612 0.015366787 -0.021354137 -0.10081778 0.027678663 -0.04655521 0.0017911559 0.037166625
-0.041250803 -0.060252022 -0.016096968 -0.027576102 -0.07665053 -0.03404427 0.01053924 0.014456532
-0.010359753 0.046408422 0.06153026 0.053603973 0.02080325 0.09212342 -0.0496819 0.00083004776
-0.0008922227 -0.12248596 0.06361302 0.067174755 0.0005391586 0.030027542 -0.035101246 -0.035127882
-0.08294404 0.0012269112 0.0020651782 0.06383955 -0.06611057 -0.060513653 0.047403663 0.014864638
-0.014689818 0.0031094742 -0.023699043 0.018222792 0.052440554 0.049695626 0.022356812 0.046237066
0.061921246 -0.00036711845 -0.07237248 -0.021067249 -0.013221432 0.022341078 -0.026464064 -0.0028475695
0.06695712 -0.040053416 0.08310085 -0.05055164 0.031483598 0.068685465 -0.0024842836 -0.0019548524
0.03575367 -0.09917548 0.008548744 0.03287735 -0.041234616 0.055642553 0.027975366 -0.048072986
-0.10215727 0.08303647 -0.08707013 0.035049524 0.047842573 -0.023266247 -0.02682337 0.0663874
-0.060924362 0.027788907 0.003579594 -0.010890298 0.01902981 0.025327563 -0.012472223 0.13197656
-0.09459661 0.03404194 0.018372398 -0.016994206 -0.0120866215 -0.024033433 -0.0017960382 -0.027610932
0.013490197 -0.07520542 0.09116911 -0.045511257 0.00061543216 -0.10654416 -0.005084356 -0.031762913
-0.008631709 -0.024715919 0.037428394 0.06455033 0.0076296786 0.0048965025 0.04410722 0.09694889
-0.017804164 -0.045781985 -0.037444305 0.0069135735 -0.09783698 0.0004970926 0.06696757 -0.0051528765
-0.018776726 0.05988682 -0.084250025 0.06248935 0.057347894 -0.01900716 -0.08232206 0.04841432
00000000: ac63 89bc fd4b 74bd e7c9 e8bc 3d1a cf3b
00000010: be0f ae3c 773b 43bc 0650 08bb 22e3 2b3b
00000020: 8722 2abd 3b0f 4cbc 5201 20bd f973 12bc
00000030: 1826 d3bb 0309 1b3c d0c4 563d 3767 b4bd
00000040: 1192 babd a1d9 47bd 40db 373d b59d 1e3d
00000050: b554 573d d317 353d 8f0c 5fbd bfe0 363d
00000060: 14d5 8f3d 5967 0abd dbf8 8fbd 5dfd 1dbd
00000070: 42f5 e1bc fe1d 24bd 2e54 103d 9fe2 f23c
00000080: a320 ecbd 087a c6bc bb69 1bbd 07f7 0e3d
00000090: 481a 82bd fabc ef3c 6baf 3e3c 916b 1e3d
000000a0: df7f 73bd 6b15 38bd b8ea ac3c d4b5 1cbc
000000b0: cf56 013d 275b 003d 44b1 81bc 9b5b 49bd
000000c0: 4b47 613c 5754 4b3c 21fa 373d f970 a33d
000000d0: 6080 b7bc cbc1 85bd f350 a63a 57b7 883d
000000e0: 8ac0 d1bc cf7f 633d 2369 92bd dfb3 ff3c
000000f0: 7309 c6bc 053a 6b3c 2508 59bc 086e 0f3d
00000100: 6360 1fbc 491a 983c a724 633c 6bc2 d6bb
00000110: 1dec acbd 3d00 68bd aa3d eabc 1365 8e3d
00000120: 1a4e e83c 6768 bb3d c725 a53c ab39 1f3c
00000130: e32d d2bd 0fdb 9abd 2397 cd3d 0f86 63bd
00000140: 7b1e 06bd 2304 c13c 8790 1b3d 3bbd 2c3c
00000150: 5b29 ea3b cd19 a4bd 9f2e c8bb 23fa 543c
00000160: 8cff bdbd bacf 47bd 57be 563d 7dfb a53c
00000170: a79c 693b 9b70 dd3b 2f78 9ebc 7093 3ebd
00000180: 4f98 3d3d acb2 88bd a106 823b 23be 42bc
00000190: 4b12 9fbd 73c2 7fbd 094c 413d df62 8d3b
000001a0: ae5b 95bd aacd 6e3c 6328 bd3d d215 063b
000001b0: f868 d4bc 8a0f 5fbd cb06 eebc 53b7 5c3d
000001c0: 070c 18bd 897c 153e 8fcb 123d 0149 213e
000001d0: c8a3 353c ee15 293d b3e3 9fbc 85de fbbd
000001e0: 6faa afbd f039 133d ed0c 3fbd c7a0 97bc
000001f0: 21ab 2e3c ff5b 63bd c84a 59bc e7e3 4e3d
00000200: e871 f63c fac4 7b3c dfee aebc 8d79 cebd
00000210: 5dbe e23c adb0 3ebd 38c5 ea3a 083c 183d
00000220: 9af6 28bd d3ca 76bd cadd 83bc 47e7 e1bc
00000230: f4fa 9cbd 0172 0bbd c7ac 2c3c 17db 6c3c
00000240: f4bb 29bc c216 3e3d 2707 7c3d d78f 5b3d
00000250: 946b aa3c 34ab bc3d 3f7f 4bbd 9097 593a
00000260: 0de4 69ba ebd9 fabd 8b47 823d eb92 893d
00000270: 5256 0d3a 52fc f53c 53c6 0fbd 41e2 0fbd
00000280: 91de a9bd 4fd0 a03a f157 073b 4fbe 823d
00000290: fb64 87bd 2add 77bd 582a 423d d08a 733c
000002a0: 90ad 70bc 52c8 4b3b 7f24 c2bc f747 953c
000002b0: e8cb 563d a48d 4b3d a225 b73c 1463 3d3d
000002c0: 22a1 7d3d ce79 c0b9 0638 94bd 3995 acbc
000002d0: b59e 58bc a304 b73c 2acb d8bc 4a9e 3abb
000002e0: d120 893d 0d0f 24bd c730 aa3d 3d0f 4fbd
000002f0: f2f4 003d f7aa 8c3d 5dcf 22bb fb1c 00bb
00000300: 7172 123d 841c cbbd 0810 0c3c 66aa 063d
00000310: a1e5 28bd 72e9 633d 982c e53c 2ee8 44bd
00000320: d537 d1bd 060f aa3d d351 b2bd 1790 0f3d
00000330: 93f6 433d db98 bebc afbc dbbc 1ef6 873d
00000340: d38b 79bd 90a5 e33c 9f97 6a3b 386d 32bc
00000350: 67e4 9b3c c07b cf3c 4b58 4cbc dd24 073e
00000360: debb c1bd 906f 0b3d b681 963c 6f37 8bbc
00000370: f706 46bc c3e1 c4bc 0b69 ebba 5230 e2bc
00000380: fd05 5d3c 4d05 9abd dfb6 ba3d 036a 3abd
00000390: f454 213a d333 dabd ab9a a6bb d419 02bd
000003a0: 036c 0dbc 0a79 cabc 844e 193d f732 843d
000003b0: 6202 fa3b d772 a03b c6a9 343d 248d c63d
000003c0: 0ada 91bc e485 3bbd 335f 19bd 428b e23b
000003d0: c15e c8bd 524f 023a 4b26 893d 76d9 a8bb
000003e0: a6d1 99bc e24b 753d 478b acbd d5f4 7f3d
000003f0: a0e5 6a3d e7b4 9bbc 7898 a8bd 184e 463d

fc1.bias f4 [256]
0.035468612 -0.06896403 0.023634484 -0.04131124 -0.027462313 -0.05817762 -0.0528592 0.05325389
0.017922526 -0.01934165 -0.047761574 0.06667642 0.04146648 0.03245131 -0.003182888 -0.020696167
0.053545006 0.0012235077 0.029403895 -0.016974123 -0.015326202 -0.022474417 0.047994543 0.0031203171
0.024699615 -0.083591394 -0.075544484 0.042132106 -0.019376274 0.019369885 -0.029839406 0.013491618
-0.0352902 0.0027124789 0.08415591 0.0047597974 0.06830876 -0.044785414 -0.012211329 -0.00020326406
-0.00914411 -0.049224082 0.05830556 -0.05882432 0.045929547 0.058517277 0.0149743585 -0.01954448
0.017211242 -0.03161747 -0.023541406 -0.026259184 0.05854587 -0.011761135 -0.08080698 0.026243243
-0.15004782 -0.003996227 -0.019502224 -0.015563264 -0.022703005 -0.06955936 -0.08373963 -0.019378925
0.027474945 -0.07626926 -0.049277093 0.07533188 0.018361595 0.007866079 -0.05178372 0.013818708
-0.04353847 0.05292769 -0.0022048908 0.073640615 -0.08448257 0.100440696 -0.032300256 -0.09307181
-0.0331683 -0.045350827 -0.0073440867 -0.03187797 -0.034516003 -0.09902101 -0.02817497 0.02517862
0.002660734 -0.042430736 0.061435618 -0.07515758 -0.10894795 -0.075327 0.00720997 -0.06444642
0.038574237 0.07171754 -0.02430023 0.075878285 0.09461119 -0.023845263 0.003483763 0.08095979
0.064951606 0.0044160304 0.15720674 -0.07505989 0.03860114 -0.05828326 -0.06254374 -0.0063326494
0.015201238 0.08351675 -0.02157911 -0.06801853 -0.013263175 -0.063910775 0.0020979352 -0.010396805
-0.030648464 -0.028598184 0.016790962 0.033833157 0.023612922 0.029909095 0.07115721 -0.019339263
-0.053418584 0.020797951 -0.020477869 -0.04579153 -0.047633726 0.0013627086 -0.088818766 0.0037401249
-0.062844776 -0.014745324 -0.025602624 -0.022065537 0.0020817376 0.06375517 0.008024655 -0.02436322
0.021697938 0.027165303 0.023960965 0.023055194 0.058043856 0.06992738 0.014130746 0.054062396
0.017034853 0.0027824913 0.022093352 -0.081121966 0.012116579 0.023490995 0.022343868 -0.00052928505
-0.0058137393 -0.07400962 0.04935595 -0.034614053 -0.031485025 -0.021097539 -0.0064056315 0.052974768
0.0438364 -0.026967395 -0.022357488 -0.0045029284 0.00014097836 0.016558474 -0.011875739 0.091534615
0.008451012 0.023984006 -0.05515629 0.07981758 -2.6320207e-05 -0.03549767 0.0115240235 -0.014020316
0.09199591 -0.06328913 -0.08518391 0.097853445 0.08134907 0.009114067 0.051865187 -0.013205384
-0.084579274 0.038902815 0.01960744 0.114340186 0.04511648 0.043142464 -0.054364156 0.022266699
-0.033767037 -0.03488174 0.17494217 0.072822474 -0.04703967 -0.031346094 0.018582067 -0.06400791
0.0608109 -0.023279872 0.031081973 -0.09616703 0.011764224 -0.06943112 -0.077450804 0.014925674
0.04015852 0.020601628 0.058104437 -0.022801036 0.021961143 0.0007379285 -0.047347866 0.08741289
-0.019293463 0.0028915498 0.069443665 -0.029851729 -0.060732067 0.01777418 0.02989958 0.03236969
-0.03385172 -0.022451138 -0.005507559 -0.058285393 0.03805137 -0.071585 -0.09669587 0.059372164
0.04154922 0.0001891785 -0.078168504 -0.008126139 0.06007663 0.0616119 -0.019925958 0.042721193
0.011034528 -0.0031095895 -0.0090337815 0.026967255 0.037594505 0.0038939533 -0.022345226 -0.0032931564
00000000: 8947 113d 033d 8dbd 1b9d c13c fa35 29bd
00000010: a5f8 e0bc a84b 6ebd e382 58bd c020 5a3d
00000020: 43d2 923c 6172 9ebc a4a1 43bd a68d 883d
00000030: c1d8 293d aaeb 043d 0098 50bb 028b a9bc
00000040: 0252 5b3d 1b5e a03a 70e0 f03c 510d 8bbc
00000050: c01a 7bbc 451c b8bc ed95 443d 3c7e 4c3b
00000060: d956 ca3c f731 abbd 11b7 9abd b792 2c3d
00000070: feba 9ebc 98ad 9e3c c571 f4bc f30b 5d3c
00000080: 758c 10bd d8c3 313b ef59 ac3d 13f8 9b3b
00000090: 77e5 8b3d e970 37bd 0712 48bc 4823 55b9
000000a0: 2dd1 15bc 319f 49bd d0d1 6e3d c5f1 70bd
000000b0: 9f20 3c3d d0af 6f3d 0357 753c bf1b a0bc
000000c0: 97fe 8c3c 5281 01bd e8d9 c0bc 801d d7bc
000000d0: cbcd 6f3d c7b1 40bc 217e a5bd 12fc d63c
000000e0: 23a6 19be c8f2 82bb 21c3 9fbc 0ffd 7ebc
000000f0: a7fb b9bc 2375 8ebd af7f abbd 8dc0 9ebc
00000100: 2313 e13c 0f33 9cbd c7d6 49bd 9a47 9a3d
00000110: 0e6b 963c bae0 003c 2a1b 54bd dd67 623c
00000120: 6555 32bd b5ca 583d ee7f 10bb e4d0 963d
00000130: 3305 adbd dab3 cd3d 464d 04bd 6f9c bebd
00000140: 7cdb 07bd cac1 39bd aaa6 f0bb 7992 02bd
00000150: a760 0dbd 87cb cabd 32cf e6bc 6543 ce3c
00000160: b65f 2e3b dacb 2dbd eaa3 7b3d 38ec 99bd
00000170: 1a20 dfbd 0b45 9abd 9d41 ec3b 7cfc 83bd
00000180: 0500 1e3d a5e0 923d 4711 c7bc 1366 9b3d
00000190: 83c3 c13d 2457 c3bc d84f 643b 3fce a53d
000001a0: 5905 853d 59b4 903b cefa 203e 00b9 99bd
000001b0: 3b1c 1e3d 6dba 6ebd ef16 80bd 1d82 cfbb
000001c0: 9d0e 793c d40a ab3d acc6 b0bc 4d4d 8bbd
000001d0: ca4d 59bc a7e3 82bd 837d 093b 5c57 2abc
000001e0: 7d12 fbbc bd46 eabc 338d 893c a394 0a3d
000001f0: e36f c13c eb03 f53c dfba 913d 606d 9ebc
00000200: 72cd 5abd 7760 aa3c 34c1 a7bc e68f 3bbd
00000210: 951b 43bd ea9c b23a 9de6 b5bd e21c 753b
00000220: c3b4 80bd 5f96 71bc 98bc d1bc c9c2 b4bc
00000230: c36d 083b 1292 823d d879 033c 6095 c7bc
00000240: e0bf b13c c589 de3c c949 c43c 3fde bc3c
00000250: 65bf 6d3d 1636 8f3d a584 673c 8870 5d3d
00000260: ad8c 8b3c 755a 363b 1efd b43c 4623 a6bd
00000270: 9e84 463c 3070 c03c 7d0a b73c b8bf 0aba
00000280: 2e81 bebb 5b92 97bd 7729 4a3d 77c7 0dbd
00000290: 71f6 00bd bfd4 acbc 55e6 d1bb 12fc 583d
000002a0: cc8d 333d baea dcbc 0d27 b7bc 4d8d 93bb
000002b0: 97d3 1339 a3a5 873c 7692 42bc 8076 bb3d
000002c0: 1d76 0a3c 1b7a c43c 90eb 61bd 6677 a33d
000002d0: 37ca dcb7 0166 11bd 42cf 3c3c 78b5 65bc
000002e0: 5a68 bc3d bb9d 81bd e774 aebd 6367 c83d
000002f0: 579a a63d 2b53 153c 9770 543d 655b 58bc
00000300: e637 adbd 8f58 1f3d c89f a03c 302b ea3d
00000310: 0fcc 383d 27b6 303d f3ac 5ebd a768 b63c
00000320: 4e4f 0abd 28e0 0ebd 0a24 333e f323 953d
00000330: abac 40bd c364 00bd 6b39 983c 9416 83bd
00000340: da14 793d 6eb5 bebc 9f9f fe3c 38f3 c4bd
00000350: bbbe 403c e731 8ebd 879e 9ebd d08a 743c
00000360: 437d 243d bfc4 a83c ebfe 6d3d 3dc9 babc
00000370: dbe7 b33c 8b71 413a d6ef 41bd 8705 b33d
00000380: 530d 9ebc 2880 3d3b 7b38 8e3d 9d8b f4bc
00000390: 30c2 78bd 289b 913c f7ef f43c 1496 043d
000003a0: 1aa8 0abd 73eb b7bc c178 b4bb aabc 6ebd
000003b0: c1db 1b3d 289b 92bd 7c08 c6bd 3a30 733d
000003c0: 842f 2a3d 385e 4639 cf16 a0bd 7f23 05bc
000003d0: ea12 763d c25c 7c3d c33b a3bc 6bfc 2e3d
000003e0: 2aca 343c 41ca 4bbb 6d02 14bc 6fea dc3c
000003f0: b2fc 193d b231 7f3b 560d b7bc ffd1 57bb

fc2.weight f4 [256, 256]
0.03001681 -0.061979037 0.08151602 0.0034298622 -0.0677296 -0.10029358 0.041752893 -0.0142322285
0.034929644 -0.008294593 0.083105266 -0.024386657 -0.02636805 0.081208244 -0.06285872 -0.019795658
0.0017198081 -0.0773265 -0.055900324 0.020726418 0.0022579185 -0.07218516 -0.102826476 0.031476382
0.024060769 -0.003304012 -0.014720495 0.0049506994 -0.0553827 0.017872538 -0.057146844 0.031260885
0.03725971 0.0010527844 -0.00044095676 0.027954439 0.014819351 0.11527126 0.005679828 -0.03889405
-0.06617766 -0.052678425 -0.048366368 0.03251677 -0.03287544 -0.10722096 0.022132428 0.06275066
-0.07242354 -0.044361852 0.04994392 -0.08666376 -0.0831964 -0.028671488 0.0021137253 -0.014423862
-0.014279704 -0.03827319 -0.03151352 -0.0025518837 0.031185603 0.03685696 -0.018343145 0.034644686
-0.11976176 0.098539464 0.025736889 0.01917001 0.06195543 -0.06361297 -0.114397876 -0.013585043
-0.055642664 -0.007938146 0.10716356 0.008591968 0.08982959 -0.10847067 0.10513314 0.016770026
-0.04530413 0.07885576 0.060071796 -0.0020306164 0.014010901 -0.0612287 -0.01958219 0.067560054
-0.024462527 -0.057703175 -0.002148645 -0.0037375905 -0.017803038 -0.0024640695 0.027595518 0.046867143
0.08314412 0.00014191824 -0.03272862 -0.042911764 -0.036291026 0.02982375 -0.022994427 -0.0040115668
-0.03463126 -0.0051497235 0.019018887 -0.01571111 -0.057927694 0.10219654 0.020800631 0.018666627
0.016947338 -0.019105202 0.039590817 0.026002591 -0.035662867 0.010972532 0.03044731 0.10292625
0.016843894 0.07008011 0.07692349 -0.0025267063 0.01556913 0.065098904 -0.02778481 0.022091357
0.064447545 0.0032819957 0.09907533 -0.0599513 0.080522895 0.013708419 0.053201105 0.0008587471
-0.08445252 0.0025548057 0.053851493 0.020325907 0.033222698 0.025374755 0.05613465 -0.0491964
0.06128486 -0.017478164 -0.02576991 -0.06383137 0.04706972 0.014310057 -0.015938228 0.025230667
0.021659663 0.0028895228 0.033094954 -0.051259704 0.018846313 -0.04643811 0.025242794 0.016372437
-0.034697488 0.038189843 -0.032464962 0.10517975 0.010077687 0.012549884 0.11023419 0.08128467
0.012311716 -0.041936982 0.13122036 -0.12531918 0.028729806 -0.008570238 -0.03092404 -0.016512614
0.004713981 0.095347874 -0.04219065 0.106313385 -0.105474226 -0.019710578 0.035613414 0.084659435
-0.0048576873 0.04316534 -0.00030106676 -0.021441303 -0.008533173 -0.08553714 -0.009764421 0.1292586
-0.020442342 0.022629004 0.021351224 -0.03510956 0.030115694 0.03257272 0.036386814 -0.019735033
0.005484648 -0.04986753 0.031245926 0.019321833 0.02225013 -0.08864873 0.05090307 -0.07110023
0.036941435 -0.034056682 -0.04805149 0.01752045 0.0047120578 -0.07163366 -0.035149496 -0.020072695
0.021195201 -0.0627192 0.045596857 0.017479222 0.068328165 -0.012316136 0.10402653 0.019059913
0.02151743 0.020320542 -0.0030347041 0.14286867 -0.10602609 0.021209978 -0.032336842 0.067382954
-0.03035191 -0.007561809 0.030345296 0.058161557 0.03346965 -0.015712557 -0.05807283 -0.055240083
-0.033237945 -0.023787497 0.042349834 -0.017551597 0.02390418 0.0022853946 -0.05158635 0.0022935933
-0.06422036 -0.023936057 0.05785188 -0.047000196 -0.03465397 -0.031260952 0.0026092108 -0.1623813
00000000: d0e5 f53c bbdd 7dbd dff1 a63d 8ac7 603b
00000010: d1b5 8abd b866 cdbd 1505 2b3d 4b2e 69bc
00000020: 6312 0f3d 0be6 07bc 1833 aa3d 87c6 c7bc
00000030: cf01 d8bc 8250 a63d 13bc 80bd 812a a2bc
00000040: 2f6b e13a 5b5d 9ebd bdf7 64bd 73ca a93c
00000050: 96f9 133b d0d5 93bd b096 d2bd 61ed 003d
00000060: 171b c53c 1f88 58bb 3b2e 71bc 7a39 a23b
00000070: f8d8 62bd 6e69 923c cf12 6abd 6a0b 003d
00000080: a39d 183d 95fd 893a 3730 e7b9 b500 e53c
00000090: ddcc 723c 5713 ec3d da1d ba3b 5e4f 1fbd
000000a0: 2788 87bd 55c5 57bd d01b 46bd 4e30 053d
000000b0: 66a8 06bd aa96 dbbd 114f b53c 6b83 803d
000000c0: cb52 94bd c6b4 35bd ff91 4c3d c57c b1bd
000000d0: e062 aabd 78e0 eabc 6d86 0a3b 1052 6cbc
000000e0: 6bf5 69bc 59c4 1cbd 5214 01bd 813d 27bb
000000f0: f378 ff3c 53f7 163d 5d44 96bc 96e7 0d3d
00000100: a745 f5bd 0fcf c93d 2bd6 d23c 6d0a 9d3c
00000110: fac4 7d3d 8447 82bd 6f49 eabd cd93 5ebc
00000120: 90e9 63bd ff0e 02bc 9278 db3d 53c5 0c3c
00000130: 93f8 b73d df25 debd 0b50 d73d 4b61 893c
00000140: d390 39bd 217f a13d d80d 763d 1714 05bb
00000150: fa8d 653c f2ca 7abd d46a a0bc ed5c 8a3d
00000160: a365 c8bc 2a5a 6cbd 48d0 0cbb 5df2 74bb
00000170: add7 91bc 3a7c 21bb ff0f e23c c3f7 3f3d
00000180: 7747 aa3d e3cf 1439 720e 06bd 3fc4 2fbd
00000190: e6a5 14bd f050 f43c cf5e bcbc 7673 83bb
000001a0: 82d9 0dbd 03bf a8bb 7fcd 9b3c 96b4 80bc
000001b0: 9745 6dbd 6b4c d13d 1666 aa3c c1ea 983c
000001c0: 25d5 8a3c 8382 9cbc fb29 223d 6303 d53c
000001d0: 3a13 12bd 23c6 333c a36c f93c ffca d23d
000001e0: 35fc 893c 2986 8f3d 108a 9d3d 1997 25bb
000001f0: aa15 7f3c 9352 853d f89c e3bc eff8 b43c
00000200: 13fd 833d c016 573b 02e8 ca3d 7f8f 75bd
00000210: 30e9 a43d 4799 603c 67e9 593d 8b1d 613a
00000220: 71f5 acbd 876e 273b 6293 5c3d 8482 a63c
00000230: 8614 083d b8de cf3c 72ed 653d 2a82 49bd
00000240: d505 7b3d 5e2e 8fbc 6b1b d3bc 05ba 82bd
00000250: 2ecc 403d bb74 6a3c e390 82bc 8bb0 ce3c
00000260: 9b6f b13c 265e 3d3b 938e 073d b2f5 51bd
00000270: 9563 9a3c e335 3ebd fac9 ce3c 7d1f 863c
00000280: f41e 0ebd f46c 1c3d fbf9 04bd 7b68 d73d
00000290: e21c 253c 079e 4d3c 77c2 e13d 9478 a63d
000002a0: 14b7 493c 1dc6 2bbd a15e 063e ac53 00be
000002b0: c55a eb3c 2f6a 0cbc 6a54 fdbc 7645 87bc
000002c0: bd77 9a3b bf45 c33d 1ad0 2cbd d5ba d93d
000002d0: df02 d8bd 1478 a1bc 5fdf 113d ed61 ad3d
000002e0: 3c2d 9fbb 24ce 303d 7fd8 9db9 aca5 afbc
000002f0: b9ce 0bbc 192e afbd f3fa 1fbc 5e5c 043e
00000300: b376 a7bc 7660 b93c c3e8 ae3c 0bcf 0fbd
00000310: 30b5 f63c f96a 053d 570a 153d 5dab a1bc
00000320: 90b8 b33b e541 4cbd 75f7 ff3c d248 9e3c
00000330: e845 b63c 778d b5bd bd7f 503d ff9c 91bd
00000340: e74f 173d 057f 0bbd a4d1 44bd 0c87 8f3c
00000350: 9b67 9a3b abb4 92bd ebf8 0fbd 7e6f a4bc
00000360: 8fa1 ad3c ed72 80bd c5c3 3a3d 9630 8f3c
00000370: a3ef 8b3d 9ec9 49bc dd0b d53d 8923 9c3c
00000380: 5245 b03c 4477 a63c e3e1 46bb 2a4c 123e
00000390: 3524 d9bd 8cc0 ad3c a373 04bd 1300 8a3d
000003a0: 92a4 f8bc 0dc9 f7bb b396 f83c d03a 6e3d
000003b0: 7917 093d 9fb7 80bc c7dd 6dbd 6d43 62bd
000003c0: 8324 08bd ffdd c2bc 0577 2d3d 5ec8 8fbc
000003d0: b3d2 c33c 8fc6 153b 354c 53bd 1c50 163b
000003e0: f785 83bd 8d15 c4bc 18f6 6c3d 4783 40bd
000003f0: 52f1 0dbd 7c0b 00bd 4bff 2a3b 4947 26be

fc2.bias f4 [256]
0.038178373 -0.005641096 0.017967407 0.035521425 0.11445563 0.034877654 0.026635503 0.09775453
-0.03673515 -0.02776109 0.08217033 -0.034849048 0.050044633 -0.070926875 -0.07996098 -0.02279541
0.060867697 -0.022655534 -0.011316229 -0.06359536 -0.06142781 -0.05415072 0.05917135 0.042255607
-0.0039735166 -0.034862436 -0.020981265 0.056499507 -0.0072404086 -0.014298092 -0.03462093 0.007448099
0.02233814 0.011243071 -0.053983536 0.022847507 0.030604223 -0.04435871 0.042703666 -0.058318317
-0.0335137 -0.027575273 0.015935402 0.010213903 -0.06766846 0.0644358 -0.045192763 0.018437328
-0.029171396 -0.0005245441 0.06965177 0.0022729535 0.025790716 -0.011003401 -0.019684864 0.10592295
0.06182759 -0.030432278 0.03459084 -0.059679102 0.016822798 -0.039847776 0.022675073 -0.036637478
-0.011865771 -0.0023868917 -0.027466426 -0.034901682 -0.055890318 -0.05028058 0.0636802 -0.009839551
0.013286066 0.016016323 0.014794819 0.068178564 -0.050732553 0.009461071 0.03489136 -0.022235643
-0.025640456 -0.010194293 -0.08161353 0.0395821 -0.005360292 0.008935416 -0.040952276 0.109255254
-0.045808993 -0.047304105 -0.010389547 0.07805084 0.049649134 0.010187306 0.006125011 -0.07203128
0.07504277 -0.06603593 -0.016578734 -0.06477606 0.0019050317 -0.00251774 -0.016854806 -0.0072453828
-0.035367306 -0.062608905 -0.11357629 0.09979675 0.01377736 -0.026624689 -0.013385199 -0.0092481915
-0.05761382 -0.021667501 0.08904401 -0.046287075 -0.039388653 -0.03470312 -0.031590186 -0.018572412
-0.060401924 -0.03775816 0.072675094 -0.037858643 0.023068858 -0.011867651 0.018828308 0.051452357
-0.038263053 0.032844793 -0.01104473 0.019443234 -0.05008566 0.114890836 -0.10199299 -0.0425017
0.015992312 -0.04466165 -0.05430701 -0.04041236 -0.069466494 0.0043167663 -0.0039021175 -0.018322792
0.013629126 0.0031961862 0.018174857 -0.010739924 -0.012470218 0.09589548 -0.027178863 -0.03566593
0.011856566 0.013733682 -0.013885378 0.043209843 -0.061098 0.026760984 -0.081506036 -0.048530784
0.02479977 -0.039240953 0.08274251 -0.0387151 -0.08993656 0.03150564 -0.111442044 0.025729492
-0.096239604 0.009351756 0.03191113 -0.012660536 -0.07747688 0.0066233366 0.06531598 -0.052744415
-0.046294816 -0.070339374 -0.011965609 -0.018552933 -0.028932273 0.055752795 0.011161652 -0.088848546
0.013319547 0.036531705 -0.019830052 0.0021470773 -0.060415085 -0.049667098 -0.08217868 0.022749742
0.00021968596 -0.008495793 0.013933795 -0.055187047 0.011354509 -0.007171421 -0.031864326 -0.06001367
-0.0468806 0.0057959184 -0.0022689232 0.040520307 0.06499958 0.024309857 -0.002801797 0.026503032
-0.12138764 -0.06862066 0.023100916 -0.01806416 0.11541524 -0.0731956 -0.019484887 0.01662847
0.07140656 -0.037085366 0.055656027 0.021993313 0.018572448 -0.08623518 -0.09298758 0.0799583
-0.05180506 -0.037123606 -0.011266167 0.044745237 0.025888795 0.05079903 -0.0019351988 -0.032665074
0.027400348 0.11810336 0.030834133 0.036252078 0.05356883 -0.010083093 0.021300169 0.00013091312
0.012451877 0.019502094 0.0430994 0.008721105 -0.035702065 -0.0871129 -0.077651575 -0.07577362
0.08707678 0.069376335 0.010170894 0.036331296 -0.07524869 -0.0047048624 -0.110834755 -0.05148801
00000000: ed60 1c3d f1d8 b8bb 6230 933c ea7e 113d
00000010: b767 ea3d dfdb 0e3d b332 da3c 8733 c83d
00000020: 9977 16bd 3a6b e3bc eb48 a83d e0bd 0ebd
00000030: 9afb 4c3d 1c42 91bd 95c2 a3bd 71bd babc
00000040: 6850 793d 1998 b9bc b467 39bc 493e 82bd
00000050: ba9b 7bbd 25cd 5dbd a85d 723d 3714 2d3d
00000060: 4634 82bb eacb 0ebd e7e0 abbc 076c 673d
00000070: f340 edbb 8b42 6abc adce 0dbd 2f0f f43b
00000080: 7afe b63c dc34 383c d71d 5dbd b22a bb3c
00000090: b5b5 fa3c 7bb1 35bd 0aea 2e3d 30df 6ebd
000000a0: a945 09bd 8ae5 e1bc f68a 823c 3758 273c
000000b0: c395 8abd ebf6 833d 0c1c 39bd e109 973c
000000c0: daf8 eebc 8f81 09ba 96a5 8e3d d5f5 143b
000000d0: 0d47 d33c 9c47 34bc 2742 a1bc 22ee d83d
000000e0: ed3e 7d3d 1d4d f9bc 20af 0d3d 1372 74bd
000000f0: f7cf 893c 6c37 23bd 13c1 b93c 2e11 16bd
00000100: a768 42bc 666d 1cbb 4501 e1bc 11f5 0ebd
00000110: 3fed 64bd 02f3 4dbd c46a 823d 1136 21bc
00000120: cdad 593c aa34 833c f865 723c 34a1 8b3d
00000130: f0cc 4fbd 9c02 1b3c 3eea 0e3d 8627 b6bc
00000140: ef0b d2bc f705 27bc ff24 a7bd d720 223d
00000150: 63a5 afbb da65 123c 93bd 27bd 38c1 df3d
00000160: 36a2 3bbd f3c1 41bd eb38 2abc 1ed9 9f3d
00000170: e45c 4b3d a9e8 263c 51b4 c83b 2385 93bd
00000180: 06b0 993d d83d 87bd 20d0 87bc 50a9 84bd
00000190: 42b2 f93a ab00 25bb 1713 8abc ad6a edbb
000001a0: 4fdd 10bd 1939 80bd b09a e8bd 3d62 cc3d
000001b0: 70ba 613c 051c dabc 984d 5bbc ba85 17bc
000001c0: 78fc 6bbd 0b80 b1bc b55c b63d 8497 3dbd
000001d0: ff55 21bd dc24 0ebd b664 01bd 2c25 98bc
000001e0: 0268 77bd 4da8 1abd aed6 943d aa11 1bbd
000001f0: e7fa bc3c 8970 42bc d33d 9a3c b5bf 523d
00000200: b8b9 1cbd 4388 063d f5f4 34bc 6b47 9f3c
00000210: 9f26 4dbd e34b eb3d b3e1 d0bd 4316 2ebd
00000220: 4f02 833c 22ef 36bd 0771 5ebd 6e87 25bd
00000230: 7344 8ebd a973 8d3b abba 7fbb ae19 96bc
00000240: b34c 5f3c 1b77 513b 70e3 943c 82f6 2fbc
00000250: e34f 4cbc d964 c43d 35a6 debc 7016 12bd
00000260: 0b42 423c 3d03 613c 7f7f 63bc cefc 303d
00000270: e541 7abd da39 db3c a3ec a6bd 37c8 46bd
00000280: e328 cb3c 1fbb 20bd e874 a93d ba93 1ebd
00000290: a930 b8bd 0f0c 013d ba3b e4bd a8c6 d23c
000002a0: 4519 c5bd 1c38 193c 3fb5 023d 236e 4fbc
000002b0: 33ac 9ebd 9308 d93b 62c4 853d 870a 58bd
000002c0: a29f 3dbd 170e 90bd 670b 44bc 52fc 97bc
000002d0: 6003 edbc 0b5d 643d 5ddf 363c 3af6 b5bd
000002e0: 3b3a 5a3c 45a2 153d a272 a2bc fbb5 0c3b
000002f0: cf75 77bd ba6f 4bbd 4c4d a8bd ab5d ba3c
00000300: 805b 6639 f031 0bbc 924a 643c d00b 62bd
00000310: 4308 3a3c 3dfe eabb 2b84 02bd e5d0 75bd
00000320: df05 40bd b0eb bd3b 37b2 14bb 9ff8 253d
00000330: 801e 853d 7725 c73c 5a9e 37bb e31c d93c
00000340: 159a f8bd fd88 8cbd 223e bd3c 4afb 93bc
00000350: d35e ec3d 93e7 95bd c59e 9fbc 6e38 883c
00000360: 9a3d 923d d3e6 17bd 93f7 633d 522b b43c
00000370: 3f25 983c 129c b0bd 4670 bebd 2dc1 a33d
00000380: 8b31 54bd ec0e 18bd bb95 38bc c846 373d
00000390: bd14 d43c a512 503d 7fa6 fdba d0cb 05bd
000003a0: b276 e03c 2de0 f13d dd97 fc3c 0f7d 143d
000003b0: fd6a 5b3d 8f33 25bc b17d ae3c b945 0939
000003c0: f502 4c3c dbc2 9f3c ff88 303d f7e2 0e3c
000003d0: 543c 12bd 4068 b2bd ca07 9fbd 332f 9bbd
000003e0: 5055 b23d 2e15 8e3d d2a3 263c 20d0 143d
000003f0: fc1b 9abd 3f2b 9abb 55fd e2bd 17e5 52bd

fc_mean.weight f4 [8, 256]
0.06387523 0.07955976 -0.007826413 -0.024264371 -0.0056186784 0.03334984 0.026956007 0.014028688
0.0032413192 0.040844753 0.044122707 -0.02930514 -0.012768774 -0.014837168 0.10070979 -0.0056372685
-0.0058526467 -0.0030189762 0.062356938 0.00814959 0.011186292 -0.045234494 0.07539617 -0.034248646
-0.039739955 0.00073387666 0.030817121 0.005769459 0.08127439 -0.041753836 -0.059124596 -0.0056162435
0.097311474 0.037449103 0.06677544 -0.0021766494 -0.0508868 -0.07457418 -0.001237335 0.0045590564
-0.045719728 0.058511354 -0.06588252 0.010984267 -0.10347605 -0.00926531 0.018749628 -0.012665761
0.02530593 0.018887756 0.01384397 0.06923157 0.044421405 -0.026234433 -0.014206806 0.009806091
-0.07680039 0.0064963326 -0.00949831 -0.05372855 -0.050801035 0.015013951 0.072282456 -0.0014595615
0.028917724 -0.12941575 -0.049994357 0.028310357 0.06696571 0.05676585 -0.09053343 -0.04536195
0.057982743 -0.0081407195 0.12801619 0.02573208 -0.0021696098 -0.043301854 0.052297987 -0.0771124
-0.022016978 -0.00955076 -0.0030325113 0.05024677 -0.03135177 0.13079543 0.019784259 -0.004640674
-0.058178455 -0.04124434 -6.0983726e-05 -0.0058482545 -0.009622621 -0.06855341 0.0089974515 -0.100748755
-0.03438611 0.0024302069 0.001603749 -0.011697875 0.00389979 -0.02175933 0.007775657 -0.08496801
-0.0599384 -0.027876189 0.07462799 -0.014723045 0.0004947629 0.104205586 -0.02998639 -0.053446054
-0.028838059 -0.05594048 -0.014712279 0.0049749864 -0.07027597 -0.005530328 -0.035117008 0.06333597
-0.04122858 0.029108882 -0.04534495 0.03710873 0.023339808 0.0395807 -0.020582227 0.036022842
-0.06155066 -0.038969614 -0.097354345 -0.009331576 -0.0019227499 -0.07138495 0.04499368 -0.01731241
0.03731941 -0.010383557 0.044588175 0.03312626 -0.026116231 0.025730787 -0.017545667 -0.04431041
0.05312863 -0.025759274 0.07885113 -0.0242175 -0.04082801 -0.03022856 -0.14326909 0.03390388
0.07421557 -0.08324022 -0.08541187 0.014949857 -0.0026220337 -0.030393658 0.04386806 -0.071486294
0.020436352 -0.046641525 -0.012795182 0.03407697 -0.012356071 0.06914046 -0.046557095 -0.045479722
-0.025622118 0.07258639 0.05968271 0.05898566 0.030289317 -0.029683406 -0.035810422 -0.097869866
0.049310554 -0.065708324 0.0037328128 0.012826109 -0.057872523 0.049901392 -0.03077039 0.009361143
-0.014897282 -0.08196232 0.030721802 -0.07869846 -0.044091526 0.040851235 -0.07950848 -0.075939015
-0.01526566 0.0046638 -0.023817731 0.03514637 0.026765663 -0.09172919 -0.057930697 -0.034447845
-0.097351156 1.0992563e-05 0.063761316 -0.013953348 0.051962264 -0.07419871 -0.017025014 0.07407786
0.16229157 -0.004014531 0.07140206 0.108097784 0.044193294 0.05032432 -0.015405108 0.06041903
-0.07990464 -0.000405222 0.011033991 0.039139014 -0.0071457285 -0.016589234 0.07689657 -0.117535725
-0.1041466 -0.05706764 -0.029813437 -0.053500887 0.09375154 -0.018122919 -0.08339332 0.02459128
-0.008059245 0.025942324 0.017257463 -0.03189047 -0.062274177 -0.0011624095 0.04656336 0.030140027
-0.0057665757 -0.00729346 -0.028564766 -0.07343566 -0.008535166 -0.12269326 0.09301277 0.063968875
-0.0010300222 -0.058676522 0.050213713 0.0358935 -0.0002803071 -0.04486525 -0.002365626 -0.025934175
00000000: 04d1 823d 3af0 a23d 5b3a 00bc 13c6 c6bc
00000010: e41c b8bb d899 083d d8d2 dc3c 95d8 653c
00000020: 506c 543b d44c 273d 03ba 343d 5511 f0bc
00000030: 1f34 51bc 9817 73bc ef40 ce3d d6b8 b8bb
00000040: 8fc7 bfbb 04da 45bb fd69 7f3d dc85 053c
00000050: b646 373c ce47 39bd 4f69 9a3d 4f48 0cbd
00000060: 5dc6 22bd a161 403a 3074 fc3c bb0d bd3b
00000070: 3073 a63d 1206 2bbd a22c 72bd 7708 b8bb
00000080: 3d4b c73d 3b64 193d 90c1 883d 1ea6 0ebb
00000090: ad6e 50bd 59ba 98bd 132e a2ba 2364 953b
000000a0: 9c44 3bbd 9aa9 6f3d 6aed 86bd 5bf7 333c
000000b0: 40eb d3bd 87cd 17bc d298 993c 0d84 4fbc
000000c0: 624e cf3c 7fba 9a3c d2d1 623c 48c9 8d3d
000000d0: 38f3 353d 98e9 d6bc aac3 68bc baa9 203c
000000e0: 8649 9dbd 30df d43b cd9e 1bbc 7812 5cbd
000000f0: bf14 50bd 13fd 753c d308 943d c24e bfba
00000100: dde4 ec3c 9085 04be e2c6 4cbd 1feb e73c
00000110: 5125 893d 4f83 683d 9769 b9bd 74cd 39bd
00000120: 507f 6d3d a760 05bc ad16 033e 15cc d23c
00000130: 0330 0ebb 495d 31bd 6a36 563d 1bed 9dbd
00000140: f35c b4bc ca7a 1cbc 19bd 46bb 8fcf 4d3d
00000150: b76a 00bd 3def 053e 9912 a23c cc10 98bb
00000160: 884c 6ebd d3ef 28bd c7c8 7fb8 b7a2 bfbb
00000170: 33a8 1dbc bb65 8cbd 0c6a 133c 5d55 cebd
00000180: 73d8 0cbd 1b44 1f3b e334 d23a 72a8 3fbc
00000190: 9f93 7f3b 9f40 b2bc f0ca fe3b b503 aebd
000001a0: f881 75bd 9b5c e4bc 8fd6 983d ed38 71bc
000001b0: fab2 013a bd69 d53d 05a6 f5bc 40ea 5abd
000001c0: cb3d ecbc d821 65bd c50b 71bc 3605 a33b
000001d0: d9ec 8fbd c137 b5bb dad6 0fbd 4ab6 813d
000001e0: 4ddf 28bd c075 ee3c a0bb 39bd 53ff 173d
000001f0: 2033 bf3c 5f1f 223d 0f9c a8bc b08c 133d
00000200: 8b1c 7cbd 9a9e 1fbd b761 c7bd 77e3 18bc
00000210: c804 fcba 4632 92bd 4b4b 383d c1d2 8dbc
00000220: 3ddc 183d cb1f 2abc 17a2 363d 67af 073d
00000230: b5f1 d5bc 5fc9 d23c eebb 8fbc d57e 35bd
00000240: 689d 593d 1d05 d3bc b47c a13d c763 c6bc
00000250: 453b 27bd e3a1 f7bc 22b5 12be cbde 0a3d
00000260: 55fe 973d d979 aabd 6bec aebd 3ff0 743c
00000270: 6dd6 2bbb 1ffc f8bc ffae 333d 6867 92bd
00000280: 236a a73c 2f0b 3fbd e2a2 51bc 4b94 0b3d
00000290: 1e71 4abc 8399 8d3d a7b2 3ebd f248 3abd
000002a0: 7ae5 d1bc 2ca8 943d db75 743d f39a 713d
000002b0: 4d21 f83c 9d2a f3bc f3ad 12bd ff6f c8bd
000002c0: ddf9 493d 1692 86bd 35a2 743b 9a24 523c
000002d0: bd0b 6dbd 6765 4c3d 2f12 fcbc 7b5f 193c
000002e0: bb13 74bc dcdb a7bd 4aac fb3c a82c a1bd
000002f0: 5199 34bd a053 273d 58d5 a2bd ea85 9bbd
00000300: d21c 7abc cad2 983b 671d c3bc a4f5 0f3d
00000310: aa43 db3c 83dc bbbd bd48 6dbd 2f19 0dbd
00000320: 0b60 c7bd b36c 3837 4b95 823d 959c 64bc
00000330: 62d6 543d 7ef5 97bd 0b78 8bbc 22b6 973d
00000340: c32f 263e 548c 83bb 3e3b 923d 5f62 dd3d
00000350: 0704 353d e020 4e3d b565 7cbc f279 773d
00000360: 0ba5 a3bd fa73 d4b9 eac7 343c 3b50 203d
00000370: b726 eabb 25e6 87bc f37b 9d3d 92b6 f0bd
00000380: d04a d5bd c2bf 69bd 4f3b f4bc bf23 5bbd
00000390: cf00 c03d 8476 94bc 1eca aabd a773 c93c
000003a0: ec0a 04bc ff84 d43c 865f 8d3c 959f 02bd
000003b0: 3513 7fbd fe5b 98ba 39b9 3e3d 38e8 f63c
000003c0: 8bf5 bcbb fafd eebb a800 eabc 6f65 96bd
000003d0: 15d7 0bbc 9b46 fbbd 7b7d be3d 1d02 833d
000003e0: cf01 87ba cb56 70bd e5ac 4d3d 1005 133d
000003f0: 2ff6 92b9 a0c4 37bd 9e08 1bbb e873 d4bc

fc_mean.bias f4 [8]
-0.05069199 0.009764021 0.030905554 -0.0017817591 -0.026654914 0.0073696724 0.02897644 0.032422528
00000000: 67a2 4fbd 46f9 1f3c a52d fd3c ea89 e9ba
00000010: 685b dabc 4b7d f13b 0060 ed3c 7ccd 043d
