ga_weights/ga2/Hopper-v5/TD3/weights9.pt (torch, 281441 bytes, 6 tensors)

fc1.weight f4 [256, 11]
0	0xbd338e62	-0.04383696
1	0x3daea0a2	0.08526732
2	0xbded1fd4	-0.11578336
3	0xbdb7e5de	-0.089793906
4	0xbe0864a4	-0.13319641
5	0x3e87da26	0.26533622
6	0xbdae2da4	-0.08504799
7	0xbce0a9f3	-0.027424788
8	0x3d815aa4	0.063161165
9	0xbadae3c6	-0.0016699962
10	0x3e0a034c	0.1347782
11	0x3dc4c2f2	0.09607495
12	0xbd064fd8	-0.03279099
13	0xbd800a38	-0.06251949
14	0xbe56be49	-0.20971026
15	0x3e664cea	0.22490278
16	0xbe5f93be	-0.21833703
17	0xbe1f5153	-0.15558366
18	0xbd8a804c	-0.06762752
19	0xbe08a7db	-0.13345282
20	0x3e95cc1e	0.29257292
21	0xbe424abb	-0.1897382
22	0x3d4883eb	0.04895393
23	0x3cef150b	0.029184839
24	0xbde97ac6	-0.1140037
25	0x3e15a351	0.14613082
26	0x3d95b742	0.07310344
27	0x3d759d4b	0.05996446
28	0xbd6f8208	-0.058473617
29	0xbc6219d0	-0.0138000995
30	0xbd819e45	-0.06329016
31	0x3e202fab	0.15643184
32	0xbd05823f	-0.032594915
33	0xbd6fb900	-0.05852604
34	0xbd892a1c	-0.06697485
35	0xb9b0d668	-0.0003372908
36	0x3e1fa7f1	0.15591408
37	0x3b34ca80	0.002758652
38	0xbc3b8ea6	-0.011447584
39	0xbd6f1afe	-0.05837535
40	0x3d27540a	0.04085163
41	0x3d46673e	0.048438303
42	0x3ce3bb87	0.027799381
43	0x3e907e2a	0.28221256
44	0x3d217680	0.03941965
45	0xbdb1128c	-0.08646116
46	0xb9c613d0	-0.00037780264
47	0xbd1e80de	-0.038697116
48	0xbe0424f7	-0.12904726
49	0x3e088684	0.13332564
50	0xbd4ba9a8	-0.049722344
51	0x3d6ab082	0.057297237
52	0x3d7c15be	0.061544172
53	0x3d163c9a	0.036678888
54	0xbe566786	-0.20937929
55	0x3d2184d0	0.0394333
56	0x3e5b3bbc	0.21409506
57	0xbda74c86	-0.081688926
58	0xbe0d09df	-0.13773297
59	0x3d63ab5e	0.05558335
60	0x3e2f02c6	0.17090902
61	0xbd538cb2	-0.05164785
62	0xbdc419b9	-0.09575219
63	0xbddcd8c2	-0.10783531
64	0xbb1419c0	-0.0022598356
65	0x3e2ca0d4	0.16858226
66	0x3b16ec00	0.002302885
67	0xbe0bc7a2	-0.13650373
68	0x3e6142dc	0.21998161
69	0xbe6fc391	-0.23414446
70	0xbc53f81a	-0.01293757
71	0xbdbd545d	-0.09244607
72	0xbd9f5cfc	-0.07781407
73	0xbe63a3a1	-0.22230388
74	0x3c9e646e	0.019334998
75	0x3c80eef4	0.015738942
76	0xbd8a5e21	-0.06756235
77	0xbd714395	-0.058902342
78	0xbd584cf2	-0.052807756
79	0x3cf71534	0.030161478
80	0x3d80fbb6	0.0629801
81	0xbcb4e766	-0.022082996
82	0xbd31c746	-0.043402933
83	0x3dd35e1f	0.103206865
84	0x3e05f6ed	0.13082476
85	0x3e471efd	0.19445415
86	0x3e380c6e	0.17973492
87	0x3e07fa4e	0.13279077
88	0xbd605754	-0.054770783
89	0xbe6edbe8	-0.23326075
90	0xbdecd2b9	-0.1156363
91	0x3e9823e9	0.29714897
92	0xbda7d1e5	-0.08194331
93	0xbd0bf1a8	-0.03416601
94	0xbe18bc89	-0.1491567
95	0xbc899594	-0.016794957
96	0x3b8a2864	0.0042162407
97	0xbd5cd728	-0.053916126
98	0x3dc97754	0.09837213
99	0x3c5f2a98	0.013620995
100	0x3e4cef40	0.20013142
101	0x3db34272	0.08752908
102	0x3e302163	0.17200236
103	0x3db49d8f	0.088191144
104	0xbea1c832	-0.3159805
105	0x3e3c2826	0.1837469
106	0x3d39c254	0.04535134
107	0x3d3d44de	0.046208255
108	0x3c577c1b	0.013152148
109	0x3e1cebe0	0.15324354
110	0x3e8441ca	0.25831443
111	0x3e1e775e	0.15475222
112	0x3df57536	0.11985247
113	0x3db334bf	0.08750295
114	0x3d7f9af0	0.06240362
115	0xbe0fda83	-0.140482
116	0x3d8c5a22	0.06853129
117	0xbe640e7e	-0.22271153
118	0x3d6b03c9	0.057376657
119	0xbc4a94d0	-0.012364581
120	0x3dbfb90c	0.09361467
121	0xbdc07bd9	-0.09398622
122	0xbc604508	-0.013688333
123	0xbe1d25f5	-0.1534651
124	0xbddbe455	-0.1073691
125	0x3e565671	0.20931412
126	0xbd90ed5d	-0.070765235
127	0x3e1ea3cc	0.15492171
128	0x3df51964	0.119677335
129	0x3d6f531f	0.05842888
130	0x3e8c8f07	0.2745287
131	0xbe49a400	-0.19691467
132	0xbd76c0f0	-0.060242593
133	0xbdd67591	-0.10471643
134	0xbce3cb50	-0.027806908
135	0xbe756f56	-0.23968253
136	0xbd22f35e	-0.039782874
137	0xbec76618	-0.3894508
138	0xbe287c5f	-0.16453694
139	0x3d0ef966	0.034905814
140	0xbda08a8f	-0.07838928
141	0xbd998ee2	-0.07497956
142	0x3d99f67b	0.075177155
143	0x3e01319e	0.12616584
144	0x3e1eaf85	0.15496643
145	0xbca264ff	-0.01982355
146	0x3cb2f310	0.021844417
147	0xbe63b855	-0.22238286
148	0x3d4ea222	0.05044759
149	0x3d65dcbc	0.05611871
150	0xbdc02454	-0.09381929
151	0x3e0736a7	0.13204442
152	0xbde17b8e	-0.11009894
153	0xbdc92ed4	-0.09823385
154	0x3cf4513c	0.029823892
155	0x3d7ac88a	0.061226405
156	0xbd15356a	-0.036427893
157	0x3e655226	0.22394618
158	0xbddc11d2	-0.107455865
159	0xbe154a54	-0.14579135
160	0x3ca5e77c	0.020251982
161	0xbc280a30	-0.010256335
162	0xbe08a2a2	-0.1334329
163	0xbd60da9a	-0.054895975
164	0x3dafcb03	0.08583643
165	0xbd4190df	-0.0472573
166	0x3df5e994	0.12007442
167	0x3e2a124d	0.16608544
168	0x3e0be71a	0.13662377
169	0x3c64a6b6	0.013955763
170	0xbdd2c5b8	-0.10291618
171	0x3e704cc4	0.23466784
172	0x39909800	0.0002757907
173	0x3d931375	0.071814455
174	0x3dffd01e	0.12490867
175	0x3ae99520	0.0017820932
176	0xbcda4369	-0.026643472
177	0x3d46c3f0	0.048526704
178	0x3e066d07	0.13127528
179	0xbd1dfbdb	-0.038570266
180	0xbe0faa89	-0.14029898
181	0xbdfde855	-0.123978294
182	0xbc229d70	-0.009925231
183	0x3e41da82	0.1893101
184	0x3ed8847d	0.4228858
185	0x3de838c1	0.1133895
186	0x3e232aa9	0.15934242
187	0x3e3be5d8	0.18349397
188	0x3b4f1bb8	0.0031602215
189	0x3d6f6350	0.05844432
190	0x3df7a646	0.12092261
191	0x3d00c40e	0.031436972
192	0xbd2852d1	-0.041094605
193	0x3cf5ca3a	0.030003656
194	0x3e13aa0a	0.14420334
195	0xbd45def7	-0.04830834
196	0x3e81384a	0.25238258
197	0x3db3a1a6	0.08771066
198	0xbb9898f5	-0.004656906
199	0xbd1e52f0	-0.038653314
200	0xbd58bcdc	-0.052914485
201	0xbe012774	-0.12612706
202	0x3da344c7	0.079721026
203	0x3cf3bcd0	0.029753119
204	0x3d05b8c0	0.032646894
205	0xbdff7653	-0.124737404
206	0x3c16c6dd	0.009202686
207	0xbe06a96c	-0.13150567
208	0xbd4887ec	-0.04895775
209	0x3db3dfbf	0.087829106
210	0x3db2ef4a	0.08737047
211	0xbdc0953d	-0.09403465
212	0xbdab1a25	-0.08354596
213	0xbd8b2ba3	-0.067954324
214	0x3dcc08f6	0.09962647
215	0x3d584c58	0.052807182
216	0x3e8b2c99	0.27182463
217	0xbc10b3c0	-0.008831918
218	0xbdee2135	-0.116274275
219	0x3d3d3e56	0.046202026
220	0xbd0e08ee	-0.034676485
221	0xbc4f063c	-0.012635764
222	0x3cc46159	0.0239722
223	0xbbfe9d40	-0.0077702105
224	0x3eb73a2e	0.35786575
225	0x3db1e90a	0.08687027
226	0xbdf95b5b	-0.12175628
227	0x3d5737d2	0.05254347
228	0x3e78f7ba	0.2431325
229	0x3d205254	0.039141014
230	0xbd36f2dd	-0.044665206
231	0x3d9f5fe6	0.07781963
232	0xbddf27d6	-0.1089627
233	0xbe4127a3	-0.18862776
234	0x3dc04665	0.09388427
235	0x3c929a30	0.017895788
236	0x3e77078c	0.24123973
237	0xbcfee6ba	-0.031115878
238	0xbdf6dd95	-0.12053982
239	0xbe27056f	-0.16310667
240	0x3d8c6252	0.068546906
241	0x3dfe3067	0.12411576
242	0xbe0859ce	-0.13315508
243	0xbc47f356	-0.012204012
244	0x3e4c8d2e	0.19975731
245	0xbda83002	-0.08212282
246	0xbd70afc6	-0.05876138
247	0x3d5fc344	0.05462958
248	0x3de08623	0.109630845
249	0x3cafca46	0.021458756
250	0x3d93edc6	0.07223086
251	0x3e4290e5	0.19000585
252	0x3dd25ebd	0.10271976
253	0xbce8a19a	-0.02839737
254	0xbd33c73c	-0.043891177
255	0xbeae7a35	-0.34077612

fc1.bias f4 [256]
0	0xbce98b90	-0.028508931
1	0x3e015a1e	0.12632033
2	0xbe70902c	-0.23492497
3	0xbe165650	-0.14681363
4	0x3e15a267	0.14612733
5	0x3df768dc	0.12080547
6	0x3c63a4f8	0.013894312
7	0xbb74f0fc	-0.0037375083
8	0xbdd83f3c	-0.10558936
9	0x3e1b9b8a	0.15196052
10	0x3cb74d1c	0.022375636
11	0x3e0497cc	0.12948531
12	0xbcd7421b	-0.026276639
13	0x3e2c8676	0.16848168
14	0xbd87b7c1	-0.06626845
15	0xbd4e6acf	-0.05039483
16	0x3e086192	0.1331847
17	0xbbf9fd88	-0.0076291002
18	0xbe2ced25	-0.16887338
19	0x3e1da0da	0.15393391
20	0x3b502dd4	0.0031765597
21	0x3e09ff1d	0.13476224
22	0x3e1d9288	0.15387928
23	0x3d9ebaf7	0.077505045
24	0xbd4b2ec4	-0.049605146
25	0xbe2d4ea4	-0.1692453
26	0xbd757d70	-0.05993408
27	0xbdcee4fe	-0.101022705
28	0x3cbe5e60	0.02323836
29	0x3d40e4d7	0.04709324
30	0x3ce7ed59	0.028311418
31	0xbd58cb6b	-0.05292837
32	0xbd9d5837	-0.07682841
33	0xbde32556	-0.11091106
34	0x3e129070	0.14312911
35	0xbd562b7e	-0.05228757
36	0x3dc0c115	0.094118275
37	0xbd8b04c3	-0.067880176
38	0x3dc61451	0.09671844
39	0x3dba1fd1	0.090881
40	0xbe45e496	-0.1932548
41	0xbc19f0fc	-0.009395834
42	0xbd2ec014	-0.04266365
43	0xbd4d6960	-0.05014932
44	0xbe55483c	-0.20828336
45	0xbdb5aa43	-0.088703655
46	0x3e648f76	0.22320351
47	0x3da34111	0.07971395
48	0x3e5c5fcd	0.2152092
49	0x3d554211	0.05206496
50	0xbda14121	-0.078737505
51	0x3df5942e	0.11991154
52	0xbe889509	-0.26676205
53	0x3de365d3	0.11103406
54	0xbd2614f9	-0.040547345
55	0x3c56fe7e	0.013122199
56	0xbe4d042a	-0.2002112
57	0x3d9800b8	0.07422012
58	0xbda7110c	-0.08157548
59	0xbe10759f	-0.14107369
60	0xbe36e9b5	-0.1786259
61	0x3e59d7f7	0.2127379
62	0x3d6b6929	0.057473335
63	0x3dca302f	0.098724715
64	0xbdc0185b	-0.093796454
65	0xbd854d51	-0.065088876
66	0x3e4f2696	0.20229563
67	0xbd9b298e	-0.07576285
68	0xbc829d82	-0.015944246
69	0x3e0074cb	0.12544553
70	0x3e1c0d10	0.15239358
71	0x3e0648aa	0.13113657
72	0x3e243e77	0.16039453
73	0x3d6f6599	0.0584465
74	0xbc303b02	-0.010756256
75	0xbdb8f51c	-0.09031126
76	0x3ab51010	0.0013813991
77	0x3d998ea8	0.07497913
78	0x3d4ef6b2	0.050528236
79	0xbec501ee	-0.38478035
80	0xbe03797f	-0.12839316
81	0xbe2eb76c	-0.17062157
82	0xbe03252e	-0.12807152
83	0x3d9038b4	0.07042065
84	0x3df50b92	0.119650975
85	0xbdcb995d	-0.09941361
86	0x3dae735d	0.085180975
87	0x3b4b89c0	0.0031057447
88	0x3e0801e7	0.13281976
89	0xbe03040a	-0.1279451
90	0xbb83b984	-0.004019918
91	0x3c40f017	0.011775992
92	0x3e366e27	0.17815457
93	0xbdb528d2	-0.088456765
94	0xbcf7a77c	-0.03023123
95	0x3ccd9a59	0.025098013
96	0x3cd33378	0.025781378
97	0x3e21293c	0.15738386
98	0xbd9f0cfd	-0.07766149
99	0x3d5bf4a8	0.05370012
100	0xbdc0a4c1	-0.09406424
101	0x3e4a040f	0.1972811
102	0xbca6561a	-0.020304728
103	0x3bd3bc67	0.0064616683
104	0x3e3dd1a6	0.18537006
105	0x3e142754	0.14468127
106	0xbe1e298a	-0.15445533
107	0x3c77610c	0.015098821
108	0xbd90cba9	-0.07070095
109	0xbe0ddd08	-0.13853848
110	0xbdf00ab4	-0.117207915
111	0x3e347bec	0.17625397
112	0x3e4a41b1	0.19751622
113	0x3d857b94	0.06517711
114	0x3d33a848	0.043861657
115	0x3cbdd975	0.02317498
116	0x3e044d70	0.12920165
117	0xbcce769e	-0.025203045
118	0xbcf79d3c	-0.030226342
119	0x3e135b6a	0.1439034
120	0x3e8612bf	0.26186177
121	0xbd882798	-0.06648177
122	0x3da0407a	0.07824798
123	0x3d58d39b	0.052936178
124	0x3e095b85	0.13413818
125	0x3d985416	0.07437913
126	0x3d93cbb1	0.072165854
127	0x3d87e17d	0.06634805
128	0xbc94ec00	-0.01817894
129	0xbda4e53f	-0.08051538
130	0xbda87eec	-0.082273334
131	0xbe72f000	-0.23724365
132	0x3e3dcdda	0.18535557
133	0xbda93a58	-0.08263081
134	0x3e2902ba	0.16504946
135	0xbd6b8733	-0.057501983
136	0x3d018cee	0.03162854
137	0x3bb49b30	0.005511664
138	0xbc7cba20	-0.015425235
139	0x3c65ab00	0.01401782
140	0x3c99f8b7	0.018795354
141	0x3d9d0d16	0.076685116
142	0xbd584d9e	-0.052808397
143	0x3e02f07a	0.12787047
144	0xbe8f9c2f	-0.28048846
145	0xbdc18c2d	-0.094505645
146	0x3c1dfa74	0.009642232
147	0x3da78b3e	0.08180855
148	0xbda954bf	-0.08268117
149	0x3d422ab1	0.047403995
150	0x3d26dd23	0.040738236
151	0x3e09546e	0.13411114
152	0xbceceec8	-0.028922454
153	0x3e032dc6	0.1281043
154	0x3b0d3420	0.0021545961
155	0xbe03cc00	-0.12870789
156	0xbe715294	-0.23566657
157	0xbd941fe5	-0.07232646
158	0xbd132a23	-0.035928857
159	0xbd05f36a	-0.03270284
160	0x3e067268	0.1312958
161	0xbd9a57f1	-0.07536305
162	0x3c8857ae	0.016643371
163	0xbd6d81ba	-0.057985045
164	0xbdf32851	-0.11872924
165	0xbddc8ff8	-0.10769647
166	0xbe0eaf4a	-0.13934055
167	0xbe645025	-0.22296198
168	0xbd992982	-0.0747862
169	0x3e48f69c	0.19625324
170	0x3d1ae646	0.037817262
171	0x3d2a6276	0.041597806
172	0xbddf2702	-0.10896112
173	0x3d0ba8e6	0.03409662
174	0x3e23a905	0.15982445
175	0x3c6c6500	0.014428377
176	0xbe05ae73	-0.13054828
177	0x3d14bd7e	0.036313526
178	0xbd6afb26	-0.05736842
179	0xbb5ac378	-0.0033380669
180	0xbe346e45	-0.1762019
181	0xbda40e82	-0.0801058
182	0x3c7cda82	0.015432956
183	0x3d1fd1dc	0.039018497
184	0xbe4094c1	-0.18806745
185	0x3d958595	0.073008694
186	0x3de85636	0.113445684
187	0x3da2a994	0.07942501
188	0x3d87d618	0.06632632
189	0x3e7d287e	0.24722478
190	0x3ce1017a	0.027466524
191	0x3e495057	0.19659553
192	0xbe8495dc	-0.25895584
193	0xbd7385ee	-0.059453897
194	0xbd0f6f1b	-0.035018068
195	0x3d7884b5	0.060673434
196	0xbe3636d4	-0.17794353
197	0x3da15b80	0.0787878
198	0x3d1d60e7	0.03842249
199	0x3dfa738e	0.122290716
200	0xbd591765	-0.053000826
201	0xbd2ce9a3	-0.042215
202	0x3d40da31	0.047083084
203	0x3cba7e1f	0.022765217
204	0xbe500908	-0.20315945
205	0xbd4a441c	-0.04938136
206	0xbd180a7c	-0.037119374
207	0xbe5a15ab	-0.21297328
208	0x3e65252e	0.22377464
209	0xbc84c05e	-0.01620501
210	0x3e399f9c	0.18127292
211	0x3e8dabcc	0.27670133
212	0xbe02f2df	-0.1278796
213	0xbdde7352	-0.10861839
214	0x3dc1eb5d	0.0946872
215	0x3df01f29	0.11724693
216	0x3e95ea97	0.2928054
217	0xbd5b0d9c	-0.053479776
218	0x3a513240	0.0007980205
219	0xbe65e4b2	-0.22450522
220	0x3e0cc3cc	0.13746566
221	0x3ceb94fa	0.028757561
222	0xbdfcdc7e	-0.12346743
223	0x3e173624	0.14766747
224	0x3dc635ce	0.09678231
225	0x3ddd98a8	0.108201325
226	0x3e4188c5	0.1889983
227	0x3d10373f	0.035208937
228	0x3e771e8c	0.24132746
229	0x3e6f0b02	0.23344043
230	0xbe35fb46	-0.17771634
231	0xbe5b435d	-0.21412416
232	0x3d628abd	0.055308092
233	0x3a25ed40	0.00063296035
234	0xbd1d5562	-0.038411506
235	0xbd662b6a	-0.056193747
236	0x3e0b0e5b	0.13579695
237	0x3e106c94	0.1410392
238	0xbdc2a4df	-0.09504103
239	0xbd248989	-0.040170226
240	0x3dcd9f6f	0.10040175
241	0x3ca53c47	0.020170344
242	0xbcb1f36d	-0.02172252
243	0xbc2f4b2e	-0.010699077
244	0xbde06374	-0.10956469
245	0xbc83cc4d	-0.01608863
246	0xbd88a4d0	-0.066720605
247	0xbe0f6019	-0.14001502
248	0x3d3c022a	0.0459005
249	0x3e0697be	0.13143823
250	0xbe179133	-0.14801483
251	0xbe0ca497	-0.13734661
252	0x3d83b133	0.064302824
253	0x3da264d3	0.07929387
254	0x3da63013	0.08114638
255	0x3e1d5aa9	0.15366615

fc2.weight f4 [256, 256]
0	0xbe25c3fe	-0.16188046
1	0x3d90c4e9	0.07068808
2	0xbcdf4871	-0.027256222
3	0xbc779eac	-0.015113514
4	0x3ce00f12	0.027350936
5	0xbd81e37d	-0.06342218
6	0x3e8bb562	0.27286822
7	0xbe0b2328	-0.1358763
8	0xbcbdd8f4	-0.02317474
9	0xbd92d5f2	-0.07169713
10	0xbd6e9c0c	-0.058254287
11	0x3e10eb29	0.14152206
12	0xbd90c4fb	-0.07068821
13	0xbe2e141e	-0.16999862
14	0xbd872bb8	-0.066001356
15	0xbd37bafb	-0.044856053
16	0xbdae1409	-0.08499915
17	0xbaf221c0	-0.0018473193
18	0xbd1c2e6a	-0.0381302
19	0x3de9bd34	0.11413041
20	0xbede4126	-0.4340908
21	0x3df0c787	0.11756807
22	0x3cf5db64	0.03001184
23	0xbe2bf0a2	-0.16791013
24	0xbebfa3fa	-0.37429792
25	0x3e53de05	0.20690162
26	0x3cee328d	0.029076839
27	0xbeb3719b	-0.35047612
28	0xbc4fb542	-0.012677493
29	0x3dbdf73a	0.0927567
30	0xbd5445d5	-0.05182441
31	0x3e5a85cc	0.21340102
32	0x3d84135e	0.064490065
33	0xbcd1c579	-0.025606858
34	0x3e24458b	0.16042154
35	0xbdff56d7	-0.12467735
36	0x3de20cb9	0.11037583
37	0x3e493620	0.19649553
38	0x3db3c474	0.08777705
39	0x3ea75080	0.32678604
40	0x3e036540	0.12831593
41	0xbe18c6d2	-0.14919594
42	0x3df5fb81	0.12010861
43	0xbc2bb254	-0.010479528
44	0xbd8993f8	-0.06717676
45	0x3b5640a8	0.0032692347
46	0xbd329107	-0.04359534
47	0xbd19a29d	-0.037508596
48	0xbd73c482	-0.059513576
49	0xbe018844	-0.12649637
50	0x3dfcd1ce	0.123447046
51	0x3a439b00	0.00074617565
52	0xbd5ed12a	-0.054398693
53	0x3d1cab1c	0.03824912
54	0xbd974144	-0.07385495
55	0x3c14585a	0.009054268
56	0xbdbafdf0	-0.09130466
57	0x3d292a56	0.04130014
58	0x3e8d1d4a	0.27561408
59	0xbe2a2127	-0.16614209
60	0x3cf0a51d	0.029375607
61	0x3ccec034	0.025238134
62	0xbd57fd22	-0.05273164
63	0x3c132f6e	0.008983476
64	0x3dbce956	0.09224193
65	0xbde0fb42	-0.109854236
66	0xbdaea0f6	-0.085267946
67	0xbcf213a1	-0.029550375
68	0xbd6fefcf	-0.05857831
69	0x3e06450c	0.13112277
70	0xbd1d75f8	-0.038442582
71	0xbd3dc576	-0.04633089
72	0x3c5b0696	0.013368269
73	0x3e13e922	0.14444402
74	0x3bbfbf94	0.0058516953
75	0xbd9f17ce	-0.07768212
76	0xbbfec75a	-0.0077752294
77	0xbaae7080	-0.0013308674
78	0xbe939f54	-0.28832495
79	0x3e29126c	0.16510934
80	0xbd686104	-0.056733146
81	0xbd2c02a5	-0.04199471
82	0xbe5c2c89	-0.21501364
83	0x3e285934	0.16440278
84	0xbb9a7ac0	-0.00471434
85	0xbdd0a404	-0.101875335
86	0x3d687d0e	0.056759886
87	0xbca59e41	-0.020217063
88	0xbe2709c3	-0.16312318
89	0x3e02753a	0.12740031
90	0x3e724cb3	0.23662071
91	0xbdb0425c	-0.08606407
92	0xbe60ea59	-0.21964397
93	0xbe3a7296	-0.18207774
94	0xbd88dc67	-0.066826634
95	0xbb86fda0	-0.00411959
96	0xbdfe4b04	-0.12416652
97	0xbe6f7e72	-0.23388079
98	0xbdedab3d	-0.11604927
99	0xbd1e1258	-0.038591713
100	0xbdf28994	-0.11842647
101	0x3d023944	0.031792894
102	0xbe5c2868	-0.21499789
103	0x3d044095	0.032288153
104	0xbd7515a1	-0.05983508
105	0xbd8082c3	-0.06274941
106	0x3d8635ba	0.06553216
107	0x3da675aa	0.081279114
108	0xbca87929	-0.020565586
109	0xbdf0244e	-0.117256746
110	0x3d366068	0.044525534
111	0xbdfc178c	-0.12309179
112	0x3e125922	0.14291814
113	0xbbb25100	-0.005441785
114	0xbb9a031a	-0.0047000768
115	0x3cf11ca6	0.029432606
116	0xbda7f770	-0.08201492
117	0x3ca1f4a4	0.019769974
118	0x3ca05608	0.019572273
119	0xbd636f69	-0.05552617
120	0x3b29bbb8	0.0025899243
121	0xbda743f9	-0.08167262
122	0x3cd61b49	0.026136057
123	0x3db4ef0b	0.08834656
124	0xbe6b811c	-0.2299847
125	0xbde3da4c	-0.11125621
126	0xbe1e403a	-0.15454188
127	0xbd1c753c	-0.03819774
128	0x3dc89b0c	0.09795198
129	0x3cc3ec26	0.023916315
130	0xbeadd50a	-0.33951598
131	0xbd80f231	-0.06296194
132	0x3a89ce00	0.0010513663
133	0x3dc2951f	0.09501099
134	0xbbe011c0	-0.0068380535
135	0x3e4db238	0.20087516
136	0xbe227554	-0.1586507
137	0x3b04ddd0	0.0020273812
138	0xbd075ada	-0.033045627
139	0x3d06f1f6	0.032945596
140	0xbe0a6975	-0.13516791
141	0x3d2bfbac	0.04198806
142	0x3e03d121	0.12872745
143	0x3dc3a0ae	0.095521316
144	0x3d9131b7	0.070895605
145	0x3e0d0244	0.13770396
146	0xbe0aac2c	-0.13542241
147	0xbe302529	-0.17201675
148	0xbcd90150	-0.026489884
149	0xbe4ded12	-0.20109966
150	0xbcd4f4ee	-0.025995698
151	0x3df76952	0.12080635
152	0x3e3e2f90	0.18572831
153	0x3c463e03	0.012099746
154	0x3c2eac7c	0.010661241
155	0xbd850a02	-0.064960495
156	0xbdc9efe7	-0.09860211
157	0xbc19ea30	-0.009394214
158	0xbd67e6a0	-0.056616426
159	0x3d944ae9	0.072408505
160	0x3db3c910	0.08778584
161	0x3c4a8090	0.012359753
162	0xbe48d5b3	-0.1961277
163	0xbcdcdda4	-0.026961155
164	0x3d888d74	0.06667605
165	0xbd2652e6	-0.0406064
166	0x3c96a14c	0.01838746
167	0x3e22764d	0.1586544
168	0xbe58e0b2	-0.21179464
169	0xbb321450	-0.0027172752
170	0xbe585437	-0.21125875
171	0xbe58854b	-0.21144597
172	0xbe696df0	-0.22795844
173	0x3b633700	0.0034670234
174	0xbd9e2c23	-0.07723262
175	0x3d4dfb20	0.05028832
176	0xbe819eb0	-0.2531638
177	0xbe0bc165	-0.13647993
178	0xbd154360	-0.036441207
179	0x3d613a1c	0.054987058
180	0x3eb8927a	0.36049253
181	0xbdba94c4	-0.09110406
182	0xbd32debc	-0.043669447
183	0xbc9bfa66	-0.019040298
184	0x3c1fbe0a	0.009749899
185	0xbc834542	-0.016024236
186	0x3da46b00	0.08028221
187	0x3e65c2e3	0.22437625
188	0x3e4ba711	0.1988795
189	0x3d71d911	0.0590449
190	0x3e374d82	0.1790066
191	0x3d336139	0.04379389
192	0x3e3ad0e4	0.18243748
193	0xbde838f3	-0.11338987
194	0x3e75edb7	0.24016462
195	0x3e8a4ad7	0.27010223
196	0xbdff8468	-0.12476426
197	0xbda2be17	-0.07946413
198	0x3dd9ebd2	0.10640682
199	0x3dd4804c	0.10376033
200	0x3e5a37a8	0.21310294
201	0x3e5d0e15	0.21587403
202	0x3d7cc545	0.06171157
203	0x3e1e86e0	0.15481138
204	0xbe2ec73e	-0.17068192
205	0x3c74803f	0.014923154
206	0xbd9c1f63	-0.07623174
207	0xbde9345a	-0.113869384
208	0xbd94d36b	-0.07266887
209	0x3c0cd964	0.008596752
210	0x3e8ebf18	0.27880168
211	0xbe27d768	-0.16390765
212	0x3d010e20	0.03150761
213	0xbcd7b220	-0.026330054
214	0x3d94b07e	0.07260226
215	0x3d04de20	0.032438397
216	0xbd5c1909	-0.053734813
217	0x3d81e829	0.06343109
218	0x3cb86961	0.022511186
219	0x3de367ad	0.11103759
220	0x3ccf34bc	0.0252937
221	0xbe899376	-0.26870316
222	0x3e27bbc8	0.16380227
223	0xbe0b9cb6	-0.13633999
224	0x3e3542e4	0.17701298
225	0x3ddccb3b	0.10780951
226	0xbe198902	-0.1499367
227	0x3e15d6d2	0.14632729
228	0xbd103914	-0.035210684
229	0xbd90ca8c	-0.07069883
230	0xbccda00e	-0.025100734
231	0x3df7a210	0.12091458
232	0x3e3abd88	0.18236363
233	0xbdf7c4e4	-0.12098101
234	0x3bb7df00	0.0056113005
235	0x3e1215e3	0.14266162
236	0xbd83f14e	-0.064425096
237	0x3e3a27c4	0.18179232
238	0xbe1e9a29	-0.15488495
239	0x3d6bbf03	0.05755521
240	0x3ce315a3	0.027720278
241	0x3ec0fc1b	0.3769234
242	0xbe7dd2c8	-0.24787438
243	0xbd3d3382	-0.0461917
244	0x3e0deb13	0.13859205
245	0xbbf217c0	-0.007388085
246	0x3db56a5c	0.08858177
247	0xbc324be6	-0.010882353
248	0x3dc6e0dc	0.09710857
249	0xbdbf6c56	-0.09346835
250	0x3e5805a4	0.21095902
251	0xbdbf1d52	-0.09331764
252	0xbcc3d3bd	-0.023904676
253	0xbcdfc3c4	-0.027315028
254	0x3e579ed3	0.2105668
255	0xbe236f79	-0.15960492

fc2.bias f4 [256]
0	0x3cb87f46	0.022521626
1	0x3e8b330c	0.27187383
2	0xbde8e366	-0.11371498
3	0xbe68e37d	-0.2274303
4	0x3dc66bf3	0.096885584
5	0x3d578b0e	0.052622847
6	0xbcc0dbcc	-0.023542307
7	0xbe16ddb6	-0.14733014
8	0xbd0aa83a	-0.03385184
9	0x3e623e28	0.22094023
10	0x3dbeeedd	0.09322903
11	0xbccc7b70	-0.024961203
12	0xbdbc119b	-0.091830455
13	0xbd14ef3d	-0.036360968
14	0x3dea8d1e	0.11452697
15	0xbcb5f04c	-0.022209309
16	0x3d3770c7	0.044785287
17	0xbe55c3da	-0.20875493
18	0xbde59f1e	-0.1121199
19	0x3ba70710	0.0050972775
20	0xbc961ff6	-0.018325787
21	0x3e950138	0.29102492
22	0x3c28bd70	0.010299072
23	0x3e125d8a	0.14293495
24	0x3ce82d18	0.028341815
25	0x3cdb1823	0.026744908
26	0xbe1641e4	-0.14673573
27	0xbdab1786	-0.08354096
28	0x3dcdaea6	0.10043077
29	0x3e186edc	0.1488604
30	0xbc368fc2	-0.011142673
31	0x3e06f609	0.13179792
32	0x3db94c88	0.090478
33	0xbe901c1c	-0.28146446
34	0x3d2f64a6	0.042820595
35	0x3e369cea	0.17833295
36	0x3d164c82	0.036694057
37	0xbdc0acd8	-0.09407967
38	0xbd8f4c10	-0.0699693
39	0xbd943ad0	-0.0723778
40	0x3d23f043	0.040024053
41	0x3cdfe4cc	0.027330779
42	0xbc9b8e5e	-0.018988784
43	0x3d74acc4	0.059735075
44	0x3e1e827a	0.1547946
45	0x3eb92c7f	0.3616676
46	0xbe9969f6	-0.29963654
47	0x3d638e7d	0.05555581
48	0xbc87f142	-0.016594533
49	0x3e07d51e	0.13264892
50	0x3cefbebe	0.029265758
51	0x3dc04eab	0.09390005
52	0x3ce2168f	0.027598647
53	0x3a8acd40	0.0010589734
54	0xbdc58e5a	-0.09646292
55	0xbe69d55d	-0.22835298
56	0xbd6bac55	-0.057537396
57	0xbe02ce56	-0.12774023
58	0x3d7dcf60	0.061965346
59	0x3d2c8b12	0.042124815
60	0x3caabf40	0.020843148
61	0xbd706c7c	-0.05869721
62	0xbd55bfcc	-0.052184865
63	0x3d69fc28	0.05712524
64	0x3e5f5143	0.21808343
65	0x3c711ed8	0.014716826
66	0xbda56f25	-0.0807784
67	0x3ca2a83d	0.019855613
68	0xbcb47c0f	-0.022031812
69	0xbddb84cd	-0.10718689
70	0x3de37a1e	0.111072764
71	0xbddc174a	-0.107466295
72	0xbe3cfd40	-0.18455982
73	0xbd62ae12	-0.055341788
74	0xbdb4652f	-0.08808362
75	0xbd61b7e2	-0.055107005
76	0xbe197041	-0.14984228
77	0x3dad9b70	0.08476913
78	0xbe165876	-0.14682183
79	0xbe3cf276	-0.18451867
80	0xbd3ebcf7	-0.04656693
81	0x3a673ec4	0.00088213035
82	0xbe6d324e	-0.23163721
83	0xbc958ff4	-0.018257119
84	0xbe43a803	-0.1910706
85	0x3d83cabe	0.064351544
86	0x3d22c507	0.03973868
87	0xbe12c2a9	-0.1433207
88	0x3e08eab3	0.1337078
89	0x3d21ec48	0.039531976
90	0xbdbe7410	-0.09299481
91	0xbd2c7d1c	-0.0421115
92	0x3e9dd5e2	0.30827242
93	0xbdeb446c	-0.1148766
94	0x3e40885b	0.18802015
95	0xbdca1232	-0.09866752
96	0x3d939d0c	0.07207689
97	0xbe1f4c9e	-0.15556571
98	0x3bd4daea	0.006495823
99	0x3dfe85e5	0.12427882
100	0xbdc71c84	-0.09722236
101	0x3d7255ec	0.059163973
102	0x3db4f5c1	0.08835936
103	0xbb12d857	-0.002240678
104	0x3e08acc8	0.13347161
105	0x3e0377b8	0.12838638
106	0x3d12a0c0	0.035797834
107	0xbe03073d	-0.1279573
108	0xbd84a35a	-0.06476469
109	0xbd0cf9d8	-0.034417957
110	0x3d1d73ac	0.03844039
111	0x3e729026	0.23687801
112	0xbdb08a0c	-0.0862008
113	0x3d4b80ea	0.04968349
114	0xbd94daad	-0.072682716
115	0x3e3d9d89	0.18517126
116	0x3b897ee0	0.004196033
117	0xbded11a4	-0.1157563
118	0xbe25a1a5	-0.16174944
119	0x3e20bc0e	0.15696737
120	0x3db73228	0.089451134
121	0xbd804fc5	-0.06265215
122	0x3dc3b0cd	0.095552064
123	0xbe8534b2	-0.26016766
124	0x3e820d3b	0.2540072
125	0xbe1cb402	-0.15303043
126	0xbcd4d3ec	-0.025979958
127	0x3da3bc1f	0.079948656
128	0xbd0027ab	-0.03128783
129	0xbe6eeed1	-0.23333289
130	0x3e30e783	0.17275815
131	0x3c378ff5	0.011203756
132	0x3e2aaae2	0.16666749
133	0x3bf78e74	0.0075548235
134	0x3da6f050	0.08151305
135	0x3dab1210	0.083530545
136	0xbcc652ce	-0.024209406
137	0xbe43efd6	-0.19134459
138	0x3d7a93cb	0.061176103
139	0xbd9bd500	-0.07608986
140	0x3d6a6329	0.057223473
141	0x3e8a384f	0.26996085
142	0xbe02a78d	-0.12759228
143	0xbd506b01	-0.050883297
144	0xbe480a9a	-0.19535294
145	0xbe8c072c	-0.27349222
146	0x3d9b5451	0.075844415
147	0xbc8575d6	-0.01629154
148	0xbe365f24	-0.17809731
149	0x3d145d0d	0.036221553
150	0xbd9f123e	-0.07767151
151	0x3dbf7b1a	0.09349652
152	0xbe1070d1	-0.14105536
153	0xbe08a5d4	-0.13344508
154	0xbda35972	-0.07976045
155	0x3e815059	0.25256613
156	0xbdba44e3	-0.0909517
157	0xbd43851e	-0.047734372
158	0xbe2db0e2	-0.16962007
159	0xbe8e6ca9	-0.27817276
160	0x3e3a578e	0.18197462
161	0x3e1039f9	0.14084615
162	0x3e326450	0.17421079
163	0x3c916956	0.017750423
164	0xbdb299b4	-0.08720723
165	0xbd9b2563	-0.0757549
166	0x3b92e194	0.0044824574
167	0x3d70eedf	0.058821555
168	0xbe2cb1f2	-0.16864756
169	0x3b8facd4	0.0043846164
170	0xbe03baf4	-0.12864286
171	0xbdd9225a	-0.10602255
172	0x3c108e78	0.00882303
173	0x3cb1160c	0.021616958
174	0x3c508157	0.0127261495
175	0xbe31db66	-0.1736885
176	0x3b88deb4	0.004176939
177	0x3e00ef7c	0.12591356
178	0x3b5caca8	0.0033672247
179	0xbde6899d	-0.112567164
180	0xbe56c5aa	-0.2097384
181	0x3d3c29ee	0.045938425
182	0x3e23c666	0.15993652
183	0x3ddf6946	0.10908751
184	0x3d229eb0	0.039702117
185	0xbe782017	-0.24230991
186	0x3e16afc7	0.14715491
187	0x3e3ad9c7	0.18247138
188	0xbe81533e	-0.2525882
189	0xbddcae43	-0.10775425
190	0xbe130fc7	-0.14361487
191	0x3dd4ab82	0.10384275
192	0x3d39ee3e	0.04539322
193	0x3bcfa836	0.006337191
194	0x3dc5594c	0.09636173
195	0xbe07b7e1	-0.13253738
196	0x3dd7226e	0.10504614
197	0x3d04390e	0.032280974
198	0x3d7c81fe	0.061647408
199	0x3d5a2aba	0.053263403
200	0x3e11840a	0.14210525
201	0x3e8470a9	0.25867203
202	0xbdbcb1db	-0.09213611
203	0xbbb39990	-0.0054809526
204	0x3d85a1d0	0.06525004
205	0xbe6229d8	-0.22086275
206	0xbe270d6f	-0.16313718
207	0xbd8ceb59	-0.068808265
208	0xbcff124e	-0.031136658
209	0xbdcb2574	-0.09919253
210	0xb9fbd1c0	-0.00048030727
211	0xbc1a8d6f	-0.009433134
212	0xbe077b30	-0.13230586
213	0xbe52e878	-0.20596492
214	0xbdd34598	-0.10316008
215	0x3e0fa358	0.14027154
216	0x3c1e2604	0.009652618
217	0x3cfb08b0	0.030643791
218	0xbe894282	-0.26808554
219	0x3b3f94c0	0.002923295
220	0xbd11acca	-0.035565175
221	0x3e3e2fd9	0.1857294
222	0x3c6b364d	0.014356208
223	0x3e6444fa	0.22291937
224	0x3d280003	0.041015636
225	0xbd1daa62	-0.038492568
226	0xbde5f980	-0.11229229
227	0x3e241090	0.16021943
228	0xbda803b0	-0.08203828
229	0xbbd78f78	-0.006578382
230	0x3cece467	0.028917504
231	0x3d86007a	0.0654306
232	0xbeaed20b	-0.34144625
233	0x3de6291c	0.1123831
234	0x3e30598f	0.17221664
235	0x3bda9409	0.006670479
236	0x3db4860e	0.088146314
237	0x3df1c26c	0.11804661
238	0x3e403c7f	0.18773077
239	0x3cfa917a	0.030586947
240	0xbe2ea03b	-0.1705331
241	0xbd88b6d5	-0.066754974
242	0xbe3b16b0	-0.18270373
243	0x3dd310db	0.10305949
244	0x3ceff0b8	0.029289588
245	0x3e3b4980	0.18289757
246	0xbc2df390	-0.010617152
247	0x3cdf8fe8	0.0272903
248	0x3ddfef8f	0.10934364
249	0xbe3241e0	-0.17407942
250	0xbe1b78cb	-0.15182798
251	0xbe1e25c1	-0.1544409
252	0x3e546edc	0.20745414
253	0xbd1d8954	-0.038461044
254	0x3c77e92e	0.015131278
255	0xbd0143fa	-0.031558968

fc_mu.weight f4 [3, 256]
0	0x3aa67be0	0.0012701713
1	0x3e8b4a7d	0.27205268
2	0x3d86d164	0.06582907
3	0xbdf00b9e	-0.11720966
4	0xbdc87d98	-0.0978958
5	0xbc88c560	-0.016695678
6	0xbe1a3d26	-0.15062389
7	0x3e481247	0.19538222
8	0xbca29e4a	-0.019850869
9	0x3df1ed1e	0.11812805
10	0xbe077dba	-0.13231555
11	0xbde72e13	-0.11288085
12	0xbde4f5f6	-0.11179726
13	0xbdc39744	-0.09550336
14	0x3dbce5a8	0.09223491
15	0xbd5434d4	-0.051808193
16	0x3daae3a0	0.08344197
17	0x3d3a23ae	0.045444183
18	0xbd58ca16	-0.0529271
19	0x3d75d19c	0.060014352
20	0xbdb22898	-0.08699149
21	0xbe5eb9a8	-0.2175051
22	0xbd2a080f	-0.04151159
23	0x3e4f5ba9	0.2024981
24	0xbde1c2b4	-0.11023465
25	0x3e2a3eda	0.16625538
26	0xbc0fdf34	-0.008781243
27	0x3dacc4d2	0.08435978
28	0x3e135948	0.14389527
29	0x3dd537e7	0.10411053
30	0xbcebf344	-0.028802522
31	0x3d3c3a57	0.045954075
32	0xbd9d38ef	-0.07676875
33	0x3d1105a4	0.03540577
34	0x3e6e15b4	0.23250467
35	0xbd6a6972	-0.057229467
36	0x3e850d1e	0.2598657
37	0x3e386d21	0.1801038
38	0x3d2d821d	0.042360414
39	0xbc2f4666	-0.010697937
40	0x3e06ddd4	0.13170558
41	0xbda588a5	-0.080827035
42	0xbcfe490c	-0.03104069
43	0x3e4575a8	0.19283164
44	0xbcf7f938	-0.030270204
45	0x3df514ce	0.11966859
46	0x3e183230	0.14862895
47	0xbe19cd44	-0.15019709
48	0xbc4afaf8	-0.012388937
49	0xbdc9b9ce	-0.098498926
50	0xbe1945ea	-0.14968076
51	0xbdf00e6f	-0.11721503
52	0xbd7f4466	-0.06232109
53	0xbcc9d794	-0.024638928
54	0xbe2c3c27	-0.16819821
55	0x3ac83ec0	0.001527749
56	0x3d1d1e16	0.03835877
57	0xbdf8fc70	-0.12157524
58	0x3d315775	0.043296296
59	0x3d51e626	0.051244877
60	0x3d828024	0.06372097
61	0xbe6fa79a	-0.23403779
62	0xbdce67ea	-0.10078414
63	0xbe2efd56	-0.17088827
64	0xbdadf626	-0.08494215
65	0x3e401c3a	0.18760768
66	0x3e885c90	0.2663312
67	0xbc9960c4	-0.0187229
68	0xbe15cd3f	-0.14629076
69	0x3e15b618	0.14620245
70	0x3daf8baa	0.08571561
71	0xbdfa72a4	-0.12228897
72	0x3ddd0b8b	0.10793217
73	0xbe5f258d	-0.21791668
74	0x3dc4b986	0.09605698
75	0x3cdc5c04	0.026899345
76	0xbe080d7c	-0.13286394
77	0x3cb7a99c	0.022419743
78	0x3c29e97f	0.010370611
79	0xbb45d004	-0.0030183801
80	0xbe11e6d7	-0.14248215
81	0x3def7e8c	0.11694059
82	0xbd374612	-0.04474456
83	0xbe27c344	-0.16383082
84	0xbd025178	-0.031815976
85	0xbe115655	-0.1419309
86	0x3e0a1e16	0.1348804
87	0x3bf8a06e	0.007587484
88	0xbe04a496	-0.1295341
89	0x3d046edd	0.03233229
90	0xbe94a308	-0.29030633
91	0xbe914e93	-0.2838026
92	0x3d95d62d	0.073162414
93	0xbdb3f515	-0.0878698
94	0x3e3aa81c	0.18228191
95	0x3e0137cd	0.12618943
96	0x3d3ad67d	0.04561471
97	0x3d5ea956	0.05436071
98	0x3e073fb6	0.13207898
99	0xbd34c3b0	-0.044131935
100	0x3e5a32c8	0.21308434
101	0xbe8e4527	-0.27787134
102	0x3ccad04c	0.024757527
103	0xbc943cce	-0.0180954
104	0xbc97aa00	-0.01851368
105	0xbe339377	-0.17536722
106	0xbe18561f	-0.14876603
107	0xbbab2e90	-0.0052240565
108	0xbd90f05e	-0.070770964
109	0x3dc7bc53	0.09752717
110	0x3da96ba4	0.08272484
111	0xbe0bec16	-0.13664278
112	0xbe160ad5	-0.1465257
113	0x3cdb4e8c	0.026770853
114	0xbd8c387d	-0.06846712
115	0xbe440a2c	-0.19144505
116	0x3ca0cb04	0.019628055
117	0x3e6cb009	0.23114027
118	0x3d7d64d0	0.06186372
119	0x3d774118	0.060364813
120	0xbd08280b	-0.033241313
121	0xbd896362	-0.06708409
122	0xbcf10530	-0.029421419
123	0x3deb459a	0.11487885
124	0x3d87e4a6	0.06635408
125	0xbdfe9c01	-0.12432099
126	0xbe3554c0	-0.17708111
127	0xbe1750c8	-0.1477691
128	0xbc5cb252	-0.013470249
129	0xbeba6fdc	-0.36413467
130	0xbdfc6746	-0.12324385
131	0xbde98bd9	-0.11403627
132	0x3d8000c6	0.062501475
133	0x3d8cd326	0.06876211
134	0x3d298323	0.041384827
135	0xbdbef6c7	-0.09324413
136	0x3d91d5fe	0.07120894
137	0xbbe85960	-0.0070907325
138	0xbceef14a	-0.02916779
139	0xbe95700a	-0.29187042
140	0xbd88ea23	-0.06685283
141	0xbdbdb653	-0.09263291
142	0x3c3bd69a	0.011464739
143	0xbe4449c6	-0.19168767
144	0xbdc9eb84	-0.09859374
145	0x3b01d108	0.001980843
146	0xbda9a721	-0.082838304
147	0xbe3f14e0	-0.18660307
148	0xb8411400	-4.6033412e-05
149	0xbe5fa2eb	-0.21839492
150	0x3d96b88d	0.07359419
151	0xbe7172ce	-0.23578951
152	0xbe1d149a	-0.1533989
153	0xbe12b576	-0.14327034
154	0xbdc25718	-0.09489268
155	0x3d12259f	0.03568041
156	0xbe7e912e	-0.24860069
157	0x3d5e2ab6	0.05423995
158	0x3e76d806	0.24105844
159	0x3c350c74	0.011050332
160	0x3dddf13a	0.10837026
161	0xbd8d3298	-0.068944156
162	0x3d96e949	0.07368714
163	0xbd8c2269	-0.06842501
164	0xbe1fca7b	-0.15604584
165	0x3d8d1ba5	0.068900384
166	0xbd450889	-0.048103843
167	0x3dcbb844	0.09947255
168	0x3d719f31	0.058989707
169	0xbd8e95dd	-0.06962178
170	0x3e165f26	0.14684734
171	0x3de52a4c	0.11189708
172	0x3ebe4b59	0.3716686
173	0x3d172e06	0.036909126
174	0x3e7559a9	0.23959984
175	0xbdd2edca	-0.10299261
176	0xbddc6238	-0.10760921
177	0xbe3db5d8	-0.18526399
178	0xbd83ca42	-0.06435062
179	0xbdfc4cb1	-0.12319315
180	0xbd304f55	-0.043044407
181	0x3e984b6a	0.29745036
182	0xbc342100	-0.010994196
183	0xbc6ca8eb	-0.01444457
184	0x3e701a09	0.23447432
185	0x3dcb60cd	0.09930573
186	0xbe4bfcd7	-0.1992067
187	0xbe86ca48	-0.26326203
188	0xbe10b830	-0.14132762
189	0xbc57c8ce	-0.013170434
190	0xbdbd78c0	-0.09251547
191	0xbe1192c0	-0.14216137
192	0x3d36fd46	0.044675134
193	0xbdca881a	-0.098892406
194	0xbe376af4	-0.17911893
195	0xbd0ac06a	-0.033874907
196	0xbdf9f5c4	-0.12205079
197	0x3e298d41	0.1655779
198	0x3e22b95e	0.15891024
199	0xbe85dd5a	-0.2614544
200	0x3b4ebdb8	0.0031546187
201	0xbc69c070	-0.014267072
202	0x3d9da119	0.076967426
203	0x3d3fa7e5	0.046790976
204	0x3df63a25	0.12022809
205	0x3ce484ae	0.027895298
206	0x3e65fc2b	0.22459476
207	0xbe314fc1	-0.1731558
208	0xbdbd8242	-0.0925336
209	0x3dd75030	0.105133414
210	0xbd5b6b2a	-0.053568996
211	0x3c884328	0.016633585
212	0xbceb475d	-0.028720552
213	0x3ce5a210	0.028031379
214	0x3d8fff2c	0.07031092
215	0xbe65b859	-0.22433604
216	0x3d8078f0	0.06273067
217	0x3e2b900f	0.16754173
218	0x3d8014f2	0.06253995
219	0x3dbc444a	0.091927126
220	0x3e9a6891	0.30157903
221	0xbc2e2028	-0.010627784
222	0x3d9f1955	0.077685036
223	0x3dd677b4	0.1047205
224	0xbe0fc548	-0.140401
225	0xbd85cc92	-0.06533159
226	0x3b62a910	0.0034585632
227	0x3d9aae1e	0.075527415
228	0x3e8656cd	0.262381
229	0xbd71f700	-0.05907345
230	0xbdca7dfc	-0.09887311
231	0x3de4d6aa	0.111737564
232	0x3de240b6	0.11047499
233	0xbe39d911	-0.1814921
234	0x3d4b2b68	0.049601942
235	0x3dc01ef1	0.093809016
236	0xbe1c7e5c	-0.15282577
237	0xbdd52065	-0.104065694
238	0x3e878a26	0.26472586
239	0xbc1bde94	-0.009513516
240	0xbe131202	-0.14362338
241	0xbe6660de	-0.2249789
242	0x3e438c44	0.19096476
243	0xbd0f9152	-0.035050698
244	0xbe287960	-0.16452551
245	0xbd00bfe0	-0.031432986
246	0x3c6d0893	0.014467376
247	0x3e12cb6f	0.14335416
248	0x3e40f8a5	0.1884485
249	0xbd7eacaf	-0.062176403
250	0x3c5ce764	0.013482902
251	0xbe5edb00	-0.2176323
252	0xbe36c5ac	-0.17848843
253	0x3c170950	0.009218529
254	0x3d696080	0.056976795
255	0xbe4bb5da	-0.1989359

fc_mu.bias f4 [3]
0	0x3d13ace2	0.036053546
1	0x3d4833e8	0.048877627
2	0x3e0fe042	0.14050391
