ga_weights/ga2/Hopper-v5/TD3/weights4.pt (torch, 281441 bytes, 6 tensors)

fc1.weight f4 [256, 11]
-0.40135634 0.6861824 -0.5952323 -0.13713107 -0.073994525 0.18020865 -0.33009365 1.4978014
0.5201228 -1.2732393 0.7607095 0.82425 1.7188745 -0.14182812 0.52413994 -0.751204
-0.24062012 1.5569723 -0.096203275 0.57431555 0.72470963 1.6685889 0.35038882 -0.50004876
-0.41148296 0.6885929 -1.2613215 0.38829556 0.51632273 0.12302087 0.29107648 -0.09422194
-0.49056977 -0.060460478 0.20537034 1.00595 0.77013767 -0.35532987 1.3848958 1.0333261
-0.13627991 1.1488504 -0.6631587 0.8150559 0.17568213 0.9948657 -0.398545 0.78578246
-0.68388444 -0.35759076 -0.6098622 -0.389637 0.79187876 0.8480234 0.45134705 0.36839107
0.6454682 -0.7411417 -0.12002487 -1.1560569 -0.3609905 -0.3197709 -0.15984719 0.42395082
0.0018487573 0.31334916 -0.23561095 0.22626811 -0.5240862 0.6338787 0.8814699 0.7441497
0.4480333 -1.2504127 -0.052320287 -0.30315185 -1.1726638 0.59207124 0.39441004 0.30430526
0.15522122 -0.9717546 -0.57339954 -0.33327875 0.8954835 0.3580762 -0.72081536 -0.47663078
-0.6770399 -0.32508165 -0.41638106 -0.6287528 0.87101096 0.06902905 0.28429896 -0.8808693
0.2054512 -0.21993111 0.7965995 -0.34848398 0.04029622 0.24846867 0.4833448 0.41024393
0.019899882 0.7880282 0.5684572 -0.23642755 -0.49993724 0.8455132 -0.84138685 0.19892986
0.041709434 0.43054914 0.14733607 0.22681038 -0.7026943 -0.37437707 0.98784643 1.0770949
0.1949825 0.14854741 0.15729363 0.6289391 -0.2581296 -0.5119492 -1.0301899 0.612274
-1.2647364 0.6491023 -0.37769914 0.18841341 -0.23684669 -0.076978475 1.188127 0.30158508
1.3715266 0.30155057 0.7114745 0.17896055 0.20625201 0.9578123 -0.91043806 0.6637279
0.56652445 0.17392683 0.92570204 0.8458663 -1.524269 -0.85743487 0.25284514 -0.833462
0.7446949 -0.3049957 -0.08543466 0.08409099 1.4853934 0.4136771 -0.24345484 0.66011494
-0.662588 1.3551352 -0.7271095 -0.61318636 1.1314489 0.7560475 1.3451791 1.5697882
-1.0716194 -1.6637459 -0.3339777 0.3932799 0.18479826 0.22134854 0.8819203 -0.43133846
1.7584184 0.58763075 1.1476116 -0.37277254 0.60823005 -0.29600495 0.5294509 0.17308465
0.54679906 -0.11270326 -0.56394506 -0.35389996 -0.98460567 0.50012296 0.21487522 0.18180986
0.39696276 0.8234864 -0.6236023 1.0488621 -0.20583023 0.17222457 0.044503465 0.9303245
0.90454334 -0.3483615 -0.22198115 1.0478542 0.5562637 -0.0030317754 -0.074541464 -0.35001287
-0.17899302 0.22954476 -0.7486929 0.6848118 0.25931695 -0.19046468 0.04244277 0.39768547
0.6317338 -0.90746754 -0.13821225 -0.089334354 -0.7299974 0.0024205223 -0.24807361 -0.10442896
-1.1256851 0.5583302 -0.17734754 -0.73938227 -1.3302656 -0.52814937 0.48447493 1.15129
-0.2991266 -1.0368627 -0.4936208 -0.030213442 0.2940394 0.64901227 0.3655494 -0.4188022
-1.1698439 0.3377269 -0.19146502 0.5860917 0.83396834 0.5073401 -0.16745181 -0.17140493
-0.09831923 0.44108278 -1.050761 -0.23973466 -0.33471128 1.0576413 -0.09579988 0.12982252
00000000: 947e cdbe a6a9 2f3f 2561 18bf 166c 0cbe
00000010: 718a 97bd 9e88 383e 0902 a9be f5b7 bf3f
00000020: c526 053f 81f9 a2bf dcbd 423f 0c02 533f
00000030: 1404 dc3f 643b 11be 092e 063f e84e 40bf
00000040: 1f65 76be de4a c73f 3906 c5bd 5806 133f
00000050: 9286 393f 5294 d53f 2a66 b33e 3203 00bf
00000060: e5ad d2be a047 303f fc72 a1bf adce c63e
00000070: ba2d 043f 5ef2 fb3d fa07 953e 6ff7 c0bd
00000080: f62b fbbe 68a5 77bd 9a4c 523e f8c2 803f
00000090: be27 453f cced b5be 4444 b13f 0844 843f
000000a0: f68c 0bbe 880d 933f c5c4 29bf 81a7 503f
000000b0: 04e6 333e 85af 7e3f 170e ccbe 0a29 493f
000000c0: 0d13 2fbf 2316 b7be ee1f 1cbf 807e c7be
000000d0: 91b8 4a3f 1018 593f f616 e73e c19d bc3e
000000e0: 673d 253f 76bb 3dbf 99cf f5bd acf9 93bf
000000f0: bfd3 b8be 03b9 a3be fbae 23be 1510 d93e
00000100: 0052 f23a 4d6f a03e ff43 71be d4b2 673e
00000110: 832a 06bf e045 223f 03a8 613f 9880 3e3f
00000120: 9f64 e53e 860d a0bf cc4d 56bd b836 9bbe
00000130: d919 96bf fb91 173f 1df0 c93e e6cd 9b3e
00000140: 50f2 1e3e e9c4 78bf 50ca 12bf 83a3 aabe
00000150: 683e 653f c455 b73e 5b87 38bf f308 f4be
00000160: 7d52 2dbf 1a71 a6be e62f d5be f2f5 20bf
00000170: 93fa 5e3f 1a5f 8d3d a28f 913e a780 61bf
00000180: cd61 523e 9f35 61be f2ed 4b3f 7e6c b2be
00000190: a60d 253d 926e 7e3e f878 f73e 7e0b d23e
000001a0: 1405 a33c 37bc 493f 6986 113f 101a 72be
000001b0: c6f7 ffbe 8e73 583f 2165 57bf 45b4 4b3e
000001c0: 83d7 2a3d f070 dc3e 44df 163e fb40 683e
000001d0: c6e3 33bf 5aae bfbe 81e3 7c3f 3fde 893f
000001e0: 7ea9 473e d01c 183e 9511 213e 2702 213f
000001f0: 9029 84be 1a0f 03bf 43dd 83bf fdbd 1c3f
00000200: e2e2 a1bf 912b 263f c861 c1be 72ef 403e
00000210: f087 72be e4a6 9dbd 8c14 983f 5c69 9a3e
00000220: 2f8e af3f d664 9a3e 3123 363f 6f41 373e
00000230: ba33 533e 3033 753f 7812 69bf 12ea 293f
00000240: bf07 113f e019 323e cffa 6c3f b28a 583f
00000250: 3f1b c3bf da80 5bbf eb74 813e c45d 55bf
00000260: 53a4 3e3f 6528 9cbe 5ef8 aebd e637 ac3d
00000270: 5f21 be3f 7ccd d33e 3a4c 79be 4bfd 283f
00000280: 5e9f 29bf 1275 ad3f d923 3abf c8f9 1cbf
00000290: 51d3 903f 548c 413f d42e ac3f d2ee c83f
000002a0: d32a 89bf a0f5 d4bf 20ff aabe fc5b c93e
000002b0: c13b 3d3e 31a9 623e 87c5 613f 65d8 dcbe
000002c0: db13 e13f f86e 163f f0e4 923f 0bdc bebe
000002d0: f7b4 1b3f f68d 97be 188a 073f 1a3d 313e
000002e0: 06fb 0b3f f7d0 e6bd b45e 10bf 6032 b5be
000002f0: 1e0f 7cbf 0f08 003f 4008 5c3e 5d2c 3a3e
00000300: b43e cb3e 01d0 523f 66a4 1fbf 1d41 863f
00000310: 29c5 52be a35b 303e 4449 363d bf29 6e3f
00000320: 2790 673f 705c b2be 074f 63be 1620 863f
00000330: 4c67 0e3f c0b0 46bb 32a9 98bd e334 b3be
00000340: f249 37be c80d 6b3e 57aa 3fbf d34f 2f3f
00000350: 31c5 843e 2c09 43be 78d8 2d3d 6e9d cb3e
00000360: 4eb9 213f cb4f 68bf 8387 0dbe eef4 b6bd
00000370: 1ce1 3abf a0a1 1e3b 0207 7ebe dade d5bd
00000380: 7316 90bf baee 0e3f 989a 35be 2848 3dbf
00000390: 2546 aabf cc34 07bf 190d f83e 795d 933f
000003a0: 1f27 99be ebb7 84bf debb fcbe 2e82 f7bc
000003b0: 558c 963e ab25 263f 4a29 bb3e 3e6d d6be
000003c0: 72bd 95bf 8aea ac3e 680f 44be 1b0a 163f
000003d0: f37e 553f 0ae1 013f 7d78 2bbe c684 2fbe
000003e0: 985b c9bd 9ad5 e13e 567f 86bf 017d 75be
000003f0: 475f abbe ca60 873f ba32 c4bd 32f0 043e

fc1.bias f4 [256]
-1.6884563 0.051521022 -0.3092976 -0.689265 -0.11537503 0.49010357 0.14894691 0.6125211
0.10338818 -0.42518038 -0.2154772 0.20943445 -0.3845544 -0.41156638 0.2509122 -1.5592259
-0.19655123 0.93248063 0.9817631 -0.8088666 0.7092703 -0.3280921 0.32206446 -0.42537576
-0.6147624 0.572978 -0.22554731 0.52362216 -0.7180605 -0.32087404 0.20444748 -0.3916888
-0.35740024 -0.5350743 -1.3747231 -0.4542122 0.794946 0.96378523 -0.30512947 1.1126795
1.0130724 -1.3335049 -1.1610423 -0.73696494 -0.6291839 -0.34700233 0.48631456 0.34091923
-0.079803556 -0.32554957 0.30053505 -1.786907 -0.040395334 1.1242685 0.40159285 -0.5013036
-1.1537201 0.22833426 0.04018119 -0.6989326 1.1128957 0.5248344 0.40847442 0.6806335
-0.49666256 0.007994004 0.44014108 1.4530625 -0.7116047 0.14727405 0.5231575 0.01241643
0.8700204 -0.6086457 -0.20800497 0.40920115 -0.64207757 1.1017932 -0.027949184 0.0027269423
-1.7049853 0.3585307 -0.12647814 -0.74407774 -0.08219031 1.2367117 1.0742009 -1.2016883
0.3634927 -1.1581185 0.9288899 0.8974405 0.4815815 -0.07124737 -1.4054096 -0.31623292
0.9210188 0.14014418 0.6438652 -0.069618285 1.6380446 -0.47320595 -0.43713957 0.29285997
0.6053502 -0.63031405 0.2006779 -1.0767534 -0.66817755 0.4006418 -0.3740312 0.6976634
0.12850678 0.61311275 0.8725792 0.11280626 0.97904783 -0.46228766 -0.15886295 0.096531905
0.23958856 0.28030005 -0.15739663 0.44334215 -0.33665687 0.12103859 0.68499863 1.3003438
-0.41978788 0.7790727 1.2235754 0.49417362 0.7136127 -0.10149766 -0.39791992 -1.7829759
0.24577275 -0.19533846 1.1969969 0.68123984 0.120726414 0.69915986 -0.37576348 1.2114894
-0.055956632 0.22142994 -0.8816063 -0.03945239 0.0989525 -1.3881413 -0.5183739 0.9869227
-0.3444688 0.5457223 0.3003484 -0.14481318 0.22699934 -0.45795232 -0.9752726 1.2273973
1.1448082 -0.24903736 -0.017899573 -0.5379797 0.84616333 0.32496697 -0.6060179 -0.08542846
0.26892853 0.5305392 0.6320951 -0.75562215 -0.6400587 -0.7625307 -0.48743147 1.3978981
0.21389337 0.1356452 -0.69528353 -0.33786556 0.12547155 -0.20513624 0.1425066 -0.046882957
0.7882886 0.2713526 -0.19312394 -0.37449712 -0.43997473 -0.15694195 0.29851785 1.0492342
-0.8399826 -0.7915443 0.4087466 0.8066917 -0.5062427 -0.113750935 -0.1388379 0.44788313
0.9228189 0.10609901 0.409246 0.67796826 0.42429686 1.4604337 0.936874 -1.601272
-1.086181 -0.19129607 0.8540651 -0.40180352 0.002124697 -0.2892536 0.4291687 -0.21872772
0.26568818 1.4267365 -0.22737367 0.3018536 -0.7014668 -0.4891976 -0.26728502 0.15727457
-0.8518543 0.88179237 -0.42342788 -0.06635032 -0.40178245 -0.9384506 0.20713851 0.76723194
1.1843511 0.4387586 1.7175183 -1.0515351 0.48392597 0.8396557 0.36283278 0.74104697
-0.081455424 -0.48905706 0.108406946 1.020811 -1.7473924 -0.40592426 0.40171197 0.1437208
-0.32041347 0.5350171 -0.18352242 0.82209605 0.8882696 -0.32135972 -0.12382382 -0.5453131
00000000: 561f d8bf b507 533d 415c 9ebe ac73 30bf
00000010: be49 ecbd dbee fa3e 8a85 183e 2fce 1c3f
00000020: 2fbd d33d 3eb1 d9be 0ea6 5cbe fc75 563e
00000030: 50e4 c4be d4b8 d2be 9077 803e b794 c7bf
00000040: ba44 49be 0db7 6e3f d454 7b3f e211 4fbf
00000050: bd92 353f b0fb a7be a2e5 a43e daca d9be
00000060: 1261 1dbf b0ae 123f e0f5 66be 1a0c 063f
00000070: d0d2 37bf 9a49 a4be ae5a 513e 6f8b c8be
00000080: 2afd b6be a1fa 08bf edf6 afbf 808e e8be
00000090: 9581 4b3f a1ba 763f ee39 9cbe 486c 8e3f
000000a0: 5bac 813f 4ab0 aabf 099d 94bf bca9 3cbf
000000b0: 3212 21bf 4aaa b1be 39fe f83e f78c ae3e
000000c0: 0c70 a3bd 6fae a6be bbdf 993e 5eb9 e4bf
000000d0: 9475 25bd 08e8 8f3f 949d cd3e 6f55 00bf
000000e0: 1aad 93bf 75d0 693e 0895 243d 3fed 32bf
000000f0: 5e73 8e3f 8c5b 063f 8f23 d13e ff3d 2e3f
00000100: 8e4a febe 48f9 023c 2c5a e13e f4fd b93f
00000110: ba2b 36bf 02cf 163e a6ed 053f 486e 4b3c
00000120: a8b9 5e3f 34d0 1bbf 41ff 54be d082 d13e
00000130: 325f 24bf 8f07 8d3f b0f5 e4bc 80b6 323b
00000140: f53c dabf 5691 b73e 7c83 01be e17b 3ebf
00000150: 6553 a8bd 924c 9e3f 6a7f 893f ecd0 99bf
00000160: b71b ba3e 3a3d 94bf bacb 6d3f a9be 653f
00000170: da91 f63e 24ea 91bd 76e4 b3bf 48e9 a1be
00000180: e3c7 6b3f f581 0f3e 5ad4 243f 0894 8ebd
00000190: 72ab d13f 0d48 f2be c2d0 dfbe bef1 953e
000001a0: 3bf8 1a3f 435c 21bf 827e 4d3e 0ed3 89bf
000001b0: af0d 2bbf ec20 cd3e 0481 bfbe 129a 323f
000001c0: 4897 033e f5f4 1c3f 5a61 5f3f f806 e73d
000001d0: e1a2 7a3f f8b0 ecbe f8ac 22be 85b2 c53d
000001e0: b456 753e 7d83 8f3e 952c 21be befd e23e
000001f0: 4a5e acbe 15e3 f73d 125c 2f3f aa71 a63f
00000200: 70ee d6be 4f71 473f 1e9e 9c3f 5304 fd3e
00000210: 52af 363f 01de cfbd 29bc cbbe 8e38 e4bf
00000220: daab 7b3e ce06 48be 3237 993f bc65 2e3f
00000230: 693f f73d 24fc 323f 1264 c0be 1612 9b3f
00000240: c832 65bd 88be 623e f3b0 61bf d498 21bd
00000250: 9ca7 ca3d 9dae b1bf 27b4 04bf f7a6 7c3f
00000260: 375e b0be 75b4 0b3f 44c7 993e e849 14be
00000270: 8472 683e ba78 eabe 77ab 79bf 5b1b 9d3f
00000280: 1389 923f a603 7fbe 20a2 92bc 0ab9 09bf
00000290: 299e 583f 1262 a63e fd23 1bbf 1ef5 aebd
000002a0: 00b1 893e 6bd1 073f fcd0 213f 7470 41bf
000002b0: e3da 23bf 3635 43bf 9e90 f9be 53ee b23f
000002c0: dd06 5b3e 93e6 0a3e 1afe 31bf b7fc acbe
000002d0: 9d7b 003e 3c0f 52be 40ed 113e 5808 40bd
000002e0: 48cd 493f baee 8a3e 48c2 45be 16be bfbe
000002f0: 5e44 e1be 64b5 20be 55d7 983e 4e4d 863f
00000300: 1a09 57bf a6a2 4abf 3c47 d13e 5983 4e3f
00000310: 1f99 01bf 40f6 e8bd 862b 0ebe f050 e53e
00000320: dc3d 6c3f 704a d93d b188 d13e 548f 2d3f
00000330: 703d d93e 7eef ba3f f9d6 6f3f 7bf6 ccbf
00000340: fb07 8bbf 1ee3 43be 03a4 5a3f 31b9 cdbe
00000350: 803e 0b3b 0c19 94be 00bc db3e 29fa 5fbe
00000360: 4808 883e 4d9f b63f a5d4 68be 8e8c 9a3e
00000370: 5493 33bf 1c78 fabe 95d9 88be 960c 213e
00000380: 2013 5abf 25bd 613f 8acb d8be ade2 87bd
00000390: 6eb6 cdbe 4c3e 70bf 1e1c 543e 5069 443f
000003a0: d198 973f f8a4 e03e a4d7 db3f b498 86bf
000003b0: 25c5 f73e adf3 563f 38c5 b93e 41b5 3d3f
000003c0: 1ad2 a6bd b065 fabe 7604 de3d efa9 823f
000003d0: 8eaa dfbf 4ed5 cfbe 31ad cd3e 8c2b 133e
000003e0: 3c0d a4be e1f6 083f 4ded 3bbe e374 523f
000003f0: a365 633f 4389 a4be 5897 fdbd a499 0bbf

fc2.weight f4 [256, 256]
-0.32889348 0.24306929 0.5185749 -0.1468306 0.27370068 -0.092830494 0.69238317 -0.7556995
0.7467199 0.22061208 -0.15916605 -1.0008507 0.6108085 -0.13313115 -0.26267934 -0.26485485
0.26888585 -0.68908334 -0.04422819 -0.08063443 1.3634412 0.13957456 0.32010975 -0.01343403
0.10858531 0.15380502 -0.41492355 -0.010298088 0.4980772 -0.22291878 -0.20151465 0.36769602
0.9868245 -0.18161672 1.0664351 -0.47850236 -0.07721901 0.4650429 0.73279 0.69571453
-0.5996632 -0.75576156 -0.012181139 0.0837834 0.054352235 0.24260463 1.4127318 -0.21142943
0.4441898 -0.25991127 0.44929972 -0.5239521 -0.87764657 -0.52194077 0.18945761 1.0709186
-0.1581942 -0.25251693 0.94040656 -0.14202854 -0.27117944 0.2377419 -0.13379085 -0.27081093
0.72111964 1.7489746 1.2486928 -0.32899335 -0.925602 1.0383809 -0.05887241 1.3022239
-0.550888 0.12018332 0.6023897 -1.1556839 0.29226303 -1.426113 0.40433335 -0.7423715
-0.33420354 -0.30680496 0.12776603 0.311901 -0.50500953 0.4084392 0.8039883 -0.9477551
0.8777864 -0.96143025 -0.3884788 -0.13720985 -0.2742483 -0.09525291 0.28515375 1.0607605
-0.20460443 -1.1215644 -0.12039559 -0.44436628 0.54855824 -1.1758951 0.024800405 -0.8311876
0.074818194 -0.36809334 -0.584245 -0.5753842 0.44933048 -0.44883752 0.08114909 -0.14295436
0.057438985 0.11399949 -0.093118824 -1.5545195 0.63246256 0.20626259 -0.17058927 -0.059653938
0.5410397 -0.10143642 0.8038091 0.23302855 -0.6391039 -0.11831015 0.189499 -0.62937415
0.3119623 -0.26585668 -0.90358126 -1.002253 -0.07594514 -0.22002107 -0.10067822 0.53484637
-0.42456913 0.68468755 -0.01612981 0.495628 -0.02279003 -0.6883473 0.66239285 -1.7945002
0.4166171 -0.66231054 0.0428055 -0.087856025 0.04511033 -0.23892191 0.33075374 -0.82406574
0.29140067 -0.5187292 -0.36300004 -1.0844605 -0.31430936 -0.40071958 -0.61780655 0.78718895
-0.14131908 0.932377 1.121947 0.30602473 -1.6987637 0.29340386 -0.52816784 -0.055217896
-1.0980682 0.735858 -0.13844104 0.017675132 0.27271032 -1.2881187 -0.06747909 0.3409545
0.1637906 0.25579444 0.14445055 0.6176947 0.44180226 -0.56529087 -0.3077213 0.834962
-0.017670833 2.0107617 0.8517252 0.4981271 -1.034628 0.59967184 -0.44818497 -1.8658097
0.1664584 0.16562654 0.16678192 -0.2626944 0.18018715 1.1949143 0.29228193 1.4573344
-0.23339641 1.7705967 -0.18018876 0.17802231 0.6238413 0.022653133 -1.53432 -0.2505337
0.16038002 -0.76614213 -0.66529715 0.8993301 -0.11103774 0.28935558 0.3576185 -0.20903902
0.08629951 0.34233904 0.8869605 0.036196873 -0.22196515 -0.040116362 0.586792 -0.18052936
-0.1699936 0.5597108 -0.13244903 0.43267667 -0.016630977 -0.52997214 0.0059043765 -0.16414544
0.5549982 -0.6151222 -0.27726522 -0.6200029 0.95289326 -0.6832545 -0.2916193 0.8634883
-0.67393184 0.69599825 0.30685797 -0.85511047 -1.0949576 0.93421537 -0.9506619 0.68767357
1.4517422 0.21007621 0.8426599 0.3590775 0.6076518 0.37252223 -0.52730465 0.11735297
00000000: ba64 a8be 28e7 783e 53c1 043f c35a 16be
00000010: 7f22 8c3e ea1d bebd 0640 313f 8675 41bf
00000020: 0929 3f3f 22e8 613e 6dfc 22be e01b 80bf
00000030: f25d 1c3f 8853 08be e87d 86be 0e9b 87be
00000040: 68ab 893e c467 30bf 9e28 35bd aa23 a5bd
00000050: 3e85 ae3f a2ec 0e3e 6de5 a33e 681a 5cbc
00000060: fa61 de3d 107f 1d3e dc70 d4be 50b9 28bc
00000070: fa03 ff3e d244 64be db59 4ebe a742 bc3e
00000080: 88a0 7c3f bcf9 39be f280 883f 43fe f4be
00000090: 0025 9ebd 1a1a ee3e 2098 3b3f 591a 323f
000000a0: 8783 19bf 9779 41bf 6693 47bc a296 ab3d
000000b0: 73a0 5e3d 596d 783e 65d4 b43f f580 58be
000000c0: d86c e33e 1713 85be 9d0a e63e ba21 06bf
000000d0: 72ad 60bf e99d 05bf 2d01 423e dc13 893f
000000e0: a9fd 21be e649 81be 7cbe 703f ee6f 11be
000000f0: 08d8 8abe 9d72 733e 7800 09be bba7 8abe
00000100: 4c9b 383f 66de df3f 2ad5 9f3f d171 a8be
00000110: 41f4 6cbf aae9 843f 3224 71bd 46af a63f
00000120: ff06 0dbf ac22 f63d 3636 1a3f 73ed 93bf
00000130: 80a3 953e df8a b6bf c804 cf3e 0f0c 3ebf
00000140: ba1c abbe 8a15 9dbe 19d5 023e 7db1 9f3e
00000150: 4e48 01bf f11e d13e 2dd2 4d3f 14a0 72bf
00000160: 9cb6 603f 4b20 76bf b1e6 c6be bd80 0cbe
00000170: 466a 8cbe f513 c3bd acff 913e 00c7 873f
00000180: d383 51be 6c8f 8fbf f791 f6bd fa83 e3be
00000190: 506e 0c3f bb83 96bf 382a cb3c b6c8 54bf
000001a0: 483a 993d bb76 bcbe 1591 15bf 614c 13bf
000001b0: a50e e63e 08ce e5be 7e31 a63d a162 12be
000001c0: 2445 6b3d 9178 e93d 15b5 bebd 7ffa c6bf
000001d0: 11e9 213f 8036 533e f4ae 2ebe b057 74bd
000001e0: 9481 0a3f e6bd cfbd 6fc6 4d3f 099f 6e3e
000001f0: 509c 23bf 984c f2bd 070c 423e aa1e 21bf
00000200: 86b9 9f3e 5e1e 88be 1a51 67bf d449 80bf
00000210: 2089 9bbd 344d 61be 6230 cebd b1eb 083f
00000220: 2061 d9be af47 2f3f aa22 84bc f4c2 fd3e
00000230: 28b2 babc 8737 30bf 9492 293f 2fb2 e5bf
00000240: d64e d53e 2f8d 29bf d254 2f3d dced b3bd
00000250: 9cc5 383d f2a7 74be 8e58 a93e f9f5 52bf
00000260: 7832 953e 70cb 04bf 24db b9be 9acf 8abf
00000270: 28ed a0be 1e2b cdbe 9228 1ebf 3785 493f
00000280: f3b5 10be 42b0 6e3f f69b 8f3f 46af 9c3e
00000290: 1771 d9bf 0839 963e 0236 07bf 292c 62bd
000002a0: 808d 8cbf 3161 3c3f 7dc3 0dbe 70cb 903c
000002b0: b0a0 8b3e 13e1 a4bf 7a32 8abd 9791 ae3e
000002c0: b9b8 273e 7df7 823e d8ea 133e 3d21 1e3f
000002d0: e833 e23e e7b6 10bf a58d 9dbe 12c0 553f
000002e0: 6cc2 90bc 52b0 0040 aa0a 5a3f 840a ff3e
000002f0: b16e 84bf 1884 193f 8078 e5be dad2 eebf
00000300: 1274 2a3e 019a 293e e1c8 2a3e e17f 86be
00000310: fb82 383e f4f2 983f faa5 953e ef89 ba3f
00000320: 78ff 6ebe eaa2 e23f 6783 38be 7b4b 363e
00000330: 10b4 1f3f 1093 b93c 9964 c4bf f445 80be
00000340: a93a 243e e421 44bf ea50 2abf 7f3a 663f
00000350: c167 e3bd 6a26 943e c619 b73e 530e 56be
00000360: ccbd b03d 1047 af3e d80f 633f 2c43 143d
00000370: d54a 63be 0e51 24bd 0038 163f b0dc 38be
00000380: cd12 2ebe 3549 0f3f b8a0 07be cc87 dd3e
00000390: b03d 88bc 41ac 07bf 8079 c13b be15 28be
000003a0: 5d14 0e3f a678 1dbf b5f5 8dbe 83b8 1ebf
000003b0: d0f0 733f c4e9 2ebf 204f 95be 920d 5d3f
000003c0: cc86 2cbf f12c 323f 7d1c 9d3e 85e8 5abf
000003d0: 9227 8cbf bd28 6f3f 945e 73bf 600b 303f
000003e0: b0d2 b93f 381e 573e 8fb8 573f 02d9 b73e
000003f0: 128f 1b3f 3cbb be3e 70fd 06bf c156 f03d

fc2.bias f4 [256]
-0.3706988 0.79273486 0.3229788 -0.5043138 0.6655954 -0.8937214 -0.44278 0.42082623
0.9116506 1.0508071 -0.27853507 -0.66641176 -0.34313577 -0.52900666 0.81064236 -0.64734894
0.29269138 -1.3985147 -0.06491649 1.0866872 -0.92441165 0.0903748 -0.15518615 -0.066892035
0.53095585 -0.23870835 -0.024523832 -0.6949759 -0.21071701 0.48123324 1.4030932 0.12059515
-0.45785904 0.65089893 0.11009313 -0.34966794 -0.10492906 0.5456056 -0.9361347 -0.97668284
0.46523094 0.75866026 -0.6409639 -0.49705532 -0.27657288 0.6259674 0.07156822 -0.9388071
-0.22230248 -0.7858926 0.69123715 0.647311 -0.6524219 -0.87151134 0.76820695 0.15937658
-0.6990044 -0.7890039 -0.22408879 0.03783931 0.57636404 -1.4064964 -0.4683528 0.5257628
0.77101743 0.9348318 1.6817536 0.07928899 0.22975281 0.18658856 -0.1739465 -0.8335294
0.098336816 -0.17489092 0.98414445 0.7100578 -1.0321558 -0.5932426 0.2911681 0.24560878
-0.71624404 1.030635 -1.7374314 0.051381722 0.28168058 0.20613812 -0.15604739 0.3763246
0.588462 0.6067624 -1.2870066 -0.6650466 0.3183668 -0.35891396 -0.75546783 -0.51484376
-0.1309028 -0.3383778 -0.044978153 -0.48154777 -0.18560003 -0.045461636 1.2047303 -0.087982126
0.31275302 1.2759036 0.3623607 -0.5232091 0.9100807 -0.2852552 0.03596155 0.7472865
-0.37020093 0.093631074 -0.15149046 -0.385733 0.18708247 0.53888464 -0.82588893 -0.45507017
0.48562744 1.5165923 -0.122740544 0.5366184 -1.0932441 -0.4324404 0.3004584 0.1782442
0.8620012 -0.5389079 0.25800806 -0.03674978 -0.12994006 0.76223767 0.13197774 -1.0660536
0.07139917 0.29535595 0.5990069 0.95457053 -0.9681799 -0.7968797 0.11817085 0.10979774
0.003185451 -0.49060112 0.32543796 0.1242411 0.046594173 0.5760426 1.6498272 -0.2148716
0.04848516 -0.21512048 0.8769255 -0.80475366 0.13623042 0.03614834 -0.58405924 0.21004164
0.8661415 0.386507 -0.3529209 -0.02176527 -1.2815241 0.18672088 0.36459678 -1.2722733
0.58742285 -0.010045692 -0.7499761 -0.19382882 0.57249284 0.111779235 0.96856505 0.46949875
0.47331458 -0.2100714 0.8394882 0.13609418 -1.4290733 -0.7759701 0.65598863 0.28519687
-0.3414773 -0.08778229 -0.29506236 -0.5282353 0.32906383 -0.8307297 -0.3951321 0.3766443
1.3784308 0.098885894 0.222525 -0.44480115 0.3571787 0.45486134 -0.34061092 -1.0092108
-1.2001318 -0.09192233 -0.57017213 0.16168734 0.83976054 -0.021842547 -0.9447281 -0.070364475
0.37157476 1.2031584 -0.33103937 -0.22362009 0.17623496 -0.08713913 0.2131228 0.29623312
0.16675337 -0.22387826 -0.3098113 -0.085941024 0.78768814 0.75321186 0.779835 0.3060361
-0.60574216 0.2195859 -0.4123399 -0.68709767 0.13550988 0.563286 0.5116745 -0.15156367
0.5104922 -0.12869452 -0.90933335 0.24234673 0.23761927 0.3556265 -0.08595407 0.98722005
0.56401515 0.63147753 -0.11403887 1.6505654 0.78092337 0.51316166 -1.1651379 -0.9194631
-0.050250106 0.5561204 0.65246254 0.16319586 0.9500668 0.3261779 -0.89045423 -0.46576795
00000000: 3ccc bdbe acf0 4a3f 7a5d a53e b61a 01bf
00000010: 7664 2a3f edca 64bf 0fb4 e2be 8976 d73e
00000020: ef61 693f d980 863f 269c 8ebe f699 2abf
00000030: 7eaf afbe fb6c 07bf 4286 4f3f a9b8 25bf
00000040: a5db 953e 8802 b3bf f0f2 84bd 9118 8b3f
00000050: 3ea6 6cbf 6c16 b93d 1ee9 1ebe b1fe 88bd
00000060: b9ec 073f f66f 74be 34e6 c8bc f1e9 31bf
00000070: 33c6 57be 3464 f63e 8f98 b33f 97fa f63d
00000080: 806c eabe 50a1 263f 8278 e13d ad07 b3be
00000090: 0ce5 d6bd cfac 0b3f 86a6 6fbf e307 7abf
000000a0: c032 ee3e 8f37 423f 3616 24bf 097e febe
000000b0: f69a 8dbe 663f 203f 5c92 923d a955 70bf
000000c0: 43a3 63be 4230 49bf ebf4 303f 2cb6 253f
000000d0: 1f05 27bf 5e1b 5fbf 36a9 443f 9d33 233e
000000e0: f4f1 32bf 29fc 49bf 8877 65be 64fd 1a3d
000000f0: 988c 133f 1308 b4bf f0cb efbe 6498 063f
00000100: 6661 453f 2351 6f3f b443 d73f 4462 a23d
00000110: 5244 6b3e 1211 3f3e 081f 32be 2f62 55bf
00000120: d064 c93d 9b16 33be e4f0 7b3f 59c6 353f
00000130: ae1d 84bf bfde 17bf fc13 953e de80 7b3e
00000140: c55b 37bf d9eb 833f 2764 debf a475 523d
00000150: 7038 903e df15 533e e3ca 1fbe 9ead c03e
00000160: 72a5 163f c854 1b3f a2bc a4bf 7e40 2abf
00000170: f900 a33e 92c3 b7be 5766 41bf cdcc 03bf
00000180: 620b 06be db3f adbe 033b 38bd 6e8d f6be
00000190: ef0d 3ebe fb35 3abd 9a34 9a3f f92f b4bd
000001a0: 2a21 a03e cf50 a33f 5787 b93e 08f1 05bf
000001b0: 0cfb 683f f80c 92be 6b4c 133d 2b4e 3f3f
000001c0: fa8a bdbe a6c1 bf3d 5120 1bbe cc7e c5be
000001d0: 8c92 3f3e 58f4 093f 756d 53bf f5fe e8be
000001e0: 29a4 f83e b21f c23f 655f fbbd d35f 093f
000001f0: 6cef 8bbf d468 ddbe afd5 993e a685 363e
00000200: 1cac 5c3f def5 09bf a219 843e f086 16bd
00000210: 020f 05be 0222 433f 2c25 073e 7274 88bf
00000220: ba39 923d e538 973e 8458 193f bc5e 743f
00000230: a3da 77bf 4f00 4cbf 8f03 f23d a3dd e03d
00000240: 00c3 503b 1230 fbbe ce9f a63e 1e72 fe3d
00000250: 88d9 3e3d 8777 133f 8a2d d33f 4d07 5cbe
00000260: 6098 463d 8b48 5cbe 317e 603f 5604 4ebf
00000270: fd7f 0b3e 4810 143d e884 15bf 2815 573e
00000280: 73bb 5d3f 3fe4 c53e 0cb2 b4be 144d b2bc
00000290: fb08 a4bf c233 3f3e 6eac ba3e dad9 a2bf
000002a0: 5861 163f b096 24bc 6ffe 3fbf 107b 46be
000002b0: e48e 123f 83ec e43d e1f3 773f 2462 f03e
000002c0: 4a56 f23e f51c 57be b3e8 563f 465c 0b3e
000002d0: e0eb b6bf faa5 46bf dfee 273f 5305 923e
000002e0: 1dd6 aebe 34c7 b3bd 6a12 97be 6e3a 07bf
000002f0: 0e7b a83e b4aa 54bf c14e cabe 86d7 c03e
00000300: 6c70 b03f b084 ca3d 98dd 633e fabc e3be
00000310: 20e0 b63e 96e3 e83e 8e64 aebe d22d 81bf
00000320: eb9d 99bf c641 bcbd cdf6 11bf 5e91 253e
00000330: 8cfa 563f 24ef b2bc b3d9 71bf 401b 90bd
00000340: 0c3f be3e 1801 9a3f fe7d a9be aafc 64be
00000350: f076 343e 0076 b2bd dd3c 5a3e deab 973e
00000360: 65c1 2a3e 5840 65be 969f 9ebe d901 b0bd
00000370: eea5 493f 7ed2 403f 44a3 473f c4b0 9c3e
00000380: eb11 1bbf 20db 603e 371e d3be a2e5 2fbf
00000390: 1ac3 0a3e 8333 103f 1afd 023f 8233 1bbe
000003a0: 9eaf 023f 7fc8 03be 12ca 68bf be29 783e
000003b0: 7752 733e ad14 b63e b008 b0bd 74ba 7c3f
000003c0: 4c63 103f 83a8 213f 368d e9bd ba45 d33f
000003d0: 98ea 473f 905e 033f 3d23 95bf ef61 6bbf
000003e0: 0ed3 4dbd e85d 0e3f c907 273f d11c 273e
000003f0: 9437 733f ca00 a73e cff4 63bf 2379 eebe

fc_mu.weight f4 [3, 256]
0.6977415 0.14060771 1.020831 0.56373864 0.14901374 0.22963205 1.2792432 -1.1285483
0.5912854 0.9454277 1.1138687 1.4273705 0.3746427 -0.10548257 1.5873682 1.0139436
-0.04518418 -1.1528643 0.73675406 -0.21816841 0.33996937 0.21895239 0.312068 0.85529816
0.65256596 0.424846 -0.1289408 -0.20960669 -0.8311485 -0.2008117 1.0075485 -0.06400272
0.99401724 0.6939215 -0.6030146 -0.35433722 0.5725383 -0.5449006 -0.5749444 0.5702888
0.8218756 -0.54658467 -0.26528507 -0.45551914 0.21974888 1.2411408 0.33215722 0.61133844
0.37711978 -1.2841274 -0.30068856 0.5178323 1.3786196 -0.35349944 -0.2741542 -0.46542782
0.17289108 -0.11917789 0.38057843 -0.3835502 0.34096858 -0.6395562 0.69891745 -0.858548
1.3238432 -0.017970275 0.14049032 -1.6591418 -0.59119225 0.09028202 -0.003925517 0.109667994
-0.67705834 -0.405904 -0.517525 -0.2904273 -0.10061796 0.34663177 -1.1541606 -0.052133862
-0.9993886 -0.028891183 -0.20560983 0.06820899 -0.3068309 0.60989475 0.017727315 -1.3247583
0.5494059 0.87488455 -0.59927547 0.45025745 -0.0069946963 0.4569751 -0.6586595 0.86956143
-0.35880065 0.00014534593 -0.42557144 -0.0050053075 -0.5083002 0.38249987 -0.9292095 0.001971051
-0.18887208 -0.24684744 -0.52944076 -0.08501153 -0.5920547 -0.04085289 -0.18143743 -1.1185625
-0.32740474 -0.18081878 0.71453416 -0.81750053 -0.92815757 -0.61728996 0.19660676 -0.6244256
0.57667583 0.4559485 0.24686122 -0.24443668 -0.006493032 0.27616188 0.44754988 0.76212597
0.39355278 0.59321624 0.03885427 1.7543858 0.28987676 0.45345646 1.5923184 0.5254244
0.27344048 0.35271847 -0.50108063 -0.42196393 -0.6923758 -0.70043254 1.0250189 -0.68881035
1.0655732 0.44799334 0.35931286 -0.8117104 0.10534992 -0.75809395 -0.27540335 0.20895615
0.3810367 -1.3718731 0.4229019 -0.45926833 0.9475923 0.76672006 1.2194912 0.78679836
0.47732297 0.1978175 -0.24768403 -0.1766482 0.5617271 0.9768954 0.81213415 -0.3097781
0.055150494 0.89550835 -0.5433315 0.05016239 -0.17014295 0.5116992 1.3629206 -0.45237166
0.9153015 -0.85815936 0.2605857 0.51382095 1.2109901 0.75946534 -1.2668251 0.92921704
0.5892476 -0.21581437 -0.81366193 -0.11484519 0.10189852 -0.053249657 1.1484982 -0.37699774
0.4442221 -1.0410616 -0.314679 -0.13571283 -0.6641731 -1.3075036 -0.7428373 -0.011125743
0.38247073 -0.78004295 0.42287493 1.2419314 0.536528 -0.61089844 0.9224162 0.1543346
-0.72624344 -0.1797811 -0.247612 -0.44198212 0.592149 0.32577628 0.44918495 -0.47563317
-0.62822586 0.0038702837 0.20970608 1.4304918 0.5895541 0.2762613 -0.3713822 -0.5182945
-1.0711828 -1.2042992 -0.054431982 0.6777303 0.3836812 0.9158963 0.66599286 -0.72812426
-2.116898 -0.19557893 0.48317713 -0.12811725 0.22007063 -0.641803 0.41990513 0.85948104
-0.4541065 -0.24506837 -0.62548935 -1.1178256 0.2671637 0.42268547 0.56693983 -0.022248179
-0.31863004 -1.4983203 -0.37974018 -0.35738528 0.740317 -1.5187868 -0.5669729 -0.09274396
00000000: 309f 323f 78fb 0f3e 97aa 823f 2d51 103f
00000010: 0f97 183e aa24 6b3e 3ebe a33f 4574 90bf
00000020: 7b5e 173f 8d07 723f 4093 8e3f 14b4 b63f
00000030: 2bd1 bf3e 3f07 d8bd e22e cb3f e7c8 813f
00000040: 0c13 39bd 0f91 93bf ea9b 3c3f 8a67 5fbe
00000050: 7710 ae3e 0e35 603e 60c7 9f3e d2f4 5a3f
00000060: 900e 273f 6a85 d93e 0f09 04be 23a3 56be
00000070: 26c6 54bf 95a1 4dbe 59f7 803f dc13 83bd
00000080: ea77 7e3f d7a4 313f 2a5f 1abf b06b b5be
00000090: df91 123f 9b7e 0bbf 8e2f 13bf 72fe 113f
000000a0: 7066 523f f9ec 0bbf 72d3 87be ce39 e9be
000000b0: da05 613e b4dd 9e3f 8310 aa3e ad80 1c3f
000000c0: d815 c13e 495e a4bf daf3 99be a890 043f
000000d0: 9b76 b03f e1fd b4be f05d 8cbe 8e4c eebe
000000e0: 5c0a 313e 8a13 f4bd 2ddb c23e b160 c4be
000000f0: 6f93 ae3e f5b9 23bf 41ec 323f cdc9 5bbf
00000100: b273 a93f 6636 93bc b2dc 0f3e c25e d4bf
00000110: 6058 17bf c8e5 b83d a0a1 80bb 9d99 e03d
00000120: b253 2dbf a6d2 cfbe 857c 04bf e3b2 94be
00000130: ca10 cebd b879 b13e 89bb 93bf 518a 55bd
00000140: eed7 7fbf 34ad ecbc 628b 52be 28b1 8b3d
00000150: f118 9dbe 1022 1c3f e038 913c ae91 a9bf
00000160: dda5 0c3f 6ff8 5f3f 1e6a 19bf 2588 e63e
00000170: c433 e5bb a4f8 e93e e99d 28bf 949b 5e3f
00000180: b8b4 b7be 0068 1839 80e4 d9be 9003 a4bb
00000190: f61f 02bf 06d7 c33e ace0 6dbf c02c 013b
000001a0: af67 41be 93c5 7cbe 6e89 07bf 861a aebd
000001b0: e690 17bf 5c55 27bd bcca 39be 0e2d 8fbf
000001c0: 98a1 a7be 8f28 39be b6eb 363f b747 51bf
000001d0: bc9b 6dbf b706 1ebf 4853 493e 5bda 1fbf
000001e0: 07a1 133f 1572 e93e 30c9 7c3e 9c4d 7abe
000001f0: 80c3 d4bb 1765 8d3e 4225 e53e b01a 433f
00000200: c07f c93e 05dd 173f a825 1f3d b78f e03f
00000210: ba6a 943e 722b e83e 17d1 cb3f 3782 063f
00000220: 6400 8c3e 8497 b43e d246 00bf a80b d8be
00000230: 8a3f 31bf 8c4f 33bf d233 833f e055 30bf
00000240: b464 883f 625f e53e dbf7 b73e 41cc 4fbf
00000250: b3c1 d73d 7212 42bf ab01 8dbe 9af8 553e
00000260: 3e17 c33e 8a99 afbf 9986 d83e 3825 ebbe
00000270: 6995 723f c447 443f 4a18 9c3f 9e6b 493f
00000280: ad63 f43e ac90 4a3e e2a0 7dbe 44e3 34be
00000290: 59cd 0f3f d115 7a3f 06e8 4f3f 3c9b 9ebe
000002a0: 7ce5 613d 0940 653f c617 0bbf 1477 4d3d
000002b0: f439 2ebe b8fe 023f 2f74 ae3f 429d e7be
000002c0: 3351 6a3f 55b0 5bbf 7d6b 853e c589 033f
000002d0: b901 9b3f 526c 423f 5327 a2bf 2be1 6d3f
000002e0: eed8 163f 71fe 5cbe 264c 50bf f433 ebbd
000002f0: 2cb0 d03d 501c 5abd fd01 933f d905 c1be
00000300: 1471 e33e 8241 85bf 9b1d a1be 4ef8 0abe
00000310: 4007 2abf 475c a7bf 962a 3ebf c048 36bc
00000320: 34d3 c33e e5b0 47bf 1083 d83e 9cf7 9e3f
00000330: e659 093f d763 1cbf 7823 6c3f e409 1e3e
00000340: 17eb 39bf 8918 38be 008e 7dbe 7b4b e2be
00000350: 1497 173f 26cc a63e 92fb e53e 3186 f3be
00000360: 69d3 20bf 96a4 7d3b 31bd 563e 5b1a b73f
00000370: 04ed 163f 1f72 8d3e cf25 bebe f3ae 04bf
00000380: 851c 89bf 7a26 9abf 12f4 5ebd bc7f 2d3f
00000390: dd71 c43e 2e78 6a3f 827e 2a3f 5a66 3abf
000003a0: 427b 07c0 d845 48be fe62 f73e 2b31 03be
000003b0: 325a 613e 344d 24bf cefd d63e f306 5c3f
000003c0: a680 e8be 34f3 7abe 1220 20bf e914 8fbf
000003d0: aec9 883e 3b6a d83e f822 113f d041 b6bc
000003e0: 7a23 a3be f6c8 bfbf 4e6d c2be 34fb b6be
000003f0: 6a85 3d3f 9b67 c2bf 2325 11bf 8cf0 bdbd

fc_mu.bias f4 [3]
-0.8753446 1.1190418 0.21180406
00000000: 9516 60bf c33c 8f3f 2ae3 583e
