ga_weights/ga1/HalfCheetah-v5/TD3/weights7.pt (torch, 290657 bytes, 6 tensors)

fc1.weight f4 [256, 17]
0	0x3e862bf7	0.26205418
1	0xbe25fbe9	-0.16209377
2	0x3e53de62	0.20690301
3	0x3e2eb5c2	0.17061523
4	0x3e4c1606	0.19930276
5	0x3e45ccf7	0.19316469
6	0xbedda852	-0.4329248
7	0xbde39087	-0.11111551
8	0x3d0d541c	0.03450404
9	0xbe81e946	-0.25373286
10	0x3e4bc079	0.19897641
11	0xbe503f5e	-0.20336673
12	0x3f2034a4	0.62580323
13	0xbeace831	-0.33770898
14	0x3f078adf	0.52946275
15	0x3c876d7a	0.016531695
16	0x3e8d0264	0.27540886
17	0xbed24c9f	-0.41074082
18	0x3e1c90fe	0.15289685
19	0xbe8fa152	-0.28052765
20	0x3f0ae6a8	0.54258204
21	0xbcbea5e8	-0.02327247
22	0x3da8f206	0.08249287
23	0xbc83012c	-0.01599177
24	0x3d6ebf4e	0.05828791
25	0xbebbba55	-0.36665598
26	0x3e43d140	0.19122791
27	0xbac98ca0	-0.0015376993
28	0xbdf0556c	-0.11735043
29	0x3e984abf	0.29744527
30	0x3cd90e16	0.026495975
31	0xbebec23a	-0.37257558
32	0x3e4fb5cc	0.20284194
33	0x3ca63f42	0.020293836
34	0x3f0ba783	0.5455248
35	0xbe976ae2	-0.29573733
36	0xbeadfdde	-0.33982748
37	0xbde283d0	-0.110602975
38	0xbe83ab14	-0.2571646
39	0xbe70781c	-0.23483318
40	0xbdc73452	-0.09726776
41	0xbe4d9a55	-0.20078404
42	0x3c213794	0.009839911
43	0xbe0d3727	-0.1379057
44	0xbed8670f	-0.42266127
45	0xbec1473e	-0.37749666
46	0x3d90fef0	0.070798755
47	0xbe1cf7e1	-0.15328933
48	0xbe29c4d8	-0.16578996
49	0xbeadf8c0	-0.33978844
50	0x3e7c7caa	0.2465693
51	0xbefafa9e	-0.4901933
52	0xbe136355	-0.14393361
53	0x3e05c2d0	0.13062596
54	0x3e3bb12c	0.18329304
55	0xbeb21bca	-0.34786826
56	0xbe244a1e	-0.16043898
57	0x3e937a14	0.28804076
58	0xbd949759	-0.0725543
59	0x3f029ea5	0.5102332
60	0x3e29f5a0	0.16597605
61	0x3e83b9b8	0.2572763
62	0x3e2db8f4	0.16965085
63	0xbee2b3a1	-0.4427767
64	0xbe9b3f70	-0.30321836
65	0xbede89ed	-0.43464604
66	0xbe1d6d75	-0.15373786
67	0x3e8dd41a	0.27700883
68	0xbd43c698	-0.047796816
69	0xbf26a8d4	-0.6510136
70	0xbf108d8f	-0.56466
71	0x3d84716a	0.064669445
72	0x3c8e4e68	0.017371371
73	0xbe4fe94c	-0.2030384
74	0xbe05921d	-0.13044019
75	0x3e8b29e9	0.27180412
76	0xbdfcbd08	-0.12340742
77	0xbb931b30	-0.004489325
78	0xbe9d2bb4	-0.30697405
79	0x3e421e32	0.18956831
80	0x3b875278	0.004129704
81	0xbf1a4d8b	-0.6027457
82	0x3e393740	0.18087482
83	0xbee691c0	-0.45033073
84	0x3e1e3515	0.15449937
85	0xbe9ead4c	-0.3099159
86	0x3ef0ce7e	0.4703254
87	0x3e082a1f	0.13297318
88	0x3df40ee4	0.11916903
89	0x3e5bbf78	0.21459758
90	0xbd140842	-0.036140688
91	0x3e24aa4f	0.16080593
92	0x3e19530c	0.14973086
93	0x3ebda67f	0.3704109
94	0xbea57ec4	-0.32323277
95	0x3e02aab3	0.12760429
96	0xbec35eaf	-0.38158175
97	0x3f380107	0.7187657
98	0xbe9e5179	-0.30921534
99	0xbe40e7b6	-0.1883839
100	0x3def2f2f	0.116789214
101	0x3e947c43	0.29001054
102	0xbe9d5f3a	-0.30736715
103	0xbc3de9d2	-0.011591392
104	0x3ece29df	0.4026632
105	0xbd04ce1a	-0.032423116
106	0xbe587674	-0.21138936
107	0xbe31f778	-0.17379558
108	0x3c0bd848	0.008535452
109	0xbe415802	-0.18881229
110	0x3e9ea577	0.30985615
111	0xbe68a9ac	-0.22720975
112	0xbd778593	-0.06043012
113	0x3e18d09c	0.14923328
114	0x3d552350	0.05203563
115	0xbe6c7532	-0.23091581
116	0xbda8a33e	-0.08234261
117	0xbe57550a	-0.21028534
118	0xbe8534f5	-0.26016966
119	0xbe798786	-0.24368104
120	0x3eeb0ae4	0.45906746
121	0x3e4b4908	0.19852078
122	0xbd309421	-0.043110017
123	0x3f442fdf	0.76635545
124	0x3f34732e	0.7048825
125	0x3e19e647	0.1502925
126	0xbe00eac2	-0.12589553
127	0x3eeebb23	0.4662715
128	0xbe9aca29	-0.3023236
129	0x3f0f1c40	0.5590248
130	0x3e088814	0.1333316
131	0xbebee54f	-0.37284324
132	0x3e5dd973	0.21664982
133	0xbdffe4d1	-0.12494815
134	0x3ef4a75b	0.47783932
135	0xbeb78581	-0.35844043
136	0xbe24464c	-0.16042441
137	0xbcf146da	-0.02945273
138	0x3e694d06	0.22783288
139	0x3eba7312	0.36415917
140	0xbf0d0178	-0.55080366
141	0x3d93339c	0.07187578
142	0xbe95a7c9	-0.29229572
143	0x3da889c8	0.08229405
144	0xbe891e90	-0.2678113
145	0x3ec8977d	0.39178076
146	0x3c646bd4	0.013941724
147	0x3d894cb2	0.067040816
148	0xbcef220c	-0.02919104
149	0xbd520cca	-0.051281728
150	0xbdd36822	-0.10322596
151	0x3f2023df	0.62554735
152	0x3e61d76b	0.22054832
153	0xbe279218	-0.16364324
154	0x3ed6d32f	0.41957995
155	0x3d57b304	0.052660957
156	0x3e218057	0.15771614
157	0xbc2e4116	-0.010635635
158	0xbddb04c3	-0.106942676
159	0xbee6e0df	-0.45093438
160	0x3e95a9ca	0.292311
161	0xbe821a56	-0.25410718
162	0xbe473056	-0.19452032
163	0xbdde8b98	-0.10866469
164	0x3e21e098	0.15808332
165	0x3d21de13	0.039518427
166	0xbe7911b9	-0.24323167
167	0xbed163c0	-0.40896416
168	0xbe4f2592	-0.20229176
169	0xbe625cdc	-0.22105736
170	0x3e90922a	0.28236514
171	0x3d830019	0.06396503
172	0xbe1dc1ef	-0.15406011
173	0x3da24e68	0.07925111
174	0x3d95578a	0.072920874
175	0x3e33c18c	0.17554301
176	0xbe36f81b	-0.17868082
177	0xbf0ab1b8	-0.5417743
178	0x3da1ff92	0.07910074
179	0xbd87c112	-0.06628622
180	0x3df7c6da	0.12098475
181	0x3dac7006	0.08419804
182	0xbea8fe92	-0.33006722
183	0xbd92ac7e	-0.071618065
184	0x3e1311c5	0.14362247
185	0xbe02855e	-0.12746188
186	0x3ca22795	0.019794265
187	0x3cb9167c	0.02259373
188	0xbdeeb376	-0.11655323
189	0x3f044606	0.5166935
190	0x3e923e1b	0.28563008
191	0xbdbffbd2	-0.09374203
192	0x3e4365a7	0.19081746
193	0xbe0a69fc	-0.13516992
194	0xbcf4d508	-0.029886737
195	0xbe592ee4	-0.21209294
196	0x3c047020	0.008083373
197	0xbe2ae806	-0.16690072
198	0x3ebbc217	0.36671516
199	0x3ebb9a4b	0.36641154
200	0xbb94e440	-0.004543811
201	0x3e67209a	0.2257103
202	0x3e986f45	0.29772392
203	0x3f1b131d	0.6057604
204	0xbebc6244	-0.3679372
205	0xbec84650	-0.39116144
206	0x3d55b8bf	0.05217814
207	0xbdf8687a	-0.12129302
208	0xbdabd955	-0.08391062
209	0xbe89c785	-0.26910034
210	0xbf03c8b2	-0.5147811
211	0x3e55cb80	0.2087841
212	0x3d52f30e	0.051501326
213	0xbeb216e7	-0.34783098
214	0xbe47ed84	-0.19524199
215	0xbec27b51	-0.37984708
216	0xbf385c88	-0.7201619
217	0xbe53d377	-0.20686136
218	0xbdefd5c1	-0.11710692
219	0xbcae0606	-0.021243107
220	0x3d328e42	0.0435927
221	0x3eb75952	0.35810333
222	0xbe41efb3	-0.18939094
223	0xbe8f812f	-0.28028247
224	0x3de51982	0.11186506
225	0xbeb34a7a	-0.3501776
226	0xbba4e668	-0.0050323494
227	0x3e821f3a	0.2541445
228	0xbd9191d0	-0.0710789
229	0x3dac8317	0.08423441
230	0x3e9e327d	0.30897895
231	0xbe4101ed	-0.18848391
232	0x3f1bb3b3	0.60821074
233	0x3eed00b5	0.46289602
234	0xbefbae5f	-0.49156472
235	0x3ed83e80	0.42235184
236	0x3d81ed30	0.06344068
237	0xbe05659d	-0.13027044
238	0x3e7c67b3	0.24648933
239	0x3eb869ee	0.36018318
240	0x3cc1ac62	0.023641769
241	0xbf035cce	-0.51313484
242	0xbe8a178c	-0.2697109
243	0x3c80150a	0.015635032
244	0x3e1ae9f9	0.15128316
245	0xbdc398f7	-0.0955066
246	0xbe8ece4f	-0.27891776
247	0x3cd06ed7	0.025443478
248	0x3dcbb057	0.099457435
249	0xbd0bb6d6	-0.034109913
250	0x3e2071c7	0.15668403
251	0x3e817e3f	0.2529163
252	0x3dd149c3	0.10219147
253	0xbd14af16	-0.036299787
254	0xbec373fc	-0.38174427
255	0xbf008f36	-0.5021852

fc1.bias f4 [256]
0	0x3f46c3fb	0.7764279
1	0x3ad93380	0.0016571134
2	0x3cf26910	0.029591113
3	0x3d3f11cc	0.04664783
4	0xbece2f7a	-0.40270597
5	0xbf0e42ef	-0.5557088
6	0xbe38cc99	-0.18046798
7	0x3dcfb7ff	0.10142516
8	0x3ebaea79	0.36507013
9	0xbe27be14	-0.16381103
10	0xbf1bbef6	-0.6083826
11	0xbd120ae3	-0.035654914
12	0x3e2a1ad4	0.16611797
13	0x3d050232	0.032472797
14	0xbeb313c5	-0.3497602
15	0x3ed9a918	0.4251182
16	0x3dceb8dc	0.10093853
17	0xbe51f149	-0.20502199
18	0x3e537e94	0.20653754
19	0xbea42a5d	-0.3206357
20	0x3e124798	0.14285123
21	0xbd7d7240	-0.061876535
22	0xbec57429	-0.38565186
23	0xbeeb3e53	-0.45945987
24	0x3e22a40c	0.15882891
25	0xbf151673	-0.5823738
26	0x3d91d673	0.07120981
27	0x3d886d32	0.06661452
28	0x3daee9a6	0.08540659
29	0x3e9cfe2a	0.30662662
30	0xbed72ada	-0.4202488
31	0xbc528938	-0.012850098
32	0x3dbf577d	0.09342859
33	0xbe8e2678	-0.27763724
34	0x3f067687	0.5252461
35	0xbed5159c	-0.4161805
36	0xbf00184e	-0.50037086
37	0x3eb7fa0c	0.35932958
38	0xbf401087	-0.7502522
39	0x3e38d57d	0.1805019
40	0xbe406a61	-0.1879058
41	0xbc9336f2	-0.017970536
42	0x3e8cb20f	0.27479598
43	0xbdbd03fa	-0.09229274
44	0x3f046c22	0.517275
45	0xbe7dc79e	-0.24783179
46	0x3c250a07	0.0100731915
47	0xbedf1165	-0.43567958
48	0xbea3c0a1	-0.31982902
49	0x3d71d50b	0.059041064
50	0x3ec572f8	0.38564277
51	0xbca61e7e	-0.020278212
52	0x3ea9f8e4	0.331977
53	0xbeb2ce1d	-0.34922877
54	0xbd4b30e0	-0.049607158
55	0x3c12b530	0.008954331
56	0x3b2eae94	0.002665435
57	0x3eb48d52	0.3526407
58	0x3eabbb88	0.33541512
59	0xbe80b560	-0.25138378
60	0x3ca48f26	0.02008779
61	0xbc9c6f42	-0.01909602
62	0xbec951ea	-0.39320308
63	0x3d52daec	0.05147831
64	0x3e613002	0.2199097
65	0x3e944ca3	0.2896472
66	0xbecd1fa8	-0.40063214
67	0xbeb6578f	-0.35613677
68	0xbee94bf3	-0.45565757
69	0x3e556432	0.20839003
70	0x3df1e3d6	0.118110344
71	0xbdff772b	-0.12473901
72	0x3e92c2d0	0.28664255
73	0xbe4b0cce	-0.19829103
74	0x3adb8d00	0.0016750395
75	0x3e157421	0.14595081
76	0xbe2e40b8	-0.17016876
77	0x3d4a3a4c	0.049372002
78	0x3e1a60e2	0.1507602
79	0xbe52aa3d	-0.20572753
80	0xbe5de7d0	-0.2167046
81	0x3e0165ca	0.12636486
82	0x3e421e7e	0.18956944
83	0xbc285df8	-0.01027631
84	0xbe87f670	-0.26555204
85	0xbeba1ea7	-0.3635151
86	0x3d825750	0.0636431
87	0x3e399fdc	0.18127388
88	0x3e21118e	0.15729353
89	0xbe899d3a	-0.26877767
90	0x3ecc50f5	0.39905515
91	0xbe0db406	-0.13838205
92	0x3e58446d	0.21119852
93	0x3b4e8c88	0.0031516869
94	0x3d7d9ddc	0.061918125
95	0xbdbaf3e2	-0.09128548
96	0x3ea2eb1f	0.31820008
97	0x3ea9ae5a	0.33140832
98	0xbe86210e	-0.26197094
99	0x3ef5f01c	0.4803475
100	0x3db280e0	0.08715987
101	0x3ea24898	0.3169601
102	0x3dd385f5	0.10328285
103	0xbdc07d16	-0.09398858
104	0x3e260cc6	0.1621581
105	0xbeb5d4aa	-0.35513812
106	0x3da46eec	0.08028969
107	0xbd8c2cc0	-0.06844473
108	0xbd73a307	-0.059481647
109	0x3f14be5b	0.5810296
110	0x3e3b919c	0.18317264
111	0xbd075da1	-0.033048276
112	0xbd136751	-0.035987202
113	0x3eaa53e5	0.3326713
114	0xbefb4dd7	-0.49082825
115	0x3e54df8d	0.20788403
116	0x3e8bbdec	0.27293336
117	0xbec050a6	-0.3756153
118	0x3df79803	0.12089541
119	0x3f17b885	0.5926593
120	0xbe8db097	-0.2767379
121	0xbcd9f322	-0.026605193
122	0x3d943d22	0.07238223
123	0xbf24d302	-0.6438447
124	0xbdd2b8a1	-0.102891214
125	0x3e2d6eb7	0.16936766
126	0xbe9b9629	-0.30388
127	0xbe00dcda	-0.12584248
128	0x3e9ae066	0.30249327
129	0x3ea4ae01	0.32164004
130	0x3d863604	0.065532714
131	0xbee1fc83	-0.44137964
132	0x3e88e745	0.26738945
133	0x3f2e60b8	0.6811633
134	0x3e6bcb22	0.23026708
135	0x3e88cf5e	0.2672071
136	0x3f37b13e	0.71754825
137	0xbdef4ceb	-0.11684593
138	0xbe16f972	-0.14743593
139	0x3da3b956	0.079943344
140	0xbe608dc4	-0.2192908
141	0xbe854cff	-0.26035306
142	0xbeb9251b	-0.36161122
143	0x3ba99930	0.005175732
144	0xbd62f1a1	-0.055406217
145	0x3dda6875	0.10664455
146	0x3e13df41	0.14440633
147	0xbe57fb77	-0.2109202
148	0xbd846ba9	-0.06465847
149	0xbefb1d85	-0.4904596
150	0xbdd7941f	-0.10526299
151	0xbef285b4	-0.47367632
152	0xbea5d888	-0.32391763
153	0x3d8474b8	0.06467575
154	0xbdf235d2	-0.11826672
155	0xbc946002	-0.018112186
156	0xbe7c9c94	-0.24669105
157	0xbe14a01f	-0.14514206
158	0x3e86f9aa	0.26362354
159	0xbe233f7c	-0.15942186
160	0x3e1223c2	0.14271453
161	0xbc6bef10	-0.014400259
162	0xbd8787e8	-0.06617719
163	0xbeca6745	-0.39531913
164	0xbe7f56fc	-0.24935526
165	0x3d39c1be	0.045350783
166	0xbe9879fe	-0.29780573
167	0xbedf4a47	-0.43611357
168	0x3e7b6bd6	0.24552855
169	0xbe8e6df9	-0.27818277
170	0x3eb6eb08	0.3572619
171	0xbed828c8	-0.42218614
172	0x3e2efaf3	0.17087917
173	0xbe523d53	-0.20531206
174	0x3ea3d617	0.31999275
175	0xbe833f88	-0.25634408
176	0x3d67965a	0.05653987
177	0x3e3bdec1	0.18346693
178	0x3c87e4e1	0.01658863
179	0x3f21914f	0.6311235
180	0x3ec2a560	0.38016796
181	0xbe7f2a22	-0.24918416
182	0xbe641d91	-0.22276904
183	0x3f1c7bac	0.6112621
184	0x3db0c46d	0.08631215
185	0xbc8b8173	-0.0170295
186	0x3df15eae	0.11785637
187	0xbeb680d2	-0.35645157
188	0x3e330606	0.17482767
189	0x3e386a78	0.18009365
190	0x3e6a5a98	0.22886121
191	0x3e026a2c	0.12735814
192	0xbd6db3ac	-0.058032677
193	0x3e12e4d7	0.14345108
194	0xbf2b0fc9	-0.6682096
195	0xbe6946f0	-0.22780967
196	0xbe737d7e	-0.2377834
197	0x3d788683	0.060675155
198	0xbe8a814f	-0.2705178
199	0xbee0b759	-0.43889883
200	0x3d7d3aa8	0.061823517
201	0xbe8109c9	-0.25202778
202	0xbeaef57c	-0.34171665
203	0x3d19eafc	0.037577614
204	0xbe17aa6b	-0.14811103
205	0x3e0d112e	0.13776085
206	0x3ead1055	0.33801523
207	0xbe90a842	-0.2825337
208	0xbe76965c	-0.24080795
209	0x3e78c09f	0.24292229
210	0x3ee3f936	0.4452607
211	0xbe646e90	-0.22307801
212	0x3f737be3	0.9511091
213	0x3eb63c3c	0.3559283
214	0x3e5ee4cd	0.21766968
215	0xbbe6f6c8	-0.0070484616
216	0x3e730e4c	0.23735923
217	0xbeab0c00	-0.33407593
218	0x3e910972	0.2832752
219	0x3e258d0f	0.16167091
220	0xbe274f10	-0.16338754
221	0xbe9dde77	-0.3083379
222	0xbe1d31d8	-0.15351045
223	0x3ed9ede5	0.42564312
224	0xbec3571c	-0.38152397
225	0xbf005aa2	-0.50138295
226	0x3e0547d6	0.13015684
227	0x3d2a7a84	0.041620746
228	0xbdfcf889	-0.12352092
229	0xbdbc1267	-0.091831975
230	0x3e9505f1	0.29106095
231	0x3dadb50e	0.08481799
232	0x3ce051e2	0.027382795
233	0x3e0c6ccd	0.13713379
234	0x3dcdc4c6	0.10047297
235	0x3e4592e4	0.19294316
236	0x3a54b680	0.0008114353
237	0xbf0f7cea	-0.5604998
238	0x3e917982	0.28413016
239	0x3c00f30c	0.007870447
240	0x3d3aa256	0.045564972
241	0xbe9c399a	-0.30512697
242	0x3e916012	0.28393608
243	0x3db51e74	0.08843699
244	0xbcfb0413	-0.030641591
245	0xbe99e3c0	-0.30056572
246	0x3e5d6c98	0.21623456
247	0x3e0e397f	0.1388912
248	0xbd33b853	-0.043876957
249	0x3da5fa80	0.0810442
250	0x3eeec167	0.4663193
251	0xbe85f482	-0.26163107
252	0xbeb1ca82	-0.34724814
253	0xbea3094c	-0.3184303
254	0xbd7b122e	-0.061296634
255	0xbe96ef60	-0.29479504

fc2.weight f4 [256, 256]
0	0xbf241449	-0.6409345
1	0x3b5ec8d0	0.0033994205
2	0xbe2d662f	-0.16933511
3	0xbef3cca2	-0.4761706
4	0x3ea5a766	0.32354277
5	0xbe89ac33	-0.2688919
6	0x3e76e5c0	0.2411108
7	0xbe26e02c	-0.16296452
8	0xbe3ae228	-0.18250334
9	0xbdbfd4d0	-0.09366763
10	0xbe3759c6	-0.1790534
11	0xbeaf459b	-0.34232792
12	0x3f00a41c	0.5025041
13	0xbdc5a69d	-0.096509196
14	0x3d8c8bde	0.06862615
15	0xbea9f501	-0.33194736
16	0xbea816cf	-0.32829902
17	0x3e52cef6	0.20586762
18	0xbe9625af	-0.29325625
19	0x3e15fbfe	0.14646909
20	0xbe3f0006	-0.18652353
21	0x3e0786a6	0.13234958
22	0xbe9a81fb	-0.30177292
23	0x3f02327d	0.5085829
24	0xbce78062	-0.02825946
25	0x3dedafd5	0.11605803
26	0xbeacaa2c	-0.3372358
27	0x3bf31f5e	0.0074195107
28	0x3ef3732b	0.47548804
29	0x3e4635f9	0.19356526
30	0x3eb6de6b	0.35716566
31	0xbbdf1df0	-0.0068089887
32	0x3d8b5c11	0.0680467
33	0x3eecf976	0.46284074
34	0xbf2ccda2	-0.6750127
35	0x3a5c9c20	0.00084155984
36	0xbedefe0a	-0.4355319
37	0xbea12cac	-0.31479394
38	0xbd223766	-0.039603613
39	0xbe3f0a01	-0.1865616
40	0x3dee7e42	0.116451755
41	0xbe7c82ec	-0.24659318
42	0xbeb4ca0c	-0.353104
43	0xbe75bdbd	-0.2399816
44	0xbdc5657a	-0.09638496
45	0x3e036a86	0.12833604
46	0xbc2284c4	-0.009919349
47	0xbe324775	-0.17410071
48	0x3d9b20e7	0.07574635
49	0x3e14b450	0.14521909
50	0xbeef6ee3	-0.46764287
51	0x3ec04681	0.3755379
52	0x3e0e8904	0.13919455
53	0xbd5b45dc	-0.05353342
54	0x3ce51024	0.027961798
55	0x3da3e8ca	0.08003385
56	0x3dbd2252	0.09235062
57	0xbeb8c608	-0.36088586
58	0xbdf04b8a	-0.11733158
59	0x3f007a59	0.5018669
60	0x3e5763a4	0.21034104
61	0xbe8c23b6	-0.27370995
62	0x3de79d99	0.11309356
63	0xbe38bef6	-0.18041596
64	0xbf441e2b	-0.7660853
65	0x3e5cd43e	0.21565339
66	0x3e5564d1	0.2083924
67	0xbd8e87a9	-0.06959469
68	0x3db9bc1c	0.09069082
69	0x3ea8e2ad	0.3298544
70	0x3e7c9afd	0.24668498
71	0xbde3d834	-0.11125222
72	0xbecffb30	-0.40621328
73	0xbea7bfd6	-0.32763547
74	0x3e677550	0.22603345
75	0xbe9cfbda	-0.30660897
76	0x3d905047	0.07046562
77	0xbc44a500	-0.01200223
78	0x3e0cb251	0.13739897
79	0x3df3263d	0.11872528
80	0x3f1372c0	0.5759697
81	0x3e6bfef3	0.23046474
82	0xbe811b32	-0.2521606
83	0x3d763925	0.06011309
84	0xbdc61bda	-0.09673281
85	0xbe1dcab0	-0.1540935
86	0x3e7b132e	0.24519035
87	0xbe3cf93e	-0.18454453
88	0x3f07b00a	0.5300299
89	0xbe903775	-0.2816731
90	0x3e9ad90a	0.30243713
91	0x3c99bdba	0.018767226
92	0xbed1c7e9	-0.40972832
93	0x3db10c55	0.0864493
94	0x3eda3324	0.42617142
95	0x3e715160	0.23566198
96	0xbe23d3bd	-0.1599874
97	0x3ce2c30c	0.027680896
98	0x3da1c2e0	0.078984976
99	0x3eacdc6d	0.33761922
100	0xbe695f09	-0.2279016
101	0xbe4b1f3d	-0.19836135
102	0xbe7e37b5	-0.24825938
103	0x3e6840f6	0.2268103
104	0xbe238546	-0.15968809
105	0xbed8b5be	-0.42326158
106	0xbf03cc90	-0.5148401
107	0xbc939f3c	-0.018020265
108	0x3ec7ff64	0.39062035
109	0x3d337dd2	0.043821163
110	0xbe173348	-0.14765656
111	0x3ed4e255	0.41578928
112	0x3df2913b	0.11844107
113	0xbcd69468	-0.026193812
114	0x3e4bd54a	0.19905582
115	0x3e83a065	0.2570831
116	0x3d7391e0	0.05946529
117	0xbee53323	-0.44765577
118	0xbd87e14f	-0.06634771
119	0x3e99c014	0.30029356
120	0x3dbd3609	0.09238822
121	0xbda61038	-0.08108562
122	0xbe96fb46	-0.2948858
123	0xbf1ed68e	-0.62046134
124	0x3ed0c296	0.40773457
125	0x3df6be60	0.1204803
126	0xbcea5338	-0.028604135
127	0x3d0bb80b	0.034111064
128	0x3e03d698	0.1287483
129	0xbe7cda80	-0.24692726
130	0x3eb31e8f	0.34984252
131	0xbf4e4cf4	-0.8058617
132	0xbd6015c1	-0.054708246
133	0xbe889e27	-0.2668316
134	0x3e16818e	0.14697859
135	0x3ea923a9	0.3303502
136	0xbf6f11cb	-0.93386525
137	0x3df2095a	0.1181819
138	0xbd75daef	-0.060023244
139	0x3d95ec39	0.073204465
140	0xbde22e08	-0.11043936
141	0x3f18d365	0.5969756
142	0xbe2e019a	-0.16992798
143	0x3ebd7792	0.37005287
144	0x3a710700	0.00091944635
145	0x3dbebfaa	0.09313901
146	0xbdb9dbbe	-0.090751156
147	0x3e070dc1	0.1318884
148	0xbed7b53c	-0.42130458
149	0x3ee4d199	0.4469116
150	0x3e3d7ad8	0.18503892
151	0x3c8a6c0f	0.01689723
152	0x3ce85248	0.028359547
153	0xbd93d5a9	-0.07218487
154	0xbf11ae02	-0.5690614
155	0xbe8d087f	-0.27545545
156	0x3e67ed30	0.22649074
157	0xbe3247bc	-0.17410177
158	0x3d1a0f26	0.037612103
159	0x3edd3bce	0.4320969
160	0x3e16e5fc	0.1473617
161	0xbd8bd989	-0.06828601
162	0xbf032818	-0.51233053
163	0xbdf5ca8a	-0.12001522
164	0x3f2128da	0.6295296
165	0x3e046d13	0.12932234
166	0x3d5da7ba	0.054115035
167	0x3eb92322	0.36159617
168	0x3f043f0a	0.5165869
169	0xbdd2ba6c	-0.102894634
170	0xbd92891e	-0.07155059
171	0x3ed2057a	0.41019803
172	0x3ed6e5a4	0.41972077
173	0x3d2a96bc	0.041647658
174	0xbec588ea	-0.3858102
175	0xbf15f396	-0.5857481
176	0xbbdeeab0	-0.0068028793
177	0x3ed96ee2	0.4246741
178	0xbeb5b21f	-0.35487458
179	0x3d9c3759	0.07627744
180	0xbeb57897	-0.35443565
181	0xbf02a21c	-0.5102861
182	0xbeaeaf61	-0.34118178
183	0x3cc951c8	0.02457513
184	0xbf3454cb	-0.70441884
185	0xbeb2ebd6	-0.34945554
186	0xbd37be7d	-0.0448594
187	0x3e9e6256	0.309344
188	0x3ece5399	0.40298155
189	0x3d6bfaa9	0.057612095
190	0x3e9dad3c	0.3079623
191	0xbe0f94fe	-0.1402168
192	0x3eaa184b	0.3322166
193	0xbd60590a	-0.054772414
194	0x3e6ada1d	0.22934766
195	0xbcd39920	-0.025829852
196	0x3eabceb4	0.3355614
197	0xbe7c7b26	-0.24656352
198	0x3cf67c9e	0.030088719
199	0x3f353f2a	0.70799506
200	0xbe12dc56	-0.14341864
201	0x3f0303c8	0.51177645
202	0x3d5cdb5c	0.053920135
203	0x3e1896bc	0.1490125
204	0xbdf5873e	-0.11988686
205	0x3f1b0e36	0.6056856
206	0xbecab92f	-0.3959441
207	0xbe8f4889	-0.27985027
208	0xbe3b7db9	-0.18309678
209	0x3eb3a740	0.3508854
210	0xbec994d7	-0.39371368
211	0x3eeac1e4	0.45851052
212	0x3f1fe95b	0.6246545
213	0x3e010ec4	0.12603289
214	0x3e96e542	0.29471785
215	0x3e016027	0.12634335
216	0xbe9348a2	-0.28766352
217	0x3ea85cce	0.32883304
218	0xbd979ffc	-0.074035615
219	0x3e23c8de	0.15994594
220	0xbe98eac0	-0.298666
221	0xbdc2c1ad	-0.09509597
222	0x3c30ed5a	0.0107987765
223	0x3e347144	0.17621332
224	0xbeb59383	-0.35464105
225	0x3d90ac40	0.07064104
226	0xbe89907c	-0.26868045
227	0xbdc26e66	-0.09493713
228	0x3c466102	0.012108089
229	0x3eb0a29f	0.3449907
230	0x3e3a16f8	0.18172824
231	0x3ebf5664	0.37370598
232	0x3ee3f51c	0.4452294
233	0xbe5b3e60	-0.21410513
234	0xbdaaa65d	-0.083325125
235	0x3efd9b06	0.49532336
236	0xbe537358	-0.20649469
237	0x3e26635f	0.16248845
238	0xbe3eb8d3	-0.18625192
239	0xbee6c9fa	-0.4507597
240	0x3c66dd12	0.014090793
241	0x3d895cd3	0.06707158
242	0x3ede5fc8	0.4343245
243	0xbe818adc	-0.25301254
244	0x3f043a93	0.5165188
245	0x3e5e7040	0.21722507
246	0xbe7c608f	-0.24646209
247	0xbe44183b	-0.19149868
248	0xbde8e52a	-0.113718346
249	0xbe8a284c	-0.2698387
250	0xbe81bbe8	-0.25338674
251	0xbece8881	-0.4033852
252	0xbee0729e	-0.43837446
253	0x3b8ffca8	0.0043941326
254	0xbec0c930	-0.37653494
255	0xbe74ae24	-0.23894554

fc2.bias f4 [256]
0	0x3eabc19c	0.3354615
1	0x3e03b76a	0.12862936
2	0xbe92da48	-0.2868216
3	0xbd57ca74	-0.05268331
4	0xbdde3474	-0.108498484
5	0x3cb04158	0.021515533
6	0xbe74dfc8	-0.23913491
7	0xbe7724b2	-0.24135092
8	0xbea4c56d	-0.32181874
9	0x3d6f89fa	0.058481194
10	0x3ea53d60	0.32273388
11	0xbe39a272	-0.18128374
12	0xbebcc71d	-0.3687066
13	0x3d6df8cb	0.058098596
14	0xbdae0bc8	-0.08498341
15	0x3e75cdf6	0.24004349
16	0x3c64d962	0.013967844
17	0x3e208021	0.15673877
18	0xbe32f3bf	-0.17475794
19	0x3e938374	0.28811228
20	0xbe8901fa	-0.2675932
21	0xbeefe8e6	-0.46857375
22	0xbef55b1a	-0.47921067
23	0xbdc90386	-0.09815125
24	0x3ec3b2a6	0.38222235
25	0x3e070e01	0.13188936
26	0xbd66585f	-0.05623662
27	0xbe98b9a5	-0.29829136
28	0x3e7ac37e	0.24488637
29	0x3d232da6	0.039838456
30	0xbeb03723	-0.34417066
31	0xbf17310e	-0.59059227
32	0x3eb5adc5	0.35484138
33	0x3c60a42e	0.0137110185
34	0x3e04256d	0.12904902
35	0xbe2914d5	-0.16511853
36	0xbe8d4d10	-0.27597857
37	0xbe948507	-0.29007742
38	0x3d0f12d8	0.03493008
39	0x3e97e9c0	0.29670525
40	0xbbcf4e44	-0.0063264687
41	0x3d1e05a3	0.038579594
42	0x3f3dd471	0.74152285
43	0x3e903be5	0.28170696
44	0xbe99ae53	-0.3001581
45	0xbbf3b830	-0.0074377283
46	0x3d6bff6d	0.05761664
47	0x3de57326	0.112036034
48	0xbdadb2b0	-0.084813476
49	0x3effc188	0.4995234
50	0x3ea0a7cc	0.3137802
51	0x3d9c11d2	0.076205865
52	0xbe6431e2	-0.22284654
53	0x3f016cc0	0.50556564
54	0x3cfd2a92	0.030904088
55	0x3d1d4d0f	0.038403567
56	0x3c9fd688	0.019511476
57	0x3e4f327f	0.20234106
58	0x3e3763a1	0.17909099
59	0xbe9bc9ed	-0.30427495
60	0xbf2eb449	-0.68243843
61	0x3d8b156f	0.067911975
62	0xbe4cd49b	-0.20002978
63	0xbf51f1b3	-0.8200943
64	0x3e0750cf	0.1321442
65	0x3f10e811	0.56604105
66	0xbf23b855	-0.63953143
67	0x3e17c09d	0.1481957
68	0xbe884a79	-0.26619318
69	0x3e81d78f	0.2535977
70	0xbdb11ca0	-0.08648038
71	0x3e273394	0.16328269
72	0xbe78f958	-0.24313867
73	0x3d6052b5	0.054766376
74	0xbe3f5784	-0.18685728
75	0xbc790b2a	-0.015200416
76	0x3b231b60	0.0024888143
77	0x3ec164ab	0.37772116
78	0xbe17333e	-0.14765641
79	0xbd2ab8a8	-0.04168001
80	0xbdc4c360	-0.09607577
81	0x3e9aefd5	0.30261102
82	0xbe4396ae	-0.19100448
83	0x3e77c09a	0.24194565
84	0xbe7cbffc	-0.24682611
85	0xbf3e3111	-0.7429362
86	0x3d621246	0.05519321
87	0x3ec6cf43	0.38830003
88	0xbd06f01a	-0.032943822
89	0x3d358894	0.044319704
90	0xbb5dc780	-0.0033840835
91	0x3db30154	0.08740488
92	0x3dc76542	0.0973611
93	0x3de495d7	0.11161392
94	0x3e87a1f7	0.26490757
95	0x3dff547e	0.124672875
96	0x3ee31f4f	0.44359824
97	0xbe938988	-0.28815866
98	0x3e7711d0	0.24127889
99	0x3eaddb45	0.33956352
100	0xbcc48eca	-0.023993868
101	0xbd2f2041	-0.04275537
102	0xbe7a1910	-0.24423623
103	0xbd54fc22	-0.051998265
104	0xbd8b63e6	-0.068061635
105	0x3e4a3d26	0.19749889
106	0xbf01029e	-0.5039462
107	0xbf00b277	-0.50272316
108	0xbd82b68b	-0.063824736
109	0xbe7c60fb	-0.2464637
110	0x3e17a65e	0.14809558
111	0xbe5852f2	-0.21125391
112	0x3ec37c04	0.38180554
113	0xbd8898df	-0.06669783
114	0xbec6663a	-0.38749868
115	0xbd90bce7	-0.0706728
116	0x3e964d14	0.2935568
117	0xbcd27e54	-0.025695004
118	0xbeb8daa8	-0.3610432
119	0xbeb0d201	-0.3453522
120	0xbbd2719e	-0.0064222356
121	0x3d427798	0.047477335
122	0x3e46e177	0.19421946
123	0x3c94971c	0.01813846
124	0x3e863b42	0.26217085
125	0x3e4052e8	0.18781626
126	0x3e852f12	0.26012474
127	0x3e180a4c	0.14847678
128	0x3e5cb3bb	0.21552937
129	0x3db8667c	0.09003922
130	0xbf149394	-0.58037686
131	0x3eae4fbc	0.34045208
132	0xbe828f97	-0.25500175
133	0x3e6462d8	0.22303331
134	0xbe2038c3	-0.15646653
135	0x3c478e00	0.0121798515
136	0xbf38b14b	-0.7214553
137	0xbd87a08c	-0.06622419
138	0xbd44a42a	-0.04800812
139	0xbebbea97	-0.36702415
140	0xbdc812da	-0.09769221
141	0xbe74cb1a	-0.23905602
142	0xbf052caf	-0.52021307
143	0x3e7ef328	0.24897444
144	0x3e2631a4	0.16229874
145	0x3e5a3809	0.21310438
146	0x3db1c4ef	0.0868014
147	0xbe3a652d	-0.18202658
148	0xbd1ac432	-0.037784763
149	0xbdc36cea	-0.09542258
150	0x3d1f76a8	0.03893152
151	0x3e8ef498	0.27920985
152	0xbf325986	-0.6966785
153	0xbe156500	-0.1458931
154	0xbe5419c3	-0.20712952
155	0x3d487b5a	0.048945762
156	0xbea06fb8	-0.31335235
157	0xbbf9b8bf	-0.0076209004
158	0xbdbf3fae	-0.09338318
159	0x3e35a107	0.17737208
160	0xbe48e1e2	-0.19617417
161	0xbe2ac2d6	-0.16675887
162	0x3e25bd82	0.16185573
163	0xbdd9f0e3	-0.106416486
164	0x3ec4aede	0.38414663
165	0x3eadaece	0.33922428
166	0x3d4dbad9	0.05022702
167	0x3eb2a5fe	0.34892267
168	0x3d2a389c	0.041557893
169	0x3ce57648	0.028010502
170	0xbecfc1fb	-0.40577683
171	0xbec1e46c	-0.37869585
172	0x3e874e7a	0.2642706
173	0xbd9c4f87	-0.07632356
174	0xbda2b197	-0.07944029
175	0x3e8eacf7	0.27866337
176	0xbec49606	-0.3839571
177	0x3f52c415	0.8233045
178	0xbef6a6bd	-0.48174086
179	0xbd77b76a	-0.06047765
180	0xbd928302	-0.07153894
181	0xbc39178c	-0.011297118
182	0x3e9239f1	0.2855983
183	0x3dae5bc4	0.08513597
184	0x3e2e7a4c	0.1703884
185	0xbdac0702	-0.08399774
186	0xbe9c9f9e	-0.30590528
187	0x3f333b11	0.70012003
188	0x3f340593	0.70321006
189	0xbebf5c7c	-0.37375247
190	0x3ebe9448	0.37222505
191	0xbeb3bf5f	-0.35106942
192	0xbe7e31e4	-0.2482372
193	0x3e99a7ec	0.30010927
194	0x3ed57f90	0.41698885
195	0x3df5c770	0.1200093
196	0xbe06b7ae	-0.13156006
197	0x3de80567	0.113291554
198	0x3dd681ae	0.10473953
199	0x3d7e11a9	0.06202856
200	0xbdb2dc7d	-0.08733461
201	0xbd2a4a33	-0.04157467
202	0xbd379f2f	-0.044829544
203	0xbe4cddea	-0.20006528
204	0xbf1189e9	-0.5685106
205	0x3d0979ec	0.03356354
206	0x3e60df23	0.2196012
207	0x3d1f5975	0.038903672
208	0xbc045c58	-0.008078657
209	0x3eeba132	0.4602142
210	0x3f0c9568	0.54915476
211	0xbd2b4d6a	-0.041821875
212	0x3dddb164	0.1082485
213	0x3ea68b0e	0.32527965
214	0x3e723020	0.2365117
215	0xbe8a636d	-0.2702898
216	0x3dc56baf	0.0963968
217	0x3e822a79	0.2542303
218	0xbe88e1de	-0.26734823
219	0xbef93ca3	-0.48679075
220	0x3e2f620e	0.17127249
221	0x3e0263e6	0.1273342
222	0x3ec6ee40	0.38853645
223	0x3ea48fa0	0.32140827
224	0xbe97f369	-0.29677895
225	0x3d04f984	0.03246452
226	0xbde67e68	-0.11254579
227	0xbeac241a	-0.33621293
228	0x3e00a43f	0.12562655
229	0xba3192c0	-0.00067738816
230	0x3e453d01	0.19261552
231	0x3e754dd7	0.23955475
232	0x3e0a27d4	0.13491756
233	0xbda7af85	-0.081877746
234	0x3d051899	0.03249416
235	0x3e2a5f82	0.16637996
236	0xbe79959e	-0.2437348
237	0xbdc14a45	-0.09437994
238	0xbe75134a	-0.2393314
239	0xbe7ccb82	-0.24687007
240	0x3eb2612c	0.3483976
241	0x3e275632	0.16341475
242	0x3d90eec2	0.070767894
243	0x3d38b3c9	0.04509333
244	0x3d895126	0.06704931
245	0x3f0b11f3	0.54324263
246	0x3e2634df	0.16231106
247	0xbe8dd977	-0.27704975
248	0xbedc4117	-0.4301841
249	0x3e9a965f	0.3019285
250	0xbce321c0	-0.027726054
251	0xbd712969	-0.058877382
252	0xbe62e460	-0.2215743
253	0x3d1b1b07	0.037867572
254	0x3ea7261d	0.32646266
255	0xbe8fdd7b	-0.28098664

fc_mu.weight f4 [6, 256]
0	0x3e00cfba	0.12579241
1	0x3efc8a12	0.4932409
2	0xbee09fc8	-0.43871903
3	0xbdef9add	-0.1169946
4	0x3d66a205	0.056306858
5	0x3e86c9d2	0.26325852
6	0xbcd5507e	-0.026039358
7	0x3e6f5330	0.23371577
8	0xbee44e70	-0.44591093
9	0xbe894090	-0.2680707
10	0x3e7e502e	0.24835274
11	0xbd85c1cc	-0.065311044
12	0xbea5c8e5	-0.32379833
13	0x3ebcb56b	0.3685716
14	0xbe04a1c3	-0.12952332
15	0x3d1bfcf0	0.038083017
16	0xbd52b223	-0.051439416
17	0xbecffa0c	-0.40620458
18	0x3f319c8a	0.69379485
19	0xbe8bf316	-0.27333897
20	0x3dac95f1	0.084270366
21	0x3e8d4169	0.27588966
22	0xbe80f260	-0.25184917
23	0xbe247c4c	-0.1606304
24	0xbe57301d	-0.21014448
25	0x3d0b85da	0.034063198
26	0xbddb4802	-0.10707094
27	0xbe481d1a	-0.19542351
28	0x3d8a84d3	0.067636155
29	0xbe9b9058	-0.30383563
30	0xbd972b51	-0.07381309
31	0xbf1e2005	-0.6176761
32	0xbe0c6f49	-0.13714327
33	0x3d074ffe	0.03303527
34	0xbe986178	-0.29761863
35	0xbd041d7f	-0.032254692
36	0xbd32d9a1	-0.04366458
37	0xbe1ca489	-0.1529714
38	0xbde8355a	-0.11338301
39	0xbec83236	-0.39100808
40	0x3ec74616	0.3892066
41	0xbefe256c	-0.49637926
42	0x3e85e04a	0.2614768
43	0xbf0aa43e	-0.54156864
44	0x3e1198c6	0.14218435
45	0x3e0d4ed3	0.137996
46	0xbe313145	-0.17303951
47	0xbe776856	-0.24160895
48	0xbeb022e5	-0.34401622
49	0x3e17bd2a	0.14818254
50	0x3cd7c58c	0.026339315
51	0x3e4810fa	0.19537726
52	0xbe5d0356	-0.21583304
53	0xbd4cfba6	-0.05004468
54	0xbeeabcbc	-0.45847118
55	0x3ea800ab	0.3281301
56	0x3d3da8f9	0.046303723
57	0xbe9708d7	-0.29498932
58	0xbe9b1b05	-0.30294052
59	0x3eac7990	0.33686495
60	0xba21b5c0	-0.00061687455
61	0xbe9c25d6	-0.30497617
62	0x3f7b2b9a	0.98113406
63	0xbd127453	-0.035755467
64	0xbea04a7c	-0.31306827
65	0xbe9141d7	-0.28370544
66	0xbe5473f3	-0.20747356
67	0x3e52fef2	0.20605066
68	0x3eaa4dac	0.33262384
69	0x3f1cd8dd	0.6126841
70	0xbf31974b	-0.6937148
71	0x3df7224e	0.1206709
72	0xbd8b5d89	-0.0680495
73	0x3dd30672	0.10303964
74	0x3edb4729	0.42827728
75	0xbc8c86e0	-0.017154157
76	0x3ea1c7fc	0.31597888
77	0xbe3665d4	-0.17812282
78	0xbdb2e6e6	-0.08735447
79	0x3d3967ec	0.045265123
80	0xbe4e2ee0	-0.20135069
81	0xbe23b16c	-0.1598565
82	0x3f09db3f	0.5385017
83	0x3d36e474	0.044651464
84	0x3e1f2733	0.15542297
85	0xbf08ff38	-0.5351443
86	0xbe8d62bd	-0.27614394
87	0xbe623c63	-0.22093348
88	0xbe43d6c6	-0.19124898
89	0xbe0ecd75	-0.13945563
90	0x3df38089	0.118897505
91	0x3ebf5172	0.37366825
92	0xbe91ef69	-0.28502968
93	0xbe25c47c	-0.16188234
94	0xbea749a3	-0.32673368
95	0x3f2c43b7	0.67290825
96	0x3e386c13	0.18009977
97	0x3e7081fe	0.23487088
98	0x3f55d7ac	0.83532214
99	0x3db4ba3e	0.088245854
100	0x3eaa6112	0.33277184
101	0x3ec49380	0.38393784
102	0x3e68ed7c	0.22746843
103	0x3e9d976d	0.3077959
104	0x3bb8b788	0.005637113
105	0xbcc08a7c	-0.023503534
106	0x3e6a424f	0.22876857
107	0xbd9a2468	-0.07526475
108	0xbe871143	-0.26380357
109	0xbd19f1f9	-0.03758428
110	0xbeba5ad7	-0.3639743
111	0xbd23e139	-0.04000971
112	0xbec8c564	-0.39213097
113	0xbeff2414	-0.49832213
114	0x3ed3f326	0.41396445
115	0x3eef6afc	0.4676131
116	0xbeae5e2c	-0.34056222
117	0x3f0253ab	0.5090892
118	0xbdb8dc5d	-0.09026406
119	0x3ca819ce	0.020520117
120	0x3ebd8259	0.3701351
121	0x3d426bab	0.04746596
122	0x3e5102cb	0.20411222
123	0x3eb129da	0.34602243
124	0x3ee571aa	0.4481328
125	0x3d3c4884	0.045967594
126	0x3ed2794b	0.41108164
127	0xbe98ae9e	-0.29820722
128	0xbd87c0ad	-0.06628547
129	0x3e20e584	0.15712553
130	0xbeb61c6a	-0.35568553
131	0x3efa8fc5	0.48937812
132	0xbe812a60	-0.25227642
133	0xbed7547b	-0.4205664
134	0xbdd4255f	-0.103586905
135	0xbe00429c	-0.1252541
136	0xbe5555af	-0.20833467
137	0x3eca4a52	0.39509827
138	0xbe5b77b0	-0.21432376
139	0xbf10cfe3	-0.5656721
140	0xbd7cb8e8	-0.061699778
141	0x3ec22557	0.37919113
142	0xbe8e6f45	-0.27819267
143	0xbece1ddd	-0.4025716
144	0xbf321418	-0.6956191
145	0xbd9254cc	-0.0714508
146	0x3e891fd5	0.26782098
147	0xbeca4f00	-0.39513397
148	0xbed27b91	-0.411099
149	0xbdc8dfe1	-0.098083265
150	0xbc517864	-0.012785051
151	0x3d8e3dd0	0.069453835
152	0x3c05b68d	0.008161199
153	0xbca6ced8	-0.020362303
154	0xbd57e064	-0.05270423
155	0x3e567685	0.20943649
156	0x3e7ca36a	0.24671713
157	0xbe4d1354	-0.20026904
158	0xbea1a572	-0.31571537
159	0x3e7543ce	0.23951647
160	0x3e8d3073	0.27576026
161	0x3c145b80	0.009055018
162	0xbe3bf613	-0.18355589
163	0x3e1d462e	0.15358803
164	0xbdbe6844	-0.09297231
165	0xbdf947ef	-0.12171923
166	0x3e83a7a2	0.2571383
167	0xbe9db02c	-0.3079847
168	0xbe90e724	-0.28301346
169	0xbe1e8cc5	-0.15483387
170	0x3e35afdb	0.17742865
171	0xbec384c2	-0.38187224
172	0x3dfe93ec	0.124305576
173	0xbe29516f	-0.1653497
174	0x3f1488f4	0.58021474
175	0x3ec736aa	0.38908893
176	0xbd952532	-0.07282485
177	0x3ed0f848	0.40814424
178	0x3ebc850f	0.36820266
179	0xbd44cab3	-0.04804487
180	0x3e9590d3	0.29212055
181	0xbdf21447	-0.11820274
182	0x3cd12c5e	0.025533851
183	0x3eb11828	0.34588742
184	0x3eb100f4	0.3457104
185	0x3e15a1b8	0.14612472
186	0xbea2eebc	-0.31822765
187	0xbef373b5	-0.47549215
188	0x3ec2e0db	0.38062176
189	0xbe022524	-0.1270948
190	0x3cd4159e	0.025889214
191	0x3d89e86c	0.06733784
192	0x3e385216	0.18000063
193	0xbde198e2	-0.11015488
194	0x3e6eede1	0.23332931
195	0x3e31e0bc	0.17370886
196	0xbe396390	-0.18104386
197	0x3cc826d4	0.024432577
198	0x3ddc5fc6	0.10760455
199	0x3cf76746	0.030200612
200	0xbe828d74	-0.25498545
201	0xbe98d859	-0.2985256
202	0xbcc2b298	-0.0237668
203	0x3d9ba375	0.07599536
204	0x3e87b139	0.26502398
205	0x3f03a3dd	0.5142191
206	0x3e4d744b	0.20063893
207	0x3e48ea18	0.1962055
208	0xbcf6baeb	-0.030118426
209	0x3ee849be	0.4536876
210	0xbeac8768	-0.33697057
211	0xbdf745a8	-0.12073833
212	0x3e313a02	0.17307284
213	0x3ef725ee	0.48271126
214	0x3f5c50d9	0.86060864
215	0xbe0319db	-0.12802832
216	0xbea315ca	-0.3185256
217	0xbe999be9	-0.30001763
218	0x3ebb6704	0.36602032
219	0xbed30555	-0.41215006
220	0xbe461925	-0.1934553
221	0x3d097168	0.03355542
222	0xbd23bcb8	-0.039974898
223	0x3f2a50c7	0.66529506
224	0x3e498797	0.1968063
225	0xbf19aed9	-0.6003242
226	0xbde78886	-0.11305337
227	0xbf15310e	-0.58277977
228	0xbdf55a12	-0.1198007
229	0xbe1e4a5a	-0.1545805
230	0x3d919252	0.071079865
231	0xbe8880e0	-0.26660824
232	0x3db916a4	0.090375215
233	0x3dbef548	0.093241274
234	0xbe22a373	-0.15882663
235	0x3e99ca44	0.3003713
236	0xbe238b07	-0.15971003
237	0xbab388f8	-0.0013697436
238	0xbed9967b	-0.4249762
239	0x3edaa70a	0.42705566
240	0x3f43f274	0.7654183
241	0x3e72f56c	0.23726434
242	0x3deec141	0.11657954
243	0x3ee089f7	0.4385526
244	0x3f299abc	0.6625173
245	0x3d8157b6	0.06315558
246	0x3ee963e6	0.4558403
247	0x3d2093e5	0.039203543
248	0x3d8b19aa	0.067920044
249	0xbbb38b90	-0.0054792836
250	0x3e11923a	0.14215937
251	0x3c892dae	0.016745415
252	0xbe9625cf	-0.2932572
253	0xbd90cc5e	-0.0707023
254	0x3e43838b	0.19093148
255	0x3e6335d6	0.22188506

fc_mu.bias f4 [6]
0	0xbe0c8941	-0.13724233
1	0xbd9833e2	-0.07431771
2	0x3e3c25fc	0.18373865
3	0xbc734598	-0.014848135
4	0x3def30c9	0.11679227
5	0xbddbcd1b	-0.1073248
