ga_weights/ga1/Hopper-v5/PPO/weights3.pt (torch, 23457 bytes, 6 tensors)

weight f4 [64, 11]
0	0xbd3b607c	-0.04574631
1	0x3d4c8cdc	0.04993902
2	0x3d8be716	0.068311855
3	0xbe745467	-0.23860322
4	0xbd9b803e	-0.0759282
5	0xbe320107	-0.17383204
6	0xbe47073d	-0.19436355
7	0xbe8035ec	-0.2504114
8	0x3e348857	0.17630135
9	0xbe6c8d2b	-0.23100726
10	0xbf0ab9a0	-0.5418949
11	0xbe7fb25a	-0.2497038
12	0x3db7e6de	0.08979581
13	0xbbdc3eb0	-0.00672134
14	0xbe2a0d71	-0.1660669
15	0xbe86f42c	-0.26358163
16	0x3cb6e93c	0.022328012
17	0x3e6e45a8	0.23268759
18	0xbeaec857	-0.34137222
19	0xbd385752	-0.04500515
20	0x3e0ab742	0.1354647
21	0xbbc3f158	-0.005979698
22	0xbe5a97b5	-0.21346934
23	0xbd0e42d2	-0.034731694
24	0x3e07364e	0.1320431
25	0x3e64518e	0.22296736
26	0x3caee414	0.02134899
27	0x395f0c00	0.00021271408
28	0xbd890f3f	-0.06692361
29	0x3e4832ca	0.19550624
30	0xbd219ec5	-0.039458055
31	0x3ea8da03	0.3297883
32	0x3c8b7b4e	0.01702657
33	0x3d1508ec	0.03638546
34	0x3e0b8493	0.13624792
35	0xbdf30ec8	-0.11868054
36	0xbed75dd0	-0.4206376
37	0x3e25e0cd	0.16199036
38	0xbeb8348f	-0.359776
39	0x3e5ff336	0.21870121
40	0x3dcbee32	0.099575415
41	0x3e251405	0.16120918
42	0x3daee8da	0.08540507
43	0xbd874f2b	-0.06606897
44	0x3e51bded	0.20482607
45	0xbd887224	-0.066623956
46	0x3d236fc1	0.0399015
47	0xbe15edee	-0.14641544
48	0xbe232ddf	-0.15935467
49	0x3ee5cef0	0.44884443
50	0xbe1071b8	-0.1410588
51	0x3e51c8ec	0.20486802
52	0xbe055e8a	-0.13024345
53	0x3d41fc64	0.04735984
54	0xbe971e89	-0.29515484
55	0x3e93bf2d	0.28856793
56	0x3cf5db43	0.030011779
57	0xbed51d0d	-0.41623726
58	0x3e0d66bc	0.13808721
59	0x3e8a6bf6	0.27035493
60	0x3e9f5f5f	0.3112745
61	0xbdae732e	-0.085180625
62	0xbc75fe2c	-0.015014213
63	0xbc951284	-0.018197306
64	0x3e98f5f5	0.2987515
65	0x3df060ca	0.11737211
66	0xbda4e684	-0.0805178
67	0x3d0b540a	0.034015693
68	0x3f057315	0.52128726
69	0x3d01d65e	0.031698577
70	0x3ebdce44	0.3707143
71	0x3eab8ea5	0.33507267
72	0xbd4bb2ea	-0.049731173
73	0xbe2c9ab2	-0.16855887
74	0xbe03da73	-0.128763
75	0x3d37b63a	0.04485152
76	0x3e46fd5f	0.19432591
77	0x3d45c636	0.04828473
78	0xbda9e636	-0.082958624
79	0xbe9c656f	-0.30546138
80	0xbdf902c6	-0.12158732
81	0x3cf132bb	0.029443135
82	0xbe91811e	-0.2841882
83	0x3ed6a0f8	0.41919684
84	0x3ca6b41f	0.02034956
85	0x3e4cd016	0.20001253
86	0x3e33dd08	0.17564785
87	0xbda2c700	-0.079481125
88	0xbd8d07b6	-0.06886236
89	0xbe0940b4	-0.13403589
90	0x3d0a9c37	0.033840384
91	0xbdbd750f	-0.09250843
92	0xbdf532e7	-0.119725995
93	0xbe3ed9d4	-0.18637782
94	0xbd6d3308	-0.057909995
95	0x3d9499e6	0.07255916
96	0x3dd78a76	0.10524456
97	0x3d919881	0.07109166
98	0x3e5da240	0.21643925
99	0x3d628858	0.05530581
100	0x3e35d0be	0.1775541
101	0x3dc7918c	0.09744558
102	0x3c524163	0.012832972
103	0xbf12b6b6	-0.57310045
104	0x3e340ece	0.17583773
105	0x3eb2b28e	0.3490185
106	0x3db0e5c8	0.08637577
107	0x3e39454e	0.18092844
108	0x3d5f5242	0.054521807
109	0xbd88e0d8	-0.066835105
110	0xbd8f0244	-0.06982854
111	0xbd02da20	-0.0319463
112	0x3e8f8cea	0.28037196
113	0xbe37df85	-0.1795636
114	0x3e518b06	0.2046319
115	0xbe8e38d2	-0.27777725
116	0x3e891620	0.26774693
117	0xbe1e112a	-0.15436235
118	0xbd1582f9	-0.03650186
119	0x3db3f264	0.08786467
120	0x3d1ca922	0.038247235
121	0xbebc1f8a	-0.36742812
122	0xbeccf2e2	-0.40029055
123	0xbeaa0d49	-0.3321326
124	0x3e8620b2	0.2619682
125	0xbd6d9464	-0.058002844
126	0xbe8d32cd	-0.2757782
127	0x3e80e6f9	0.25176218
128	0x3eb46d42	0.35239607
129	0xbd062ed2	-0.032759495
130	0x3e2a9769	0.16659321
131	0xbeaa2bb2	-0.33236462
132	0xbdc56930	-0.096392035
133	0xbe8f7162	-0.28016192
134	0xbd5e98dc	-0.054344997
135	0xbecaf468	-0.39639592
136	0xbd9aa3de	-0.075507864
137	0xbe29ad62	-0.16570047
138	0xbe067812	-0.1313174
139	0x3e1c5828	0.15268004
140	0xbcf035c0	-0.029322505
141	0xbe763de1	-0.24047042
142	0x3b854f70	0.0040683076
143	0xbe3d0226	-0.18457851
144	0xbdf44aa4	-0.11928299
145	0xbe2bba32	-0.16770247
146	0x3d261b99	0.040553663
147	0x3eaa8925	0.33307758
148	0xbed7a7d6	-0.42120236
149	0xbd09ddfd	-0.03365897
150	0x3d06dca3	0.03292526
151	0x3b1c0320	0.0023805574
152	0xbdae87fd	-0.085220315
153	0x3e5a8792	0.21340778
154	0xbe693db0	-0.22777438
155	0x3e29594a	0.16537967
156	0xbe92415a	-0.28565484
157	0xbe93589d	-0.28778544
158	0xbea2f294	-0.31825697
159	0x3ead2844	0.33819783
160	0xbdaa2df8	-0.08309549
161	0x3e904b09	0.28182247
162	0xbe017d3c	-0.1264543
163	0xbd797cc8	-0.060910016
164	0x3d84fce9	0.06493551
165	0xbe48ffb9	-0.196288
166	0xbed49177	-0.4151723
167	0x3e9cbbe8	0.3061211
168	0x3e8fc61c	0.28080833
169	0xbe9d6d88	-0.30747628
170	0x3efb76b6	0.49114007
171	0x3e9464d1	0.28983167
172	0x3da14b89	0.07875735
173	0xbd4cf451	-0.050037686
174	0x3e52f868	0.20602572
175	0x3d6b74e8	0.057484537
176	0xbe43a348	-0.19105256
177	0x3e044a4c	0.12918967
178	0x3e987807	0.29779074
179	0xbd05dc64	-0.032680884
180	0x3ee4d639	0.4469469
181	0xbd0eeb24	-0.034892216
182	0xbe0e56e1	-0.13900329
183	0xbd228e5d	-0.03968655
184	0xbb02df78	-0.0019969624
185	0x3da9e883	0.08296301
186	0xbe41eb76	-0.18937477
187	0xbd526033	-0.051361274
188	0x3d817dc9	0.0632282
189	0x3f0bec46	0.546574
190	0x3e969a0c	0.29414403
191	0x3d5efa60	0.054437995
192	0x3eb76aa3	0.35823545
193	0xbe0005b9	-0.12502183
194	0x3d9fe41b	0.078071795
195	0xbd3ef0e3	-0.046616446
196	0x3c607cec	0.013701659
197	0xbee08eb9	-0.4385889
198	0x3e068b2e	0.1313903
199	0xbd809bbe	-0.062797055
200	0x3d264c7d	0.04060029
201	0x3e0f1bbf	0.13975428
202	0xbd662b96	-0.05619391
203	0x3c0070f0	0.007839426
204	0xbe9985c3	-0.29984865
205	0xbebedd58	-0.37278247
206	0x3dd2641b	0.10273
207	0xbe6f3977	-0.23361765
208	0xbd8af51d	-0.06785033
209	0x3d595f15	0.053069193
210	0xbe1cd8f7	-0.1531714
211	0xbe07def4	-0.13268644
212	0x3d8dca2c	0.06923327
213	0x3d393db2	0.045224853
214	0x3debc055	0.11511294
215	0x3b1688e0	0.0022969767
216	0xbe03972a	-0.12850633
217	0x3e164b8c	0.14677256
218	0x3ca6e872	0.02037451
219	0x3e22ead8	0.15909898
220	0xbebb0c44	-0.36532795
221	0x3f051bc5	0.519955
222	0xbe730577	-0.23732553
223	0xbc1d0f23	-0.009586128
224	0xbd8be82c	-0.06831393
225	0x3dd8827c	0.10571763
226	0xbd267f95	-0.040649015
227	0xbeab1830	-0.3341689
228	0x3c54da58	0.01299151
229	0x3e0035dc	0.12520546
230	0xbe971950	-0.295115
231	0x3e3d3f86	0.18481264
232	0x3db13989	0.08653552
233	0xbe036c45	-0.1283427
234	0x3e1a6806	0.15078744
235	0xbc95c124	-0.018280573
236	0xbd0b41f6	-0.033998452
237	0xbd90ce6d	-0.070706226
238	0xbe26d068	-0.16290438
239	0x3e838d88	0.25693917
240	0xbd9b2dbd	-0.07577083
241	0xbda76337	-0.081732206
242	0x3e0e8d56	0.13921103
243	0xbeb5aa76	-0.35481614
244	0xbef25775	-0.4733235
245	0xbecd0860	-0.40045452
246	0x3d077fec	0.03308098
247	0xbd0b9430	-0.03407687
248	0x3d0fec2b	0.035137337
249	0xbd3a2842	-0.04544855
250	0x3ca2d3d6	0.019876402
251	0xbe8c78e4	-0.27435982
252	0x3ebe08f7	0.37116215
253	0x3e677ce1	0.22606231
254	0xbef191b3	-0.47181472
255	0x3de7855c	0.11304733

bias f4 [64]
0	0x3e494628	0.19655669
1	0xbdd99714	-0.10624519
2	0x3eb703ff	0.35745236
3	0xbe4dcbdb	-0.20097296
4	0x3d0443de	0.032291286
5	0x3ca061e0	0.01957792
6	0x3d3b72d1	0.045763794
7	0x3cfbc916	0.030735534
8	0x3dc49198	0.09598082
9	0x3db2c849	0.087296076
10	0x3dfe3d66	0.124140546
11	0xbe05032d	-0.12989493
12	0x3e0781ae	0.13233063
13	0x3d25e062	0.04049719
14	0x3e9bc073	0.30420265
15	0xbe8b582c	-0.27215707
16	0x3e97b8bf	0.29633138
17	0xbd858152	-0.065188065
18	0xbeafae98	-0.34312892
19	0xbe3dfcd0	-0.18553472
20	0x3e6d4b2b	0.23173206
21	0xbd2dcb6e	-0.042430334
22	0x3dde130f	0.10843479
23	0xbd6e7021	-0.058212403
24	0x3de4c8dc	0.111711234
25	0xbd9ae0e9	-0.075624295
26	0x3dc090c8	0.09402615
27	0xbda13cb8	-0.07872909
28	0x3d559655	0.05214532
29	0x3e6a526f	0.22883008
30	0x3e4104bf	0.18849467
31	0x3e05bfe6	0.13061485
32	0xbe6b7dae	-0.22997162
33	0xbdfaf874	-0.1225442
34	0xbe1705b7	-0.14748274
35	0x3debb92e	0.115099296
36	0x3da0682e	0.07832371
37	0xbe2db336	-0.16962895
38	0xbdd373a0	-0.10324788
39	0x3e3987c5	0.18118198
40	0xbec19f3d	-0.37816802
41	0xbd8fd8e0	-0.070237875
42	0x3d10b14e	0.03532534
43	0x3dc388be	0.09547566
44	0xbe7e6e68	-0.24846804
45	0xbce3f390	-0.0278261
46	0x3e900245	0.28126732
47	0x3db560d6	0.088563606
48	0xbcf39998	-0.029736325
49	0xbe46b3dc	-0.19404548
50	0xbb3df1b8	-0.0028983187
51	0xbe8e187c	-0.27753055
52	0x3ecc2cd6	0.39877957
53	0x3dde2bc2	0.1084819
54	0xbe4f4eab	-0.20244853
55	0xbee66170	-0.44996214
56	0xbe04b993	-0.12961416
57	0xbeb59590	-0.3546567
58	0x3e0bc4a3	0.1364923
59	0x3e63bfa4	0.22241074
60	0xbd6fd115	-0.058549006
61	0xbea1f164	-0.3162948
62	0x3e4609f4	0.19339734
63	0xbf03bf02	-0.5146333

weight f4 [64, 64]
0	0xbe2cdef4	-0.16881925
1	0x3cd1f9a0	0.025631726
2	0xbe0b0457	-0.13575874
3	0xbd9d73f4	-0.07688132
4	0xbdd6e6b3	-0.10493221
5	0xbe800a3c	-0.25007808
6	0x3dabcbf0	0.08388507
7	0x3dab674e	0.08369313
8	0xbe1243f9	-0.14283742
9	0xbe8ad515	-0.27115694
10	0x3e8090c4	0.25110447
11	0x3d54a329	0.051913414
12	0xbe126bc5	-0.14298923
13	0xbe8dffe3	-0.2773429
14	0xbdabfda7	-0.0839799
15	0x3d9a38c6	0.0753036
16	0xbdc519be	-0.096240506
17	0x3e7a9649	0.24471392
18	0xbe33fe65	-0.17577513
19	0x3ecfe187	0.4060175
20	0x3d270260	0.04077375
21	0xbe751b55	-0.23936208
22	0xbe8cbb67	-0.27486727
23	0x3d82f18b	0.06393727
24	0xbe357fd3	-0.17724542
25	0x3d6b4cf2	0.057446428
26	0xbdf5867e	-0.11988543
27	0xbe9d89fb	-0.30769333
28	0x3e19c520	0.15016603
29	0xbe2aa044	-0.16662699
30	0x3d40ae96	0.047041498
31	0x3daa63ef	0.08319842
32	0x3e886cac	0.2664541
33	0xbefde768	-0.4959061
34	0x3e030a9d	0.12797017
35	0x3db8a4f9	0.09015841
36	0xbbc3ea44	-0.0059788544
37	0x3cf19820	0.029491484
38	0xbe3c2ba6	-0.18376026
39	0xbd76cd07	-0.060254123
40	0xbcfd355f	-0.030909238
41	0x3df47f06	0.1193829
42	0x3dcf8b38	0.10133976
43	0x3e210003	0.1572266
44	0x3e805bef	0.2507014
45	0xbe853da0	-0.2602358
46	0xbe4735b2	-0.19454077
47	0x3e62819a	0.22119752
48	0x3d07452a	0.033024944
49	0x3eaa9d4c	0.33323133
50	0xbe37b810	-0.17941308
51	0xbdaea2bc	-0.08527133
52	0xbe83cca0	-0.25742054
53	0xbd576157	-0.052583065
54	0xbec12c86	-0.3772928
55	0x3f2273b9	0.6345783
56	0x3e9d53df	0.3072805
57	0xbd9a7d08	-0.07543379
58	0x3cfb2532	0.030657385
59	0x3e3236ff	0.17403792
60	0x3df12459	0.11774511
61	0x3d9039d0	0.07042277
62	0xbe395bf6	-0.18101487
63	0xbd8b6cb2	-0.06807841
64	0xbe9276fd	-0.28606406
65	0xbbb36bc0	-0.0054754913
66	0xbe7880f6	-0.24267945
67	0x3dc9ce00	0.098537445
68	0xbe8e3928	-0.27777982
69	0x3c3b50b4	0.011432815
70	0x3d99da61	0.075123556
71	0x3e3aa0fc	0.18225473
72	0x3e0e4710	0.13894296
73	0xbe58ee5d	-0.21184678
74	0xbe760c46	-0.2402812
75	0xbe3dd26a	-0.18537298
76	0x3e86ada8	0.26304364
77	0xbe9a3cfd	-0.30124655
78	0xbe066820	-0.13125658
79	0x3d6901d6	0.056886517
80	0xbe4cb573	-0.19991092
81	0x3e47b816	0.19503817
82	0x3ca16a10	0.019703895
83	0x3e37a951	0.17935683
84	0xbe0cc1b4	-0.13745767
85	0x3e061f3e	0.13097855
86	0xbe574db2	-0.21025732
87	0xbd821fdd	-0.06353734
88	0xbd97b0cd	-0.07406769
89	0xbd94f202	-0.07272722
90	0x3dde16a4	0.10844162
91	0x3d2166c6	0.039404653
92	0x3db241e7	0.08703976
93	0xbec2bb49	-0.38033512
94	0xbf032a23	-0.5123617
95	0xbe1dd66e	-0.1541383
96	0xbcd2c038	-0.025726423
97	0xbe395ade	-0.1810107
98	0xbeba528b	-0.363911
99	0xbe12a128	-0.14319289
100	0x3afe5900	0.0019405186
101	0x3e13032c	0.14356679
102	0x3e1993d2	0.14997795
103	0x3d8e8795	0.06959454
104	0xbd4ec87a	-0.050484158
105	0xbcc5fb24	-0.024167605
106	0xbce5bc60	-0.028043926
107	0x3d2db4b6	0.042408668
108	0xbc3913dc	-0.011296239
109	0x3dbc660a	0.0919915
110	0x39c6d300	0.0003792271
111	0xbeb29005	-0.34875503
112	0x3e71061a	0.23537484
113	0xbdb268d1	-0.087113984
114	0xbc23c066	-0.009994602
115	0x3e3f14c4	0.18660265
116	0x3d9f0980	0.07765484
117	0x3d9f024d	0.07764111
118	0xbd3d43b4	-0.046207145
119	0xbe8db947	-0.27680418
120	0x3de49ab9	0.111623235
121	0xbe1461da	-0.14490452
122	0xbc3ec667	-0.0116439825
123	0x3d1038e8	0.03521052
124	0x3dbea962	0.09309651
125	0x3dcb1124	0.09915379
126	0x3df89662	0.12138058
127	0xbe80d25a	-0.25160486
128	0xbc034cc8	-0.008013912
129	0xbeb179d5	-0.34663263
130	0xbde43982	-0.11143781
131	0xbe0936bb	-0.13399784
132	0x3d3a2635	0.045446593
133	0x3e08070a	0.13283935
134	0xbd84a503	-0.06476786
135	0xbd88e3c4	-0.06684068
136	0x3d9c3146	0.07626586
137	0x3de42d91	0.111415036
138	0xbb24c380	-0.002514094
139	0x3d960d34	0.07326737
140	0x3ea840d4	0.3286196
141	0x3ddd07d2	0.10792507
142	0x3e706275	0.23475058
143	0x3e0895a6	0.13338336
144	0x3d4e690e	0.050393157
145	0xbd3476ce	-0.044058613
146	0xbdc8e99a	-0.09810181
147	0xbc801651	-0.015635641
148	0x3eb259f7	0.34834263
149	0x3e960de0	0.2930746
150	0x3d1b5692	0.037924357
151	0x3e29c46a	0.16578832
152	0xbba5e438	-0.005062606
153	0x3ebefd97	0.3730285
154	0x3c91890e	0.017765548
155	0x3eab3f6a	0.3344682
156	0xbe8a457a	-0.2700613
157	0x3e00b314	0.12568313
158	0x3e8f364c	0.27971113
159	0xbd2c9506	-0.042134307
160	0xbb8cbe20	-0.0042951256
161	0xbe475e0b	-0.19469468
162	0x3e07247c	0.13197511
163	0xbd81c595	-0.06336514
164	0x3ea17656	0.31535596
165	0x3d312112	0.04324443
166	0xbe049b5c	-0.1294989
167	0xbdecbd6e	-0.11559568
168	0x3e36f9e0	0.17868757
169	0xbe488c2c	-0.19584721
170	0xbec17ea3	-0.3779193
171	0x3ea6a80b	0.32550082
172	0x3d14af46	0.036299966
173	0x3e1dbd4d	0.15404244
174	0xbd91d3a0	-0.071204424
175	0xbdfb85e6	-0.122813985
176	0x3e36a157	0.17834984
177	0x3a86dde0	0.0010289513
178	0xbe655da6	-0.22399005
179	0x3ac891f8	0.0015302291
180	0xbca0b4b6	-0.01961742
181	0xbe724d4f	-0.23662303
182	0xbdca3c93	-0.09874835
183	0xbe273984	-0.16330534
184	0xbd933e4c	-0.071896166
185	0xbdb01cf8	-0.08599275
186	0x3ea0c78a	0.31402236
187	0x3e2260f5	0.15857299
188	0xbd8a3654	-0.067486435
189	0x3d7feb7e	0.062480442
190	0x3e825298	0.2545364
191	0xbe04232f	-0.12904046
192	0x3c75990c	0.0149901025
193	0xbe111d00	-0.14171219
194	0x3cbb7315	0.022882024
195	0xbe34c0d0	-0.17651677
196	0xbd3a037a	-0.04541347
197	0x3ebaaa96	0.36458272
198	0x3d2084de	0.039189212
199	0xbbcc7fe0	-0.00624083
200	0x3e17c41c	0.14820904
201	0xbe209455	-0.15681584
202	0x3e2deb3a	0.16984263
203	0xbe98644b	-0.29764017
204	0xbde2a495	-0.11066548
205	0x3e3c881d	0.18411298
206	0xbc8103a6	-0.01574881
207	0xbef4afb6	-0.47790307
208	0xbe152d52	-0.1456807
209	0xbe02be61	-0.12767936
210	0x3e7e8f98	0.24859464
211	0xbe7cb1c9	-0.24677195
212	0xbdd11c27	-0.10210448
213	0xbc89cc45	-0.016821036
214	0x3e1102c6	0.14161214
215	0xbe50e2e7	-0.20399056
216	0xba1fa400	-0.00060898066
217	0xbe2ff806	-0.17184457
218	0xbdd10b83	-0.10207274
219	0x3d1f4a8e	0.03888946
220	0x3ebcfe42	0.36912733
221	0x3e300c5f	0.17192219
222	0xbcd5af12	-0.026084457
223	0xbc800d1c	-0.015631251
224	0x3c8fda4b	0.017560145
225	0x3e28b15e	0.1647391
226	0x3e7acaf5	0.24491484
227	0x3c17bf29	0.009261885
228	0x3e0c048d	0.13673611
229	0xbdf677e8	-0.12034589
230	0x3e2c338c	0.16816539
231	0xbdf425b4	-0.11921254
232	0x3e042046	0.12902936
233	0x3e77d0fc	0.24200815
234	0xbe0ca91b	-0.13736384
235	0xbe00e65a	-0.12587872
236	0x3cfc35e4	0.030787416
237	0x3dbef026	0.093231484
238	0xbd4efc84	-0.050533786
239	0x3dc1cc66	0.09462814
240	0x3e2b00dc	0.16699547
241	0xbe3a34aa	-0.18184152
242	0xbeb33779	-0.3500326
243	0xbd736316	-0.059420668
244	0xbb1fab00	-0.0024363399
245	0x3ce9394c	0.028469704
246	0x3e97f0b3	0.29675826
247	0x3e2effac	0.17089719
248	0xbefdd2d1	-0.49574903
249	0x3e31927c	0.17341036
250	0x3e4970fc	0.19672006
251	0x3e0a42b7	0.13502012
252	0xbe2d544a	-0.16926685
253	0xbc9f734c	-0.019464158
254	0xbe3d3025	-0.18475397
255	0xbe748df0	-0.2388227

bias f4 [64]
0	0xbda3dfac	-0.080016464
1	0x3e9d36db	0.30705914
2	0xbec71702	-0.3888474
3	0x3e429807	0.19003306
4	0x3ca0f624	0.019648619
5	0xbdc498b0	-0.09599435
6	0xbe80202b	-0.25024542
7	0x3e7f8ef9	0.24956883
8	0xbe14fd6c	-0.14549798
9	0xbe88be68	-0.26707768
10	0xbeaba718	-0.3352592
11	0xbe296d7e	-0.16545674
12	0xbe62d9e8	-0.22153437
13	0xbeae3374	-0.3402363
14	0x3e7ebaca	0.24875942
15	0x3aff29e0	0.0019467436
16	0x3e78433b	0.24244396
17	0x3e8d7beb	0.27633604
18	0x3e10f3a7	0.14155446
19	0xbe657857	-0.22409187
20	0xbe206062	-0.15661767
21	0x3e9d47bf	0.307188
22	0xbe1910aa	-0.14947763
23	0xbea76006	-0.32690448
24	0xbe314c75	-0.17314322
25	0x3d0ca8ee	0.03434079
26	0xbdc4cf40	-0.09609842
27	0x3d876af1	0.06612194
28	0x3d592c4d	0.053020764
29	0x3e40d1f1	0.18830086
30	0x3ee2b39a	0.4427765
31	0x3d0c2ccc	0.03422241
32	0xbe86cff9	-0.26330546
33	0xbdad1cb0	-0.08452737
34	0x3e077100	0.132267
35	0xbd6f6a68	-0.058451086
36	0xbd66c75a	-0.05634246
37	0x3ef44190	0.4770627
38	0x3e900b41	0.28133586
39	0xbedab1e9	-0.4271386
40	0x3d990fd1	0.0747372
41	0xbe538e10	-0.20659661
42	0xbdb34d17	-0.08754938
43	0x3c4b0304	0.012390856
44	0x3ea24ae4	0.31697762
45	0xbdd771c8	-0.10519749
46	0xbe10c7d6	-0.14138731
47	0x3df24acd	0.11830673
48	0x3dd635b2	0.1045946
49	0x3d3355bb	0.04378293
50	0x3ead697a	0.33869535
51	0x3c3b3889	0.011427053
52	0x3dba83c7	0.09107166
53	0x3da800de	0.082032904
54	0xbd8243fb	-0.063606225
55	0x3f18b888	0.5965657
56	0x3de3ad4c	0.11117038
57	0xbe3bfaa2	-0.18357328
58	0x3c4281f6	0.011871805
59	0xbddb383a	-0.10704084
60	0x3e60d73a	0.21957102
61	0xbe70ca31	-0.2351463
62	0xbd124e61	-0.03571928
63	0xbd52f33c	-0.051501498

weight f4 [3, 64]
0	0xbe770403	-0.24122624
1	0x3e72c03d	0.23706146
2	0x3ea2fab5	0.318319
3	0x3e57efb6	0.21087536
4	0xbdbcfef2	-0.092283145
5	0x3bfc4d64	0.0076996554
6	0x3d0c625a	0.034273483
7	0xbc473e8c	-0.012160908
8	0xbdead8cf	-0.11467134
9	0xbd01ad8e	-0.031659655
10	0x3dab4911	0.08363546
11	0x3ec96a76	0.39339036
12	0xbcc41663	-0.023936456
13	0x3d8fa5b0	0.07014024
14	0xbeb25930	-0.3483367
15	0x3e30ade6	0.17253837
16	0xbe047bd3	-0.1293786
17	0xbdc60bee	-0.09670244
18	0xbe8e1c37	-0.277559
19	0x3df111ec	0.117709965
20	0xbcbc94c8	-0.023020163
21	0x3ea134d6	0.31485623
22	0x3ef0fe4f	0.47069022
23	0xbe5ef78f	-0.21774124
24	0xbe8a230f	-0.26979873
25	0x3d8c7490	0.0685817
26	0x3e34b049	0.17645372
27	0x3e5bddd0	0.21471334
28	0xbc208004	-0.009796146
29	0xbea0ae62	-0.31383044
30	0x3e148c84	0.14506727
31	0x3d4b43e1	0.04962528
32	0xbd8bd8ef	-0.06828486
33	0xbea79593	-0.32731304
34	0x3e6135bb	0.21993153
35	0x3c9ae4a6	0.018907856
36	0xbd11e3c6	-0.035617612
37	0x3e6a80f5	0.22900756
38	0x3e1d83d0	0.15382314
39	0xbecf995b	-0.40546688
40	0x3dbbcaab	0.09169515
41	0x3cd3954c	0.025828026
42	0x3e8f6306	0.28005236
43	0xbe7b470a	-0.24538818
44	0x3eea1d48	0.45725465
45	0x3e105aab	0.14097087
46	0xbeac97c6	-0.33709544
47	0xbe0af3d5	-0.13569577
48	0x3d8455ea	0.06461699
49	0xbe09025a	-0.13379803
50	0xbeddd3a6	-0.43325537
51	0xbe776969	-0.24161305
52	0x3e446746	0.1918002
53	0x3e761ac7	0.24033652
54	0xbb514f70	-0.0031938218
55	0xbd7fc3fe	-0.062442772
56	0x3f13d787	0.57750744
57	0xbcd45d20	-0.025923312
58	0x3de21153	0.110384606
59	0x3d7d0cb9	0.06177971
60	0x3e9e8b37	0.30965587
61	0x3d51d00c	0.0512238
62	0xbb147f98	-0.002265906
63	0xbe643e7e	-0.22289464
64	0xbe858d42	-0.26084334
65	0xbcaaa096	-0.020828526
66	0x3d6573c0	0.05601859
67	0x3e3f98fb	0.18710701
68	0x3d97b390	0.07407296
69	0xbceda61c	-0.029009871
70	0x3f17959d	0.59212667
71	0x3d87e72e	0.06635891
72	0xbe0b2bcd	-0.13590927
73	0x3e4afb14	0.19822341
74	0xbe6c3600	-0.23067474
75	0x3d8dfcec	0.06933007
76	0x3e9eb317	0.3099601
77	0x3df02138	0.11725086
78	0x3c192a14	0.009348411
79	0x3e0d8472	0.13820055
80	0x3c52d2b0	0.012867615
81	0xbd7e7c78	-0.06213042
82	0xbe291d26	-0.16515025
83	0xbc01ee60	-0.007930368
84	0xbe3a78bc	-0.18210119
85	0x3dc5eecf	0.0966469
86	0xbd81ac6e	-0.063317165
87	0x3e3f536a	0.18684164
88	0xbe9ef749	-0.3104804
89	0x3dedf6da	0.11619349
90	0x3e8c2f36	0.2737977
91	0x3e081715	0.13290055
92	0xbe56b08c	-0.20965785
93	0xbe07463e	-0.13210389
94	0xbd981196	-0.07425229
95	0xbe05da81	-0.13071634
96	0xbe6feab5	-0.23429377
97	0xbe49364e	-0.19649622
98	0x3e1fd9b7	0.15610395
99	0xbe8d1d79	-0.27561548
100	0xbe91be87	-0.28465673
101	0x3da03340	0.07822275
102	0xbdedcd1a	-0.11611386
103	0xbee5d9d3	-0.4489275
104	0xbe2c7f97	-0.16845547
105	0xbe6c3c55	-0.2306989
106	0xbdd9d9ae	-0.10637222
107	0xbe24b5de	-0.16085002
108	0xbd74b2ef	-0.059740957
109	0x3dc6c6e6	0.097059056
110	0x3d863b04	0.06554225
111	0xbe00cf51	-0.12579085
112	0x3d89b3a2	0.06723715
113	0x3dea07dd	0.11427281
114	0x3d9c291a	0.07625027
115	0x3e808789	0.25103405
116	0xbcfa07a8	-0.030521229
117	0x3ca3b9f7	0.019986136
118	0x3dc0ca72	0.094136134
119	0xbdf346ae	-0.118787155
120	0x3e838e7d	0.25694647
121	0x3cb4cfc8	0.022071734
122	0xbe276ec4	-0.16350847
123	0x3cc815bd	0.024424428
124	0x3d43d1e9	0.047807608
125	0xbe1f2565	-0.15541609
126	0x3dc75eec	0.09734902
127	0xbe1bd968	-0.15219653
128	0xbe673e3b	-0.22582333
129	0x3d8ab6de	0.067731604
130	0xbf012b39	-0.5045658
131	0xbd47b55e	-0.04875695
132	0xbe29eede	-0.16595027
133	0x3dd05a76	0.10173504
134	0x3e47e545	0.19521053
135	0xbe8aff94	-0.27148116
136	0xbd5b1772	-0.053489156
137	0xbe541ce8	-0.20714152
138	0x3e8379bf	0.25678822
139	0xbd83c00c	-0.064331144
140	0xbd7342ce	-0.05938988
141	0x3eb2e502	0.34940344
142	0xbd89a338	-0.06720585
143	0x3e3df52a	0.18550554
144	0xbe806684	-0.25078213
145	0x3ce883af	0.028383104
146	0xbdc9be96	-0.098508045
147	0xbd4dbccc	-0.05022888
148	0x3e32feed	0.17480059
149	0xbe2808f3	-0.16409664
150	0xbeb3d34c	-0.35122144
151	0x3e29d11a	0.16583672
152	0xbe4867c6	-0.19570836
153	0xbe0d8161	-0.13818885
154	0xbd57a4f8	-0.05264756
155	0x3e48bcc6	0.19603261
156	0xbea75f96	-0.32690114
157	0xbd2945ae	-0.041326217
158	0x3e0c2888	0.13687336
159	0x3e84e72f	0.2595763
160	0xbe6fc174	-0.2341364
161	0xbd5409d2	-0.051767178
162	0x3ea287d0	0.31744242
163	0xbd777898	-0.06041774
164	0xbc1c0430	-0.009522483
165	0xbe1ecfca	-0.15508953
166	0x3b9e9410	0.004839428
167	0xbe051778	-0.12997234
168	0xbdc1e28e	-0.0946704
169	0xbe3d1be3	-0.18467669
170	0xbd2a780f	-0.041618403
171	0x3e8be2a5	0.27321354
172	0xbe872308	-0.26393914
173	0xbe171fd8	-0.14758241
174	0xbe3a4143	-0.18188958
175	0xbd8e0858	-0.06935185
176	0xbe5fe3cd	-0.21864243
177	0xbd900819	-0.070327945
178	0xbdd966d3	-0.10615315
179	0xbee7fcb9	-0.4531
180	0xbe4461b4	-0.19177896
181	0xbe36d45a	-0.17854443
182	0xbcaae4d8	-0.020861074
183	0x3dd2ea58	0.10298604
184	0xbe90959a	-0.28239137
185	0x3e8f17d7	0.27947876
186	0x3ece9ea4	0.40355408
187	0xbe8c7cf7	-0.2743909
188	0xbdcc98c5	-0.09990076
189	0xbe9efdb4	-0.31052935
190	0x3d1e620c	0.038667724
191	0x3d0ba644	0.03409411

bias f4 [3]
0	0xbe4ed342	-0.20197776
1	0xbe9950d2	-0.29944474
2	0x38711800	5.748123e-05
