ga_weights/ga2/HalfCheetah-v5/TD3/weights5.pt (torch, 290657 bytes, 6 tensors)

fc1.weight f4 [256, 17]
0	0x3cc2eea4	0.023795433
1	0xbdf94a0c	-0.121723264
2	0x3e4c2841	0.1993723
3	0xbe435aab	-0.19077556
4	0x3d138499	0.036015127
5	0x3e417e26	0.18895778
6	0xbdbf2a77	-0.093342714
7	0xbe16c4a7	-0.14723454
8	0xbdd68a82	-0.10475637
9	0xbcc291c8	-0.023751155
10	0x3d15ee2d	0.036604095
11	0x3df3be79	0.11901564
12	0x3c153fd8	0.00910946
13	0x3e96cd0c	0.29453313
14	0xbd26b4bc	-0.040699705
15	0xbd9046b3	-0.07044735
16	0x3bc49860	0.00599961
17	0x3dbaf13a	0.091280416
18	0x3ddfab09	0.10921294
19	0x3e0b8536	0.13625035
20	0x3d89900c	0.06716928
21	0xbd677732	-0.056510158
22	0xbec8c2b4	-0.39211047
23	0xbd019d1b	-0.031643968
24	0x3c34c450	0.011033133
25	0x3d031de0	0.032010913
26	0xbd6c8cb4	-0.057751372
27	0x3e1767d4	0.14785701
28	0x3d68fb71	0.05688042
29	0x3dc0fa4c	0.0942274
30	0x3e18055a	0.14845791
31	0xbd9fdb7a	-0.07805534
32	0x3d5f69c4	0.054544225
33	0x3e1a0c48	0.15043747
34	0xbe08005c	-0.13281387
35	0xbcdfb966	-0.027310085
36	0xbca27fd2	-0.01983634
37	0xbc1d4438	-0.009598784
38	0x3d423b1a	0.047419645
39	0x3e190533	0.1494339
40	0x3d23a967	0.039956477
41	0x3bc1d6d0	0.0059155
42	0x3d73ee6b	0.059553545
43	0x3cd49cb7	0.025953634
44	0xbd5e9097	-0.05433711
45	0x3dc442de	0.095830664
46	0xbe31543f	-0.17317294
47	0x3d96e8b6	0.07368605
48	0xbb7d2e40	-0.0038632303
49	0x3e54b0fa	0.20770636
50	0x3d017567	0.031606104
51	0x3dc3f124	0.09567478
52	0xbdf26124	-0.11834934
53	0x3c0e6f8c	0.008693587
54	0xbd7c3486	-0.061573528
55	0xbbf3517c	-0.007425485
56	0x3dae8776	0.08521931
57	0x3e92aaec	0.28646028
58	0xbcf89207	-0.030343069
59	0xbcad3e8b	-0.021147987
60	0x38266800	3.967434e-05
61	0x3dbdcd20	0.0926764
62	0xbe4cc908	-0.19998562
63	0x3caad3e3	0.020852989
64	0x3d538da4	0.05164875
65	0xbdcf5d18	-0.10125178
66	0xbecd4172	-0.40088993
67	0xbc8f6e14	-0.017508544
68	0x3e07df24	0.13268715
69	0xbb08c1a0	-0.0020867363
70	0x3d6cdda9	0.05782858
71	0x3e77c2c0	0.24195385
72	0xbceab618	-0.028651282
73	0xbd945a00	-0.07243729
74	0x3def84d0	0.11695254
75	0x3d24d61a	0.040243246
76	0x3c2baf4e	0.010478808
77	0xbcae5c52	-0.021284256
78	0x3d1e791b	0.038689714
79	0xbdfcef70	-0.123503566
80	0xbe2765c2	-0.16347411
81	0x3dec1e33	0.115291975
82	0xbd9a273a	-0.07527013
83	0x3dad4c88	0.08461863
84	0xbe294259	-0.16529216
85	0xbc63b084	-0.013897065
86	0xbdb5b728	-0.08872825
87	0x3e30a6e6	0.17251167
88	0x3e1b2a88	0.15152943
89	0xbdf7dcbe	-0.1210265
90	0x3df61ce4	0.12017229
91	0x3d7ccf6f	0.06172126
92	0xbdbe8dba	-0.09304376
93	0x3d29d66e	0.04146426
94	0xbc97cdaa	-0.018530685
95	0x3e7b88a6	0.24563846
96	0x3dfc9a70	0.12334144
97	0xbd2ef9a4	-0.042718545
98	0xbdc025cb	-0.093822084
99	0x3c6115f4	0.013738144
100	0xbe32fe34	-0.17479783
101	0xbc885a5d	-0.016644651
102	0xbde00c9d	-0.10939906
103	0xbe954c9d	-0.29160014
104	0xbdf7ad46	-0.12093596
105	0x3e5f8c27	0.21830808
106	0xbdfa7a52	-0.12230362
107	0xbdfa1138	-0.122103155
108	0x3c59edca	0.013301322
109	0x3d076758	0.03305754
110	0xbd8fd540	-0.07023096
111	0xbe69bb98	-0.22825468
112	0xbe26d254	-0.16291171
113	0x3df8273d	0.12116859
114	0x3dbd29a1	0.09236456
115	0x3df46924	0.119341165
116	0xbe8774cf	-0.26456305
117	0xbcf4f892	-0.029903684
118	0x3e6e585f	0.23275898
119	0xbddf18bc	-0.108933896
120	0xbc8c52ab	-0.017129263
121	0xbeba1dba	-0.36350805
122	0xbcd13c60	-0.025541484
123	0x3d651736	0.05593034
124	0x3d919219	0.07107944
125	0xbcacbcfc	-0.021086209
126	0x3de553ac	0.111976
127	0xbe96b56f	-0.29435298
128	0x3e193480	0.14961433
129	0xbd9562fc	-0.072942704
130	0x3da6d425	0.08145932
131	0xbe85e613	-0.26152095
132	0x3d50d0f8	0.050980538
133	0xbd195e7e	-0.03744363
134	0xbe0a1fd6	-0.13488707
135	0x3da35a1e	0.07976173
136	0xbe5665c6	-0.20937261
137	0x3cb425f4	0.021990754
138	0xbdb248e4	-0.08705309
139	0xbddbd8fb	-0.10734745
140	0xbe1d1119	-0.15338553
141	0x3dafbca0	0.08580899
142	0xbe79529b	-0.24347918
143	0xbdd3e6f7	-0.103467874
144	0xbe153708	-0.14571774
145	0x3e491714	0.1963771
146	0x3da05dda	0.07830401
147	0xbe0fba7e	-0.14035985
148	0xbbe152e8	-0.0068763383
149	0x3e89f490	0.269444
150	0x3ec3da11	0.3825231
151	0x3e802eb8	0.25035644
152	0x3e6dd7e8	0.23226893
153	0xbe9e3142	-0.30896956
154	0xbdd5ad82	-0.104334846
155	0x3e1dbdf8	0.15404499
156	0x3d3c67e6	0.045997523
157	0x3e6b349a	0.22969285
158	0x3d847174	0.06466952
159	0x3e6d5105	0.23175438
160	0x3e042673	0.12905292
161	0x3deea499	0.11652488
162	0xbe229a6e	-0.15879223
163	0xbe95223f	-0.2912769
164	0x3c839d00	0.016066074
165	0x3db72906	0.089433715
166	0x3db1905c	0.086701125
167	0xbe924540	-0.2856846
168	0xbca0a302	-0.019608978
169	0x3d54507d	0.051834572
170	0xbe3d5a32	-0.18491438
171	0xbd0b9f28	-0.03408733
172	0xbc5d2a60	-0.0134988725
173	0x3e4eab7e	0.20182607
174	0x3e00791d	0.12546201
175	0xbe38c73b	-0.1804475
176	0xbe02a690	-0.12758851
177	0xbdb8ed51	-0.090296395
178	0xbe237799	-0.15963592
179	0xbe74da47	-0.23911391
180	0x3e0fe414	0.14051849
181	0x3cb258d2	0.021770868
182	0x3dce8ce3	0.10085466
183	0xbc357250	-0.0110746175
184	0xbd471fd0	-0.048614323
185	0x3e623c54	0.22093326
186	0xbc7ab2a4	-0.01530138
187	0x3dab8ba0	0.08376241
188	0x3dd8d25e	0.10586999
189	0xbd20b610	-0.03923613
190	0x3e5490f1	0.20758416
191	0x3e4096c2	0.1880751
192	0x3e7899a2	0.24277356
193	0x3d7272e4	0.0591916
194	0xbe3d907e	-0.1851215
195	0xbd920a52	-0.07130875
196	0xbeab58dc	-0.33466232
197	0x3e96cc2e	0.29452652
198	0x3e15e4ce	0.14638063
199	0x3d9bfdd2	0.07616772
200	0xbc957b1a	-0.018247176
201	0x3d0a0514	0.03369625
202	0x3d805441	0.0626607
203	0xbe6e9aed	-0.23301287
204	0x3e42c1f7	0.19019304
205	0x3e46a002	0.19396976
206	0xbd6f67c0	-0.058448553
207	0xbe83eaa0	-0.25764942
208	0x3d892002	0.06695558
209	0x3cfff43e	0.031244393
210	0x3e2c2da4	0.16814286
211	0xbe8d4d02	-0.27597815
212	0xbd58f54c	-0.05296831
213	0xbc7447e7	-0.014909721
214	0xbd632580	-0.055455685
215	0x3dcfb4ce	0.10141908
216	0xbe66e2fe	-0.22547528
217	0xbe902e91	-0.28160527
218	0x3d15bbe7	0.03655615
219	0xbcfed72a	-0.031108458
220	0xbe3ed057	-0.18634163
221	0x3e20182c	0.15634221
222	0xbc81ddb2	-0.015852783
223	0x3c628ee5	0.013828014
224	0xbe6544a6	-0.22389469
225	0x3e95fb9f	0.29293534
226	0xbc817a76	-0.015805464
227	0x3cb8aed4	0.022544302
228	0xbda76169	-0.081728764
229	0x3e1e1147	0.15436278
230	0xbc79d0ce	-0.015247537
231	0xbe73960c	-0.23787707
232	0x3e1eb2b0	0.15497851
233	0xbe6fd0e3	-0.23419528
234	0x3d2c53ac	0.042071983
235	0xbdc2516b	-0.094881855
236	0xbd1bb1a4	-0.03801121
237	0x3e0fd118	0.14044607
238	0x3cb37c25	0.021909783
239	0xbc4e94c0	-0.012608707
240	0xbe0c70ca	-0.137149
241	0xbd903a42	-0.07042362
242	0x3c1a1f26	0.00940684
243	0x3d5186e9	0.05115405
244	0x3e041f44	0.12902552
245	0xbe788994	-0.24271232
246	0x3e404eb0	0.18780017
247	0xbda69c5a	-0.081352904
248	0x3e038ae8	0.12845957
249	0xbd6f5dce	-0.05843907
250	0xbda7e946	-0.0819879
251	0xbcd3ff38	-0.025878534
252	0x3c5f4c12	0.013628976
253	0x3dbf867c	0.09351823
254	0xbbb74480	-0.0055928826
255	0x3c040022	0.008056672

fc1.bias f4 [256]
0	0x3da5221c	0.080631465
1	0xbd8a1d0f	-0.06743824
2	0xbe22b356	-0.15888724
3	0xbe8ca036	-0.2746598
4	0x3d81c109	0.06335647
5	0xbde866b4	-0.11347714
6	0x3c8c9585	0.01716114
7	0x3e059946	0.1304675
8	0x3e30583c	0.17221159
9	0x3d4ab27e	0.04948663
10	0xbe827ba1	-0.25484946
11	0x3eef1bcb	0.46700892
12	0x3e40a669	0.1881348
13	0x3d085904	0.033288017
14	0x3c54f4c0	0.012997806
15	0x3e1d59a6	0.1536623
16	0x3e064a3a	0.13114253
17	0x3ddd33b3	0.108008765
18	0x3cd070d0	0.025444418
19	0xbd900958	-0.07033032
20	0xbdcfc9e4	-0.101459295
21	0x3be844f8	0.0070883
22	0x3e028342	0.12745383
23	0xbec56c8a	-0.3855937
24	0x3d38b9a1	0.045098905
25	0x3d22721c	0.039659604
26	0x3e4d6517	0.20058094
27	0xbe10cd26	-0.14140758
28	0x3e99aeb2	0.30016094
29	0xbe03fea3	-0.12890105
30	0xbba7e0f0	-0.00512325
31	0x3e8e0ca5	0.27744022
32	0xbd2a7b15	-0.041621286
33	0x3e8b0b40	0.2715702
34	0x3cd4148c	0.025888704
35	0xbe0658d2	-0.1311982
36	0x3e67f3df	0.22651623
37	0xbe2c0216	-0.1679767
38	0xbdec4832	-0.11537208
39	0xbe9986cb	-0.2998565
40	0x3e4c645d	0.1996016
41	0x3de8d8cd	0.113694765
42	0x3d1bc08c	0.038025424
43	0x3e2e8592	0.1704314
44	0x3dbc9e91	0.09209932
45	0xbe36b84e	-0.17843744
46	0x3d9bfca8	0.0761655
47	0xbe41d9e6	-0.18930778
48	0x3e12dfbc	0.1434316
49	0xbcf29202	-0.029610638
50	0x3d91f698	0.07127112
51	0xbed18b52	-0.40926605
52	0xbb05b4a0	-0.002040185
53	0xbe0f1326	-0.13972148
54	0xbdcfa6de	-0.10139249
55	0xbe1d550d	-0.15364476
56	0x3eb1f9f0	0.34761
57	0x3d3380e0	0.043824077
58	0x3dcc412a	0.099733666
59	0xbe63ff3b	-0.22265331
60	0x3e065530	0.13118434
61	0x3ca8d0b0	0.020607322
62	0x3e046846	0.12930402
63	0xbe6f5f8d	-0.23376293
64	0xbdfd2164	-0.123598844
65	0x3d457daf	0.048215564
66	0xbd8e397e	-0.069445595
67	0x3da91e65	0.082577504
68	0xbe32f046	-0.1747447
69	0xbe004fc4	-0.12530428
70	0xbd2196ee	-0.03945058
71	0x3e50eee7	0.20403634
72	0xbd975b6d	-0.07390485
73	0x3e1959ef	0.14975713
74	0xbddc9cce	-0.107720956
75	0xbd8f6318	-0.070013225
76	0xbd6f6b04	-0.058451667
77	0x3cfc13b6	0.030771118
78	0x3defc788	0.117079794
79	0xbce0ee5a	-0.027457405
80	0xbd79ac76	-0.060955487
81	0xbd0b230b	-0.033968966
82	0xbc9f8b16	-0.019475501
83	0xbdf9e08b	-0.12201031
84	0x3e092ce4	0.1339603
85	0xbbc3c3a8	-0.005974252
86	0xbdf96c5a	-0.121788695
87	0xbcb56cd4	-0.02214662
88	0xbd81c7fb	-0.06336971
89	0xbd657a32	-0.056024738
90	0xbcf492ce	-0.029855158
91	0x3cf1ec05	0.029531488
92	0x3d98e216	0.074649975
93	0xbe2440b8	-0.16040313
94	0xbe33f538	-0.17574012
95	0xbe47cb94	-0.19511253
96	0xbea796f4	-0.32732356
97	0x3e8d8494	0.27640212
98	0xbe7fb08a	-0.24969688
99	0x388d4000	6.735325e-05
100	0x3b4e49c0	0.0031477064
101	0xbe47c798	-0.19509733
102	0xbde43088	-0.11142069
103	0xbe809158	-0.25110888
104	0xbe9f1c8f	-0.31076476
105	0x3e772f1c	0.24139065
106	0xbe0768fc	-0.13223642
107	0x3eafc460	0.3432951
108	0x3c556a6e	0.013025863
109	0x3d34e52f	0.04416388
110	0x3e220e10	0.15825677
111	0x3d73be65	0.059507746
112	0xbd203c3c	-0.039119944
113	0x3eb1da51	0.34736875
114	0x3e1165a0	0.14198923
115	0xbd0bf2a4	-0.034166947
116	0x3e118e53	0.14214449
117	0x3e5f433d	0.21802993
118	0xbb85f628	-0.004088182
119	0xbd6016a7	-0.054709103
120	0xbd6198da	-0.05507741
121	0x3e0f902d	0.14019842
122	0xbe5472e8	-0.20746958
123	0x3d81dace	0.06340562
124	0xbbec5250	-0.007211961
125	0x3e168465	0.14698942
126	0x3d2d9d56	0.042386375
127	0x3b1eeca9	0.0024249947
128	0x3dc17c93	0.09447589
129	0x3e1fe603	0.15615086
130	0x3d61770c	0.055045173
131	0x3e4d8536	0.20070347
132	0xbe4db619	-0.20088996
133	0x3d600284	0.0546899
134	0xbe17f593	-0.14839773
135	0xbdc07887	-0.09397989
136	0xbd212c56	-0.039348923
137	0xbe523cad	-0.20530958
138	0x3e26aa7e	0.16275975
139	0x3daf35e8	0.08555204
140	0xbe911c6a	-0.2834199
141	0xbd22fb21	-0.039790276
142	0xbc92f21a	-0.017937709
143	0x3d8d2fb0	0.06893861
144	0xbd9db80e	-0.07701121
145	0x3cee7d88	0.029112592
146	0xbd961f11	-0.07330144
147	0xbd4f0b34	-0.050547794
148	0x3e436dbc	0.19084829
149	0x3df6240e	0.12018596
150	0x3e022e08	0.12712872
151	0xbe93856b	-0.28812727
152	0xbe59ea44	-0.21280771
153	0x3d1fa7ff	0.038978573
154	0x3de547a2	0.111953035
155	0x3de799f6	0.113086626
156	0x3db841ae	0.089969024
157	0x3befa9e0	0.007313952
158	0xbc7114ba	-0.014714414
159	0x3d1b5726	0.037924908
160	0xbdb46e36	-0.088100836
161	0xbe906e21	-0.28209022
162	0xbdc19e53	-0.09454026
163	0x3e53e516	0.20692858
164	0x3d9f6c49	0.07784326
165	0x3e0b4f11	0.1360438
166	0xbd9b86dc	-0.07594082
167	0x3e395046	0.18097028
168	0xbbdfc626	-0.006829041
169	0x3ea5b456	0.32364148
170	0x3d242c40	0.040081263
171	0x3dc286c4	0.09498361
172	0xbd011ee9	-0.03152362
173	0xbd5dcffc	-0.054153427
174	0xbd91d40c	-0.07120523
175	0xbbfccdc6	-0.00771496
176	0xbe9eeb8e	-0.3103909
177	0xbd484f32	-0.04890365
178	0x3e6fad0d	0.23405857
179	0x3e84b78f	0.25921294
180	0xbd1b7e97	-0.037962522
181	0x3df1055b	0.117685996
182	0x3def8708	0.11695677
183	0xbdcd0015	-0.10009781
184	0xbd60150f	-0.054707583
185	0x3e199e5c	0.15001816
186	0xbd63e0f3	-0.05563445
187	0x3d2efcc6	0.042721532
188	0x3e4bfe71	0.1992128
189	0xbe0196d9	-0.126552
190	0x3df79c62	0.120903745
191	0x3cd445f2	0.025912259
192	0xbe2b7dc3	-0.16747193
193	0xbd6f7f4a	-0.058471
194	0x3e48991d	0.19589658
195	0xbcabc7e8	-0.020969346
196	0xbd5debcc	-0.05417995
197	0xbcb1dfaa	-0.021713097
198	0xbc37c71d	-0.011216906
199	0x3de77181	0.11300946
200	0xbc14e694	-0.009088177
201	0x3d06a7c2	0.03287483
202	0xbc20f070	-0.00982295
203	0x3e1ae1b7	0.15125166
204	0x3dfa6df5	0.12228004
205	0x3d551bfe	0.05202865
206	0x3cd0ba75	0.025479535
207	0xbe1bfc38	-0.15232933
208	0x3c9fcb1b	0.019506028
209	0x3e32abb3	0.1744831
210	0x3c81b183	0.015831714
211	0xbddb8468	-0.10718614
212	0x3dd2af4b	0.10287341
213	0xbce9f191	-0.02855757
214	0x3d957dfb	0.072994195
215	0xbe2ebf05	-0.17065056
216	0x3d5f6178	0.054536313
217	0x3e451dc2	0.19249633
218	0x3dc7d8b8	0.09758133
219	0x3e104544	0.14088923
220	0x3c2ac836	0.010423711
221	0xbde7d68c	-0.113202184
222	0x3d937183	0.07199385
223	0xbe319f00	-0.1734581
224	0x3e932d56	0.28745526
225	0x3e8275aa	0.25480396
226	0xbd1ee0c7	-0.038788583
227	0xbdf21639	-0.11820645
228	0xbdd6d4f8	-0.10489839
229	0xbe1f3025	-0.1554571
230	0xbc5db686	-0.0135322865
231	0x3edb07e9	0.42779472
232	0xbdd15423	-0.10221126
233	0xbdbec965	-0.09315757
234	0xbe24f0a2	-0.16107419
235	0xbe0e489e	-0.13894889
236	0xbb01d3f0	-0.0019810162
237	0x3d423beb	0.047420423
238	0x3d6c071a	0.05762396
239	0xba622c40	-0.00086278096
240	0xbe26905b	-0.16266005
241	0xbe3046cc	-0.17214507
242	0xbbd94b50	-0.0066312924
243	0x3e4157ba	0.18881121
244	0x3e6ee220	0.23328447
245	0xbc927e44	-0.017882474
246	0x3da43ad5	0.08019034
247	0x3c62fdd8	0.013854466
248	0x3d3d838c	0.04626803
249	0xbd9f0374	-0.077643305
250	0x3da80ec3	0.082059406
251	0x3d62d484	0.055378452
252	0xbe639b4f	-0.22227214
253	0xbe211450	-0.15730405
254	0xbe85e7ff	-0.2615356
255	0xbe23f4f7	-0.16011415

fc2.weight f4 [256, 256]
0	0xbb2e9350	-0.0026638098
1	0xbd465c50	-0.04842788
2	0x3e88745b	0.26651272
3	0x3dd16408	0.102241576
4	0x3d4d5a28	0.050134808
5	0x3de21c93	0.11040606
6	0x3d01a556	0.031651817
7	0x3e0ac4b1	0.13551594
8	0x3dfd27bb	0.123610936
9	0x3dfdb01e	0.12387107
10	0xbe889b06	-0.26680773
11	0xbd36ce6d	-0.044630457
12	0x3c6eafa0	0.014568239
13	0x3cd37935	0.025814632
14	0x3d541037	0.051773276
15	0xbe3b882e	-0.18313667
16	0x3be7cf08	0.0070742406
17	0xbe50bd8b	-0.20384805
18	0x3abfc5c0	0.0014631078
19	0x3de50588	0.111826956
20	0x3dfcfdd8	0.12353104
21	0x3dd84c10	0.10561383
22	0xbdbd35d4	-0.092387825
23	0x3e933a43	0.28755388
24	0x3e7ff97f	0.24997519
25	0x3ad5af50	0.0016302858
26	0xbd2623d6	-0.04056152
27	0x3d98e1fa	0.074649766
28	0xbe64944e	-0.22322199
29	0xbe5c21f5	-0.21497329
30	0x3db21a3c	0.0869641
31	0x3e8a31a4	0.26990998
32	0x3d933b76	0.07189076
33	0xbd363481	-0.044483665
34	0xbd0d65d4	-0.03452094
35	0x3ddef6a5	0.108868875
36	0x3c22a898	0.009927891
37	0xbd8540bd	-0.065064885
38	0x3c95b4f6	0.018274765
39	0x3da3589e	0.07975887
40	0xbdfd4b1e	-0.12367843
41	0xbd91dc6a	-0.07122119
42	0xbebe3d01	-0.37155917
43	0xbe15df65	-0.14636
44	0x3cc94023	0.024566716
45	0x3d959f6e	0.073057994
46	0xbe1b2b25	-0.15153177
47	0xbe09e894	-0.13467628
48	0xbd82b900	-0.06382942
49	0xbcaea324	-0.021318026
50	0x3e26693c	0.16251081
51	0x3e1d5c7f	0.15367316
52	0x3bd0de10	0.006374128
53	0x3e1d611b	0.15369074
54	0x3dcab83a	0.0989842
55	0x3dd4005b	0.1035163
56	0x3e394a85	0.18094833
57	0x3e204832	0.1565254
58	0xbce00f64	-0.027351089
59	0xbaf793c0	-0.0018888637
60	0x3e02585d	0.1272902
61	0x3dd18e36	0.10232203
62	0xbe2103d8	-0.15724123
63	0xbdacc724	-0.084364206
64	0x3e7af78a	0.24508491
65	0xbc402230	-0.011726901
66	0xbe471eee	-0.19445392
67	0xbd03ca74	-0.032175496
68	0xbe7b4b85	-0.24540527
69	0x3dd4eedb	0.103971206
70	0xbdc6aff5	-0.0970153
71	0xbe4a92f7	-0.19782625
72	0x3cff8f8c	0.031196378
73	0x3cd4caa0	0.025975525
74	0x3e85188d	0.25995293
75	0xbdba771c	-0.091047496
76	0xbe69e742	-0.22842124
77	0xbc911e4d	-0.017714644
78	0xbdd186f6	-0.1023082
79	0xbcddf66e	-0.027095046
80	0xbe83732c	-0.25673807
81	0xbe9e663a	-0.30937368
82	0xbcc85aaa	-0.024457294
83	0x3b322ae0	0.00271862
84	0x3de2be61	0.11071468
85	0xbe2c2e82	-0.16814616
86	0x3e919a1e	0.28437895
87	0xbe521d4b	-0.20518987
88	0x3d656322	0.056002744
89	0x3ba98606	0.0051734475
90	0x3e16778c	0.14694041
91	0x3ea9ed09	0.33188656
92	0xbc3e42fc	-0.01161265
93	0x3e421c98	0.1895622
94	0xbe2ec187	-0.17066012
95	0xbc92a97f	-0.017903088
96	0x3e30a88b	0.17251794
97	0x3dab9c2c	0.08379397
98	0x3e2eac7d	0.17057987
99	0x3bc3eebc	0.005979387
100	0x3cb6a556	0.022295635
101	0xbe44dc56	-0.19224676
102	0xbd6d1111	-0.057877604
103	0x3e03743e	0.12837312
104	0x3e4e810b	0.20166413
105	0xbdb9bd40	-0.090693
106	0xbdf5ad08	-0.11995894
107	0x3d8ffa3e	0.07030152
108	0xbe96f92c	-0.29486978
109	0xbe41c55a	-0.1892294
110	0xbe88e772	-0.2673908
111	0xbe74b6fa	-0.23897925
112	0xbe1ff8ea	-0.15622297
113	0xbca9aa92	-0.020711217
114	0x3d389916	0.04506787
115	0xbb4496e0	-0.0029997155
116	0xbd6d3fd0	-0.057922184
117	0x3d6ee944	0.05832793
118	0xbd8697eb	-0.06571945
119	0x3c8ea35c	0.01741188
120	0xbe5ea430	-0.2174232
121	0xbe078b15	-0.1323665
122	0x3e2c66cc	0.16836089
123	0x3d15a423	0.036533486
124	0x3c81e6d2	0.015857134
125	0x3badfa70	0.0053093955
126	0xbc57243d	-0.0131311985
127	0xbce82d2d	-0.028341854
128	0xbd8cc850	-0.06874144
129	0x3e576a6f	0.21036695
130	0x3d25b89f	0.04045927
131	0xbdc9c4ea	-0.098520115
132	0xbd8cfdc4	-0.068843395
133	0xbe0a5c47	-0.13511764
134	0x3e33d6bd	0.17562385
135	0x3da15c52	0.07878937
136	0x3d313bc9	0.043269906
137	0x3e6139b7	0.21994673
138	0xbd9bbd47	-0.07604461
139	0xbdc695bb	-0.096965276
140	0x3e419df5	0.18907912
141	0x3df58793	0.11988749
142	0xbead9426	-0.3390209
143	0x3e5ac82b	0.2136542
144	0x3d9abd2e	0.075556144
145	0x3e6bfd38	0.23045814
146	0xbd980a0e	-0.07423793
147	0xbdc7d94b	-0.09758242
148	0xbd42fef1	-0.047606412
149	0x3d2f34c8	0.042774945
150	0xbdb2a43b	-0.08722731
151	0xbdeaab54	-0.114584595
152	0x3e72e672	0.2372072
153	0xbe33612c	-0.17517537
154	0x3e0ad0d6	0.13556227
155	0x3bd5cf28	0.006524939
156	0x3e228683	0.15871625
157	0x3c9c7f2e	0.019103613
158	0xbd61ec94	-0.05515726
159	0x3cd760fc	0.026291363
160	0xbe258d01	-0.1616707
161	0x3e98c92a	0.29840976
162	0xbe1c0035	-0.15234454
163	0x3e03c1dd	0.12866922
164	0x3e879249	0.26478794
165	0x3cf0f33e	0.029412862
166	0xbe6d56aa	-0.23177591
167	0xbe2275eb	-0.15865295
168	0x3da222c0	0.07916784
169	0x3d219166	0.039445303
170	0x3cbed25f	0.023293672
171	0x3d457e98	0.048216432
172	0x3e42246f	0.18959211
173	0xbb5f2af8	-0.003405271
174	0x3e8f9e4f	0.28050467
175	0x3e54c822	0.2077947
176	0x3eb98140	0.36231422
177	0x3e58255a	0.21107998
178	0xbc3c671c	-0.011499193
179	0xbda7b804	-0.08189395
180	0x3e0afd88	0.13573277
181	0xbc7f5c9e	-0.0155860465
182	0xbd1fe35c	-0.039035186
183	0x3d57d126	0.052689694
184	0x3ddf5bf3	0.1090621
185	0xbe954094	-0.29150832
186	0x3e7c7c9c	0.2465691
187	0x3dd1e0b8	0.1024794
188	0xbe8206cd	-0.25395814
189	0x3d078f48	0.033095628
190	0xbe472331	-0.19447018
191	0x3cdd22a6	0.02699406
192	0xbd8bde6c	-0.06829533
193	0xbe023667	-0.12716065
194	0xbda92bf5	-0.08260337
195	0xbd0ea1e0	-0.034822345
196	0x3e2e9b54	0.1705144
197	0x3e040f72	0.12896517
198	0x3c83cbc4	0.016088374
199	0x3dcd3d23	0.100214265
200	0x3dbad188	0.09121996
201	0xbd48e911	-0.049050394
202	0x3dd88a06	0.10573201
203	0x3dbd564a	0.09244974
204	0x3cd937e6	0.026515912
205	0x3dfcc2c6	0.123418376
206	0xbe448fbe	-0.19195458
207	0xbc084cd8	-0.008319102
208	0x3dce4733	0.10072174
209	0x3e5659c3	0.20932679
210	0x3e2e7954	0.1703847
211	0x3c788d2a	0.015170375
212	0xbdbed186	-0.09317307
213	0xbddf1de4	-0.10894373
214	0xbe6526a0	-0.22378016
215	0x3e02b059	0.12762584
216	0xbdc04f2b	-0.093901
217	0xbe928c0b	-0.2862247
218	0x3ccea810	0.025226623
219	0xbd1d2f17	-0.038374986
220	0xbe5b58a4	-0.21420532
221	0xbe38a218	-0.18030584
222	0x3d7f331e	0.06230461
223	0xbe50c841	-0.20388891
224	0xbe037616	-0.12838015
225	0xbd816149	-0.06317384
226	0x3e097d21	0.13426639
227	0xbe0c605e	-0.13708636
228	0xbdd2ed82	-0.10299207
229	0xbe0d4c9a	-0.13798752
230	0xbd9deb46	-0.077108905
231	0x3d4096ab	0.04701869
232	0xbdb889e4	-0.090106755
233	0x3cfcef0a	0.030875701
234	0xbe0e75da	-0.13912144
235	0xbcbbda6b	-0.022931298
236	0x3d8728fd	0.06599615
237	0xbc5d1092	-0.01349272
238	0x3e255492	0.16145542
239	0x3e432a0c	0.19059008
240	0x3e604a06	0.21903238
241	0x3d462001	0.048370365
242	0xbc87ed16	-0.016592544
243	0x3d4a16f9	0.049338315
244	0x3dcbb266	0.09946136
245	0xbd49617e	-0.04916524
246	0xbe297445	-0.1654826
247	0xbd9b498c	-0.07582387
248	0x3da3f7b2	0.080062285
249	0xbe03879f	-0.12844704
250	0xbe83df87	-0.25756475
251	0xbcc2c49b	-0.02377539
252	0xbcab84da	-0.020937372
253	0xbb2766a0	-0.0025543347
254	0x3e0960e0	0.13415861
255	0x3e5a29f6	0.2130507

fc2.bias f4 [256]
0	0xbdc84ee2	-0.09780671
1	0xbd785040	-0.060623407
2	0xbc76b4c2	-0.015057744
3	0x3d7019ba	0.058618285
4	0xbe204760	-0.15652227
5	0x3d3c77ee	0.04601281
6	0xbdda7935	-0.1066765
7	0xbcbdab96	-0.023153108
8	0xbd6d5d9c	-0.0579506
9	0xbd6028dc	-0.054726467
10	0x3c7ad64e	0.015309883
11	0x3d6c90a4	0.057755128
12	0xbe68ef04	-0.22747427
13	0xbdf23ac4	-0.11827615
14	0x3cdbf874	0.02685187
15	0x3cfb7863	0.030697053
16	0x3e737a3a	0.23777094
17	0x3df73426	0.120704934
18	0xbda49478	-0.08036131
19	0xbd535548	-0.051595002
20	0xbdd7d087	-0.1053782
21	0x3d898498	0.067147434
22	0xbdb58338	-0.088629186
23	0x3dda802c	0.10668978
24	0xbd1b500b	-0.03791813
25	0xbe9c8404	-0.3056947
26	0xbc07d8ee	-0.008291466
27	0x3d0b9704	0.034079567
28	0xbd959b5c	-0.07305023
29	0x3e70129c	0.23444599
30	0x3d5ba3a2	0.05362285
31	0xbd6b845d	-0.05749928
32	0x3d41263f	0.047155615
33	0xbd7fc54d	-0.06244402
34	0xbdb87f3a	-0.090086415
35	0xbd9e381c	-0.07725546
36	0xbe86c45e	-0.2632169
37	0xbe8d97ac	-0.2765478
38	0xb99de140	-0.00030113198
39	0xbe921621	-0.28532508
40	0x3e9a286f	0.30108973
41	0xbdc78d2b	-0.097437225
42	0xbd925594	-0.07145229
43	0x3e1405d2	0.14455345
44	0xbd81797b	-0.06321999
45	0x3df9581a	0.12175007
46	0xbdb7bb6e	-0.08971296
47	0x3e0b4001	0.13598634
48	0x3e5d10be	0.21588418
49	0x3d2dd609	0.042440448
50	0x3da72fe3	0.081634305
51	0xbc771e50	-0.015082911
52	0xbd97ae30	-0.074062705
53	0xbdd8033b	-0.10547491
54	0xbdb14b15	-0.08656899
55	0xbe239862	-0.15976098
56	0xbe6ac25a	-0.22925702
57	0xbdd03475	-0.101662554
58	0xbe4d9f01	-0.20080186
59	0xbd940ae1	-0.072286375
60	0x3cd74a74	0.02628062
61	0xbb276a9f	-0.002554573
62	0x3c814eb2	0.015784595
63	0x3d0eb0a3	0.034836423
64	0xbc139fce	-0.009010268
65	0xbd01a30a	-0.031649627
66	0xbd3481ef	-0.044069227
67	0x3e631df8	0.22179401
68	0x3c35bdb0	0.011092588
69	0x3c165c02	0.00917721
70	0x3e49c39b	0.19703524
71	0xbe38740d	-0.1801302
72	0x3c425559	0.011861169
73	0x3d01a078	0.031647176
74	0x3e3fd521	0.18733646
75	0xbc8d6ede	-0.01726478
76	0x3db4e139	0.0883202
77	0x3d93c276	0.07214825
78	0xbd8271cb	-0.063693605
79	0xbe0f3c21	-0.13987781
80	0x3e0c1416	0.13679537
81	0xbd8bca76	-0.06825726
82	0x3dac8e00	0.08425522
83	0xbd8023e2	-0.06256844
84	0xbe3f0a2a	-0.18656221
85	0x3cdec08c	0.027191423
86	0xbc892348	-0.016740456
87	0xbd42fe66	-0.047605895
88	0xbbca7fec	-0.0061798003
89	0xbd80762a	-0.06272538
90	0x3e2dc3ae	0.16969177
91	0xbe720f36	-0.23638615
92	0xbd99b156	-0.07504527
93	0x3dbaff6c	0.09130749
94	0x3de33c07	0.11095434
95	0x3db03500	0.08603859
96	0x3e2b88b0	0.16751361
97	0xbc2f5c32	-0.010703133
98	0x3be90bb0	0.007111989
99	0x3e3c137a	0.18366805
100	0xbdfc8c44	-0.12331441
101	0xbd5e1504	-0.05421926
102	0xbde155c0	-0.11002684
103	0x3ed7a34d	0.42116776
104	0x3cdd07f8	0.026981339
105	0x3e3f311d	0.18671079
106	0x3d47bb52	0.048762627
107	0x3df82e58	0.12118214
108	0xbd1c4b24	-0.038157597
109	0xbd4322e6	-0.047640704
110	0xbde93c03	-0.113883995
111	0xbe149b7a	-0.14512435
112	0xbdc2d88e	-0.09513961
113	0x3debd880	0.115159035
114	0xbdc08778	-0.094008386
115	0x3d9a6369	0.07538492
116	0xbd4725f2	-0.04862017
117	0x3c9ef93a	0.01940595
118	0xbeaeeb16	-0.3416373
119	0x3de2c092	0.11071886
120	0x3d4638fa	0.04839418
121	0xbdf34fb8	-0.118804395
122	0xbdda7fb0	-0.10668886
123	0x3dcbf1c2	0.09958221
124	0x3e268012	0.16259792
125	0x3d1651a2	0.036698945
126	0x3db19523	0.08671024
127	0xbe0cdb74	-0.1375559
128	0x3d1c580e	0.038169913
129	0xbe80a588	-0.2512629
130	0x3df393c6	0.1189342
131	0x3da902d0	0.082524896
132	0xbd254b8b	-0.040355247
133	0xbdb5cade	-0.088765845
134	0x3cf7a818	0.03023152
135	0xbd8944e9	-0.06702597
136	0xbdf630eb	-0.12021049
137	0x3e010b45	0.12601955
138	0xb9fe7e00	-0.00048540533
139	0xbd5f8c3b	-0.054577094
140	0x3d50bf4e	0.050963692
141	0x3d429541	0.04750562
142	0x3da2858b	0.079356275
143	0x3dd2ddc0	0.10296202
144	0x3d8f5fd2	0.07000698
145	0x3e48e100	0.1961708
146	0x3e32a1a3	0.17444472
147	0x3db4dea8	0.08831531
148	0x3bf82234	0.0075724367
149	0x3e1be112	0.15222576
150	0x3dbc5851	0.091965325
151	0x3da74d22	0.08169009
152	0x3e25d2af	0.1619365
153	0x3e34e8c1	0.17666914
154	0xbd4c41f2	-0.049867578
155	0x3db94826	0.09046964
156	0xbe2fef78	-0.17181194
157	0x3e366001	0.1781006
158	0x3e0f31d8	0.13983858
159	0xbbb35a98	-0.005473446
160	0xbc5ed47c	-0.013600465
161	0x3e477910	0.19479775
162	0x3e0eb1d1	0.13935019
163	0x3e03aaaa	0.12858072
164	0xbd24f6d1	-0.040274445
165	0xbca23601	-0.019801142
166	0x3decff88	0.11572176
167	0x3dec5893	0.11540332
168	0xbe58d952	-0.21176651
169	0xbd33fdac	-0.043943092
170	0xbbabd230	-0.005243562
171	0x3e2a41c1	0.16626646
172	0xbe1677dc	-0.1469416
173	0x3e6a6c66	0.22892913
174	0x3e9a6c9d	0.3016099
175	0x3c388b00	0.011263609
176	0x3de85852	0.11344971
177	0x3cd729a8	0.02626498
178	0xbeb6005a	-0.35547143
179	0xbe2be3f3	-0.16786174
180	0xbc753988	-0.01496733
181	0x3d871d93	0.06597438
182	0xbe5583ce	-0.20851061
183	0xbda16920	-0.07881379
184	0x3e8261c9	0.2546523
185	0xbd2c0715	-0.04199894
186	0xbdcb3ffb	-0.09924313
187	0x3d1d2010	0.038360655
188	0x3da364b7	0.07978194
189	0x3e8558c0	0.26044273
190	0xbe27a639	-0.16372003
191	0x3d238e5f	0.039930698
192	0x3d84a8fb	0.06477543
193	0x3e9394be	0.2882442
194	0xbd1aa345	-0.037753362
195	0xbc52dae0	-0.012869567
196	0x3e115746	0.14193448
197	0xbcc741aa	-0.024323303
198	0xbd23d4f6	-0.039998017
199	0xbd90d173	-0.07071199
200	0xbe36910c	-0.17828768
201	0x3ddcd126	0.107820794
202	0xbbbd1f60	-0.0057715625
203	0xbd14745c	-0.03624378
204	0xbe29631a	-0.1654171
205	0xbd283d33	-0.04107399
206	0xbdcacd23	-0.09902408
207	0x3e650c0e	0.2236788
208	0xbdf406a9	-0.11915333
209	0xbea813c8	-0.32827592
210	0x3d8873b8	0.066626966
211	0x3d25d73b	0.040488463
212	0x3d1986f7	0.037482228
213	0x3d894136	0.06701891
214	0x3d976c93	0.07393756
215	0xbc74e9e2	-0.01494834
216	0xbe79286d	-0.24331827
217	0xbd2f2783	-0.04276229
218	0x3e4171ac	0.18891019
219	0xbe10bac9	-0.14133753
220	0xbdb64af5	-0.08901016
221	0xbd3e3e32	-0.046446033
222	0x3ed17fdb	0.40917858
223	0xbdd0d832	-0.10197486
224	0x3dae528b	0.085118376
225	0x3ed8ade6	0.42320174
226	0xbda0b1b4	-0.07846394
227	0xbd8c82a4	-0.06860855
228	0x3e15df73	0.1463602
229	0x3d49d626	0.049276493
230	0x3c9cf1a3	0.01915819
231	0xbe9229fa	-0.2854765
232	0x3d515048	0.051101953
233	0x3c977f44	0.018493302
234	0x3e5bb084	0.21454054
235	0x3e9809f2	0.29695088
236	0xbda7e982	-0.08198835
237	0x3d8cb7bf	0.06870984
238	0xbe1560e0	-0.14587736
239	0x3e82c8a6	0.25543708
240	0xbdd007a1	-0.10157705
241	0xbce06726	-0.027392935
242	0x3e9f80b6	0.31152886
243	0x3e1f93cb	0.15583722
244	0x3e14d26d	0.14533396
245	0xbce4335e	-0.027856525
246	0x3dc261ab	0.09491285
247	0xbe96a085	-0.29419342
248	0xbb1f9948	-0.0024352837
249	0x3b9c5ebc	0.0047720354
250	0xbce1cb46	-0.027562749
251	0x3dcb588c	0.09928998
252	0x3a009c00	0.00049060583
253	0xbd3e9b66	-0.04653492
254	0xbe674133	-0.22583465
255	0xbdc4951c	-0.09598753

fc_mu.weight f4 [6, 256]
0	0x3db3a410	0.08771527
1	0xbe919ac0	-0.28438377
2	0xbc3fae54	-0.011699278
3	0xbd68a8bc	-0.056801543
4	0xbd60fb27	-0.054927018
5	0x3e313656	0.17305884
6	0x3e2c73d7	0.16841064
7	0xbcc3d257	-0.023904009
8	0x3e34c273	0.17652301
9	0x3c786a00	0.015161991
10	0xbdc5ea67	-0.09663849
11	0x3dcf325d	0.10117028
12	0x3e620f0a	0.2207605
13	0xbd783afc	-0.060603127
14	0x3e2e7bd6	0.17039427
15	0x3defc4fe	0.11707495
16	0xbe459d22	-0.19298223
17	0x3d835729	0.06413109
18	0x3e6c12c8	0.2305404
19	0xbd8adc6c	-0.067803234
20	0xbe122131	-0.14270474
21	0xbb0e8a46	-0.0021749898
22	0x3de1c02a	0.110229805
23	0xbbbc5e35	-0.005748535
24	0xbd0db110	-0.034592688
25	0xbbd4b66c	-0.006491473
26	0xbe64f584	-0.22359282
27	0x3de5c325	0.112188615
28	0xbe614742	-0.21999839
29	0x3e28ee64	0.16497189
30	0xbe1cadcc	-0.15300673
31	0x3d27750e	0.040883116
32	0xbdf469ac	-0.11934218
33	0x3d42fd7f	0.047605034
34	0x3e53aecd	0.2067215
35	0xbda64af0	-0.08119762
36	0xbd829813	-0.06376662
37	0xbd87f07d	-0.066376664
38	0xbe0d54e2	-0.13801911
39	0x3dffd103	0.12491038
40	0xbdaa108f	-0.083039396
41	0xbdf7adf0	-0.12093723
42	0xbe276498	-0.16346967
43	0x3ecbb552	0.39786774
44	0xbe29c4d4	-0.1657899
45	0x3cb11b14	0.021619357
46	0x3d30e886	0.0431905
47	0xbe63fd1a	-0.2226452
48	0xbdc2810f	-0.09497272
49	0x3d89463d	0.0670285
50	0x3d5b9576	0.053609334
51	0x39ccf600	0.00039093196
52	0xbd24270e	-0.040076308
53	0xbc3eb5c8	-0.01164002
54	0xbe4106af	-0.18850206
55	0xbdfdac8e	-0.12386428
56	0x3e31e160	0.1737113
57	0x3e103b5b	0.14085142
58	0xbe5ba3f5	-0.21449263
59	0x3e75924c	0.23981589
60	0xbc24a362	-0.010048719
61	0x3dc9d65c	0.09855339
62	0x3e85fa8a	0.2616771
63	0xbdcba220	-0.09943032
64	0xbd468b9c	-0.048472986
65	0x3dc3488d	0.09535322
66	0xbd7fc666	-0.062445067
67	0x3e136556	0.14394125
68	0xbdcc8704	-0.0998669
69	0x3cbc676a	0.02299853
70	0xbdb78146	-0.08960204
71	0x3df19b9f	0.117972605
72	0x3ded12e8	0.11575872
73	0x3e8210b1	0.2540336
74	0xbd6530f9	-0.055954907
75	0x3c2305f5	0.009950151
76	0x3e0b3987	0.13596164
77	0x3d9e57fa	0.07731624
78	0x3ef6f3d8	0.48232913
79	0x3d318609	0.043340717
80	0x3d45d620	0.04829991
81	0x3e571c54	0.210069
82	0xbc9cebf9	-0.01915549
83	0x3e2d705d	0.16937394
84	0x3e0437a4	0.1291185
85	0x3c49d968	0.0123199
86	0xbca60973	-0.020268178
87	0xbde7c8ba	-0.113175824
88	0xbdf00783	-0.11720183
89	0xbe77142c	-0.24128789
90	0xbd20a899	-0.039223287
91	0xbe1a42ba	-0.15064517
92	0xbe54eab6	-0.2079266
93	0x3e8a348d	0.26993218
94	0x3eb0d2bf	0.34535787
95	0xbd9f550a	-0.07779892
96	0xbf022620	-0.50839424
97	0x3d85c01b	0.06530782
98	0x3e99f903	0.30072793
99	0xbde08512	-0.10962881
100	0xbd5868fc	-0.052834496
101	0x3c97a400	0.018510818
102	0xbe8b8dad	-0.27256528
103	0xbad9b500	-0.0016609728
104	0xbe3f1414	-0.18660003
105	0x3d3037cd	0.043021966
106	0x3e628b3e	0.22123429
107	0xbab16be0	-0.0013536178
108	0x3e0a1066	0.13482818
109	0xbcf7e890	-0.030262262
110	0xbd3e8da2	-0.04652179
111	0xbd9e77a2	-0.07737662
112	0xbeac9c9c	-0.33713233
113	0x3d2730ac	0.0408179
114	0x3de7fd3c	0.113275975
115	0x3e00a617	0.12563358
116	0x3e5866aa	0.21132913
117	0x3d8569c5	0.065143146
118	0xbe97afd7	-0.29626343
119	0x3ced004c	0.028930806
120	0x3da44e23	0.08022716
121	0xbdcf3f6e	-0.1011952
122	0x3e461b3d	0.19346328
123	0x3d898ae1	0.06715942
124	0x3cf8ab0e	0.030355003
125	0xbe34143c	-0.17585844
126	0xbe8535ad	-0.26017514
127	0xbe74ed9c	-0.23918766
128	0xbe10bf63	-0.14135508
129	0xbd8a7f61	-0.06762577
130	0x3d534260	0.051576972
131	0x3ea697fc	0.3253783
132	0xbb332a70	-0.0027338527
133	0x3b59c7aa	0.0033230581
134	0x3da1fe78	0.07909864
135	0xbd345f55	-0.04403623
136	0xbda70c3c	-0.081566304
137	0x3d80d1d9	0.06290025
138	0xbe891088	-0.26770425
139	0x3dde73b1	0.1086191
140	0x3eab8593	0.33500347
141	0xbdcff294	-0.1015369
142	0xbe9b3ade	-0.3031835
143	0x3c4e9018	0.012607597
144	0x3e240995	0.1601928
145	0xbdb6dade	-0.08928464
146	0xbc2639d0	-0.0101456195
147	0xbd9bf454	-0.07614961
148	0xbe194224	-0.14966637
149	0x3e3260bf	0.17419718
150	0x3d862f8c	0.065520376
151	0xbe130e80	-0.14361
152	0xbd9a03c0	-0.075202465
153	0x3d01103c	0.031509623
154	0xbde1694b	-0.11006411
155	0x3d4c30b8	0.04985115
156	0x3db90516	0.09034173
157	0xbb4eb120	-0.003153868
158	0xbe585751	-0.21127059
159	0xbc330008	-0.0109253
160	0xbe07647b	-0.13221924
161	0x3df3c116	0.119020626
162	0x3d5b9846	0.053612016
163	0xbe11952a	-0.14217058
164	0xbd295fde	-0.04135119
165	0xbdc6a84a	-0.09700067
166	0x3b183410	0.002322439
167	0xbe48bf1e	-0.19604155
168	0xbe9816d1	-0.29704908
169	0x3dd1d928	0.102464974
170	0xbe80c740	-0.25152016
171	0x3e9df134	0.30848086
172	0xbe81de6c	-0.25365007
173	0x3d76795a	0.060174324
174	0x3e26e51c	0.16298336
175	0x3c8cc9bc	0.017186038
176	0xbda459aa	-0.080249146
177	0xbe01c1c2	-0.12671569
178	0x3e09a4f9	0.13441838
179	0x3dadc5bb	0.0848498
180	0x3e4d270b	0.20034425
181	0xbe4c2b03	-0.19938283
182	0x3d3f533f	0.04671025
183	0xbe5e5773	-0.21713047
184	0xbd8f4034	-0.06994668
185	0xbe2e8d1b	-0.17046015
186	0xbd4061b9	-0.046968196
187	0x3bb20a5b	0.0054333634
188	0xbce36b3b	-0.027761092
189	0x3e635940	0.22202015
190	0xbcaf2dc2	-0.021384124
191	0x3b686549	0.0035460761
192	0x3def3514	0.11680046
193	0x3d0ed3bc	0.034869894
194	0xbde06f91	-0.109587796
195	0x3e9467ba	0.28985387
196	0x3e3eb617	0.1862415
197	0xbeaeb9a4	-0.34126008
198	0x3e29c403	0.16578679
199	0xbe8f35a2	-0.27970606
200	0x3e3668b9	0.17813386
201	0x3e99574a	0.2994941
202	0xbde27798	-0.11057967
203	0x3e45c43c	0.19313139
204	0xbe55c4e6	-0.20875892
205	0x3ea8d4e2	0.32974917
206	0x3d811f56	0.06304805
207	0xbe53fc3a	-0.20701686
208	0x3e62b5a0	0.22139597
209	0x3d27c5ba	0.04096005
210	0x3ccfce20	0.025366843
211	0xbc48ab5a	-0.012247885
212	0x3e2a1205	0.16608436
213	0x3a4003f0	0.00073248055
214	0xbde932c9	-0.113866396
215	0x3d5c375c	0.053763732
216	0x3c3c8f1d	0.01150873
217	0x3e9344e8	0.2876351
218	0x3e2915c3	0.16512208
219	0xb9838640	-0.0002508629
220	0x3e95ba6f	0.292438
221	0xbdf5f57e	-0.120097145
222	0x3e1614ed	0.1465642
223	0xbc806598	-0.015673444
224	0x3d4b6e95	0.049666006
225	0xbd7bc390	-0.0614658
226	0x3d27e18c	0.040986583
227	0x3d795f18	0.060881704
228	0x3c5723d0	0.013131097
229	0x3d062756	0.032752357
230	0xbda33ad4	-0.07970205
231	0xbd1f717f	-0.038926598
232	0x3dc01f08	0.09380919
233	0xbd8f5f99	-0.07000656
234	0x3d0ecb02	0.034861572
235	0xbd526220	-0.05136311
236	0x3d5a63e6	0.053317927
237	0xbd1e2d4a	-0.03861741
238	0xbda880e3	-0.08227708
239	0x3e89b1da	0.26893502
240	0xbdfa2727	-0.12214499
241	0xbeae713c	-0.34070766
242	0xbcd7da54	-0.026349224
243	0x3d9ae7f0	0.0756377
244	0xbc6b0b18	-0.014345907
245	0xbde82ab8	-0.11336273
246	0x3e0e5e60	0.13903189
247	0x3e575665	0.2102905
248	0xbccfbfe2	-0.025360052
249	0xbdf17ec2	-0.11791755
250	0x3e82b538	0.25528884
251	0x3e538bf2	0.20658854
252	0xbe3b9a06	-0.18320474
253	0x3c9e07df	0.019290863
254	0x3e314b0d	0.17313786
255	0x3bfa25e4	0.0076339114

fc_mu.bias f4 [6]
0	0xbd8d117a	-0.06888099
1	0xbe2b8159	-0.16748561
2	0xbd3e012c	-0.046387836
3	0x3d894f0e	0.067045316
4	0x3da4a3f7	0.08039086
5	0x3bd24c28	0.00641777
