ga_weights/ga2/HalfCheetah-v5/TD3/weights7.pt (torch, 290657 bytes, 6 tensors)

fc1.weight f4 [256, 17]
00000000: 38c1 363e e69a 4bbf 66e7 893f af72 703f
00000010: 1ac4 213f a84e 31bf b6f0 2f3f ad75 39bf
00000020: 5155 99bd 2a94 6e3f c6f4 aebe c560 223f
00000030: 8af8 5a3f f635 9d3f c17e 503f 63e0 5f3f
00000040: c60c 8f3f 4aa6 66bf 7dc6 be3f 70a5 913f
00000050: 68ad 3ebf 5fad 9ebf e202 2bbe 869b a2be
00000060: 2e4f ebbd e264 bd3e 8d22 d2bf 245f 333f
00000070: 3876 e63e 0cc9 b03e e4dc 5ebe 0311 943f
00000080: edb2 3ebf 8593 68bf 214e 67be 561c c6be
00000090: 05ba a8bf 3113 dfbe 0632 8cbf 29f6 993e
000000a0: e2f5 cf3e 4e93 7cbe f3a0 42bf 2ffc 0a3e
000000b0: afc8 06bf 56b3 963e fda8 14bf 4797 e7be
000000c0: 147f 28bd 2ed6 42bf 99fa 7b3f 993c aa3e
000000d0: 2b60 a33e 024b 413e 3fd0 08bf 4a99 3c3f
000000e0: 243e 38bf 7cc6 923d 18fc d9be 1a74 5cbf
000000f0: f033 bf3b f444 46bf 26cb 1a3e 20ab b9be
00000100: 6f02 7cbf b1b8 7b3f fa5c 65bf 14bb a8be
00000110: 8625 023e 4312 cb3f f820 17bf 90e0 26c0
00000120: 6d49 a93d 15b7 873f 1c83 123f dc7d 21bf
00000130: 8e2a 393f 9a83 b4be 5df1 80bf ed31 683d
00000140: d47b 2cbf d570 443f 1817 573d 1e58 60bd
00000150: 3ed8 b73e 5cdb 27bf 6a7c f5be 49b0 90be
00000160: 2320 a5bd c8f6 1ebf 3b8d 2abf 8971 5dbf
00000170: 355f 6f3f cda4 963f 58ad de3d 529a 08be
00000180: c70c 5f3f 58ef 793f c230 1fbe 5859 12bd
00000190: 38a2 763f 4fad debd 3044 d63d 3276 c3bd
000001a0: b20c 4dbf 4e65 84bf cdce d43e 1c03 26be
000001b0: 8867 f43e 9762 0e3d 9319 903f 7ec3 99bc
000001c0: 724b debe e318 0f3e bc33 e23e cdd0 753d
000001d0: cf99 6ebf 3e02 95bf 1273 7bbf ec28 ad3f
000001e0: babf cf3e a3bc 29bf 0659 c5be 18f2 e2be
000001f0: 1876 753f da07 51bf bc25 7dbe a89a 9dbd
00000200: a0ec edbe b42a 383e 2a43 aa3f 9e64 543f
00000210: 44c9 e93c b0c7 a43e a25d 11bf 3095 b0bf
00000220: 692c cabe 5ed1 1b3e 00cd ccbe 0960 713f
00000230: b290 69bd 155b de3e a610 a7bf b5bf 603f
00000240: 6dd5 9ebf a2e8 693f d7da b4bf 47d1 b83d
00000250: 24e4 92bc b256 473f 0528 963f d2a6 6ebf
00000260: 5ef2 b93d 6cf4 2d3f c9dd debf 8fd4 c83e
00000270: 87ff 9abe e351 7c3e 7a24 42bf 81cf 92be
00000280: cbbf 9c3e 921e 953f 9acb 013f ac19 18bf
00000290: 963f 783d cbee db3e 143d bdbf 1a1e 10bf
000002a0: 9a3e f5bf d83c b13e 7292 403f b017 1dbf
000002b0: be2d c2bd d991 6dbf ae3d 89bf cf7f 61bf
000002c0: 0244 a4bf 1528 0a3f c1d7 423f 5e10 4dbe
000002d0: eaa0 4a3e 5be2 6ebf 54a1 243e 96a0 a53f
000002e0: dc8e 14be 1ff7 253e c2a9 453f 7815 233e
000002f0: 88e1 8f3f 89ca 173f 98aa 233e 8cfa 9b3f
00000300: 7b84 093f 44ae 5fbe 6a7b 8bbf d048 8ebd
00000310: 9039 353f 2b82 95bf cceb 84be ae01 a53f
00000320: 5a94 b33e 95c8 033e c8c4 02bf 1006 5ebc
00000330: d45c 533e bb6a a93f 7a67 6d3e 306f a8bd
00000340: f619 153e f684 f8be e83c 903e fc14 5ebf
00000350: 8e56 09bf eadc b53f 452b 05be caa4 86bf
00000360: 72e4 2dbe 47d1 14bf 93ab e93e 0d0c 88bf
00000370: 7c20 a4bf f32b 39bf e1e7 1d3d de5b aebd
00000380: bb70 d23e 6a9f b93e 5a12 debf 8e1b 30bf
00000390: 7d91 1d3f 0eb1 843f 1498 e53d 7870 3b3d
000003a0: e367 263f 3889 3ebf 878d 24bf aa66 4abf
000003b0: 92ba dbbf afb5 aabe 27a3 34bf 0f08 e2be
000003c0: 1105 cebe 43a4 f7be 6aab a9bf 27b5 c3bf
000003d0: 1931 cbbd 00d4 613e 07b4 92be 86ad bd3e
000003e0: d025 b73f c5f1 a33e 5a21 21be a033 113f
000003f0: e0a6 27bf 4c6c 8dbf fcc9 69bf b0d7 48bf
0.17847145 -0.7953323 1.0773742 0.93924993 0.6318985 -0.69260645 0.6872667 -0.72445184
-0.07486976 0.9319483 -0.34171122 0.6342891 0.8553549 1.2282093 0.8144341 0.8745176
1.1175773 -0.90097487 1.4904324 1.1378613 -0.74483347 -1.2396659 -0.16700318 -0.3175928
-0.11489712 0.3699103 -1.6416794 0.7006705 0.4501207 0.34528387 -0.2176395 1.1567692
-0.7449177 -0.90850097 -0.22588398 -0.38693494 -1.3181769 -0.4356933 -1.0952766 0.30070618
0.4061728 -0.24665567 -0.7602684 0.13572763 -0.5264997 0.29433697 -0.58070356 -0.45232603
-0.041136816 -0.7610806 0.98429257 0.33249357 0.31909308 0.1887627 -0.5344276 0.736714
-0.7196982 0.07166764 -0.42575145 -0.86114657 0.005835049 -0.77448964 0.15116557 -0.3626337
-0.98441213 0.9832869 -0.89594996 -0.3295523 0.12709627 1.5864948 -0.5903468 -2.6074562
0.08265958 1.0602747 0.5723131 -0.6308267 0.7233056 -0.35256654 -1.0073658 0.056688238
-0.67376447 0.7673467 0.05251226 -0.054771535 0.35907167 -0.6556909 -0.47946483 -0.28259495
-0.0806277 -0.6209531 -0.6662175 -0.86501366 0.9350465 1.1769043 0.108729064 -0.13340119
0.8712887 0.97630835 -0.15545943 -0.035729736 0.96341276 -0.108729 0.104622245 -0.09544028
-0.80097497 -1.0343416 0.41564026 -0.16212124 0.47735238 0.03476199 1.1257805 -0.018769976
-0.43416935 0.13974337 0.44180095 0.06001358 -0.93203443 -1.1641309 -0.9822246 1.3528113
0.40575963 -0.6630346 -0.38544482 -0.44325328 0.9588332 -0.81652606 -0.24721426 -0.07695514
-0.46469593 0.1798504 1.3301747 0.8296603 0.028538354 0.321836 -0.567835 -1.3795528
-0.39487007 0.15216586 -0.40000153 0.94287163 -0.057022758 0.43428865 -1.3051956 0.8779252
-1.2408882 0.91370595 -1.4129285 0.090242915 -0.017931052 0.7786666 1.1730963 -0.932233
0.09079431 0.67951083 -1.7411433 0.3922467 -0.30273077 0.24640612 -0.7583691 -0.28673938
0.30615076 1.1649954 0.50701296 -0.5941417 0.060607515 0.42955622 -1.4784265 -0.5629593
-1.915973 0.34616733 0.7522346 -0.6136427 -0.09481381 -0.9280067 -1.0721948 -0.88085645
-1.2833254 0.5396741 0.76110464 -0.20025775 0.19787946 -0.9331414 0.16077167 1.2939632
-0.14507622 0.1620755 0.77212155 0.15926158 1.1240702 0.5929342 0.15983045 1.2185836
0.53717774 -0.21843821 -1.0897038 -0.06947482 0.7079096 -1.1680349 -0.2596115 1.2891138
0.3507412 0.12869485 -0.51081514 -0.01355125 0.2064088 1.3235697 0.23184004 -0.08224332
0.14560685 -0.4853894 0.28171468 -0.8675077 -0.53647697 1.4208043 -0.13004787 -1.051904
-0.16981676 -0.5813183 0.45638713 -1.0628678 -1.2822413 -0.72332686 0.038551215 -0.08513616
0.41101632 0.36254436 -1.734935 -0.68792045 0.6155012 1.0366533 0.11210647 0.045761555
0.6500227 -0.7442813 -0.64278454 -0.790629 -1.7166312 -0.3334174 -0.7056145 -0.44146773
-0.4023824 -0.4836751 -1.3255436 -1.5289658 -0.09921474 0.22053528 -0.28652975 0.3704645
1.4308414 0.32020393 -0.15735379 0.567194 -0.65489006 -1.1048675 -0.9132383 -0.78454113

fc1.bias f4 [256]
00000000: d079 99bf 3919 1e3f d5ec 10be 5079 f23e
00000010: 2cef 013d 8bc7 f53e d463 0c3e b443 48bf
00000020: 7045 9c3e fd4c debe 7f4c 51be 582e 2dbe
00000030: 170b 2abf c413 803e 10d5 8a3e 8453 3e3e
00000040: 8bfe 9a3e 284b 4c3e 5ef7 353f 3454 6b3f
00000050: 0c80 b6be 8439 bb3e f7e8 073f 525e 85be
00000060: 7bc9 f5be 801b a43e 89bd 58bf 8cc1 95bf
00000070: eba0 bf3e 8db8 9abf 60ed f5bb dbc1 b93e
00000080: 528f 423d 75aa e83e 513d 8ebf d378 0ebe
00000090: 0fc5 e83d dce3 113d 1eed 85be c39e 7a3f
000000a0: ee12 3a3f 5158 10bf 6217 79bf 282c 383f
000000b0: 920e a13f ece1 dabe e7ab 353e 555d bc3d
000000c0: b82d 9cbf 7a6c ae3f 40e0 cb3e a152 13c0
000000d0: 7f55 d4bd 08fa 97bc b4f0 73be 7260 8e3d
000000e0: 32e1 393e c1b8 553f 60c7 c9be ddb3 0340
000000f0: 0119 47bf de0a 343f 0c45 303d b853 1a3e
00000100: 1ebc 6ebe 0cd3 51bf 0072 3938 5351 0a3f
00000110: f0f9 20bd cdb0 cf3e 883f 4abf e26e 0abf
00000120: 6c8e 57be 6899 853f 0307 2fbf 6cdc f3bd
00000130: 40b1 363d a967 353f 8552 ec3e 7ad8 4fbe
00000140: 7419 00bd f4e0 ccbc 2ed7 8ebf 318c 543e
00000150: 3c99 443f e6cb 7cbf f489 1abf d650 213f
00000160: e47a e93f decb 98be 3a30 86be ef21 1fbf
00000170: 80af 893e d9e7 02be 5e2d 4c3e 73b2 febf
00000180: 9a4c 9e3e d275 30bf f6bb 2c3f cdc1 bbbe
00000190: 5418 9dbe 11f4 a93f 8df2 e33e 9fa0 05bf
000001a0: 6674 b93e 05e1 9c3f 2f85 33bf 040d 6d3f
000001b0: c049 3c3d a2a7 80be 0e88 10bf 4c90 6dbf
000001c0: e9f4 6d3f ea03 933f faa2 c1bf 262f b2bd
000001d0: a973 6a3f 6c12 243e b5a9 9bbe e85e 483d
000001e0: 150a b1bd 6523 b0be 6c55 2a3f e64c ffbe
000001f0: a15a a8be 0e8f 46bf fe38 973e 7445 3c3f
00000200: ab47 d9be f61f 523d 0d22 13bf b5f9 d2be
00000210: 3122 07bf 83b3 fc3e 3169 3bbf 445f d3bd
00000220: 8201 60bf 34b1 d93e e9b8 85be f70e 333f
00000230: bcd6 8c3f d9e7 063f e284 c0bf 0c1a b83f
00000240: 7c04 2cbf 6a4f 89bf 37ef 25be 4dff 7e3f
00000250: 76c6 2f3d 074e 3dbf baca bf3e a6cd 98bf
00000260: f909 6a3f 0445 93be fc33 203f 1be9 d0be
00000270: 2b3e a13e bccb 54bf 0e9d 1cbf 618c 6cbf
00000280: 7da7 bfbe 8447 48bf d47f 753f 5557 8b3f
00000290: b63b 373f 4a8e 4c3f 1655 343f aa33 a4be
000002a0: 1ec3 623f f10b e03e f642 e9be 40a6 413e
000002b0: 405b bebe a734 d7bf f066 e23e 32c4 8dbe
000002c0: 7835 7abe bc05 253e 6a2d 903f 821c 6fbf
000002d0: 8a30 ec3e 60bd 433f ae07 67bd c1ac a9bf
000002e0: 1452 903f 61b5 6cbf 67bc d8be 95a5 c63d
000002f0: bcc3 54bf 1955 2b3f c6d0 a2be a908 edbd
00000300: 0002 5f3f 2bdc 013f bae3 89be 41ff bb3f
00000310: a686 443e 34cd 01bd 32a0 05bf a45b 01bf
00000320: 0343 5e3f c27d 0cbf 1ca2 9c3e 9339 87be
00000330: 2045 06bf 12c2 2b3f 64a7 60bf b920 bbbe
00000340: 48a1 87be b8f5 6f3f 311c 963e c1e1 afbe
00000350: d739 20be 2a40 ba3e 4a7e 59bf 1768 acbe
00000360: 76be 5ebe 18a2 4cbe c55f 99be c0ef cf3e
00000370: 5630 04be ff7c 1cbe 2862 9dbc 6b87 29bf
00000380: a50b ebbe 9e16 683f a4c3 0dbf 5404 633e
00000390: 717e 25be 2302 87bd 7402 5c3e 6bdc 99bf
000003a0: 7965 0c3e 421f 8abf cf8e d03e 78f3 473f
000003b0: dd8f 2abf 39a7 6f3f 70fa 1bbf 36af 1e3f
000003c0: 9480 d13d 86c4 13bf e598 9d3f 6cd7 423f
000003d0: 63dc 9a3f be8d 07bf ca51 393f c56f 163e
000003e0: 784a ae3d c417 d43e 1759 9bbd 1df2 873e
000003f0: 8879 ff3d e6b6 16bf 9112 4ebf 7f55 8dbf
-1.1990299 0.61757237 -0.14152844 0.4735818 0.031722233 0.48003802 0.13709956 -0.78228307
0.30521727 -0.43418112 -0.20439337 -0.1691221 -0.6642317 0.2501508 0.2711568 0.18586546
0.30272326 0.19950545 0.7108058 0.9192536 -0.35644567 0.36567318 0.5308985 -0.26048523
-0.4800528 0.3205223 -0.8466421 -1.1699691 0.37427458 -1.208757 -0.007505104 0.36280712
0.047499962 0.45442548 -1.1112462 -0.13913278 0.11365711 0.035617694 -0.2615747 0.978985
0.72685134 -0.5638476 -0.97301304 0.7194238 1.2582572 -0.4275049 0.17741357 0.09197489
-1.2201452 1.3626854 0.39819527 -2.3019183 -0.103678696 -0.018551841 -0.2382229 0.06951989
0.18152311 0.8348504 -0.39409924 2.057853 -0.7777253 0.7032908 0.0430346 0.15070999
-0.23313949 -0.81962657 4.4213608e-05 0.5403034 -0.03930086 0.40564576 -0.7900319 -0.54075444
-0.21050423 1.0437441 -0.68370074 -0.119072765 0.044602633 0.708613 0.46156707 -0.20297423
-0.031274274 -0.02500961 -1.1159418 0.20756604 0.7679632 -0.98748624 -0.6036675 0.6301397
1.8240628 -0.29843038 -0.2620867 -0.62161154 0.26891708 -0.12783755 0.19939181 -1.9898208
0.30917817 -0.6892978 0.67474306 -0.36671296 -0.30682623 1.3277608 0.4452099 -0.52198213
0.36221617 1.225617 -0.701251 0.92597985 0.04596877 -0.25127894 -0.564576 -0.92798305
0.9295183 1.148557 -1.5127861 -0.08700399 0.91582733 0.16022652 -0.30402914 0.048918635
-0.08644501 -0.34402004 0.66536593 -0.49863356 -0.32881644 -0.77562034 0.2953567 0.7354348
-0.4243749 0.05130001 -0.5747383 -0.41206136 -0.52786547 0.49355707 -0.73207384 -0.10320905
-0.875023 0.42518008 -0.26117638 0.6994471 1.1003032 0.5269752 -1.5040553 1.4382949
-0.6719434 -1.072736 -0.16204534 0.9960831 0.042913876 -0.73947185 0.37459356 -1.1937759
0.9142147 -0.28763592 0.6257932 -0.40802845 0.31492743 -0.83123374 -0.61177146 -0.924017
-0.3743247 -0.78234124 0.95898175 1.0886027 0.71575487 0.79904616 0.7044233 -0.32070667
0.88578975 0.4375911 -0.455589 0.18911076 -0.37178993 -1.6812943 0.4421916 -0.27688748
-0.24434459 0.16115469 1.1263859 -0.93402874 0.46130782 0.7646084 -0.05640381 -1.3255845
1.1275048 -0.9246426 -0.4233124 0.09699551 -0.83111167 0.66926724 -0.31799906 -0.115739174
0.87112427 0.50726575 -0.26931554 1.4687272 0.1919199 -0.031689838 -0.52197564 -0.5053046
0.86821 -0.5487939 0.3059243 -0.26411113 -0.52449226 0.67093 -0.8775542 -0.36548403
-0.26490235 0.9373431 0.29318383 -0.34351924 -0.15647064 0.36377078 -0.84958327 -0.33673164
-0.21752343 -0.19983709 -0.2995588 0.40612602 -0.12909064 -0.15282057 -0.019211844 -0.66222256
-0.45907322 0.9065951 -0.5537665 0.2216962 -0.16161515 -0.065922044 0.21485311 -1.2020391
0.13710584 -1.0790789 0.40733954 0.7810588 -0.6662577 0.93614537 -0.6092901 0.619861
0.102296025 -0.57721746 1.2312285 0.7610996 1.2098507 -0.52950656 0.72390425 0.14691074
0.085102975 0.41424382 -0.07585352 0.26551905 0.12474352 -0.5887283 -0.8049708 -1.1041716

fc2.weight f4 [256, 256]
00000000: e069 f6be 4f64 a63e ac48 a13e ea0a 133f
00000010: 406c b73e f0eb aebe e91e ae3e bae7 f93e
00000020: e16c 4a3e cbe1 163f 0e33 7fbe c32f 1abf
00000030: 3d38 26be c8e6 8f3d d07e 9f3c 5e61 9fbf
00000040: 9e09 103f c919 b3bf 7597 2dbf 62be 9d3d
00000050: 46c9 0f3e b9a9 273f 5c9d 1bbd cacf 6d3e
00000060: 456b 9bbe bac6 b2bf 42ad d83f 18e9 6e3f
00000070: 2a6c 643f 43ec 41bf 5312 5abc f056 47be
00000080: a35b b3be 0463 7dbd 608d 5bbd 954f acbf
00000090: e00f a03e 9aeb 90bf 9561 70bf 43e9 ac3f
000000a0: a3fb 423f 171b 04bd 2c52 333d 54f6 b4bf
000000b0: 72d5 31bf 26c7 233e 8e62 90be cea2 773e
000000c0: b769 97bf 55d2 0dbd f797 dcbe 61da a1bf
000000d0: b0c1 71bf 578f 943d 6013 28bd 9940 6dbf
000000e0: e828 c23c aa7a 67bf 9344 d53e 94ac 743d
000000f0: ce7e 95bf e03d a5bf 7ebf 8bbf 00ab acbf
00000100: 2869 13bf 0cb5 983f 6045 46be 7229 21bf
00000110: 2055 c3be 4074 ffb9 4f59 98bf 5e68 64bf
00000120: 630f 81be 9c78 13be a4f2 c3bf 5820 80bf
00000130: 36cf dabd 992d 413f 0a27 0c40 e66a 22bf
00000140: 8c3e 91be c81e 3dbf 552c 96be f673 a9be
00000150: fdeb bf3e 7a87 dabe 17cb 0f3f 2076 ca3f
00000160: bd40 f43e 0025 963f 3015 ef3c 6206 b1bf
00000170: 0aed 373e ca5f 85be a011 7a3e 6b4d 90bf
00000180: d4a7 663f 7e87 abbe 0aa4 903e 64e7 b0be
00000190: c555 c13f d1d5 283f 7d66 d13d ce81 6b3d
000001a0: 2688 59be b2dc a53f ab66 993f 485f e9be
000001b0: b560 05bf 2d23 3fbe a0c8 c73e 57db 07bf
000001c0: 24f6 d7be 9e73 2f3f 2acf db3e 5fda 81bf
000001d0: 896e 6fbf 58e9 4ebf 80de 4439 60b5 8cbd
000001e0: 3c1a cabe 1f49 d33f 7083 f23c c5bf 58bf
000001f0: ceef 02bf b8e8 6bbf 500c e1bd 8804 773e
00000200: 416f 4fbd 82a9 7fbe e754 bbbe 036a 8bbf
00000210: 4a39 aebe 9d3d 90bd de68 503e ad1d 453f
00000220: 31b6 17bf bc6a 0ebe 8584 cbbe 5e37 453f
00000230: 22cf 09be 3b9e cb3f 14a6 45bf 21cc 2ebf
00000240: 3012 99bf 738f f13f 1a85 76bd 9e27 6f3d
00000250: 1720 3ebf bb16 55bf 802c a7be e723 52bf
00000260: 504d 6b3f 8cd0 293f 7e02 c63f b192 92bf
00000270: d35b 85bf f02f 553d f70f 2e3f 8446 4fbe
00000280: 7195 24bf d4ed 8f3e 9c5a c3be ecb3 04be
00000290: b159 353f cee5 29bd 7416 f73d 7a0e 473f
000002a0: 77cc 743f d088 94bf c6ae 9f3e 86d5 80bf
000002b0: 524c 863e b22a 803f f07f 8f3f b129 74bf
000002c0: db05 e13d 14cf 0f3e 584a 103f 29b0 10bf
000002d0: 57ed 273f c707 363f 387f 03bf a5ee b73d
000002e0: 74f6 443f 93a1 bebf f247 443f bf8b 243f
000002f0: c3df 4cbf f885 963f d546 973f edc2 b73e
00000300: 4415 0c3f 1471 ad3f ce6b 48bf 2eb6 3a3d
00000310: f215 b0be 997c 783f 2ab7 5f3e 902a 16bf
00000320: b292 30bf 9b0d bb3e 08cd 6cbe be12 223f
00000330: 3b5c afbe 44c9 fabe 8210 3fbf 3a4b d83d
00000340: 3abc cebe 9b61 ee3e 3465 a2bf 0fdd 31bf
00000350: 9697 7d3e 4b12 11be 1337 9ebf 9aeb 753e
00000360: 739f 183f 5265 7e3d 1cb9 333f 192d 19bf
00000370: 0254 6ebe c0f6 48bf d062 97bf 2e59 d43e
00000380: e3e3 6c3f d495 9dbd fa8a 873f 16b8 df3f
00000390: 162e e43d def9 7e3e 870b 543f b676 7ebf
000003a0: 3ece a13f 5985 4abf a214 bd3f a8a1 073f
000003b0: f61b 80bf 5841 1f3d c02a e13f 0a13 aa3f
000003c0: 5b46 c3bf 0418 b2be f470 28bf 9ee5 183f
000003d0: 3dcd 09bf 2fa6 133f bc9b efbe 8c40 54bf
000003e0: 4e18 a5bf 980e 6a3f 6878 a2bd b288 8cbf
000003f0: 143c abbf 969b 1c3d 0dc1 8abf 9412 4f3e
-0.4812765 0.32498404 0.31500757 0.5743853 0.35824776 -0.3416438 0.34007958 0.48809606
0.19768097 0.5893828 -0.2492182 -0.6022913 -0.1623239 0.0702644 0.019469649 -1.2451589
0.56264675 -1.3992244 -0.6780923 0.07702328 0.14041623 0.6549335 -0.037991866 0.23223796
-0.30355278 -1.3966897 1.6927874 0.9332442 0.89227545 -0.7575113 -0.013310033 -0.19466758
-0.3503085 -0.061862007 -0.053601623 -1.3461787 0.31262112 -1.13219 -0.938989 1.3508686
0.7616522 -0.032252397 0.043779537 -1.4137673 -0.69466317 0.15993938 -0.2820019 0.24183199
-1.1829137 -0.034624416 -0.4308469 -1.2644769 -0.9443617 0.072539024 -0.041034102 -0.92676693
0.023701146 -0.90421546 0.4165388 0.059734896 -1.1679323 -1.2909508 -1.0917814 -1.3489685
-0.5758233 1.1930251 -0.19362402 -0.62953866 -0.38150883 -0.00048724003 -1.1902255 -0.8922175
-0.25207052 -0.14401478 -1.5308423 -1.000987 -0.106840536 0.754602 2.1898828 -0.63444364
-0.28368032 -0.73875093 -0.29330698 -0.33096284 0.37484732 -0.42681485 0.56169266 1.5817299
0.4770564 1.1730042 0.029184908 -1.3830073 0.17961517 -0.26049644 0.24420786 -1.1273626
0.90099835 -0.3350181 0.28250152 -0.34551537 1.51043 0.6595126 0.10224626 0.05749684
-0.21243343 1.2957976 1.1984457 -0.45580506 -0.5210069 -0.18665762 0.39020252 -0.5306906
-0.42179978 0.6853579 0.4293149 -1.0144767 -0.9352804 -0.80824804 0.00018774904 -0.06870532
-0.3947314 1.650669 0.02960369 -0.8466762 -0.5114716 -0.92151976 -0.109886765 0.24122822
-0.05064321 -0.24967006 -0.36588213 -1.0891727 -0.34028083 -0.07043002 0.20352504 0.76998407
-0.5926238 -0.13907903 -0.39749542 0.7703761 -0.13457921 1.5907663 -0.7720654 -0.68280226
-1.1958675 1.8871902 -0.06018553 0.05838739 -0.74267715 -0.8323781 -0.32651138 -0.8208603
0.91914845 0.6633384 1.546951 -1.1451017 -1.0418648 0.05204767 0.6799311 -0.20241743
-0.6429053 0.28111136 -0.38155067 -0.1295926 0.70839983 -0.041478924 0.120648295 0.77756464
0.9562449 -1.1604252 0.3118803 -1.0065162 0.26230103 1.001303 1.1210918 -0.95376116
0.10987445 0.14043838 0.5636344 -0.565188 0.65596527 0.7110562 -0.51365995 0.08981065
0.7693856 -1.4893059 0.7667228 0.64275736 -0.80028933 1.1759634 1.1818491 0.35890904
0.5471995 1.3550134 -0.78289497 0.045583896 -0.34391743 0.9706512 0.21847215 -0.58658695
-0.6897384 0.36533818 -0.23125088 0.6330985 -0.34250054 -0.48981678 -0.74634564 0.10561223
-0.4037798 0.46558842 -1.2687135 -0.69477934 0.24764857 -0.14167134 -1.2360557 0.24015656
0.596183 0.062108345 0.7020433 -0.5983444 -0.23274234 -0.7850151 -1.182703 0.4147429
0.9253523 -0.07694593 1.0589287 1.7478054 0.11141603 0.24900004 0.8283009 -0.9939989
1.2641065 -0.7910972 1.4771922 0.5298104 -1.0008533 0.038880676 1.7591171 1.328706
-1.5255846 -0.34783947 -0.6579735 0.5972537 -0.53828794 0.5767545 -0.46798503 -0.8291099
-1.2898042 0.9142852 -0.07933122 -1.0979216 -1.3377709 0.038234316 -1.0840164 0.2022193

fc2.bias f4 [256]
00000000: a242 213f a1a4 f13e 7936 d7bd 4fa8 9dbe
00000010: cf37 d8be f70e 413f beb8 8fbf 5c43 82bf
00000020: 80ff 05bb 0e4e 7abf 235c e5be a446 a8bd
00000030: 27a9 bdbf 1812 e5bd ceb7 07be c7b5 58bf
00000040: b1be 63be a647 35be 6c44 543e 1cce 463e
00000050: 15a9 823f 2ebc ebbe 9836 403f 1513 b6be
00000060: 8e84 3c3f 1adc dbbd 003d 413f 9cd6 25be
00000070: f0a9 87bf b312 d0be 8c7a 40be 4c5f 0a3e
00000080: 688d 6cbe 3a0c b3be c9db 0bbf e83f b9be
00000090: dbed 073f fdf6 d83e 34fa 833e 7feb a93e
000000a0: 2414 0240 3c66 1b3e fe1f 063f ac3c 7abe
000000b0: 40a2 d63e b9be b2be cd43 b63e a3c9 babe
000000c0: efb2 ab3f 463a 39bf 398b cdbe 93a9 b33e
000000d0: 7ba8 823f ab7c 0b3f e62a 81be f617 75bf
000000e0: a314 89bf 865d 5cbd 13e9 b13d 6f07 b8be
000000f0: efba 703f 9adc a13f f0b9 adbd c041 2c3d
00000100: ca38 293f d6bc d2be 7011 453d 9ce0 babe
00000110: 41bb 7abe 1c8d d1bd b205 cdbe fee8 dd3e
00000120: 7114 a73f 2794 16be a8d4 643f 8d96 54bf
00000130: 7c55 34bf 594a 153f c611 593f 87de 8d3f
00000140: 1633 f9be 9646 6ebf 101a b3bf 8785 d93e
00000150: c26d 97bf 8079 94bc 8668 a73e b98e 6fbe
00000160: cec0 753f fb20 693e d290 c83e 4ac7 013f
00000170: e825 cf3e a271 a23e 4567 93be efeb 803e
00000180: 98f4 febe fff6 a53f d7e4 d2bd a223 ad3e
00000190: bd11 45bf 38e4 503f 5dc5 6fbf 1435 4b3e
000001a0: 26b8 d0bd d261 23bf 0094 40bc ddf3 873f
000001b0: 9813 013e ab25 64bf fab2 ddbf 719d 2d3f
000001c0: 2a0e 79bf d450 29be c239 fb3e 29e6 95be
000001d0: 06e7 ccbe c4f9 0bbf 4439 90be dde9 ccbe
000001e0: 8e00 68bf 2a7d 313f 1e4a b0bd 0bbf cb3d
000001f0: ac61 23bf 6cb8 a8bd 3f8f 833e a8bc ad3b
00000200: dc16 433e c928 093f 8c63 e63e 9c6b c93e
00000210: 8b92 363e bff9 8fbf 9844 10be 928d ec3d
00000220: 2269 53bf 007b 71bf e8a5 ee3e f547 9f3f
00000230: de51 b73e b302 3abe c168 e8be d6e3 b03f
00000240: fbb2 953e aa92 dc3e 0ee5 a7be 784c 3abf
00000250: 63e4 273f 2c61 49bf 2c81 95be 06e7 89be
00000260: 3a26 8bbf 7ee9 2bbe 3a73 a5bf 0c15 963f
00000270: 0ecf af3e e325 fc3e c794 223f 4138 22bd
00000280: e000 e33d 0108 3dbf 61c3 e23f bdbd 5e3e
00000290: f40c 6abf 20fd 3abf dc6a 873f f770 463f
000002a0: dd46 a3bf 26bb 8e3f 4d90 233f a496 643e
000002b0: 00cc 5039 d8af 723f cec0 173e ba51 d53d
000002c0: f444 233e 0e22 ea3e dc9e c83f c583 7cbf
000002d0: a7d9 3cbe 766c 8c3e 3018 97be 69e9 673e
000002e0: d8f7 0a3f 7128 b33e 1829 5cbf 84d4 c83d
000002f0: 54f4 a53e bdad 043f f504 3e3f ec34 83bf
00000300: f31f bebd 1d93 aa3e d97d 7c3e 10c0 cfbd
00000310: 3284 2cbd e057 96bf b179 36bf f017 82be
00000320: e82e 4d3f 78f0 a4bd 35c4 223f da46 e4bd
00000330: e817 c2be 4e72 94be 604d 6c3f 91fc cebe
00000340: 20b5 72bf 833d c6bf 7593 4dbf cd38 83bd
00000350: 7e5c 06bf fc95 2c3f 8de4 7a3f bcd0 df3e
00000360: 2e81 153f 6353 27bf d7ec 26bf 3c25 50bf
00000370: 8ec3 3fbf 6ef2 993f abe7 d63e 7a35 bdbe
00000380: 0c1e 743e f8dc 9f3f 0008 eb38 20dd 0d3f
00000390: 0e45 cc3e e8f2 50bf 180f 3abf d9be 86bf
000003a0: 7a3e 47bf 5ec1 aa3e 4eb7 393d c2e2 60bf
000003b0: f9e6 773f 0755 9f3f 4778 893d cb51 1e3e
000003c0: 5d5b 4d3e cd17 e4bd 5c3a 853e 3e8d c73d
000003d0: 9673 b0be 29e6 833f b849 473d b0f2 0cbd
000003e0: 3d1c 413f b7f9 03c0 3f6b c63d db70 a23f
000003f0: c83a 263f 4548 40be 215c 0abf 4ab8 e73d
0.629923 0.47195914 -0.10508437 -0.30792472 -0.4223008 0.7541346 -1.1228254 -1.0176806
-0.002044648 -0.9777535 -0.44796857 -0.08216599 -1.4817246 -0.11185092 -0.1325371 -0.8465237
-0.22240712 -0.17703113 0.20729226 0.19414562 1.020785 -0.46042007 0.75083303 -0.35561433
0.7363976 -0.107353404 0.75483704 -0.16195148 -1.0598736 -0.40639266 -0.18796748 0.13512915
-0.23100817 -0.34970266 -0.5463224 -0.3618157 0.53097314 0.42375937 0.25776827 0.33187482
2.0324793 0.15175718 0.52392566 -0.24437207 0.41920662 -0.34911135 0.35598603 -0.36481962
1.3413981 -0.72354543 -0.4014528 0.35090312 1.0207666 0.54487103 -0.2522804 -0.95739686
-1.0709423 -0.05380013 0.086870335 -0.3594317 0.9403524 1.2645447 -0.084827304 0.04205489
0.6610228 -0.41159695 0.048112333 -0.36499488 -0.24485494 -0.102319926 -0.40043408 0.4334182
1.3053113 -0.14704953 0.8938699 -0.8304222 -0.7044294 0.5831657 0.84792745 1.1083535
-0.48671788 -0.93076456 -1.3992329 0.42484686 -1.183037 -0.018124342 0.32696933 -0.23394288
0.9599732 0.22766487 0.3917299 0.50694716 0.40458608 0.3172732 -0.28789726 0.25180003
-0.49795985 1.2966002 -0.10297554 0.33816248 -0.7698019 0.81598234 -0.9366053 0.19844466
-0.101913735 -0.63821137 -0.011754036 1.0621296 0.1260513 -0.89119977 -1.7320244 0.6781836
-0.9728724 -0.1653474 0.49067503 -0.2927716 -0.40020007 -0.5467799 -0.2816869 -0.40022174
-0.90625846 0.6933161 -0.08607887 0.09948548 -0.6382091 -0.08238301 0.25695226 0.0053020306
0.19051689 0.5357786 0.44997823 0.39339912 0.17829339 -1.1248091 -0.14088666 0.1155044
-0.82582295 -0.9432831 0.4661095 1.2443835 0.35804647 -0.18165092 -0.4539242 1.381953
0.29238114 0.43080646 -0.32791942 -0.7277293 0.65582865 -0.786639 -0.29200113 -0.2693407
-1.0871041 -0.16788289 -1.2925789 1.1725173 0.34337658 0.49247655 0.63508266 -0.03960443
0.11084151 -0.7384034 1.7715875 0.21752067 -0.91426015 -0.7304249 1.0579486 0.7751612
-1.2756001 1.1150863 0.6389206 0.2232309 0.00019912422 0.94799566 0.14819643 0.10415979
0.15944272 0.45729107 1.567348 -0.98638564 -0.18442403 0.274265 -0.2951064 0.22647633
0.5428443 0.34991792 -0.86000204 0.09806159 0.3241297 0.51827604 0.74226314 -1.0250525
-0.092834376 0.33315364 0.24657382 -0.10144055 -0.04211826 -1.1745567 -0.71279436 -0.25408888
0.801497 -0.08053678 0.6358064 -0.11146326 -0.37908864 -0.28993458 0.92305565 -0.40427068
-0.94807625 -1.5487522 -0.80303127 -0.06407318 -0.5248488 0.6741636 0.9800499 0.4371394
0.5840024 -0.65361613 -0.6520514 -0.81306815 -0.7490777 1.2027109 0.41973624 -0.36954862
0.23839587 1.2489309 0.00011207163 0.55415535 0.39896435 -0.81620646 -0.7267928 -1.0526992
-0.77829707 0.33350652 0.04534083 -0.87846005 0.9683681 1.2447823 0.06712394 0.15460889
0.20054384 -0.11137352 0.26021087 0.09743737 -0.34463185 1.0304614 0.048654288 -0.034411132
0.75433713 -2.0621164 0.09688424 1.2690691 0.64933443 -0.18777569 -0.5404683 0.11314447

fc_mu.weight f4 [6, 256]
00000000: b028 23bd fffd e5be 550b 3c3e 47f9 dd3e
00000010: b04b 50bd 3aaf d4be 4ca1 ebbe 8692 30be
00000020: 80ec 31bf 37eb a33f 4bd0 dbbe 3ec9 f23e
00000030: 427a 41be 87a0 713f d944 ac3f 85ce 2c3f
00000040: 4233 66be 1cbb 5cbe 7853 72be fc59 41bf
00000050: 1ff0 273f 71ff 803f f6d0 fabd b310 1ebf
00000060: b644 ec3f f7f1 803d aa58 cbbf 29c8 143e
00000070: 7e85 b7bf d4ab c83d a678 c93d 2aa5 30bf
00000080: 8d24 ee3e e202 c23e e208 bebe f9fe 883f
00000090: c95c bebf 19ba a8be d4df 15bf 6cc1 263f
000000a0: 5e06 cabe 1ca8 1bbe c6b1 e3bd c451 85bf
000000b0: bbd9 a0bf b1c0 33be 3fb0 3f3f b0c1 963e
000000c0: 6af3 0bbf f098 e6be b10c a53e aa3e 8bbe
000000d0: 2df6 933f 9cd5 353f fdec d9be 72ab 0dbf
000000e0: f088 953d 8c94 75be ee01 05bf 9789 133f
000000f0: 1a86 b13f f0b9 223e 9625 59bf cc8a 843e
00000100: f52d ffbe ab14 0abf a7f1 b0bd 01f0 113f
00000110: 52ca a6be d59d 713e 7559 723d b87a aa3e
00000120: 0b0f 0bbf 1ec9 cfbf b1e4 313d 87ea 833f
00000130: 424d 643e 48b4 d63d 33b5 d73d 560c 85bf
00000140: ead2 1fbf 9cb3 a13e 9d9c 0fbf 8980 3b3f
00000150: f473 7d3f 97d2 2f3e 3b45 c5be 2042 c8be
00000160: dc06 f8be 7d20 c0be cf0f 25bf 120c dc3e
00000170: cefc 3f3f aed8 7abe 002b 07bd ba7f 813f
00000180: 1ab7 30be 8a93 ecbe 00ed 1c3e 0621 b33e
00000190: db6e 973f f6a0 5ebf eef1 82bc 26d3 40bf
000001a0: 2797 e73f d242 8bbd ba49 9dbe 64d6 2f3f
000001b0: 4ada 74be 8b20 163f 3132 273f 4569 40bf
000001c0: 7dec 753d 2f56 0abf b1b3 6d3f e2a7 5d3f
000001d0: 0d1b de3e 3a8a 993c a499 813f 5601 333c
000001e0: 2d96 c7be d57c cf3d 00f8 9cb8 9c78 9a3e
000001f0: 05f2 0d3f ac80 81be 1b49 aabf 5134 8ebe
00000200: 9f0a 6c3f 87a7 c73e 26b9 983f 82d0 15bf
00000210: 2a76 85be 8bb6 dd3e 633c 98bd dd53 743f
00000220: dee8 94bd de74 a2bd 40bf 4e3e 86dc a4be
00000230: c803 b1be 0ed2 11bf 9a9b efbe a995 1abe
00000240: 7d7a 00bf 43f3 18be 90c9 773d 849c 3abf
00000250: fddc 15bf 5720 59bd 3e0d 393f 6cdc c63e
00000260: 0c5a c8bd 71cd 3d3f 51f0 4d3e a0e3 61bf
00000270: 327b 66be 407a efbe 0639 d7be af8f 8fbf
00000280: 2e8b 0c3f 7d4a 063e 4c13 bebd 57c0 5b3e
00000290: 9ac9 86bf d08e 8cbc ef72 d9bf a5f3 1ebf
000002a0: e6b6 1c3f c66f 763e 3fd8 f7be f032 6dbe
000002b0: 2baa 713f 53cf 47bf 1736 b13e 5950 89bf
000002c0: c53e a4be b610 85be 280f 073f 2f79 eebe
000002d0: 4d78 00be d210 d2be 0cbc 0abf 504d 143f
000002e0: ff72 543f 92e7 3c3d dd6b 763f 5227 f3be
000002f0: bf01 e7be ff6a e3be 50b4 1cbf 1e2b 59be
00000300: e2ea bcbe fe80 8abe 17da d43f d0e7 cd3e
00000310: 242c 603f 1e23 e83e 7c02 06bf 2cfb a03d
00000320: 3c94 9d3e d25e f1be 5ae3 d83e a204 c8bf
00000330: 47a8 4ebf 326a bbbe 33fd 8dbf 1049 4dbf
00000340: ed21 803f 466c be3e 688e 963f a9db c53f
00000350: f01a 093e cb37 fc3e ef6e 84bf eadc a8be
00000360: f486 4bbf f4fb 7bbf f2d6 de3d af3a 843e
00000370: a0f7 503f ad1d c1be e5d8 a7bf 5100 8d3d
00000380: 4af9 c5be 3196 eebd 2631 b33e 4b65 ad3e
00000390: e574 87bf feea ccbf bf27 4d3f 60fb 393f
000003a0: 6484 893f 0364 13bf d477 40bf d8e6 e43e
000003b0: 0a20 173f 7839 183e 2e5a 0ebf 1531 ad3e
000003c0: b4e7 7e3f 89a4 dbbe c410 97be 4e1e 27bf
000003d0: 081c 9dbe 0a99 96bf bc11 02bf 80dd 003f
000003e0: a868 4b3e 96a5 66be 6b52 1e3f 28d4 6f3f
000003f0: 2773 903e 6ac9 123f 603b d2be cef2 013f
-0.039833724 -0.44920346 0.18363698 0.43354246 -0.05085343 -0.41539937 -0.46021497 -0.17243394
-0.69501495 1.2806157 -0.42932352 0.4741916 -0.18894294 0.9438557 1.3458511 0.67502624
-0.22480491 -0.21555752 -0.23664653 -0.7552793 0.6560077 1.0077955 -0.122468874 -0.6174423
1.8458469 0.06296151 -1.5886433 0.1452948 -1.4337614 0.097983986 0.09837465 -0.6900202
0.4651226 0.37892824 -0.37116152 1.0702811 -1.4872066 -0.3295448 -0.5854466 0.6513889
-0.39457983 -0.15200847 -0.11117892 -1.0415578 -1.2566446 -0.17553975 0.74878305 0.29444647
-0.54668295 -0.45038557 0.32236245 -0.27196246 1.1559502 0.7102907 -0.4256362 -0.5533973
0.073015094 -0.23982447 -0.5195607 0.5763182 1.386905 0.15891242 -0.84822977 0.25887144
-0.4983975 -0.53937787 -0.086398415 0.5700684 -0.32576233 0.23595364 0.059167344 0.33296752
-0.5431983 -1.6233251 0.043430988 1.0305947 0.22295097 0.10483605 0.10532608 -1.039439
-0.62431204 0.31582344 -0.5609835 0.73243004 0.99005055 0.17170177 -0.3852938 -0.3911295
-0.48442733 -0.37524787 -0.64477247 0.4297796 0.74995124 -0.24496719 -0.032999992 1.0117104
-0.17257348 -0.46206313 0.15324783 0.34986132 1.1830705 -0.86964357 -0.015984502 -0.75322187
1.8093003 -0.06799854 -0.3072031 0.6868651 -0.23911396 0.58643407 0.6531096 -0.7516063
0.060039986 -0.54037756 0.9285231 0.86584294 0.43380013 0.01874267 1.0125012 0.0109256115
-0.38981763 0.10131232 -7.484853e-05 0.30170143 0.5544742 -0.2529348 -1.330356 -0.2777429
0.92203707 0.38995 1.1931503 -0.5852128 -0.26066715 0.43303332 -0.07433393 0.95440465
-0.072709784 -0.07932447 0.20190144 -0.32199496 -0.34573197 -0.56961143 -0.46798402 -0.15096153
-0.501869 -0.14936547 0.06049496 -0.72895074 -0.58540326 -0.053009357 0.7228583 0.38840044
-0.097828 0.74141604 0.20111205 -0.88237953 -0.22507933 -0.46772957 -0.42035693 -1.1215724
0.5489987 0.13114353 -0.09281024 0.2146009 -1.0530274 -0.017157942 -1.69882 -0.6209052
0.6121658 0.24066076 -0.4840717 -0.23163962 0.9440028 -0.78050727 0.3461158 -1.0727645
-0.3207914 -0.25989312 0.527575 -0.4657683 -0.12545891 -0.41028458 -0.54193187 0.5793047
0.8298797 0.04611928 0.96258336 -0.47490937 -0.4511852 -0.4441757 -0.61212635 -0.21207854
-0.3689795 -0.27051538 1.6629056 0.4021592 0.87567353 0.45339292 -0.5234754 0.07860407
0.30777156 -0.47142655 0.42360955 -1.5626414 -0.8072552 -0.36604458 -1.1092895 -0.8018961
1.0010353 0.3719198 1.1762209 1.545766 0.13389182 0.49261317 -1.0346354 -0.32981044
-0.795028 -0.98431325 0.10880841 0.25826022 0.81627846 -0.37717953 -1.3113066 0.06884826
-0.38666755 -0.116497405 0.34998435 0.33866343 -1.0582548 -1.6009214 0.8013877 0.7264919
1.0743527 -0.5757448 -0.75182843 0.4470737 0.5903326 0.14865673 -0.55606353 0.3382651
0.995723 -0.42898968 -0.2950498 -0.65280616 -0.3068545 -1.1765454 -0.5080831 0.5033798
0.19864142 -0.22524104 0.6184451 0.936831 0.28212854 0.57338583 -0.41060925 0.50761116

fc_mu.bias f4 [6]
00000000: 2fda 05bf 8035 0eb9 4529 df3f 83b1 003f
00000010: a6f0 993e 3bf3 08bf
-0.52286047 -0.00013562106 1.743447 0.5027086 0.30066413 -0.5349614
