ga_weights/ga2/HalfCheetah-v5/TD3/weights9.pt (torch, 290657 bytes, 6 tensors)

fc1.weight f4 [256, 17]
00000000: c72f 863e 83c1 f23e f804 203f 98d5 86bc
00000010: e404 57bf d69a 51be 9671 d4be d37b 903e
00000020: ce49 113e 38b1 82bf 4818 4b3e 2e24 de3e
00000030: d9cf 17bf 8bf6 3d3f 5312 c93e d4d7 153f
00000040: 727d 743f c29d d9be f93d b93e a41c f1bc
00000050: f9fd 13be 9139 0b3f 2f36 8a3f 951d 09bf
00000060: 0e1a fabe fb71 243e 23cf a43e fc75 cb3d
00000070: 793c d1be c413 c03e a3b8 99be d1b8 903e
00000080: ecfc 343f 9070 0ebe 9e69 03bf 7374 433e
00000090: 9344 0dbf 8968 91bf fad6 093d fc2f d5bd
000000a0: 1a1e 6abd 5a0a 383f 6e2c f1be 1554 253f
000000b0: 5994 32bf 8ddf 493e 491f debe 75f4 5a3f
000000c0: c062 0dbc c4e3 85bf 64d7 cf3e 2637 1e3d
000000d0: 6f4a 06bf 06d5 5f3f 0f26 cdbe d298 3e3f
000000e0: 4ae6 26bf a44e 68bd 1709 283f e194 47be
000000f0: 22ed f0bc 4250 d13e b8f6 c93e 3861 e43e
00000100: 91b8 a5be be21 32bf 44b2 4cbd 1b5f debe
00000110: 3897 a0be c0d6 923e f07e a83f e81f 9a3e
00000120: 2d23 53bf 483b c1bd a0f8 adbe d940 17bf
00000130: f03f 42be 3d7d 9abe b428 5fbf bcc3 333f
00000140: 415e 323f 84ec b33e 3c2d 813f 3c7c 2b3e
00000150: b26d e2be 1587 5c3f e56d 0fbe 2ff1 983e
00000160: 0f16 f33e 9162 0bbf 38ad 353f 2c0d 00bf
00000170: c278 40be 2aa8 093d c20f 2e3f 5979 75bf
00000180: 7ea5 edbe 6a41 3f3f 7384 b03e 0bcd 973e
00000190: 4779 35be 4da3 823f 124a 843d 15f7 c63e
000001a0: 0777 2bbe 18cd da3e 7250 12bf 4ec4 403e
000001b0: c301 e13e ba3c f13e 2528 803f 7ead 593e
000001c0: d437 b33e c90d 79be 0aa8 d03d efe9 b0be
000001d0: c4c6 90bd 901e 49bf 88dc 94be 8ec6 003e
000001e0: 9975 2f3e dc20 a0be 88d0 ddbe b39f 14bf
000001f0: 36d4 39bf 5824 cc3c 70be 9abf 450c 75bd
00000200: f3ce 51bf 2c8f 7e3f afdf ba3d 665a 9cbe
00000210: e878 a3bc 907a 063f 14f6 e3bd 5385 8fbe
00000220: ca1e 0ebf cc6d eebd 4deb 243e 3298 163f
00000230: 8e57 833e e4f5 473e fe30 35be 5d2a b63f
00000240: 3e8c 3bbd 55b2 f6be 3618 06be a404 64bf
00000250: a89d d4be 99c9 493f 2171 43bf ed09 ed3e
00000260: e175 d3be 9787 3bbf 9db7 273f ce50 0c3f
00000270: 7dff ad3e 1fb8 30bf 91e9 92bf de29 13bf
00000280: 5c71 babe 33b8 c3bd d397 1dbf fa1d dc3e
00000290: f705 273f c28b aabe 94a9 58bf ab55 0c3d
000002a0: 268e 36bf e7f0 ba3e c3ca 96be 246f 333e
000002b0: c480 283e b64b 9cbd cdc9 cf3d 3834 ce3e
000002c0: 3bba 16bf 96cd 733e be4c 4f3f e832 7dbe
000002d0: c0d3 f53e ff27 a0be cd32 8abf b656 1a3f
000002e0: 8358 54be c4a4 55bd 5ac2 983e 0a69 7bbe
000002f0: 8452 8fbe 1867 c1be 0f72 443f e6c2 d93e
00000300: 9232 6ebe 8ef2 48be 74ae c3be a012 6bbf
00000310: 4809 89bf a0c8 a6bb c892 ea3e f0f7 75bf
00000320: 2c4a c3bd dcc2 25bd 658b 07bd 9e0f 883d
00000330: 0aaa 16bf 1078 8fbe f6cc 613e 01ac b7be
00000340: 2655 0d3d 43d9 f1be 7c00 d93d 2083 98bb
00000350: 2fa4 a63e b028 1dbf 721a 4fbf dee9 f23e
00000360: 965f a1be 51c8 823f 9474 f13e 3384 de3e
00000370: 50de 163f 4b6e f13c 4b98 693f b48d e43d
00000380: 0f05 6c3f d494 28bd dffe 96be 888e 823c
00000390: 9ca5 84bd fefe cd3d 6124 653f 5f9b 413e
000003a0: cd0e 77be 7821 94bf 38c4 f03d f4c5 3dbe
000003b0: fa98 63be 8ebc 4f3e f42a b03e 6919 c13e
000003c0: b819 8a3e 98ca a3bf 5a38 0ebe b807 1d3e
000003d0: f28d 293f f72e d03d 129a a03e 520d e03d
000003e0: 236d 073f 6be6 003f 6520 c03e a23e 933e
000003f0: 4841 4e3f 1cdf 533f 9085 3fbe 5b78 ab3e
0.26208326 0.47413263 0.6250758 -0.016459271 -0.8399184 -0.20469221 -0.4149291 0.2821947
0.1418831 -1.0210333 0.19833481 0.43386978 -0.59301525 0.7420432 0.39271793 0.5853245
0.95503914 -0.42503172 0.36180094 -0.029432602 -0.14452352 0.54384714 1.0797786 -0.53560764
-0.48848003 0.16059105 0.32189283 0.09934613 -0.4086645 0.3751508 -0.3002368 0.28266004
0.7069843 -0.13910127 -0.51333034 0.1908739 -0.5518276 -1.1360027 0.033652283 -0.10409543
-0.057157613 0.71890795 -0.4710421 0.64581424 -0.6975761 0.19714184 -0.43383244 0.8552926
-0.008629501 -1.0460134 0.40594018 0.038626812 -0.52457327 0.8743442 -0.400681 0.74451935
-0.65195143 -0.056715623 0.6563887 -0.19490387 -0.029409949 0.40881544 0.39446044 0.44605422
-0.32367375 -0.69582736 -0.049974695 -0.43431935 -0.3136537 0.28679466 1.3163738 0.30102468
-0.8247555 -0.09435135 -0.33978748 -0.59083325 -0.18969703 -0.30173674 -0.87171483 0.7022054
0.6967507 0.35141385 1.009193 0.1674661 -0.44224316 0.8614362 -0.14006765 0.29871508
0.47477767 -0.54447275 0.70967436 -0.500201 -0.18796065 0.03360764 0.67992795 -0.95888287
-0.46415323 0.7470919 0.3447605 0.29648623 -0.17722045 1.0206085 0.0645944 0.38860384
-0.16744624 0.427346 -0.57154 0.18824884 0.43946657 0.47116643 1.0012251 0.21257588
0.3500353 -0.24321665 0.10188301 -0.34553477 -0.070691615 -0.7856226 -0.29074502 0.12575743
0.17134704 -0.3127507 -0.4332316 -0.5805618 -0.72589433 0.024919674 -1.2089367 -0.059826154
-0.81956404 0.9943721 0.091246955 -0.3053772 -0.019955114 0.52530766 -0.1113092 -0.28031406
-0.5551573 -0.11642036 0.16105385 0.5882598 0.25652736 0.19527394 -0.1769447 1.4231678
-0.045788042 -0.48182932 -0.13095173 -0.8906958 -0.41526532 0.7882324 -0.76344496 0.46296635
-0.41300872 -0.7325377 0.65514547 0.548108 0.33983985 -0.69030946 -1.1477529 -0.5748576
-0.3641461 -0.095566176 -0.6155979 0.4299162 0.65243477 -0.33309752 -0.84633756 0.034261387
-0.7131065 0.3651192 -0.2945157 0.17522866 0.1645537 -0.07631628 0.10145912 0.40274215
-0.58877915 0.23808894 0.80976474 -0.2472645 0.48013115 -0.31280515 -1.0796753 0.6028856
-0.2073689 -0.052159086 0.29835778 -0.24551788 -0.27992642 -0.37773967 0.7673654 0.42531508
-0.23261479 -0.19623777 -0.38219035 -0.91825294 -1.0705957 -0.0050898343 0.4581511 -0.9608145
-0.095356315 -0.040469036 -0.03309192 0.06643604 -0.5885321 -0.28021288 0.22050843 -0.35873416
0.034505032 -0.4723607 0.105957955 -0.004654303 0.32547137 -0.6139021 -0.8089973 0.47444052
-0.3151824 1.0217382 0.47159255 0.43460235 0.5893297 0.029471537 0.91248006 0.1115984
0.9219522 -0.04115756 -0.29491326 0.015937105 -0.064769 0.100584015 0.89508635 0.18906926
-0.2412674 -1.1572714 0.11756176 -0.18532544 -0.22226325 0.20286772 0.3440777 0.377147
0.26972747 -1.2796202 -0.13888684 0.15334976 0.66232216 0.10165208 0.31367546 0.10940041
0.52900904 0.5035159 0.37524715 0.28758723 0.8056836 0.8276231 -0.18703294 0.3349026

fc1.bias f4 [256]
00000000: 162e 643f de4a 94be 507a cdbe 8458 b9be
00000010: c5ba f13e 9600 9dbe 4050 8fbd ac68 60be
00000020: 2651 7ebe f670 3c3f 8620 fd3e c021 8bbe
00000030: 811d ac3e e616 c73e 9e5d e83e 412c 8e3f
00000040: b7d8 603e 3901 cdbe 803a e73b efb1 7b3f
00000050: 4ca0 0bbe b003 4abf 6af8 8bbe a9a4 83bd
00000060: ced2 b4be 81de 43bf 888a 573e c782 e83e
00000070: 2137 86bf c20a 0b3f cbd5 99bf 95ea a1be
00000080: f41d b43e dd1b 803e a865 d63e f877 94bf
00000090: a494 d43f a358 ad3d 4cdc 3c3f f24f d6bd
000000a0: d4c8 f43e b655 1bbe 6862 b2be 52d9 4b3c
000000b0: 35b4 483f 86ab 0e3f e4d1 993d a498 103e
000000c0: 466b 12be 4ca8 f7be 02af 2b3e 36f7 18bf
000000d0: 9e5a a83e a6bd 44bf 602f b2be c8ef 773f
000000e0: 4b94 cd3f ad3d 45bf edc8 7f3f 08dc 233e
000000f0: eb61 6abd eb3f adbf c5fe ec3e ea44 5ebe
00000100: 075b ae3e 6cb8 cc3d 8ab7 7f3f 598d 0d3f
00000110: c016 9d3d bb08 7fbf 1434 35bf 7e34 713f
00000120: 6157 713d 7ac0 db3e a12f f93e bc4b 4cbf
00000130: ec25 663e a7eb 82be da35 0ebe a22c 713f
00000140: 86cb 76be aa4e 58bf e8d3 863c d74d f03d
00000150: 7168 2ebf 13ca 5ebe 3b24 2ebf 7721 6e3e
00000160: d9ed 69bf c2f5 70bf cf12 9a3f 97f9 9c3e
00000170: b269 a13f 9a9e 163e 235c a9bf 8f36 47bf
00000180: 5d8e d23e 1ef1 9fbb 965d 2abf f4a9 0ebe
00000190: 842c 03be d3e1 b5be d5d1 72bf 25e3 10bf
000001a0: 51f3 01bf a38b 243e 8f27 99be 0266 7cbf
000001b0: b730 033f e8c4 803d f2ee 04bf 909a 24be
000001c0: 003d 05bd 4090 c2be 56d1 de3d 4160 9d3e
000001d0: cbe9 82bf 75f6 eebe 71d3 cd3e a8c2 133e
000001e0: bc03 b53e c6da 01bf aaab aabf 18d5 5fbf
000001f0: aced 2cbf 0a1a a0bd 5147 8ebe 54c3 e8bd
00000200: 20c4 1dbf 0129 54bf 7780 b4bf 101f 05be
00000210: abeb f63e 006f 6abe 45b2 4b3f e341 0cbf
00000220: 7b09 333f d4b6 63bf 756a 1dbf 06d2 cd3e
00000230: 37cd 5dbf 2ccf f73e 50c4 53be 7a1b 29be
00000240: d6e8 2cbf 9a0d 13bf 102c 703f e8f3 033d
00000250: 17c2 a83e 6456 203e 22cc 0cbf a9bf 8f3f
00000260: 325a 2bbf 54c9 733e fda3 b0bd 385a 873d
00000270: a6f8 bf3d 3ffd 55bf ac2d 253e fb38 d2bd
00000280: 4272 c23f bfef b4be ffcd 63bf bd2c 96be
00000290: 6388 f73e 64e0 0f3d b306 c93d 5e03 0b3f
000002a0: 34b5 94be 5862 89be 0e0a 353d 04f0 e53c
000002b0: 1461 713e ce92 ad3d dada eb3e c4d6 df3e
000002c0: ce88 91be 1b2a 18bf bbe0 1ebf d733 503f
000002d0: ca0d b83e fc70 10bf ce82 6dbe ec5a 103f
000002e0: cfc5 1cbe 3430 913f e010 3e3d c8a2 4ebc
000002f0: f4d5 da3e 0443 003d 1aac cc3e 3c05 af3e
00000300: d273 0abf 28cf b93d 62e4 87be 0021 24b9
00000310: f2a3 233f c22a 973f c856 40be 28f8 fc3d
00000320: a299 1fbe 0aa5 8cbe bd43 8fbe 1291 9a3f
00000330: a20b 02bf 3c8b fb3c 6a17 6b3e 608e 813f
00000340: 9577 07bf f8a8 fc3e 3a88 e43e aace 5f3d
00000350: 149d fdbe 6023 0dbe 0dae 333e 6c64 8fbf
00000360: 7522 4d3f eab6 953d af96 283e 570c ae3f
00000370: 3685 38bf cb4a 6bbe 8d9c 5ebf 8c9a 16bc
00000380: f8cc 2cbe f97f 88bf af1b ff3e 7276 2ebe
00000390: 6714 fabd 43bd f8be 7beb 0b3f b0fb 51bf
000003a0: 37c2 59bf faa5 0e3d bd82 edbe 6d19 b53e
000003b0: 6888 f0be 40a7 35bc da49 6e3e 15da c5bd
000003c0: 30cc eb3e 8a13 063f 16d5 513e 889e 82bd
000003d0: fccf 4cbe e210 233f 9702 fa3e 9504 0e3e
000003e0: e5ee 3abf 6439 d2be 39f8 52bf 80af b1ba
000003f0: 24fa d43e 3c34 9d3e d7a8 cbbe 11c5 f13e
0.8913282 -0.2896337 -0.4013238 -0.36200345 0.47212806 -0.3066451 -0.06997728 -0.21914929
-0.24835643 0.73609865 0.49438876 -0.27174187 0.3361626 0.38884658 0.45383924 1.1107255
0.2195767 -0.40039995 0.0070565343 0.9831838 -0.13635367 -0.78911877 -0.27337962 -0.06427891
-0.3531708 -0.7651139 0.21048939 0.45412275 -1.0485574 0.5431329 -1.201837 -0.31624284
0.35179102 0.25021258 0.41874433 -1.1599112 1.6607862 0.08464172 0.73773646 -0.10464467
0.4780947 -0.15169415 -0.34840703 0.01244195 0.78399974 0.55730474 0.075107366 0.14120728
-0.14298734 -0.48370588 0.16765979 -0.59752214 0.32881635 -0.7685188 -0.3480177 0.9685025
1.606088 -0.77047235 0.99915963 0.16001904 -0.057222288 -1.3535131 0.46288124 -0.21705976
0.34053823 0.09996113 0.99889433 0.55293804 0.07670355 -0.99622697 -0.7078259 0.9422072
0.05892122 0.42920285 0.4866915 -0.7980306 0.22475404 -0.25570413 -0.1388773 0.9420873
-0.24101076 -0.8449503 0.016458467 0.11733597 -0.68128115 -0.21756773 -0.68024033 0.23254953
-0.9137855 -0.94124997 1.203699 0.30659172 1.2610381 0.14708939 -1.3231243 -0.77817625
0.4112424 -0.0048810383 -0.6654905 -0.1393202 -0.1280995 -0.35523853 -0.9485143 -0.56596595
-0.50761896 0.16068892 -0.29912993 -0.9859315 0.5124621 0.06287557 -0.519271 -0.16074586
-0.032528877 -0.3800068 0.108797714 0.30737498 -1.0227598 -0.46672407 0.4020038 0.14429724
0.35354412 -0.50724447 -1.3333638 -0.8743453 -0.6755016 -0.078174666 -0.27788785 -0.11365381
-0.6162739 -0.82875067 -1.4101704 -0.1300013 0.48226675 -0.22893906 0.7956889 -0.54788035
0.6993634 -0.8895085 -0.61490566 0.40199298 -0.8664126 0.48400247 -0.20680356 -0.16514388
-0.6754278 -0.5744263 0.93817234 0.03221503 0.3296058 0.15657955 -0.5499898 1.1230365
-0.669345 0.2380727 -0.08625028 0.06609005 0.09373598 -0.8358955 0.16130704 -0.102647744
1.5191119 -0.35339162 -0.889862 -0.29331008 0.48346242 0.035126105 0.09815731 0.5430201
-0.29044497 -0.26832843 0.044199042 0.02806855 0.23572189 0.084752664 0.46065408 0.4371854
-0.28424686 -0.5943925 -0.6206166 0.813291 0.3594802 -0.564224 -0.2319443 0.56388736
-0.15309833 1.1342835 0.046402812 -0.012612052 0.42741358 0.03131391 0.39975053 0.3418368
-0.5408298 0.09072715 -0.2654143 -0.00015652552 0.63922036 1.1809924 -0.18783104 0.123520195
-0.1558595 -0.27469665 -0.27981368 1.2075522 -0.50799 0.03070604 0.2295815 1.0121574
-0.5291684 0.49347663 0.44635183 0.05464045 -0.49533904 -0.13783026 0.17546864 -1.1202521
0.801307 0.07310279 0.16463731 1.3597516 -0.72078264 -0.2297775 -0.8695763 -0.00919212
-0.16875064 -1.0664054 0.49825808 -0.17037371 -0.12210923 -0.48581895 0.5465619 -0.8202467
-0.85061973 0.034826256 -0.46388808 0.3537096 -0.4697907 -0.011087239 0.2327036 -0.096607365
0.4605422 0.52373564 0.20491442 -0.06377894 -0.20001215 0.63697636 0.488301 0.13868935
-0.73020774 -0.4105941 -0.8241001 -0.0013556331 0.41597092 0.30703914 -0.39777252 0.47220662

fc2.weight f4 [256, 256]
00000000: d425 cb3e 3a66 3cbf 4d54 09bf 7d58 08bf
00000010: 76b9 203d 7467 a83f 8705 17be 6005 91bf
00000020: 85d0 d33d 6f83 77be 6526 463f 039b 853f
00000030: 4e17 143e 68dc 67bf a0f0 723f cfcd 2ebf
00000040: 7acb 62be 656f a1be 17aa 17bf 1e30 f3be
00000050: c334 43bf 2064 31be d091 393f 7977 d2bd
00000060: 1003 7e3d b0fb 9b3e c1b3 1dbf c6a1 87be
00000070: ece1 013f c41a 1b3e 3f4f a43e 2621 5a3f
00000080: cf61 0e3f 7745 33bf d0f6 b33e 2511 99bf
00000090: 4cdb 753f 906e 633f 98fa 0d3f cd91 11bf
000000a0: 36c5 3b3e 4fbc d13e 8c3e 0a3f e4ff cd3c
000000b0: 2328 8ebe e52c 6c3e 7eb0 573e 502d 113d
000000c0: 3bce 1a3f f18c 87bf 9237 233f 26c6 053e
000000d0: 70c3 d23e ca0d 47bf 4585 0cbf f245 ea3e
000000e0: 8848 1a3f bedf 903f 18c6 52bf 5225 63be
000000f0: d8de e93e 4267 283f e089 d9bd bc2f a1bc
00000100: 387b babe a0e7 4e3f 85f8 11be c65a 1ebe
00000110: 551a dbbe 7574 4ebf 94f2 8ebd c6cf 0bbe
00000120: 2265 ffbe 6d5e 1cbf bee2 033f 4e8e 10bf
00000130: 2d33 c23e aa3a f9bd 4e7c 97bf 1301 8ebd
00000140: 3406 e03e d872 e23d 385b 023f 3d83 66be
00000150: 46b5 cb3d 5afe b5be cf0f 34bd 2fd0 1d3f
00000160: 287f 7ebc 0f10 05bf 306e e5be a2f7 d4bf
00000170: 978d 0d3f 7241 7d3e 92af b13e b7ba 00bf
00000180: c951 93bf 5eee 6cbf 2dc5 68bd daa4 74bf
00000190: e492 9a3e cb4e fdbe 5df4 cf3e 8e36 5d3f
000001a0: e5b2 f13e bbb3 debd 5bcf 853e 7eb3 833e
000001b0: e279 27be c796 8a3e a07b a3bc 7254 653f
000001c0: 226c bb3d 0d85 c33e 74be 08bf 5926 e13e
000001d0: 1230 be3e 6a67 80bf ba85 69bf aab8 55be
000001e0: a27e 4ebf 0565 923f 6457 e8be 72ce 2a3e
000001f0: e651 913e b562 53bf 121e 85bd 942b cebe
00000200: a283 003f 8e38 a5be 3894 f7be 44b9 55bf
00000210: 9006 85bb efdd a63e c193 85bd 8b64 81be
00000220: 0c27 513f 1196 9b3e e8a1 40be 50ce 49bd
00000230: d167 16bf 1f4b 5dbf a7ba 1d3f 6206 4d3e
00000240: 7720 3abf b64e 6fbe 7041 4dbf 58f0 ac3e
00000250: a3de 8a3f 9047 bcbd b28a 20be 02f5 1abf
00000260: 3a84 c5bc 6698 51be 8e2f 55bf 3cc8 3ebe
00000270: b3c6 9f3e d018 a03e 6b72 643f 398b 94be
00000280: f34b 763e f2e4 003f 5ca0 403e 6272 0dbc
00000290: a8af b7bd dd4c 833f 00a9 483e 1b40 313e
000002a0: 8c4e babf 3fe6 4abf 5d22 1cbf cf76 1cbf
000002b0: 91de b93d 25a4 7dbe e571 85bf 450f 8b3e
000002c0: 2fcb 0d3f a867 80bb b84a ae3e 2caa 803e
000002d0: 3546 5ebe ba52 cebe 9a8a 5dbf 2a0c 8d3e
000002e0: 8c6d bcbc d2f6 67bc 0a8a 9fbd 5aa1 6abe
000002f0: 0ed7 22bf f885 ff3e 3bbd 9cbf f2cf 973e
00000300: 67c7 753e d97f abbe b764 2b3f e1d5 93be
00000310: a771 85be fc3f b4bc 8373 1e3f dd3f 343f
00000320: 5a8a ffbf 34dc 713e 80d1 48bb ca55 323e
00000330: 6e8e 2e3e e2d7 2d3f 7ef9 783e 9b02 1a3e
00000340: 246a a03c 9840 9f3c 19fa 4d3e 4ae8 013f
00000350: 0169 45bf 4e56 debe 845a 7a3d fa4a 32bf
00000360: 4cbe f93e 3efa 2cbf ab3c b13e a49d 24bd
00000370: a509 46be 5d7b cfbd 7d05 c0be 4dfa c6be
00000380: 429e 483f b997 7dbe 6a89 293f c672 9a3d
00000390: 61ed cc3e 2c51 70bf 0a8d b1be 94f6 513d
000003a0: 6df7 bc3e 02ee b6be 4ae9 18be b079 e2bd
000003b0: 01bb 0dbe 414b a4be edc5 163e f33a 8dbe
000003c0: d722 703f f985 09bf 4d14 73bf 5b12 483f
000003d0: a2e7 1b3f 2ae4 0a3f 18cf 06be ea44 733f
000003e0: d8d1 f93c 369f d2be e27c 913d c8c5 cbbe
000003f0: fe8c 84be 642c 1bbd 28ba 003f e967 f83d
0.39677298 -0.73593485 -0.5364426 -0.5326002 0.03923937 1.3156571 -0.14748202 -1.1329765
0.10342506 -0.24171232 0.77402335 1.0437931 0.14462015 -0.9057069 0.94898415 -0.6828279
-0.22147933 -0.315303 -0.5924391 -0.47497648 -0.76252383 -0.17323351 0.7248812 -0.10276694
0.06201464 0.3046546 -0.6160241 -0.2649061 0.50735354 0.15146929 0.3209171 0.8520683
0.55617994 -0.7002787 0.3514924 -1.1958357 0.96037745 0.8884058 0.554605 -0.568631
0.18336949 0.4096398 0.5400169 0.025146432 -0.27764997 0.23064001 0.2106342 0.035443604
0.6047093 -1.0589887 0.6375667 0.13063869 0.41164732 -0.77755415 -0.54890853 0.4575649
0.60266924 1.1318281 -0.8233352 -0.22182205 0.4567783 0.6578256 -0.10622001 -0.019676082
-0.36422133 0.8082218 -0.14254959 -0.15464315 -0.42793527 -0.8064645 -0.06979862 -0.13653478
-0.49881846 -0.6108158 0.51517856 -0.5646714 0.3792967 -0.121693924 -1.183481 -0.06933799
0.43754733 0.11057061 0.5092044 -0.22511001 0.099466845 -0.35545617 -0.04396039 0.6164579
-0.015533246 -0.5197763 -0.4481063 -1.6638072 0.55294174 0.24731997 0.34704262 -0.50284904
-1.1509334 -0.9255122 -0.056828666 -0.95564044 0.30190194 -0.49474177 0.40616122 0.8641137
0.47206798 -0.108741246 0.26134762 0.2572288 -0.16355088 0.2706816 -0.01995641 0.8958198
0.09151484 0.38187447 -0.5341561 0.4397457 0.3714605 -1.003156 -0.91219676 -0.20871225
-0.80661976 1.1437079 -0.45379174 0.16680315 0.28382796 -0.8257249 -0.06499876 -0.40267622
0.50200856 -0.3226971 -0.4835527 -0.8348582 -0.00405962 0.32591197 -0.065223224 -0.2527202
0.81700206 0.3038793 -0.18811762 -0.04926902 -0.5875216 -0.8644275 0.61612934 0.20021966
-0.7270579 -0.2336987 -0.80177975 0.33777118 1.0849193 -0.09193337 -0.15677908 -0.605301
-0.024110902 -0.20468292 -0.8327569 -0.18631071 0.31206283 0.3126893 0.8923709 -0.29012468
0.2405241 0.5034934 0.18811172 -0.008633228 -0.08969051 1.0257832 0.19595718 0.1730961
-1.4555221 -0.7925758 -0.60989934 -0.6111879 0.09075654 -0.24769647 -1.0425383 0.27160087
0.5538816 -0.003918607 0.3404138 0.2512983 -0.2170647 -0.4029749 -0.86539614 0.27548343
-0.023001455 -0.014157968 -0.07790001 -0.22913113 -0.636094 0.49906898 -1.2245249 0.29650837
0.24001847 -0.33495978 0.66950554 -0.28874114 -0.26063272 -0.022003166 0.61895007 0.7040995
-1.9964097 0.23619157 -0.003064245 0.17415538 0.1704652 0.67907536 0.24313924 0.15040056
0.019581862 0.01943998 0.20114936 0.5074507 -0.7711335 -0.4342522 0.06112148 -0.69645655
0.48777997 -0.6756934 0.34616598 -0.0401894 -0.19339617 -0.101309516 -0.37504187 -0.3886284
0.7836648 -0.24764909 0.662253 0.075414225 0.40024856 -0.9387386 -0.34677917 0.051260546
0.3690752 -0.3572846 -0.14932743 -0.11058366 -0.13840868 -0.32088664 0.1472394 -0.27584037
0.9380316 -0.5372005 -0.9495285 0.7815301 0.6090032 0.542544 -0.13164937 0.9502703
0.03049557 -0.41137093 0.07103898 -0.39799333 -0.25888819 -0.03788413 0.5028405 0.12129194

fc2.bias f4 [256]
00000000: 7da7 b2be 7675 cabe 3e50 47bf f9b8 eb3e
00000010: 3053 683f 1f4c c3be 41f6 9cbd 51f8 c1be
00000020: 7417 883f 7193 933e 78ce d33c 0660 cd3e
00000030: ce40 23bd 7e87 8e3e 6eeb 42bf b286 24be
00000040: 5283 dcbe 9c30 43be 4664 033f 78c2 213f
00000050: 5a6b 9bbc e382 a8be 58b7 e0be 3d71 2dbf
00000060: 49f6 b73f aa61 2d3f c1ea 8cbe 443c 7fbe
00000070: 8469 183e 1e78 f7bd f05b 47be c441 e33e
00000080: fbe7 f7bd 6ec5 8e3f 9c5c db3e 1e68 a8bf
00000090: 6e18 3bbe 5e70 abbe 8d58 2e3f 6983 09bf
000000a0: a877 2e3e 7f19 943d a427 dbbe dbfe ddbe
000000b0: 1e69 273e 6867 153d 80fc 37be 184f 92be
000000c0: 9038 58bc 358c 933e db12 b33e 9404 183e
000000d0: 869c f43e e1fa 0bbf e856 50bf ba06 b13e
000000e0: fa9a 63be 324f a23d 4d9b f23d 87e2 883e
000000f0: af94 243d 3658 87be 0a17 ebbd 0a83 443f
00000100: 13de 1dbf 2c85 96be 6d3e 40bf be31 653e
00000110: a7f1 8a3f 7422 8dbf 3927 37bf 115c 9bbe
00000120: 309f cebe fe4c 453e 4c56 d33c 8e49 ea3e
00000130: f6c2 9c3e 45a1 7dbf a447 bd3c a129 cf3e
00000140: b0ee 393d 5dd8 d1be 8d77 50bf 3c17 2dbe
00000150: a659 353e bad2 e4be 0696 a93e df1f 7e3e
00000160: 1292 c93e 38a6 27bf d67a debe 2a95 683d
00000170: f953 f7be 0544 5c3e ca4a 4e3f ea6b 7cbc
00000180: d023 983e 48a5 d5be bce3 3d3f 42c0 913e
00000190: 752c efbe 1c4b fabd 187e 6e3f e447 9fbe
000001a0: b5e7 e33c 9e8f 633f d938 ecbe 90d1 6e3c
000001b0: f2cb 1d3f ec6d 753f bcae 49bd 21fa 3bbf
000001c0: bee9 a03e 5df1 003f b0df ed3e 6075 323e
000001d0: 2555 a43e 8176 d93d 7145 7cbe 142d d53e
000001e0: bd85 1fbf 681e 123d 080a 073d 5ce2 6a3f
000001f0: e222 50be 9228 a73f d295 3abf bfe3 fc3e
00000200: 9ea9 9b3f 62f7 c1be 201e 2cbf 2362 e93e
00000210: 2cab cb3e 28a1 4bbf 7788 a83e 652b 0b3f
00000220: 7a28 963e 465a 603f 0bf8 c73e 4827 323f
00000230: d871 9c3e fa6a 0cbf 1566 61bf 9ba7 803f
00000240: 76db 0bbf 9401 d93e 5270 01bf 48e1 80bf
00000250: d9d1 9ebf 2a94 0e3e 0956 24be fbb9 aabd
00000260: dec2 1ebe c93b 233e 3cc5 473e 5e42 5e3e
00000270: 4511 3ebe c3b8 b1be 5c9e 543f 0545 413f
00000280: eea0 893e 4dd0 0b3e 2f8c 8dbe 7a83 063f
00000290: 90e0 80bf b786 6e3f 8f35 e63e 7a54 60be
000002a0: 7f20 06bf 87d2 7b3f 44ae f03e ec6c 593f
000002b0: 4eb7 32bf e903 653e e3a2 3cbf d264 7b3e
000002c0: acbc 143e 469a 60be 008f 823c b072 9b3b
000002d0: 7f4e 393f 4653 443d 9d36 99be 7bf9 4bbf
000002e0: 0b22 113f 0299 2b3f b087 55bf 78bb 31bf
000002f0: b420 a73e 04bf 5cbe 0edf 3b3f 426a f13e
00000300: e805 233f f9b6 243f fe6c 32bf 612c 973e
00000310: c742 81bf 9630 4ebf 92e0 f23e d777 663f
00000320: f224 823f bc07 053e 4ef4 243e d3f4 3abf
00000330: f9fb 063f de8a f83e 4eca 11be 3602 59bf
00000340: 36c6 92be 76a3 873e 85be 25bf e487 ff3c
00000350: e60b 4c3e f1f9 79be fa1a 7ebd a411 76bf
00000360: edd8 30be 7aaf dd3d 4f03 32bf 9a1a 2d3f
00000370: 8057 ffba 54bc de3c bda8 87be dad2 9fbe
00000380: 7ddd ec3e e4b8 c23f 4d6b 16bf 1440 cfbe
00000390: 5bfd 053e 2c69 6ebd 9f88 923e bf8f 8cbe
000003a0: 0497 9fbd a82c 723e 30c8 9f3c 4eff e63e
000003b0: 6fea 98bd ec51 aebe ccd2 edbe f263 08bf
000003c0: 7f18 bf3d 6455 b5be 1420 35bd aa6b 583f
000003d0: ca31 9cbe 2761 d2bc b2f7 f73e 85c9 183f
000003e0: 9992 ab3e 3245 01bd 0401 2abf b034 36be
000003f0: 7778 88bf 4efc 6d3e 67ca 153f bbf0 d03d
-0.34893408 -0.3954274 -0.77856815 0.4603956 0.90751934 -0.38144013 -0.07664157 -0.37884763
1.0632157 0.28823426 0.025855288 0.40112323 -0.039856724 0.27837747 -0.7614049 -0.16067007
-0.4306894 -0.19061512 0.5132488 0.6318736 -0.018972088 -0.3291236 -0.4388988 -0.6775091
1.4372035 0.6772715 -0.27522853 -0.24925333 0.14884001 -0.120834574 -0.19468665 0.44386113
-0.12104794 1.1154001 0.42844093 -1.3156774 -0.18271038 -0.33484167 0.6810387 -0.5371614
0.17037833 0.072314255 -0.4280368 -0.43358502 0.16348693 0.03647557 -0.17967415 -0.2857597
-0.013197079 0.28817907 0.34975323 0.14845496 0.47775668 -0.54679686 -0.8138261 0.34575444
-0.22227088 0.079252616 0.118460275 0.26735327 0.04018086 -0.26434487 -0.11479004 0.7676245
-0.61666983 -0.29398477 -0.75095254 0.22382256 1.0854996 -1.1026139 -0.71544224 -0.3034368
-0.40355825 0.19267651 0.025797985 0.45759243 0.30617493 -0.990742 0.02310545 0.40461448
0.045393646 -0.40985385 -0.8143242 -0.16903394 0.1770998 -0.44692022 0.3312227 0.24816845
0.39369255 -0.65488005 -0.4345309 0.05678288 -0.48306254 0.21510322 0.8058287 -0.015406588
0.29714823 -0.41727662 0.7417562 0.28466994 -0.46713606 -0.12221357 0.93161154 -0.31109536
0.027820447 0.8889102 -0.4613712 0.014576331 0.6163932 0.9587085 -0.049238905 -0.7342854
0.3142833 0.5036829 0.46459723 0.17427588 0.3209621 0.10618306 -0.24635865 0.41635954
-0.62313443 0.03567353 0.03296855 0.91751647 -0.20325807 1.3059256 -0.7288486 0.49392506
1.2161138 -0.3788405 -0.6723347 0.45582685 0.3977903 -0.7954278 0.32916614 0.5436309
0.29327756 0.87637746 0.3905643 0.6959119 0.30555606 -0.54850733 -0.8804639 1.0051149
-0.54631746 0.42384017 -0.5056201 -1.006875 -1.240779 0.13923708 -0.16048445 -0.08336254
-0.15504023 0.15940775 0.19508833 0.21705005 -0.18561275 -0.34711275 0.8305414 0.7549594
0.26880592 0.13653679 -0.27646014 0.5254437 -1.0068531 0.9317431 0.44962737 -0.21907225
-0.52393335 0.98368114 0.47007954 0.84931827 -0.6981095 0.22364773 -0.73686045 0.24550179
0.14525098 -0.2193385 0.015937328 0.0047438964 0.723854 0.04793098 -0.2992448 -0.7967755
0.5669257 0.67030346 -0.8341017 -0.6942668 0.32642138 -0.21557242 0.7338723 0.4715138
0.6368089 0.64341694 -0.6969756 0.29526046 -1.0098504 -0.80542886 0.4743696 0.9002661
1.0167525 0.12991232 0.1610882 -0.7302982 0.5272823 0.48543447 -0.1423733 -0.84769
-0.28666848 0.26491898 -0.64743835 0.031192727 0.19926414 -0.24411751 -0.062037446 -0.9612067
-0.1727025 0.10824485 -0.695363 0.67618716 -0.0019481033 0.027189411 -0.26495925 -0.31215554
0.46262732 1.5212674 -0.5875748 -0.40478575 0.13084929 -0.05820577 0.2861986 -0.2745342
-0.07792476 0.23649848 0.019504637 0.45116657 -0.0746659 -0.34046876 -0.46449888 -0.53277504
0.09330844 -0.3541671 -0.044220045 0.8453928 -0.30506736 -0.025681091 0.48431164 0.59682494
0.33510283 -0.03156013 -0.664078 -0.17793536 -1.0661763 0.23240778 0.58511966 0.10202166

fc_mu.weight f4 [6, 256]
00000000: a61c 84be 958c 093f 22eb bc3c 1c9e 943d
00000010: 24be 21bf 6e6e 303f b42c f83e 51c1 4ebe
00000020: c9a4 fa3e 8a38 cd3e aaa1 adbe 28ab d13e
00000030: f77a e03e 3079 e93d 73d4 05bf 08b5 173e
00000040: 463a 433f 4fdb 653d e60f 7ebe d443 22bf
00000050: 63d5 76be 3463 983e 5e38 8f3d 1691 eb3d
00000060: 01ae c6be 498c 2fbe 4426 393c 92c0 60bf
00000070: b573 6cbf a8f4 4dbf 8413 16bf 9c23 42be
00000080: 108c 333f 66f7 95be 9cad 68bd 4216 2cbf
00000090: 7b37 5fbf 52a9 e0be 11f4 a63e 401a 51bc
000000a0: d8b8 053f 9a16 d53f 5e1f 783e 5880 ba3e
000000b0: a4f4 8abe ee4d 59bf 333d 7abc dc92 5e3f
000000c0: f945 c8bf 712a 73be bc60 93be cf98 dd3e
000000d0: 4fe5 7d3e d561 c8bc fe60 0bbf c3ed ffbe
000000e0: 86c9 02bf f731 80be 1318 fdbe 52b5 c23e
000000f0: 6e28 ef3e 1e2b f13e 66ac cb3f b613 f63d
00000100: ff09 debe e132 923e 36f1 54bf 7ab4 d8be
00000110: c265 f9be 2524 e0be be2b 97be 59b4 83be
00000120: aa81 a5bf d598 3cbe 4206 20bf 1490 31be
00000130: 6a1a 993e d825 afbc deaa 9abe 8cce f13e
00000140: 3ca5 47bd 737c 2e3f 83b3 c2be 49de 22bf
00000150: 9901 efbd 7638 733e c3c1 2d3f 848e 393f
00000160: f050 41bf 1c84 45bf a9fa b03e e60e b53e
00000170: 35b8 ae3d ce06 083f 6860 893e 3a47 1abf
00000180: be89 283f 969e 383f 48a1 1f3d 753f 1dbe
00000190: b4b6 7e3c 3740 85be 7016 823e cdb0 74be
000001a0: 1386 d9be c376 213f 5803 cbbe fe20 9c3c
000001b0: 5b3d 533f 9ae4 edbe 1632 f2be 1681 19bf
000001c0: 2d27 103f bbef 8c3c 6d10 82be b82e 413d
000001d0: a467 13bf 9b61 883e 703c 57bc 3b28 ba3e
000001e0: 5b49 56bf dca9 ea3d 2443 86bc 4268 0a3e
000001f0: 70bd 1b3e 0467 353f fde5 4abe 5eec 0a3f
00000200: 734c 96bf 0aac 05bf b5ce 483e 237e f93d
00000210: d09a 433c 8531 2bbf 2041 583e 90a4 623d
00000220: fd7e 1dbf be6f 383e 3037 123f e76c 733e
00000230: f8f0 22bd 2160 50bf 09b9 20bf b9ae 3b3f
00000240: fc16 aa3e f8f8 953f 1522 12bf 9b96 bfbe
00000250: 0eae 4c3f 0e79 9bbd bf5e dfbe 9061 71bb
00000260: 0043 a83c a4db 86bc 9cc5 403e 8777 0abe
00000270: 620b 7d3f f7cb 313f 7e65 c13e 67e9 253e
00000280: eeee 7d3e 8258 dfbe ad44 c9be e046 9e3c
00000290: 9dbf 81be 0442 43bf d639 1abf 13fa 31bf
000002a0: 8f29 4a3f bfdd 80be 33be 043e 0900 83be
000002b0: e886 573f 2c8a e8bc ed2f ea3d eaef 1f3d
000002c0: fecb 71be f351 c93e e823 0abe f471 57bf
000002d0: 76f4 8c3e b139 3dbf f264 30bf 52c4 03bf
000002e0: 2da5 01be f93c 31be 6f3a aa3d d886 06bf
000002f0: 309b e33f 40da 79bf 3e51 5f3f 7c99 23bf
00000300: c2c7 57bf 9808 473e aa9b 4ebf 7b02 28be
00000310: 129d 4ebf 28e8 79bf 7c53 03be b74b 63be
00000320: 92cf 02bf ae8c 57bd 6526 a8be 5907 193e
00000330: 5010 233d 76e5 5abf 6687 083f b1e5 89bf
00000340: d069 eabe e8a1 2d3f e374 ccbe c490 423f
00000350: 0cfd 95be e0ad 53bf 0e15 6b3e a4fe a0be
00000360: d2cf a03f a667 453f 24ae 61be 228f 49bf
00000370: e48b ae3f 29f6 c5be ac83 d93e 969a 11be
00000380: 2290 14bf c687 cfbe 58e4 c8bb d57c 593e
00000390: 204d 15bf c1e2 0abd 71a9 01bf 437e 183f
000003a0: 67ca abbe 6ff8 e7be 73bc 45bd 7b69 193e
000003b0: bdd3 163f 6e4d 4c3f 5a86 3d3e 12ae edbe
000003c0: 7bc6 e93e ae75 ae3d fab4 4bbe fe32 3abf
000003d0: 5aac bbbe 320e 28bf 911c acbe 8832 b93f
000003e0: f889 24bf 7b89 543e efc8 523f 6b55 a13c
000003f0: b5d1 e4be b125 a6be 5c15 da3e d711 7dbf
-0.25803107 0.53730136 0.023061339 0.072567195 -0.63180757 0.689185 0.48471606 -0.20190932
0.48953846 0.40082198 -0.33912402 0.40950894 0.43843815 0.11400068 -0.52277297 0.14815152
0.76260793 0.056117352 -0.24810752 -0.6338475 -0.24104838 0.29763186 0.06993173 0.11502282
-0.3880463 -0.17143358 0.011300627 -0.8779384 -0.92364055 -0.8045144 -0.5862353 -0.18958896
0.70135593 -0.29290313 -0.05680619 -0.6722146 -0.8719403 -0.4387918 0.32608083 -0.012762606
0.52235174 1.6647522 0.24230716 0.36426044 -0.2713977 -0.84884536 -0.01527338 0.8694284
-1.5646354 -0.23746659 -0.2878474 0.43280646 0.24794506 -0.024460712 -0.54444873 -0.49986085
-0.5108875 -0.2503812 -0.4943243 0.3802896 0.46710533 0.47103208 1.5911987 0.12015478
-0.43367 0.28554443 -0.8318056 -0.42325193 -0.48710448 -0.43777576 -0.2952556 -0.25723532
-1.2930195 -0.18417676 -0.6250955 -0.17340118 0.29902965 -0.02138035 -0.30208486 0.47227895
-0.048741564 0.68158644 -0.38027582 -0.6362043 -0.116702266 0.23752007 0.6787378 0.72483087
-0.75514126 -0.7715471 0.3456624 0.3536293 0.085312285 0.53135383 0.26831365 -0.60264933
0.6583518 0.7211698 0.03897217 -0.15356238 0.0155464895 -0.26025555 0.25407743 -0.23895569
-0.42485103 0.6307184 -0.3965099 0.0190587 0.82515496 -0.46463472 -0.47303838 -0.59962595
0.5630978 0.017204156 -0.25403157 0.047163695 -0.5758002 0.26636967 -0.013136968 0.36358818
-0.8370568 0.11458179 -0.016389437 0.13516334 0.15208983 0.70860314 -0.19814296 0.5426692
-1.174208 -0.52215636 0.19610102 0.12182262 0.011938766 -0.66872436 0.21118593 0.05533272
-0.61521894 0.18011376 0.5711546 0.23772012 -0.039780587 -0.8139668 -0.6278234 0.7331348
0.3322066 1.1716604 -0.57083255 -0.3741959 0.79953086 -0.07591449 -0.43626973 -0.0036831833
0.02053976 -0.016462155 0.18825382 -0.13522159 0.98845494 0.6945185 0.37772745 0.16202317
0.24798176 -0.43622214 -0.39310208 0.019320905 -0.25341502 -0.76272607 -0.602445 -0.6952221
0.78969663 -0.2516918 0.1296318 -0.25585964 0.84190226 -0.028386198 0.11434922 0.03904716
-0.23612973 0.39320335 -0.1349026 -0.84158254 0.2753026 -0.73916155 -0.6890403 -0.51471436
-0.12660666 -0.17308415 0.083119266 -0.52549505 1.7781734 -0.9759865 0.8723334 -0.63906074
-0.8428918 0.19436872 -0.80706275 -0.16407196 -0.8070842 -0.9761987 -0.12824816 -0.22196852
-0.5109798 -0.052624397 -0.32841793 0.14944209 0.03981048 -0.8550638 0.533316 -1.0773221
-0.45783854 0.67825174 -0.39932927 0.76002145 -0.29294622 -0.8268719 0.2295725 -0.31444275
1.2563422 0.7711128 -0.22039086 -0.7873403 1.3636441 -0.38664368 0.4248327 -0.14219126
-0.5803243 -0.40533274 -0.0061307363 0.21239026 -0.5832081 -0.033907656 -0.5064917 0.5956766
-0.33552858 -0.45306727 -0.048275422 0.14981644 0.58916837 0.7980565 0.18508282 -0.46421868
0.4565924 0.08518539 -0.19893256 -0.7273406 -0.3665493 -0.6564666 -0.33615544 1.4468546
-0.64273024 0.2075557 0.8233785 0.01969405 -0.44691244 -0.3245063 0.4259442 -0.98855346

fc_mu.bias f4 [6]
00000000: 4ce0 7bbe f064 613e c2c8 163d e69a 143f
00000010: 7ba3 63bf 245e cd3f
-0.24597281 0.22011161 0.03681255 0.58048856 -0.88921326 1.6044354
