ga_weights/ga2/HalfCheetah-v5/PPO/weights5.pt (torch, 25761 bytes, 6 tensors)

weight f4 [64, 17]
0	0xbe13a911	-0.14419962
1	0xbefc0d77	-0.49229023
2	0x3e88bb98	0.26705623
3	0xbf01e3a7	-0.50737995
4	0xbe322bea	-0.17399564
5	0x3ee521cb	0.44752344
6	0xbe7dc230	-0.24781108
7	0x3f03c0df	0.5146617
8	0xbcf593b8	-0.029977664
9	0x3ea4ec76	0.32211655
10	0xbe0c304e	-0.13690302
11	0xbf08656e	-0.5327977
12	0x3d5d8b96	0.054088198
13	0xbf0b93ab	-0.545222
14	0x3e474b25	0.19462259
15	0x3de5cbe7	0.11220532
16	0x3dcb0478	0.09912962
17	0x3d5cb4a4	0.05388321
18	0xbe9dd28f	-0.30824706
19	0x3e71edad	0.23625822
20	0xbca784a0	-0.020448983
21	0xbcc960b0	-0.024582237
22	0x3e1358ac	0.14389294
23	0x3e6f7956	0.2338613
24	0xbddd4d21	-0.10805727
25	0xbe9e3729	-0.3090146
26	0x3edee459	0.4353359
27	0x3e3600f4	0.17773801
28	0xbe49ce92	-0.19707707
29	0x3d422a23	0.047403466
30	0x3eb17465	0.34659114
31	0x3d61425a	0.05499492
32	0xbf4fa19b	-0.81105965
33	0xbdd24333	-0.102667235
34	0x3e4eee05	0.20207985
35	0xbf30588b	-0.68885106
36	0x3e98b82c	0.29828012
37	0x3efe3cc2	0.4965573
38	0xbf372681	-0.7154313
39	0xbe8e33b9	-0.27773836
40	0xbf3cf447	-0.7381024
41	0x3dda8e3c	0.1067166
42	0xbf05169e	-0.51987636
43	0xbdf698bc	-0.120408505
44	0xbf09ce2f	-0.53830236
45	0xbedc692f	-0.43049
46	0xbee0d53c	-0.43912685
47	0xbd4b5160	-0.049638152
48	0x3f16edc5	0.5895656
49	0xbeaaa430	-0.3332839
50	0x3ec1974c	0.37810743
51	0xbe7b57b8	-0.24545181
52	0x3b881a3a	0.004153517
53	0x3ecbb2a0	0.39784718
54	0x3eddfd4b	0.4335731
55	0xbeab6236	-0.33473366
56	0x3e29f9bc	0.16599172
57	0x3fae5521	1.3619729
58	0x3d902000	0.070373535
59	0xbf1b5b10	-0.60685825
60	0x3c63edb8	0.013911657
61	0x3f208139	0.6269718
62	0x3eaec820	0.34137058
63	0x3e073418	0.13203466
64	0x3dd0d2fd	0.10196493
65	0x3e404bf3	0.18778972
66	0x3d2078f1	0.03917784
67	0xbd8b5f2e	-0.068052635
68	0x3d885d40	0.06658411
69	0xbd16ee68	-0.036848456
70	0x3d6369a4	0.05552067
71	0xbde426bd	-0.11140201
72	0xbf097ac4	-0.5370295
73	0x3e16a61e	0.14711806
74	0x3d97b7dc	0.07408115
75	0xbdf07cf8	-0.11742586
76	0xbca108d0	-0.019657522
77	0xbf02ce89	-0.510964
78	0x3e76d5f8	0.2410506
79	0x3ea71749	0.32634953
80	0xbf0824de	-0.53181255
81	0x3e14ba8f	0.14524291
82	0xbe85a646	-0.2610342
83	0xbe6561be	-0.22400567
84	0xbd449c7c	-0.048000798
85	0x3d111adc	0.035426006
86	0x3e85478a	0.26031142
87	0xbddfec1e	-0.10933708
88	0x3eb27df0	0.34861708
89	0x3ec87f31	0.3915954
90	0xbe049b1f	-0.12949799
91	0xbf13872f	-0.5762815
92	0xbf17ef9f	-0.5935001
93	0xbd4b220e	-0.049593024
94	0x3e9f3e60	0.31102276
95	0xbe6f3ac7	-0.23362266
96	0xbe5d2112	-0.21594647
97	0xbf23f371	-0.6404334
98	0xbeca8aa3	-0.39558896
99	0xbdead9b6	-0.11467306
100	0xbdc97414	-0.09836593
101	0x3ea48548	0.32132936
102	0x3e1e0340	0.15430927
103	0xbd1fd9c7	-0.039026048
104	0x3c958508	0.01825191
105	0x3f279abe	0.6547049
106	0x3e621249	0.22077288
107	0x3f2b1acb	0.6683776
108	0xbeca0e94	-0.39464247
109	0xbe564d71	-0.20927979
110	0xbf17c79e	-0.59288967
111	0xbe47ed6e	-0.19524166
112	0x3da8d37f	0.08243465
113	0xbebf7001	-0.3739014
114	0xbf4a4284	-0.79007745
115	0xbe0eac74	-0.13932973
116	0x3de3a219	0.11114902
117	0x3e3ae067	0.18249665
118	0x3e8ba707	0.2727587
119	0x3e057bb6	0.13035473
120	0xbecf6673	-0.4050785
121	0x3e32e5d4	0.17470485
122	0x3e837287	0.25673315
123	0xbde6fc00	-0.11278534
124	0x3f732d4c	0.9499099
125	0xbe16cf40	-0.14727497
126	0x3e2dc488	0.16969502
127	0xbec49b28	-0.38399625
128	0x3f06a2cc	0.5259216
129	0x3d77aba4	0.060466424
130	0x3e3fbfb6	0.18725476
131	0x3f40b395	0.7527402
132	0xbdb1027c	-0.08643052
133	0xbf2bc415	-0.6709607
134	0xbe78534d	-0.24250527
135	0xbe75e154	-0.24011737
136	0x3f296027	0.6616234
137	0x3cac92cc	0.021066092
138	0xbe21739a	-0.15766755
139	0xbe487a0e	-0.1957781
140	0xbe06329a	-0.1310524
141	0x3eab7b88	0.33492684
142	0x3f01c57a	0.5069195
143	0x3e100876	0.14065728
144	0xbf03b264	-0.5144408
145	0xbe65a187	-0.22424899
146	0xbf3f693e	-0.7476996
147	0x3e30c558	0.1726278
148	0xbf27b92c	-0.65516925
149	0xbe88ffc0	-0.26757622
150	0xbe32ba55	-0.17453893
151	0xbe854d5f	-0.26035592
152	0x3f4f673b	0.8101689
153	0x3ea96a52	0.33088928
154	0x3e5ad202	0.21369174
155	0xbe8dfb12	-0.27730614
156	0xbd5888e5	-0.052864928
157	0x3dddafda	0.10824557
158	0xbe5a818a	-0.21338478
159	0xbea4b4f0	-0.32169294
160	0x3c9bffdc	0.019042902
161	0x3cfe5fe0	0.031051576
162	0x3d942ab4	0.072347075
163	0xbf8161e4	-1.0107999
164	0x3f6016d6	0.87534845
165	0x3f1e8628	0.61923456
166	0xbed03c09	-0.40670803
167	0x3e933f50	0.2875924
168	0xbdd6d61c	-0.10490057
169	0xbf6cd3a5	-0.92510444
170	0xbf282da7	-0.6569466
171	0x3d200b50	0.03907329
172	0xbbaa66d0	-0.0052002445
173	0xbdf4ea5f	-0.11958765
174	0xbe33f9d3	-0.17575769
175	0x3dbca1eb	0.09210571
176	0xbf21e454	-0.63239026
177	0x3e3bd854	0.18344241
178	0xbed6bdf9	-0.41941813
179	0xbee4b8d0	-0.4467225
180	0xbf10ec53	-0.566106
181	0xbf0488b0	-0.5177107
182	0xbdfd9e90	-0.12383759
183	0xbf16b266	-0.58865964
184	0x3e06564b	0.13118856
185	0xbcbd1c65	-0.023084829
186	0x3ecf8aca	0.40535575
187	0xbf44ca98	-0.76871634
188	0x3eb15407	0.3463442
189	0xbee7fed5	-0.4531161
190	0xbba08b80	-0.004899442
191	0x3f127136	0.57203996
192	0x3f13781b	0.5760514
193	0xbe87987a	-0.26483518
194	0xbe9d1ecb	-0.30687556
195	0xbf8f2c6e	-1.1185434
196	0x3e2b0c0c	0.16703814
197	0xbd7b4a91	-0.06135041
198	0xbd110f34	-0.03541489
199	0x3f1890a3	0.595957
200	0x3f3720c1	0.71534353
201	0x3eaf5187	0.34241888
202	0xbefe0550	-0.49613428
203	0xbf30981a	-0.6898209
204	0xbf6677df	-0.9002666
205	0x3d2bdf34	0.04196091
206	0xbeab7736	-0.33489388
207	0xbee84df4	-0.45371974
208	0xbe9f7cbf	-0.3114986
209	0xbf48d36e	-0.78447616
210	0xbe61120e	-0.21979544
211	0x3f817c35	1.011603
212	0x3dc4d12b	0.09610208
213	0x3e704aae	0.23465988
214	0x3e528d4e	0.20561716
215	0xbe4f0116	-0.20215258
216	0x3eb4a6d0	0.35283518
217	0xbf0d70a0	-0.5524998
218	0x3dc0b933	0.09410324
219	0xbb18c6c2	-0.0023311828
220	0xbf6844b9	-0.9072986
221	0xbccda5b8	-0.025103435
222	0x3f0c25a3	0.5474493
223	0xbeeff97d	-0.46870032
224	0xbe8d6f78	-0.27624106
225	0x3e4a5ea8	0.19762671
226	0x3ede1339	0.4337404
227	0xbe055828	-0.1302191
228	0x3e177fdb	0.14794867
229	0xbecd1d1b	-0.40061268
230	0x3ea4641a	0.3210762
231	0x3e8c2533	0.2737213
232	0xbedf4ac7	-0.43611738
233	0xbea53aa9	-0.32271317
234	0x3e217eda	0.15771046
235	0xbf69947a	-0.9124218
236	0xbc2f3f00	-0.010696173
237	0xbeec1ceb	-0.46115813
238	0xbe94d3a7	-0.29067728
239	0x3f4bf792	0.7967464
240	0xbe218784	-0.15774351
241	0xbf0a9f24	-0.5414908
242	0xbf47d181	-0.7805405
243	0x3e139f81	0.14416315
244	0x3eb38651	0.35063413
245	0x3ed92c38	0.4241655
246	0xbf459179	-0.771751
247	0x3ef535df	0.47892663
248	0x3f1162d7	0.5679144
249	0x3cd27a30	0.02569303
250	0xbf4b90e6	-0.7951797
251	0x3edbf410	0.42959642
252	0xbde01b3a	-0.10942693
253	0x3f3f7fa6	0.7480415
254	0xbeed3491	-0.46329167
255	0xbee104bd	-0.43948928

bias f4 [64]
0	0x3e7a93d6	0.24470457
1	0xbeeb132c	-0.45913064
2	0x3f54d03c	0.8313024
3	0x3f8454c4	1.0338368
4	0xbeefca82	-0.4683419
5	0x3e3482f8	0.17628086
6	0xbeceead6	-0.4041354
7	0xbe0b9c58	-0.13633859
8	0x3f000334	0.5000489
9	0x3e61bbb1	0.22044255
10	0xbea9f2a3	-0.3319293
11	0x3f05b902	0.52235425
12	0xbec756f2	-0.38933522
13	0xbf2e20bb	-0.6801869
14	0xbe1ce103	-0.1532021
15	0x3ee66298	0.44997096
16	0xbf0152d4	-0.5051701
17	0x3f57eac0	0.84342575
18	0x3e633ec7	0.22191916
19	0xbd22a6a6	-0.03970971
20	0xbf09b927	-0.53798145
21	0xbf27b99e	-0.65517604
22	0xbeaf41f6	-0.34230012
23	0x3f627ab2	0.8846847
24	0x3da4e692	0.0805179
25	0xbe928fec	-0.2862543
26	0xbd9f08b2	-0.077653304
27	0x3e8a9dc1	0.27073482
28	0xbe055bb8	-0.13023269
29	0xbf195bdf	-0.5990581
30	0x3ea30c10	0.3184514
31	0xbe5aa279	-0.21351041
32	0x3e701617	0.23445927
33	0xbd1de81c	-0.038551435
34	0xbe88188f	-0.26581237
35	0xbefc52df	-0.49281976
36	0xbe931957	-0.2873027
37	0xbe02b25f	-0.12763356
38	0xbe41e5e4	-0.18935353
39	0xbe902284	-0.28151333
40	0xbef97f85	-0.48730102
41	0x3f015ab1	0.5052901
42	0x3e91c5f8	0.2847135
43	0xbca4bd20	-0.020109713
44	0x3cf06a60	0.029347599
45	0xbefff0e2	-0.49988467
46	0xbebad410	-0.36489916
47	0x3decd2b0	0.11563623
48	0x3ed20636	0.41020364
49	0x3eb9453c	0.36185634
50	0x3ddab569	0.106791325
51	0xbf16b5aa	-0.5887095
52	0x3c9b2b2c	0.018941484
53	0x3f4c2dc4	0.7975733
54	0x3e4a3be8	0.19749415
55	0x3f50dbb2	0.8158523
56	0xbea52c63	-0.32260427
57	0x3e33a6f3	0.17544155
58	0x3dd76f7f	0.10519313
59	0x3c6f1860	0.014593214
60	0x3ea7c216	0.32765263
61	0x3f07c56b	0.5303561
62	0x3f05d1ed	0.52273446
63	0x3e936335	0.28786626

weight f4 [64, 64]
0	0xbdd23d47	-0.10265594
1	0xbf26fb05	-0.65226775
2	0x3e63f65c	0.22261947
3	0x3eff8788	0.4990809
4	0xbe60cd5f	-0.21953343
5	0x3f85cf84	1.0453954
6	0xbe56f322	-0.20991185
7	0xbe9bcde5	-0.30430523
8	0xbd31f742	-0.043448694
9	0xbe2a4bfc	-0.16630548
10	0x3e8623a1	0.26199058
11	0xbeea6c2c	-0.45785654
12	0x3d326710	0.04355532
13	0xbeda3d78	-0.42625022
14	0x3ee614ff	0.44937894
15	0xbf0e67aa	-0.5562693
16	0x3e82b052	0.25525147
17	0x3d2f56a2	0.04280723
18	0xbef443e7	-0.47708055
19	0x3dcbe7c6	0.09956317
20	0xbeee4595	-0.46537462
21	0x3db4927d	0.08817003
22	0xbf3f6ac6	-0.747723
23	0xbe05a957	-0.1305288
24	0xbf0db706	-0.55357397
25	0x3e8f95c6	0.28043956
26	0x3e371733	0.17879944
27	0x3c1f3c68	0.009718992
28	0xbe8d0d00	-0.2754898
29	0xbd40e3f6	-0.0470924
30	0x3d4dce69	0.050245676
31	0xbeec56f8	-0.46160102
32	0xbd1fd444	-0.03902079
33	0xbd706b44	-0.058696046
34	0x3f8dfaa2	1.1092112
35	0xbe32fe00	-0.17479706
36	0xbe80e885	-0.25177398
37	0xbefa34d2	-0.48868424
38	0x3f36dde6	0.7143234
39	0xbf871487	-1.055314
40	0xbe9e12ae	-0.30873626
41	0xbcc90df8	-0.024542794
42	0xbe914318	-0.283715
43	0x3c29e1d1	0.01036878
44	0xbe76a5be	-0.24086663
45	0xbe879dbe	-0.26487535
46	0x3d2b5c90	0.04183632
47	0xbe5f6483	-0.21815686
48	0xbda8b7be	-0.08238171
49	0xbee94b52	-0.45565277
50	0xbec06b64	-0.37581933
51	0xbef646df	-0.48100945
52	0x3dfa8170	0.122317195
53	0x3d00fb7c	0.031489834
54	0xbf01a68e	-0.5064477
55	0xbdfba0b0	-0.12286508
56	0xbf58d791	-0.8470393
57	0x3f25138c	0.6448295
58	0xbdf2f476	-0.118630335
59	0x3e69baab	0.22825114
60	0xbf32de74	-0.69870687
61	0xbe871f16	-0.26390904
62	0xbeb3e9f2	-0.35139424
63	0xbd186f83	-0.03721572
64	0xbeb417d0	-0.35174417
65	0x3de2fcfc	0.11083409
66	0xbe89c52d	-0.26908246
67	0x3e802284	0.25026333
68	0x3ea119a2	0.3146487
69	0xbf5ab677	-0.8543467
70	0xbf092c16	-0.53582895
71	0x3e993c81	0.29928973
72	0x3e528094	0.20556861
73	0xbed32bc3	-0.41244325
74	0xbf495969	-0.78652054
75	0xbed95e4f	-0.42454764
76	0x3eca891d	0.39557734
77	0xbdcb6912	-0.0993215
78	0xbe743636	-0.23848805
79	0x3e992766	0.2991287
80	0x3f2727d2	0.65295136
81	0xbb01ad38	-0.0019787084
82	0xbeb2b5d8	-0.3490436
83	0xbd99fa7e	-0.07518481
84	0xbe233878	-0.1593951
85	0x3ec5a3aa	0.38601428
86	0xbed747f8	-0.42047095
87	0xbf102fee	-0.56323135
88	0x3e962f35	0.2933289
89	0x3efcd658	0.4938228
90	0x3f02329b	0.5085847
91	0xbe8c328d	-0.27382317
92	0x3d4dd7cb	0.050254624
93	0xbe869b10	-0.26290178
94	0x3ef2d074	0.47424662
95	0x3e22b977	0.15891062
96	0x3e6dba46	0.23215589
97	0xbe53b46e	-0.20674297
98	0xbe71c2cc	-0.23609465
99	0x3eb72982	0.35773855
100	0xbdff1cde	-0.12456678
101	0xbe8edade	-0.27901357
102	0x3ea64b45	0.324793
103	0xbdb0ffb0	-0.086425185
104	0x3dc497a0	0.09599233
105	0x3f62939a	0.8850647
106	0x3d631b26	0.055445813
107	0x3d0a4604	0.03375818
108	0xbe105a5b	-0.14096968
109	0x3f625874	0.8841622
110	0xbb1d1aa0	-0.0023972169
111	0xbe3a8f3c	-0.18218702
112	0x3cee78b4	0.02911029
113	0xbec544a9	-0.38528946
114	0xbe1340b8	-0.14380157
115	0x3d7fe099	0.062470052
116	0xbec7716b	-0.3895372
117	0x3e429a54	0.19004184
118	0xbf1b6832	-0.60705864
119	0xbe6e3682	-0.2326298
120	0xbec5b9d6	-0.38618344
121	0x3ee97c38	0.45602584
122	0xbd822497	-0.06354635
123	0x3e9c76d5	0.30559412
124	0xbe9100a6	-0.28320807
125	0x3e316ff7	0.17327867
126	0x3eb99108	0.36243463
127	0xbec76bc5	-0.3894941
128	0x3e8b746a	0.27237254
129	0x3e99b08f	0.30017516
130	0x3f4f1474	0.80890584
131	0x3dbaf9ac	0.091296524
132	0xbd0bbf06	-0.03411772
133	0xbe9f80c0	-0.31152916
134	0x3f1af6be	0.6053275
135	0xbe110d12	-0.14165142
136	0xbdcbb9ee	-0.09947573
137	0x3f432c0a	0.76239073
138	0x3d82f3d8	0.06394166
139	0x3e931427	0.28726313
140	0x3f505da9	0.81392914
141	0xbe6f77c4	-0.2338553
142	0xbc030f72	-0.007999288
143	0xbec2c3ba	-0.38039953
144	0xbe035a3a	-0.12827387
145	0x3f42034e	0.7578629
146	0xbedbdf6a	-0.4294389
147	0xbec75a4d	-0.38936082
148	0x3f0654c6	0.52473104
149	0xbf80b385	-1.0054785
150	0xbeaebdc2	-0.3412915
151	0x3e4bf780	0.19918633
152	0xbf13bb4b	-0.5770766
153	0xbe5c731e	-0.21528289
154	0x3ef0a5c5	0.47001472
155	0x3d4d3766	0.05010166
156	0xbe16ab70	-0.14713836
157	0x3e8bae0b	0.27281222
158	0xbeb5abf9	-0.35482767
159	0x3ef3b8d0	0.47601938
160	0xbe5945fa	-0.212181
161	0x3deac48b	0.11463269
162	0xbda2d374	-0.07950488
163	0xbdb56400	-0.08856964
164	0x3e9c7358	0.3055675
165	0x3e0de179	0.13855542
166	0x3e226a6d	0.1586091
167	0xbe284113	-0.16431074
168	0xbea8432a	-0.32863742
169	0x3f22d56b	0.636069
170	0xbd9ae8d7	-0.07563942
171	0x3f0720e6	0.52784574
172	0xbe124d65	-0.14287336
173	0xbf425afb	-0.75920075
174	0x3e9a35f9	0.30119303
175	0x3de09ce6	0.10967426
176	0xbd47c2ac	-0.048769638
177	0x3e56a566	0.20961532
178	0x3e0b6767	0.13613664
179	0xbef8cfa1	-0.48595908
180	0xbf375823	-0.7161886
181	0x3e383be2	0.17991593
182	0x3bf7e650	0.007565297
183	0xbf1982fe	-0.59965503
184	0x3e4614de	0.19343898
185	0x3c74db50	0.014944866
186	0xbe0153e8	-0.12629664
187	0xbeff4282	-0.4985543
188	0xbd16fa20	-0.03685963
189	0xbf253fbc	-0.64550376
190	0x3e7db77d	0.24777026
191	0xbd2f95da	-0.04286752
192	0x3c40df68	0.011772014
193	0xbe841e16	-0.25804204
194	0x3eb4580a	0.35223418
195	0xbe887a49	-0.26655796
196	0x3e716470	0.2357347
197	0xbd900809	-0.070327826
198	0xbed8d67f	-0.42351148
199	0x3ea1d2d1	0.31606153
200	0xbf193e79	-0.5986095
201	0xbc8f2f80	-0.017478704
202	0x3e400153	0.18750505
203	0x3f0090d9	0.5022102
204	0xbbebb750	-0.0071934834
205	0xbeb0c6dc	-0.34526718
206	0xbeff4552	-0.49857575
207	0x3f207790	0.6268244
208	0x3d9ff345	0.07810072
209	0xbf3f2c1b	-0.74676675
210	0xbf4dd447	-0.80402035
211	0xbe580a5c	-0.21097702
212	0xbee39668	-0.44450688
213	0x3eb58956	0.35456342
214	0x3db711fc	0.08938977
215	0x3eeb8364	0.4599868
216	0x3f3208dd	0.69544774
217	0xbd7bdd18	-0.06149015
218	0xbe3e678b	-0.18594186
219	0xbed12fc2	-0.4085675
220	0x3f50c7fb	0.81555146
221	0x3d236d00	0.039898872
222	0x3ed4c1cb	0.41554102
223	0x3ec46b76	0.38363236
224	0xbe7cc8c1	-0.24685957
225	0xbf2292f3	-0.63505477
226	0xbf5f5a00	-0.87246704
227	0x3e8b6e6a	0.27232677
228	0x3b1ee350	0.0024244376
229	0xbf26b343	-0.6511728
230	0x3dbbe122	0.091738
231	0xbf3a3569	-0.7273775
232	0xbf4a3f2a	-0.7900263
233	0x3ec74afb	0.38924393
234	0x3c880910	0.016605884
235	0x3e065f0b	0.13122194
236	0xbefe7291	-0.49696782
237	0x3e2ffb01	0.17185594
238	0x3f43ff09	0.7656103
239	0x3f185c2a	0.5951563
240	0x3df84a88	0.12123591
241	0xbdc70e56	-0.09719531
242	0xbf8bc042	-1.0918047
243	0x3ef414ed	0.47672215
244	0xbf122735	-0.57091075
245	0xbec871f6	-0.39149445
246	0x3f2561ba	0.64602244
247	0xbf04d5dc	-0.51888824
248	0xbed518b2	-0.41620404
249	0xbe857de6	-0.26072615
250	0x3e501842	0.20321754
251	0xbd85d76e	-0.065352306
252	0x3f11a37e	0.56890094
253	0xbe33f6f0	-0.17574668
254	0x3e524c7f	0.20536993
255	0xbe994bb7	-0.29940578

bias f4 [64]
0	0x3e8ba8da	0.2727726
1	0x3d1e40fe	0.0386362
2	0xbd0b49d6	-0.034005962
3	0x3e82641e	0.25467008
4	0xbe6a9070	-0.22906661
5	0x3ea741e3	0.32667455
6	0x3ea285cd	0.31742707
7	0x3ecfd987	0.40595648
8	0xbeb2abe3	-0.34896764
9	0x3ec59b9d	0.38595286
10	0xbeee7957	-0.4657695
11	0x3dae770e	0.08518802
12	0xba101060	-0.0005495604
13	0x3d15dcbc	0.03658746
14	0x3dc98735	0.09840242
15	0x3f618b61	0.881033
16	0x3e266268	0.16248477
17	0x3db94e8e	0.09048186
18	0xbda776db	-0.08176967
19	0xbe9e1ce1	-0.30881408
20	0x3d961312	0.07327856
21	0xbe5c3906	-0.21506128
22	0xbd8e1384	-0.06937316
23	0x3d3fb9c0	0.046808004
24	0xbf44fc4e	-0.76947486
25	0xbdb960d8	-0.090516746
26	0x3eb9499b	0.3618897
27	0xbecd7cec	-0.4013437
28	0x3de7efba	0.11325021
29	0x3e7a30af	0.24432634
30	0x3f405640	0.7513161
31	0x3dbe609e	0.09295772
32	0xbe87a0f6	-0.2648999
33	0xbec599a3	-0.38593778
34	0x3e234cac	0.15947217
35	0x3d8c50f4	0.06851378
36	0x3e24e6e1	0.16103698
37	0x3e9cd0a0	0.30627918
38	0xbeabd1e6	-0.33558577
39	0x3e564e70	0.20928359
40	0xbe36e220	-0.17859697
41	0xbdf7b048	-0.1209417
42	0x3f102632	0.5630828
43	0x3f824379	1.0176841
44	0xbea502f8	-0.32228827
45	0xbe5dc9a0	-0.21658945
46	0x3dad74b4	0.08469525
47	0x3e822718	0.2542045
48	0x3ec002ed	0.37502232
49	0x3ec945ba	0.3931101
50	0xbe4f15db	-0.20223181
51	0x3d786b3c	0.06064914
52	0x3e2bef68	0.16790545
53	0xbee10d0a	-0.4395526
54	0xbe9562cd	-0.29176942
55	0xbeb562d2	-0.35426956
56	0x3f27d899	0.65564877
57	0x3ba99610	0.0051753595
58	0xbe12779a	-0.14303437
59	0xbdca8aa1	-0.098897226
60	0xbd3989f4	-0.045297578
61	0xbf8b3700	-1.087616
62	0x3da2a101	0.07940865
63	0xbef55e50	-0.47923517

weight f4 [6, 64]
0	0xbe9531d7	-0.29139587
1	0x3eac027d	0.33595648
2	0x3e9894ac	0.29800928
3	0x3eca8afe	0.39559168
4	0x3f853762	1.0407526
5	0x3e3724a3	0.1788507
6	0xbedf1b36	-0.43575448
7	0xbdc15452	-0.09439911
8	0x3e3a4509	0.18190397
9	0x3f35295f	0.7076625
10	0x3d349eae	0.04409664
11	0x3e93aab3	0.2884117
12	0x3eff985e	0.49920934
13	0xbec2c860	-0.380435
14	0x3d90d0fd	0.07071111
15	0x3c9e5e20	0.019331992
16	0xbf578a0c	-0.8419502
17	0x3d46672a	0.04843823
18	0xbd224339	-0.03961489
19	0xbea6f352	-0.32607514
20	0x3e6730da	0.22577229
21	0x3e228ba2	0.15873578
22	0x3f332376	0.69975984
23	0xbdb7fcc9	-0.08983762
24	0x3f440cc0	0.76581955
25	0xbea70f43	-0.3262883
26	0x3f672215	0.9028638
27	0x3e48e27f	0.19617651
28	0x3f475e05	0.7787784
29	0x3ed289cb	0.41120753
30	0x3e8c25ac	0.2737249
31	0x3d639c6b	0.055569094
32	0xbebcbce8	-0.36862874
33	0x3f094a82	0.53629315
34	0xbeb602ba	-0.35548955
35	0x3e080325	0.1328245
36	0x3e4fb616	0.20284304
37	0x3f152151	0.5825396
38	0x3ab6a980	0.0013936013
39	0x3f325a15	0.69668704
40	0xbe8533d5	-0.26016107
41	0xbf90756e	-1.1285837
42	0x3eac044c	0.33597028
43	0x3d884182	0.066531196
44	0xbea1a1c4	-0.3156873
45	0x3f0a9fc0	0.5415001
46	0x3d9be073	0.0761117
47	0x3f035d07	0.51313823
48	0x3e22d504	0.15901572
49	0xbe80fa2a	-0.2519086
50	0xbeb44a25	-0.35212818
51	0x3ec65e6c	0.38743913
52	0x3d394630	0.04523295
53	0x3e86167e	0.26189035
54	0x3f0f5ddb	0.5600259
55	0xbef0aa10	-0.47004747
56	0x3db2ef30	0.08737028
57	0xbf24a064	-0.64307237
58	0x3ebafd4c	0.36521375
59	0xbf11590e	-0.5677651
60	0x3ee9624a	0.455828
61	0xbe945ac6	-0.28975505
62	0x3e575f99	0.21032561
63	0x3f169a29	0.5882898
64	0x3ee5292d	0.44757977
65	0xbed6d48e	-0.4195904
66	0x3e9252d6	0.28578824
67	0xbec0392c	-0.3754362
68	0xbd20750a	-0.039174117
69	0x3cb75a20	0.022381842
70	0x3efefacc	0.49800718
71	0xbf432cc6	-0.76240194
72	0xba5cc4d0	-0.00084216613
73	0xbdb59373	-0.08866014
74	0x3f2fce61	0.68674284
75	0xbde6f1cf	-0.1127659
76	0xbe0f138a	-0.13972297
77	0xbf0d0a18	-0.55093527
78	0x3c8cc124	0.01718194
79	0xbe62483e	-0.2209787
80	0xbe806b31	-0.2508178
81	0x3e9d0680	0.30669022
82	0x3f08b6f1	0.53404146
83	0xbc45bf70	-0.012069568
84	0x3f6d04ca	0.9258543
85	0x3e2f2e1c	0.17107433
86	0x3e2c4ae3	0.16825442
87	0xbeb95a9c	-0.36201942
88	0xbe2e2ee2	-0.17010072
89	0xbf1dc717	-0.6163191
90	0xbfb4e60f	-1.4132708
91	0x3bb65860	0.0055647343
92	0x3eb72cd8	0.357764
93	0x3dc6e14a	0.09710939
94	0x3eaaf527	0.3339016
95	0x3e257aa7	0.1616007
96	0xbf3bee18	-0.7341018
97	0xbf18f22e	-0.59744537
98	0x3eb04946	0.34430903
99	0x3e82cc96	0.25546712
100	0xbca97a98	-0.02068834
101	0xbe9d6992	-0.30744606
102	0xbf159f65	-0.5844634
103	0xbea337f2	-0.3187862
104	0xbe04d45a	-0.1297163
105	0x3ea88312	0.329125
106	0xbbe78918	-0.0070659034
107	0x3f44a843	0.76819247
108	0xbead5096	-0.33850545
109	0xbed86a91	-0.42268804
110	0x3f7dfc61	0.99213225
111	0xbebbe7e8	-0.36700368
112	0x3c55709c	0.013027336
113	0x3e9c74f4	0.30557978
114	0x3ee34e32	0.44395596
115	0xbf1878fd	-0.59559613
116	0xbe2ac3c6	-0.16676244
117	0xbde8c151	-0.11364997
118	0x3ef2aa65	0.47395626
119	0xbdef768f	-0.11692535
120	0xbe23da11	-0.16001154
121	0x3e63fbc6	0.22264013
122	0xbf0899a8	-0.5335946
123	0x3e7f490e	0.24930212
124	0x3e355635	0.17708667
125	0x3e478939	0.1948594
126	0x3f1d1e98	0.6137481
127	0xbda0ab04	-0.07845119
128	0x3e8f547b	0.2799414
129	0xbe623e78	-0.22094142
130	0x3e06722e	0.13129494
131	0x3e3bc412	0.18336514
132	0x3f1a1683	0.601906
133	0x3f044d05	0.5168002
134	0xbe3e3535	-0.18574984
135	0x3c68ee74	0.014217008
136	0x3ee00fa8	0.43761945
137	0x3f831edf	1.0243796
138	0xbd4b70c4	-0.04966809
139	0xbd7b87cc	-0.061408803
140	0xbd5149fb	-0.051095944
141	0xbf042341	-0.51616293
142	0x3e87248b	0.26395068
143	0x3f6b9bce	0.92034614
144	0xbc98886e	-0.018619742
145	0xbec2e63d	-0.38066283
146	0xbf4e60d7	-0.80616516
147	0x3e122009	0.14270033
148	0xbe480e40	-0.19536686
149	0x3d87ddd5	0.06634108
150	0x3e0f29ce	0.13980791
151	0x3c97677e	0.018481966
152	0xbe967ca5	-0.2939197
153	0xbf4dc689	-0.80381066
154	0x3eea19c2	0.45722777
155	0x3c557078	0.013027303
156	0xbeeaf537	-0.4589021
157	0xbed99ab7	-0.4250085
158	0xbde8a303	-0.11359217
159	0xbe10f062	-0.14154199
160	0x3e26a731	0.16274716
161	0xbe51830c	-0.20460147
162	0xbf46dade	-0.77677715
163	0x3e9e92c8	0.3097136
164	0xbec0912a	-0.3761075
165	0xbea47808	-0.32122827
166	0xbf393ee0	-0.72361565
167	0x3eb26efa	0.34850293
168	0xbd2f353b	-0.042775374
169	0xbee234ab	-0.44180807
170	0x3e9c60ff	0.30542752
171	0x3f13909b	0.57642525
172	0x3e93ee6a	0.28892833
173	0x3e850a6b	0.2598451
174	0xbe89d697	-0.26921532
175	0x3e7bbfd3	0.24584894
176	0xbf0824fc	-0.53181434
177	0x3da6599a	0.08122559
178	0x3db77f10	0.08959782
179	0xbe96947b	-0.29410157
180	0xbd0726cc	-0.032995984
181	0x3d85a21f	0.06525063
182	0x3d23b8ac	0.03997104
183	0x3e35b83d	0.17746063
184	0x3ecead9b	0.40366825
185	0xbd8fe122	-0.070253626
186	0xbe883485	-0.2660257
187	0x3ebfba25	0.37446705
188	0xbea90e25	-0.33018604
189	0x3ddcf8d6	0.10789649
190	0xbed9d319	-0.42543867
191	0x3d883981	0.06651593
192	0x3ee793a7	0.45229837
193	0xbf1443fe	-0.5791625
194	0xbf31c326	-0.694384
195	0xbf45363c	-0.7703588
196	0xbd169154	-0.03675969
197	0xbc8cf9a8	-0.01720889
198	0xbeb37df5	-0.35057035
199	0xbe987286	-0.29774874
200	0x3e833e26	0.25633353
201	0x3f7afc3f	0.98041147
202	0x3f21c30a	0.6318823
203	0xbf654d3e	-0.8957099
204	0xbeff0906	-0.49811572
205	0xbf018145	-0.50587875
206	0x3bf71a80	0.007541001
207	0x3ed04947	0.40680906
208	0x3ca3c2d4	0.019990362
209	0x3e95348e	0.2914166
210	0xbe36a571	-0.17836548
211	0xbf0c9ba1	-0.5492497
212	0x3e5d1b3a	0.21592417
213	0x3e5f51ab	0.21808498
214	0x3e0afe5f	0.13573597
215	0x3e695a4c	0.22788352
216	0xbe9f125d	-0.31068698
217	0xbde0f329	-0.10983879
218	0xbe43af58	-0.19109857
219	0x3e9ea49a	0.30984956
220	0xbf0012a1	-0.50028425
221	0x3e09da2a	0.13462129
222	0x3d71c767	0.059028056
223	0xbe7b78ee	-0.2455785
224	0xbb964e40	-0.004586965
225	0x3dfe95de	0.12430929
226	0x3dbb59d2	0.09147991
227	0xbf33165a	-0.6995598
228	0x3f3eee85	0.745827
229	0xbee305a6	-0.44340247
230	0x3dd5db1a	0.10442181
231	0xbd810436	-0.06299631
232	0x3cd5575f	0.026042638
233	0xbea8f010	-0.32995653
234	0x3e2cf151	0.1688893
235	0xbb97ac80	-0.004628718
236	0xbe8f741c	-0.28018272
237	0x3ed33103	0.4124833
238	0x3eae34a4	0.34024537
239	0x3f144fb9	0.5793415
240	0x3e18c050	0.14917111
241	0x3cd87740	0.02642405
242	0xbe83553d	-0.2565097
243	0xbd674500	-0.056462288
244	0xbda13db1	-0.07873095
245	0x3f1dc096	0.6162199
246	0x3db7ebd3	0.08980527
247	0x3e3ac01e	0.1823735
248	0xbda528e3	-0.08064439
249	0x3e7a2056	0.24426398
250	0xbe1a9f25	-0.15099771
251	0xbf3497ef	-0.7054433
252	0x3dede808	0.11616522
253	0x3c3edd7e	0.011649488
254	0xbe77676c	-0.24160546
255	0x3e223f2c	0.1584441

bias f4 [6]
0	0x3ee91800	0.45526123
1	0xbe421f76	-0.18957314
2	0x3ec4ec82	0.3846169
3	0xbeb0f6bc	-0.34563243
4	0x3a0a0700	0.00052653253
5	0xbe953b92	-0.2914701
