ga_weights/ga2/HalfCheetah-v5/PPO/weights8.pt (torch, 25761 bytes, 6 tensors)

weight f4 [64, 17]
0	0x3ebea514	0.3723532
1	0xbdc3c5f7	-0.09559243
2	0x3deb73b7	0.1149668
3	0xbe394c74	-0.18095571
4	0xbdbe356a	-0.09287532
5	0xbe4b40c2	-0.19848922
6	0x3de47da3	0.11156776
7	0xbd910fce	-0.07083093
8	0x3d90d16c	0.07071194
9	0xbe41d550	-0.18929029
10	0x3e9f28cf	0.31085822
11	0xbe1a1878	-0.15048397
12	0x3e957aa7	0.2919514
13	0xbeaedd48	-0.341532
14	0x3e9fc02d	0.31201306
15	0xbd16e06e	-0.036835127
16	0x3c880a48	0.016606465
17	0xbd469c84	-0.04848911
18	0x3d42f0e1	0.047593
19	0xbd997874	-0.07493678
20	0x3de6a2a7	0.11261492
21	0x3f2cd1ae	0.67507446
22	0x3e8732e4	0.26406014
23	0x3d8ff461	0.070290335
24	0xbebe5863	-0.3717681
25	0xbe55da46	-0.20884046
26	0x3e7a8a33	0.24466781
27	0xbe2c8a54	-0.16849643
28	0x3ed12ce6	0.40854567
29	0xbc980ddc	-0.018561296
30	0xbcc3fe04	-0.023924835
31	0xbe5f819c	-0.21826786
32	0x3dd8eb88	0.10591799
33	0x3d33e96e	0.043923788
34	0xbd5aa4e5	-0.053379912
35	0xbf03f93d	-0.5155218
36	0x3e17b699	0.14815749
37	0x3d26dcd4	0.04073794
38	0xbd9fc600	-0.078014374
39	0xbe7ce578	-0.2469691
40	0xbe336216	-0.17517886
41	0xbe387ce8	-0.18016398
42	0xbd291f64	-0.041289702
43	0x3bc20630	0.0059211478
44	0xbe5fa687	-0.21840869
45	0xbd786c3c	-0.060650095
46	0xbd92c752	-0.071669236
47	0x3ceddc28	0.029035643
48	0xbd3bf67e	-0.04588937
49	0x3f2036e6	0.6258377
50	0xbd9034ba	-0.07041307
51	0x3c59c248	0.013290949
52	0x3d4aa8d4	0.049477413
53	0x3e9a75e4	0.30168068
54	0xbdc2352a	-0.094827965
55	0xbceff1c4	-0.029290088
56	0x3cdd0ae0	0.026982725
57	0xbe4a41c9	-0.19751658
58	0xbe0c0abb	-0.13675968
59	0x3ce85358	0.028360054
60	0xbf0e6d5b	-0.55635613
61	0x3e1396ce	0.14412996
62	0x3c643fa7	0.0139311915
63	0xbdab98fb	-0.08378788
64	0x3da79348	0.081823885
65	0x3ef8c15c	0.48585021
66	0xbe331d3f	-0.17491625
67	0xbe6f3211	-0.23358943
68	0xbcb75ec4	-0.022384055
69	0xbe31abe2	-0.17350724
70	0xbe19c891	-0.15017916
71	0x3d4e6a6d	0.050394464
72	0xbd804826	-0.06263761
73	0x3e455e36	0.1927422
74	0xbdb4583a	-0.088058904
75	0xbed90a32	-0.4239059
76	0x3cac5670	0.02103731
77	0x3f28b438	0.6589999
78	0xbca45a48	-0.02006258
79	0x3df247bf	0.11830091
80	0x3ecac40a	0.3960269
81	0x3e556c65	0.2084213
82	0xbe2a7bb2	-0.16648749
83	0xbde23c24	-0.11046627
84	0xbdc6c1f1	-0.0970496
85	0x3e604869	0.21902622
86	0x3e1708ce	0.14749452
87	0xbd48b4fc	-0.049000725
88	0xbf0a8464	-0.5410826
89	0xbe39307e	-0.18084905
90	0x3da4afe0	0.08041358
91	0xbe473577	-0.19453989
92	0x3d2c493a	0.04206202
93	0x3e5f7e46	0.21825513
94	0xbcd90a12	-0.02649406
95	0xbdf29b0e	-0.118459806
96	0xbe42dea6	-0.19030246
97	0x3c8a9650	0.016917378
98	0x3e8e41c1	0.2778454
99	0xbcc63ec4	-0.02419985
100	0x3d742b81	0.0596118
101	0x3e895625	0.26823536
102	0x3e958a73	0.2920719
103	0xbb3c7650	-0.0028757043
104	0xbe05a671	-0.13051774
105	0x3e280d54	0.16411334
106	0xbe400184	-0.18750578
107	0x3ecc53b6	0.39907616
108	0x3e0d2154	0.13782245
109	0x3e0a3180	0.13495445
110	0xbe4b40f3	-0.19848995
111	0xbf265ca0	-0.64985085
112	0xbe741488	-0.23835957
113	0x3eecef3d	0.46276274
114	0x3e7fb4f7	0.24971376
115	0xbea36838	-0.3191545
116	0x3ddd366e	0.10801397
117	0xbe971e25	-0.29515186
118	0xbeb1c910	-0.3472371
119	0x3b1fda40	0.0024391562
120	0x3e29e1fc	0.16590112
121	0xbe8b3ba1	-0.2719393
122	0x3c47fba0	0.012205988
123	0xbe6ca25e	-0.23108813
124	0xbd415fd8	-0.047210544
125	0xbe8e4d65	-0.27793422
126	0xbdf0102b	-0.11721834
127	0x3c8ea0a8	0.017410591
128	0xbddea3ab	-0.10871061
129	0xbe10fabe	-0.1415815
130	0xbe7312fd	-0.23737712
131	0xbd0318ed	-0.032006193
132	0xbca3a965	-0.019978235
133	0x3e2f195c	0.17099518
134	0xbc36a1c8	-0.01114697
135	0xbefbfe96	-0.4921767
136	0xb9e6d800	-0.0004402995
137	0x3e86319e	0.2620973
138	0xbe85018b	-0.2597774
139	0xbcd02104	-0.025406368
140	0xbdbb9f7f	-0.09161281
141	0x3d6ae580	0.057347775
142	0xbe0f253f	-0.13979052
143	0x3e0313ff	0.12800597
144	0xbd355e80	-0.044279575
145	0xbcc8dba0	-0.024518788
146	0x3db79711	0.089643605
147	0x3eb6cb7b	0.35702118
148	0x3e76a20e	0.24085256
149	0xbe2c2fc2	-0.16815093
150	0x3db1da1b	0.086841784
151	0xbe33b72a	-0.1755034
152	0x3e8d3121	0.27576545
153	0xbe303e32	-0.17211226
154	0xbaddac00	-0.0016912222
155	0xbd9d593b	-0.07683035
156	0xbea49aed	-0.3214945
157	0xbe026fdc	-0.12737983
158	0xbdde152a	-0.108438805
159	0xbe08e99b	-0.13370363
160	0x3dde9116	0.10867517
161	0xbd4c78c2	-0.04991985
162	0x3df3aa35	0.11897699
163	0xbe5312aa	-0.20612589
164	0x3e2391be	0.15973565
165	0x3e5a9862	0.21347192
166	0x3d5dfc70	0.05419582
167	0x3e1a4b23	0.15067725
168	0x3e6e898c	0.23294657
169	0x3d18a645	0.037267942
170	0x3e876513	0.264443
171	0xbe893a4c	-0.2680229
172	0x3e89a953	0.26886997
173	0x3e9798f4	0.2960888
174	0xbe9f9613	-0.31169185
175	0xbe044f36	-0.12920842
176	0xbe05c868	-0.1306473
177	0x3ec27452	0.3797937
178	0x3e91ae0a	0.28453094
179	0xbeeaed3e	-0.45884126
180	0xbed50e22	-0.41612345
181	0xbdbc0d08	-0.09182173
182	0xbd33ff20	-0.043944478
183	0xbd36c630	-0.0446226
184	0xbd2cbfec	-0.04217522
185	0x3ea65400	0.32485962
186	0x3d2cb43e	0.04216408
187	0x3f164428	0.5869775
188	0xbd48a2e7	-0.04898348
189	0xbd704fa4	-0.0586697
190	0xbe17c9d6	-0.14823088
191	0xbea783c1	-0.32717708
192	0x3e6d0e8f	0.23150085
193	0xbd6f161e	-0.058370702
194	0x3eb1b4d9	0.34708288
195	0x3db9d0bb	0.09073015
196	0x3ea7668e	0.3269543
197	0xbec05634	-0.37565768
198	0xbe14e1aa	-0.14539209
199	0xbe7244d6	-0.23659071
200	0xbdbae07a	-0.09124847
201	0x3e0c7b41	0.13718893
202	0x3e76bedc	0.24096245
203	0x3d340922	0.043954022
204	0x3e903d51	0.2817178
205	0xbc32fa24	-0.010923896
206	0x3dc3b6be	0.0955634
207	0x3e43cedf	0.19121884
208	0xbdfd9072	-0.123810664
209	0x3e983d02	0.29734045
210	0xbee298d9	-0.44257239
211	0x3e768874	0.2407549
212	0xbdf1792e	-0.11790691
213	0x3e412dbc	0.18865103
214	0x3e1c5241	0.15265752
215	0x3ed81999	0.4220703
216	0xbc3f3520	-0.011670381
217	0xbe6d1f20	-0.23156404
218	0x3c283ef4	0.010268915
219	0x3e34c17a	0.1765193
220	0xbd9de7ac	-0.077102035
221	0xbdecb48c	-0.11557874
222	0xbeea320d	-0.4574131
223	0xbe51cb99	-0.20487823
224	0x3df1819c	0.11792299
225	0x3e7a2bdf	0.24430798
226	0x3cf65556	0.030069988
227	0x3d953d0f	0.07287037
228	0xbf2d2812	-0.6763927
229	0xbdb42fbe	-0.087981686
230	0x3dd4da1a	0.10393162
231	0xbe93e51e	-0.2888574
232	0x3e14818b	0.14502542
233	0xbeec7ec6	-0.4619047
234	0x3dc0bd51	0.09411109
235	0xbee3ed28	-0.44516873
236	0xbd4e8597	-0.05042037
237	0xbc06dbc0	-0.008231103
238	0x3dae9ef1	0.085264094
239	0x3ec7f670	0.39055204
240	0xbde50cf0	-0.11184108
241	0xbdc1f6c3	-0.09470894
242	0x3d167fe0	0.036743045
243	0xbcdf2f14	-0.027244128
244	0x3e5a634d	0.21326943
245	0xbd18f4e9	-0.03734294
246	0x3d78f950	0.060784638
247	0xbe48535a	-0.19563046
248	0x3e45de71	0.19323136
249	0xbee161de	-0.4401998
250	0xbe6e314f	-0.23260997
251	0x3e564296	0.20923838
252	0x3ee291e8	0.44251943
253	0x3c9edeaa	0.019393284
254	0xbc475170	-0.012165412
255	0xbeab4aa9	-0.334554

bias f4 [64]
0	0x3e5e0e97	0.21685253
1	0xbe07ca3f	-0.13260745
2	0xbd908229	-0.07056076
3	0x3c5f0534	0.01361208
4	0x3e96d800	0.2946167
5	0x3f11040d	0.56646806
6	0x3da7df87	0.08196931
7	0xbb77d680	-0.003781706
8	0xbde369ce	-0.11104165
9	0xbc2e09b8	-0.010622434
10	0x3e645b42	0.22300437
11	0xbe9aa3ae	-0.30203003
12	0xbd34d15b	-0.04414497
13	0xbdb2f698	-0.0873844
14	0xbcaf23b0	-0.021379322
15	0xbe09b6f8	-0.13448703
16	0xbe6d8022	-0.2319341
17	0x3e38f25a	0.180612
18	0x3e428702	0.18996814
19	0xbdcee66c	-0.10102543
20	0x3cacf180	0.02111125
21	0x3ea6fde9	0.32615593
22	0xbde3f035	-0.111298
23	0xbe77ab4e	-0.24186441
24	0xbe1fc1a8	-0.15601218
25	0xbe2194e7	-0.15779458
26	0x3dffa7b5	0.124831595
27	0x3db8009a	0.0898449
28	0xbeaf6b1b	-0.34261402
29	0xbecef3a1	-0.4042025
30	0x3d7a0beb	0.061046522
31	0x3d39d35e	0.04536759
32	0xbea52eb1	-0.32262185
33	0xbe2589bd	-0.16165824
34	0xbbfb92a8	-0.007677395
35	0xbdc38ffa	-0.09548946
36	0xbdc502e0	-0.09619689
37	0x3cd8d90c	0.026470684
38	0xbdb7b6de	-0.08970426
39	0xbe44eb83	-0.19230466
40	0x3e30f721	0.17281772
41	0x3e837c45	0.25680748
42	0x3cec282c	0.02882775
43	0x3e4b714a	0.19867435
44	0xbd0d057c	-0.03442906
45	0x3e2b5d4b	0.16734807
46	0xbd33fdc4	-0.04394318
47	0xbe970e5c	-0.29503143
48	0xbe428000	-0.1899414
49	0x3cddc51c	0.027071528
50	0x3c50bab0	0.012739822
51	0x3ee38d71	0.4444385
52	0x3e6b9822	0.23007253
53	0x3ebffdc8	0.37498307
54	0xbe25b6c6	-0.16183004
55	0xbc9f760c	-0.019465469
56	0x3e5d3641	0.21602727
57	0xbf008b06	-0.5021213
58	0x37194000	9.134412e-06
59	0xbc2f96c0	-0.010717094
60	0x3dc1ff8b	0.09472569
61	0x3d1f7cee	0.0389375
62	0xbeac8b3f	-0.33699986
63	0x3d81b292	0.06332888

weight f4 [64, 64]
0	0x3dc37a77	0.09544843
1	0x3d026548	0.03183487
2	0xbd815259	-0.06314535
3	0xbe2f4396	-0.17115626
4	0x3f217928	0.63075495
5	0xba082800	-0.0005193949
6	0x3e60a7ea	0.21939054
7	0xbd39adf9	-0.04533193
8	0xbeb938a2	-0.3617602
9	0x3e677813	0.22604398
10	0x3ea917c6	0.3302595
11	0xbe59a55e	-0.21254489
12	0xbcdb93e4	-0.026803918
13	0x3e703694	0.2345832
14	0x3e416e40	0.18889713
15	0xbd0d7c7a	-0.03454254
16	0x3e06c08c	0.13159388
17	0x3e1b40b1	0.15161397
18	0x3dee6f7e	0.11642359
19	0xbdb83928	-0.08995277
20	0x3d589186	0.052873157
21	0x3aef4e40	0.0018257573
22	0x3e9b4ade	0.30330557
23	0x3c9105ec	0.01770302
24	0x3e04ada7	0.12956868
25	0xbe510b33	-0.20414428
26	0xbe8e74d3	-0.27823505
27	0x3e8298be	0.25507158
28	0x3db83112	0.089937344
29	0x3c2bce38	0.010486178
30	0x3e9bd300	0.30434418
31	0x3e0e733f	0.1391115
32	0x3d9cb38e	0.07651435
33	0x3e911e96	0.28343648
34	0x3cc1cf8f	0.023658542
35	0xbb795040	-0.0038042217
36	0x3d73a722	0.059485562
37	0x3e55894c	0.20853156
38	0x3decd240	0.115635395
39	0xbd822222	-0.063541666
40	0x3dab882a	0.083755806
41	0x3dad2e97	0.08456152
42	0x3e2eb8e8	0.17062724
43	0xbe81ef60	-0.2537794
44	0xbe8d9a40	-0.27656746
45	0x3c9ec090	0.01937893
46	0xbdc98c78	-0.098412454
47	0x3cb04504	0.021517284
48	0x3c9b4150	0.018952042
49	0xbe514e2d	-0.20439978
50	0x3e474d43	0.19463067
51	0x3e6b2342	0.22962669
52	0xbd3ab250	-0.04558021
53	0xbf026655	-0.50937396
54	0x3e41f868	0.18942416
55	0x3d695c8b	0.05697302
56	0xbefb4fe6	-0.49084395
57	0xbe2f96ae	-0.17147323
58	0x3ea9523e	0.33070558
59	0x3e9cb56f	0.30607173
60	0xbe997aa6	-0.29976386
61	0xbe80eba6	-0.25179785
62	0xbebd1ba6	-0.36935157
63	0x3e25ebcc	0.1620323
64	0x3cf31cac	0.029676758
65	0xbeb34b43	-0.35018358
66	0x3e9acfb2	0.30236584
67	0x3c6ce479	0.014458769
68	0xbe7ede60	-0.24889517
69	0xbf2b21a6	-0.6684822
70	0xbf16126e	-0.5862187
71	0x3de6d4d6	0.11271064
72	0xbec2d2ca	-0.38051444
73	0xbedb88fd	-0.4287795
74	0x3e8b77b5	0.27239767
75	0x3dc98869	0.09840471
76	0xbe07ce9d	-0.1326241
77	0x3e1e44cf	0.15455936
78	0x3ec84fb8	0.3912332
79	0x3e95a588	0.29227853
80	0x3e54a148	0.20764649
81	0x3e17c669	0.14821781
82	0xbc863ea8	-0.016387299
83	0xbe9e1e25	-0.30882373
84	0xbe6fab13	-0.23405103
85	0x3e1d4b2e	0.1536071
86	0xbde51602	-0.11185838
87	0xbe7abb20	-0.24485445
88	0x3da2209e	0.079163775
89	0x3eb999f4	0.3625027
90	0xbda3eb5c	-0.080038756
91	0xbe94604b	-0.28979716
92	0xbc6b0570	-0.014344558
93	0xbf0d8f96	-0.5529722
94	0xbcccba86	-0.024991285
95	0xbb4b94e0	-0.0031064078
96	0x3ea8a7a6	0.32940406
97	0xbe73fdea	-0.2382733
98	0x3df9afb3	0.12191715
99	0x3ddf02ce	0.10889207
100	0xbe49a878	-0.19693172
101	0xbd6949de	-0.05695521
102	0xbe2b2352	-0.16712692
103	0xbd9e73f0	-0.07736957
104	0xbe6b6f48	-0.22991669
105	0x3e012a6e	0.12613842
106	0x3e69e93c	0.22842878
107	0xbcf70ff8	-0.030158982
108	0x3cc1e6dc	0.023669653
109	0xbdf55cc4	-0.11980584
110	0xbd97bde9	-0.07409269
111	0x3e64f851	0.2236035
112	0xbe4e4204	-0.2014237
113	0x3ba03780	0.0048894286
114	0xbd803b78	-0.06261343
115	0xbb394060	-0.002826713
116	0xbed5bf7f	-0.41747662
117	0x3e98c4e7	0.29837725
118	0xbe7ac0ce	-0.24487612
119	0xbd963b43	-0.07335522
120	0xbe56e5dc	-0.20986122
121	0x3e4535ba	0.19258776
122	0x3ab9d298	0.0014177142
123	0xbe5ffaf9	-0.21873082
124	0xbed9fea1	-0.4257708
125	0x3de2c8dc	0.11073467
126	0x3e251823	0.16122489
127	0xbec4b6f5	-0.38420835
128	0x3edaf98a	0.42768508
129	0xbe7a6274	-0.2445162
130	0x3d822cea	0.06356223
131	0xbd9a23f9	-0.075263925
132	0xbd02745e	-0.031849258
133	0xbe942322	-0.28933054
134	0x3cf6e6c6	0.030139338
135	0x3dc55356	0.09635036
136	0xbe135168	-0.14386523
137	0xbea8f52f	-0.3299956
138	0x3d202f08	0.039107352
139	0xbd9c2f4e	-0.0762621
140	0x3edf8cf8	0.43662238
141	0xbe7c4a00	-0.24637604
142	0xbd838f7f	-0.06423854
143	0x3e8d6032	0.27612454
144	0x3d4e08ff	0.050301548
145	0xbeaa0e5c	-0.3321408
146	0x3e98c303	0.29836282
147	0xbd5f6fa9	-0.054549847
148	0x3d4ea0a4	0.050446168
149	0x3d1e1ee5	0.038603682
150	0xbd3c510e	-0.045975737
151	0xbd0c4e00	-0.034254074
152	0x3eca9c28	0.39572263
153	0xbe310976	-0.17288765
154	0xbdd88bbc	-0.10573527
155	0x3de57373	0.11203661
156	0x3e2510b4	0.16119653
157	0x3e032e08	0.12810528
158	0x3e8a451a	0.27005845
159	0x3e7bdb32	0.24595335
160	0xbea4e0e4	-0.32202828
161	0xbe1cd2ed	-0.15314837
162	0xbe309bdb	-0.17246954
163	0xbecac086	-0.3960001
164	0x3eafdfbe	0.3435039
165	0x3e8c61d6	0.27418393
166	0x3e8baa28	0.27278256
167	0xbe8b7f6a	-0.27245647
168	0x3d945106	0.072420165
169	0xbdc1edf1	-0.09469212
170	0x3e66d560	0.22542334
171	0xbeb019b0	-0.34394598
172	0xbdbab770	-0.09117019
173	0xbe6c89de	-0.23099467
174	0x3c59f6a0	0.013303429
175	0x3e8f7411	0.2801824
176	0x3e0f4d83	0.13994412
177	0x3d879261	0.066197164
178	0xbe811c1d	-0.2521676
179	0x3de325a1	0.110911615
180	0x3cd57818	0.026058242
181	0x3da9609a	0.082703784
182	0xbda5b6a2	-0.08091475
183	0x3e3fb295	0.18720467
184	0x3f2b5251	0.6692248
185	0x3de86c34	0.11348763
186	0xbdc97b24	-0.0983794
187	0x3da199df	0.07890677
188	0xbc6e5cc5	-0.014548485
189	0xbed2fc34	-0.4120804
190	0xbdb6ba36	-0.08922236
191	0xbd569dec	-0.0523967
192	0xbc610e90	-0.013736382
193	0x3dd59339	0.10428471
194	0x3d98669c	0.07441446
195	0xbe98e965	-0.29865566
196	0xbe45470a	-0.1926538
197	0xbd12e98f	-0.03586727
198	0xbe0716b2	-0.13192251
199	0x3f15593d	0.5833929
200	0x3e5a1bf9	0.21299733
201	0x3e3ad8be	0.18246743
202	0x3e953e47	0.29149076
203	0x3de88579	0.11353583
204	0xbde7cf00	-0.11318779
205	0xbddd9558	-0.10819501
206	0x3ed24e36	0.41075295
207	0x3dbe8c08	0.093040526
208	0x3e9bf720	0.3046198
209	0x3eaa33b5	0.33242574
210	0x3eecb8f8	0.4623487
211	0xbd8563a6	-0.06513147
212	0xbe57fa08	-0.21091473
213	0xbdc62110	-0.09674275
214	0x3de1d76d	0.11027417
215	0x3e8f4a13	0.27986202
216	0x3eb8616f	0.36011836
217	0x3c94a248	0.018143788
218	0x3d7f1862	0.062279113
219	0xbd5140c3	-0.051087152
220	0xbec615b3	-0.3868843
221	0xbe94950c	-0.29019964
222	0x3dd227e5	0.102615155
223	0xbd85675d	-0.065138556
224	0xbf006fa9	-0.5017038
225	0xbe95ea0d	-0.2928013
226	0x3e908eea	0.28234035
227	0x3d2103ca	0.039310254
228	0x3e84a72c	0.25908792
229	0xbe78e59c	-0.24306339
230	0xbe4ece8b	-0.20195977
231	0x3eccf6e2	0.40032107
232	0x3e1a907a	0.15094176
233	0x3dee90e0	0.116487265
234	0x3d36159a	0.044454195
235	0x3d96bc14	0.07360092
236	0xbe0f5854	-0.13998538
237	0x3e222528	0.15834486
238	0xbe5cf8d4	-0.21579295
239	0xbe8d9aea	-0.27657253
240	0xbddde91d	-0.108354785
241	0x3d5e1c85	0.054226417
242	0xbe291882	-0.16513255
243	0xbe478c0e	-0.1948702
244	0xbf63abed	-0.8893421
245	0x3e0cee32	0.1376274
246	0x3e2a2f46	0.16619596
247	0x3ee05475	0.43814436
248	0x3ecd306f	0.40076014
249	0xbe6ef999	-0.23337401
250	0xbf433853	-0.7625782
251	0x3e4ac22b	0.19800632
252	0x3c98ef71	0.018668862
253	0x3dc35f6e	0.09539686
254	0xbdfcb87a	-0.123398736
255	0x3e55cb20	0.20878267

bias f4 [64]
0	0xbe4daf10	-0.20086312
1	0xbe5e0f41	-0.21685506
2	0x3cd9fe16	0.026610415
3	0x3d90570f	0.07047855
4	0x3c82bdd2	0.015959654
5	0xbe4a80af	-0.19775651
6	0x3e87d5fa	0.2653044
7	0xbe336ac9	-0.17521204
8	0xbe319efc	-0.17345804
9	0xbcdcee98	-0.02696924
10	0x3e0b3fa6	0.13598499
11	0x3e3a7556	0.18208823
12	0xbf0eb4b6	-0.55744493
13	0xbbfde4a0	-0.0077482015
14	0x3e824aa0	0.2544756
15	0x3e6ba99e	0.23013923
16	0xbe7727b9	-0.24136247
17	0xbb8cd8e4	-0.0042983163
18	0xbf0bda47	-0.5462994
19	0xbeb4cc74	-0.35312235
20	0xbe145fa6	-0.14489612
21	0x3dc14166	0.09436302
22	0xbd6b2528	-0.05740848
23	0x3ae7c9c0	0.0017684028
24	0x3ee7e360	0.4529066
25	0x3d4fccd1	0.050732438
26	0x3e451d8d	0.19249554
27	0xba481278	-0.00076321466
28	0x3f07573c	0.52867484
29	0xbd1f8282	-0.03894282
30	0x3d9b12f8	0.075719774
31	0xbdf2e0d6	-0.1185929
32	0x3e5055b9	0.203452
33	0x3e85d672	0.2614017
34	0x3e40293a	0.18765727
35	0x3dca32ee	0.09872995
36	0xbe400662	-0.18752435
37	0xbccc46d0	-0.02493611
38	0xbea776c9	-0.32707813
39	0xbdc613c6	-0.0967174
40	0xbe06cc25	-0.13163812
41	0xbdcd33c6	-0.100196406
42	0xbde9ff3d	-0.11425636
43	0xbe6d27a6	-0.23159656
44	0x3e88c1fc	0.26710498
45	0xbdea0ac4	-0.11427835
46	0x3dccf4db	0.1000764
47	0x3ec5efac	0.38659418
48	0xbd6d5a94	-0.05794771
49	0xbdad674e	-0.084669694
50	0x3ee6c82c	0.45074594
51	0xbdd8b216	-0.10580842
52	0x3e15ebfe	0.14640805
53	0x3e2882c5	0.16456135
54	0xbe1a0dda	-0.15044346
55	0x3df7c74c	0.1209856
56	0x3ea3c556	0.31986493
57	0xbe2c97fa	-0.1685485
58	0xbdc6577a	-0.096846536
59	0x3d092157	0.03347906
60	0x3e866692	0.2625013
61	0x3dbb1be7	0.09136181
62	0xbd8c71b8	-0.06857628
63	0xbe183966	-0.14865646

weight f4 [6, 64]
0	0xbf11f0f7	-0.5700831
1	0x3e48b4a2	0.19600156
2	0xbe968370	-0.29397154
3	0xbd9bafd6	-0.076018974
4	0x3e8f46fb	0.2798384
5	0xbd7d829a	-0.06189213
6	0xbd685690	-0.056723177
7	0xbe543733	-0.20724182
8	0xbc5f42e8	-0.013626792
9	0x3e140fc8	0.14459145
10	0xbecdd4d6	-0.40201443
11	0xbd82786b	-0.06370624
12	0x3c89df27	0.01683004
13	0x3ed640d3	0.41846332
14	0xbd78a7f3	-0.060707044
15	0x3e5b73cc	0.21430892
16	0x3e76535e	0.2405524
17	0x3e871458	0.2638271
18	0x3ed3237b	0.41238007
19	0x3e350b7b	0.1768016
20	0x3c8bd970	0.017071456
21	0xbe0189ed	-0.12650271
22	0xbdbca7fd	-0.09211729
23	0x3e5877fd	0.21139522
24	0xbe5fd4f9	-0.21858586
25	0x3c02fb28	0.007994451
26	0x3df61b18	0.120168865
27	0xbe93214a	-0.28736335
28	0xbc80e99a	-0.01573639
29	0x3ef17b3b	0.4716433
30	0xbea44199	-0.32081297
31	0x3e01affd	0.1266479
32	0x3d8cfe7e	0.06884478
33	0xbe34fdef	-0.17674993
34	0xbc31baf2	-0.010847794
35	0xbea8fad3	-0.33003864
36	0xbd56e098	-0.052460283
37	0x3e01ab75	0.12663062
38	0xbed0c061	-0.40771773
39	0xbea22ca5	-0.31674686
40	0x3e7b29fe	0.24527737
41	0xbea42cc0	-0.32065392
42	0x3d8b5bf5	0.06804649
43	0x3e3dfdee	0.18553898
44	0x3efd5291	0.49477056
45	0x3d3375e0	0.043813586
46	0xbeb6e8d4	-0.3572451
47	0x3d83e0ea	0.06439383
48	0x3e41a3f6	0.18910202
49	0x3f348580	0.70516205
50	0xbe3410f2	-0.17584589
51	0x3e450bd8	0.192428
52	0xbed7dcd1	-0.42160657
53	0x3e9ac9cf	0.30232093
54	0x3e390403	0.18067937
55	0x3ea2de1e	0.31810087
56	0xbeea4da2	-0.45762354
57	0x3e8cb00a	0.27478057
58	0xbd0d3dd4	-0.034482792
59	0x3e0f2a23	0.13980918
60	0xbf02fb7a	-0.5116497
61	0x3d21d193	0.039506506
62	0xbe17a42d	-0.14808722
63	0xbd0dc5c0	-0.034612417
64	0x3ed1593a	0.40888387
65	0x3d26deca	0.040739812
66	0x3e540191	0.20703723
67	0x3bb3cc40	0.005486995
68	0x3dfe3188	0.12411791
69	0x3da1131b	0.07864972
70	0xbe94c80e	-0.2905888
71	0xbe86918b	-0.26282915
72	0x3e232d25	0.1593519
73	0x3d80a404	0.062812835
74	0xbd1ea950	-0.038735688
75	0x3eb11432	0.3458572
76	0xbebf7ef5	-0.37401548
77	0x3c2fdefc	0.010734316
78	0xbe90f389	-0.28310803
79	0xbe2bb6f5	-0.16769011
80	0x3e27f674	0.16402608
81	0xbe47bf36	-0.19506535
82	0xbdbb2c91	-0.0913936
83	0xbecb544a	-0.39712745
84	0xbcb281e4	-0.021790452
85	0xbd985238	-0.07437557
86	0x3ef4a018	0.47778392
87	0x3e909d5d	0.2824506
88	0xbe3e5b9c	-0.18589634
89	0xbe64d09c	-0.22345203
90	0xbe742f56	-0.23846182
91	0xbdddd9b4	-0.10832539
92	0x3eaf5ed6	0.34252042
93	0xbe378a25	-0.17923792
94	0x3e8c2014	0.27368224
95	0x3db91f2b	0.09039148
96	0xbe4316e8	-0.19051707
97	0xbe397acf	-0.18113254
98	0x3e1aa59c	0.15102237
99	0x3e5d79e1	0.21628524
100	0xbe235a44	-0.15952402
101	0xbe248319	-0.16065635
102	0x3eb6e1b6	0.3571908
103	0xbe2ef384	-0.17085081
104	0x3e972836	0.29522866
105	0xbeadea9f	-0.33968064
106	0x3e4d2383	0.20033078
107	0xbeb87740	-0.3602848
108	0xbeb946c5	-0.36186805
109	0x3e0df62b	0.13863437
110	0x3e80864e	0.25102466
111	0x3d40ecd8	0.04710087
112	0xbdb6513e	-0.089022145
113	0xbe6ae5c1	-0.22939207
114	0x3ebcf05f	0.3690214
115	0xbeadeb5a	-0.33968621
116	0xbcc50628	-0.024050787
117	0xbe8ca150	-0.27466822
118	0x3e9c09a8	0.30476117
119	0x3d55467f	0.052069183
120	0xbe3ca31e	-0.184216
121	0xbe034773	-0.12820224
122	0x3ca25b1c	0.019818835
123	0x3e58742c	0.21138066
124	0xbe32f7da	-0.1747736
125	0x3ce3d3d6	0.027810972
126	0x3eab62a3	0.3347369
127	0x3eaf809a	0.34277803
128	0xbe1b0327	-0.15137921
129	0x3e9f61f0	0.31129408
130	0x3e932dd0	0.2874589
131	0xbe82a876	-0.2551915
132	0x3e2bec0b	0.16789262
133	0x3e8ece31	0.27891687
134	0xbdf65966	-0.1202877
135	0x3eb4ab54	0.35286963
136	0x3e49e0ff	0.19714735
137	0xbd056493	-0.03256662
138	0xbc9b0c20	-0.01892668
139	0xbe178c11	-0.14799525
140	0xbe554415	-0.20826752
141	0x3e52ff06	0.20605096
142	0x3e521a72	0.205179
143	0x3e7ec6a3	0.24880461
144	0xbdd861da	-0.10565539
145	0x3ecc6ef2	0.39928395
146	0x3cdc7c88	0.02691485
147	0x3e006b89	0.12541021
148	0xbded92e4	-0.11600283
149	0xbe2b43ae	-0.16725037
150	0x3ed67ac5	0.4189054
151	0xbe840da0	-0.25791645
152	0x3db8c4e3	0.09021928
153	0xbee1c549	-0.4409583
154	0x3e909841	0.2824116
155	0xbea4749b	-0.32120213
156	0xbe101167	-0.14069138
157	0xbe55349b	-0.20820849
158	0xbd5937a9	-0.053031597
159	0x3ed7f082	0.4217568
160	0xbe0290a6	-0.12750491
161	0xbedee8aa	-0.43536884
162	0xba60c1e0	-0.00085738115
163	0x3b933a08	0.004493002
164	0xbd970c70	-0.07375419
165	0xbeaedf20	-0.34154606
166	0xbe764cd4	-0.24052745
167	0xbe4a14b6	-0.19734463
168	0x3d700cf2	0.058606096
169	0x3e649e8a	0.22326103
170	0x3e26a719	0.1627468
171	0x3e945908	0.28974175
172	0x3e104b2c	0.14091176
173	0xbe1a3dae	-0.15062591
174	0xbf21d1ee	-0.6321095
175	0xbe41058b	-0.1884977
176	0xbe5c8e7c	-0.21538728
177	0xbecf242a	-0.40457278
178	0xbede6512	-0.43436486
179	0x3f0d1056	0.5510305
180	0x3e5539ec	0.20822877
181	0x3e35685f	0.17715596
182	0xbd5e5a2a	-0.054285206
183	0xbe1ae3c9	-0.15125956
184	0xbda1391e	-0.07872222
185	0x3cc12fa4	0.023582287
186	0x3deaafa8	0.11459285
187	0xbaecdcc0	-0.001807116
188	0xbdb9b41f	-0.090675585
189	0xbcf822c0	-0.030290008
190	0x3b1bb740	0.0023760349
191	0xbe317bea	-0.17332426
192	0x3cc6affa	0.024253834
193	0x3dc0ac7e	0.094079
194	0x3e13ef85	0.14446838
195	0xbe5ef03c	-0.2177133
196	0xbe617d18	-0.22020376
197	0xbdbb8a74	-0.09157267
198	0x3e8d5d3c	0.27610195
199	0x3db95ac7	0.090505175
200	0x3d35741e	0.04430019
201	0x3db49856	0.08818118
202	0x3e98c0b4	0.2983452
203	0x3ed44b13	0.41463527
204	0xbe86c722	-0.263238
205	0x3d03d997	0.03218993
206	0x3e1d5dec	0.1536786
207	0x3d4d2db0	0.0500924
208	0xbde514d0	-0.1118561
209	0xbeef24cc	-0.4670776
210	0x3e9c449d	0.30521098
211	0x3e0e2dd1	0.13884665
212	0x3e4d0d55	0.20024617
213	0xbe79c389	-0.24390997
214	0x3dc71881	0.097214706
215	0xbb926540	-0.0044676363
216	0x3c578140	0.013153374
217	0xbe5be08f	-0.21472381
218	0xbe13cb42	-0.14433005
219	0xbe8cb3e6	-0.27481002
220	0x3d038492	0.03210885
221	0xbeafb750	-0.34319544
222	0x3f44fb94	0.7694638
223	0xbe26c6e6	-0.16286811
224	0x3eeb9f0f	0.4601979
225	0x3d581f7d	0.052764405
226	0xbe976c9d	-0.29575053
227	0x3df3195a	0.1187007
228	0x3cd45ab8	0.025922164
229	0x3e23c1b2	0.15991858
230	0x3e0a6e42	0.13518623
231	0x3e9da1be	0.30787462
232	0xbe9140d8	-0.28369784
233	0xbde86680	-0.11347675
234	0x3e90d6fa	0.28289014
235	0x3de9ce11	0.11416257
236	0xbc006178	-0.007835738
237	0x3c7eb5e0	0.015546292
238	0xbde46b80	-0.111533165
239	0x3ebd679a	0.36993104
240	0x3ef3b3d2	0.4759813
241	0xbe026265	-0.12732847
242	0xbb9b8310	-0.0047458485
243	0xbe7a2794	-0.2442916
244	0xbe1ea108	-0.15491116
245	0xbd11a5dc	-0.035558566
246	0x3e353dfc	0.17699426
247	0xbe21e25c	-0.15809005
248	0x3ccbbaac	0.024869286
249	0x3e492cc0	0.19645977
250	0x3e346eb1	0.1762035
251	0xbd22ac52	-0.03971512
252	0x3d069d7f	0.032865044
253	0x3e94cf4d	0.29064408
254	0xbe361779	-0.17782392
255	0xbee1701e	-0.4403085

bias f4 [6]
0	0xbe28998c	-0.16464823
1	0x3e62fc76	0.22166619
2	0x3e64f5f6	0.22359452
3	0xbe2e37fb	-0.17013542
4	0xbed8fce1	-0.4238043
5	0xbeaa7379	-0.33291224
