ga_weights/ga1/Pusher-v5/SAC/weights1.pt (torch, 297825 bytes, 6 tensors)

fc1.weight f4 [256, 23]
0	0x3b32926c	0.0027247919
1	0xbb1f5244	-0.0024310509
2	0xbd879f9c	-0.0662224
3	0xbd41ad76	-0.047284566
4	0xbd539df6	-0.051664315
5	0x3adc24c0	0.001679562
6	0x3d512314	0.051058844
7	0xbd7199a7	-0.058984425
8	0xbd84d8a6	-0.06486635
9	0x3cbbdc5a	0.02293222
10	0xbb856a68	-0.0040715225
11	0x3cdc86ca	0.026919741
12	0x3d475e79	0.04867408
13	0x3df08832	0.11744727
14	0xbc855648	-0.016276494
15	0xbd586d6e	-0.052838735
16	0xbd2133d9	-0.039356086
17	0x3d3eac73	0.04655118
18	0xbd9b7518	-0.07590693
19	0x3b65bd28	0.0035055373
20	0x3df4ea78	0.11958784
21	0xbbe03900	-0.0068427324
22	0x3d3ec8bf	0.046578165
23	0x3c9218c0	0.017834067
24	0x3c52161a	0.012822652
25	0xbd9675d2	-0.07346691
26	0xbe23272d	-0.15932913
27	0xbd8ce423	-0.06879451
28	0x3d1d1fdd	0.038360465
29	0xbd8818e4	-0.066453725
30	0xbd3ff016	-0.046859823
31	0xbd62087c	-0.055183873
32	0xbc689760	-0.014196247
33	0xbde89314	-0.11356178
34	0xbd0153d8	-0.0315741
35	0x3cfb6728	0.030688837
36	0x3c040959	0.008058869
37	0xbd5af277	-0.05345389
38	0xbe138bb8	-0.14408767
39	0x3d975a66	0.07390289
40	0x3d60e86e	0.054909162
41	0xbe002551	-0.12514235
42	0xbbb6ecee	-0.0055824434
43	0x3da124e6	0.07868366
44	0x3d8888df	0.06666731
45	0x3d8ed5b0	0.069743514
46	0x3d8192fa	0.06326862
47	0x3aca43d0	0.0015431587
48	0xbe182292	-0.14856938
49	0xbdaca9bd	-0.084308125
50	0x3ba44618	0.0050132386
51	0x3d1c8db1	0.038221065
52	0x3da08224	0.07837322
53	0x3c1ca5a5	0.009560977
54	0xbe02288c	-0.1271078
55	0x3d4b0bf8	0.04957196
56	0xbe00e6fe	-0.12588117
57	0x3b0946f0	0.0020946823
58	0x3d5ec775	0.054389436
59	0xbdd58477	-0.10425656
60	0x3c93479b	0.01797848
61	0xbd97f7a5	-0.07420281
62	0x3cd0532a	0.02543028
63	0xbcae5bb3	-0.02128396
64	0xbd9e2d9a	-0.077235416
65	0xbdae4b12	-0.08510412
66	0x3cf5d680	0.030009508
67	0x3db8250b	0.089914404
68	0xbdbe3477	-0.092873506
69	0x3d4dcf54	0.05024655
70	0xbdde1bb0	-0.10845125
71	0xbd6d20a4	-0.057892457
72	0x3d1c4c0a	0.038158454
73	0xbbe5aea4	-0.007009344
74	0x3d34305e	0.04399144
75	0xbd56199f	-0.052270528
76	0xbd528dc2	-0.051404722
77	0x3d866bd1	0.06563533
78	0x3d3947ab	0.045234364
79	0x3d4adade	0.049525134
80	0xbc95a456	-0.018266838
81	0xbc8d8541	-0.017275454
82	0xbdc364c3	-0.09540703
83	0xbe463662	-0.19356683
84	0x3d01642c	0.031589672
85	0x3c3bc798	0.011461161
86	0xbdc1b83d	-0.09458969
87	0x3d6f2e02	0.058393486
88	0x3cb5f7a4	0.02221281
89	0xbd4bcda4	-0.04975666
90	0xbc36631c	-0.011132028
91	0xbc8a4d51	-0.01688257
92	0xbc169758	-0.009191357
93	0xbc1cb97c	-0.009565707
94	0x3d86d64a	0.06583841
95	0x3d4e420e	0.050355963
96	0xbcaa4668	-0.020785525
97	0x3d49d5f7	0.04927632
98	0x3d1cdcca	0.0382965
99	0xbd80eb60	-0.06294894
100	0x3dcc67e6	0.099807546
101	0xbd63bac3	-0.05559803
102	0xbd24de9c	-0.04025136
103	0xbd16dcf8	-0.036831826
104	0xbdb52f13	-0.08846869
105	0x3d051d04	0.032498375
106	0xbd84537d	-0.064612366
107	0x3da8beb4	0.08239499
108	0x3cfc72c2	0.03081644
109	0xbd96c7ca	-0.073623255
110	0xbdb3672a	-0.08759911
111	0xbcf425ee	-0.029803243
112	0xbcb83314	-0.022485293
113	0x3b9bf300	0.0047591925
114	0x3cd0cbd0	0.02548781
115	0x3dc230b6	0.09481947
116	0xbd0aaa74	-0.033853963
117	0xbde90f44	-0.11379865
118	0x3c94350f	0.018091707
119	0x3c3023d8	0.010750733
120	0x3dceb9bc	0.1009402
121	0xbd715a4b	-0.058924
122	0x3e31027c	0.17286104
123	0xbdca4f5a	-0.09878416
124	0xbdbe5146	-0.092928454
125	0xbce0feab	-0.027465185
126	0xbdc58eb9	-0.09646363
127	0x3d466483	0.0484357
128	0xbc64ef54	-0.013973076
129	0x3c9f32a4	0.019433327
130	0xbd9438fb	-0.07237431
131	0x3df022cc	0.11725387
132	0xbd3e19fa	-0.046411492
133	0x3cbe55b2	0.023234222
134	0x3cd16c7a	0.025564421
135	0x3dec0e2a	0.11526139
136	0xbb2bb058	-0.0026197638
137	0x3ca2f8dd	0.019894058
138	0x3ce1c990	0.027561933
139	0xbd7e1023	-0.062027108
140	0xbc92e246	-0.017930161
141	0x3d6ffd54	0.058591202
142	0x3abf2ca5	0.0014585449
143	0x3c0aca1a	0.008471036
144	0x3cd04b1d	0.025426442
145	0x3d8592f6	0.06522171
146	0x3de043d6	0.10950439
147	0xbdda46f4	-0.106580645
148	0x3c9117bb	0.01771151
149	0xbca63960	-0.02029103
150	0x3db62f5c	0.08895752
151	0x3cb00098	0.021484658
152	0xbdc50404	-0.096199065
153	0xbda49958	-0.080370605
154	0x3c45f5b2	0.012082504
155	0xbd8dc550	-0.069224
156	0xbbe20be8	-0.006898392
157	0x3d74aade	0.059733264
158	0xbe42b263	-0.19013362
159	0xbc1cf1f6	-0.009579172
160	0xbd18f2a0	-0.03734076
161	0x3d14e9fe	0.036355965
162	0xbce0dfb0	-0.027450413
163	0xbcd0a5e9	-0.025469737
164	0xbcc3218f	-0.023819713
165	0x3da98f48	0.08279282
166	0xbe18bcd1	-0.14915778
167	0xbcf90e4c	-0.030402325
168	0x3e2c0a18	0.16800725
169	0xbdd60b55	-0.1045138
170	0x3d327968	0.043572813
171	0xbd914644	-0.0709348
172	0xbd8dd4a5	-0.06925324
173	0x3c39f976	0.01135098
174	0xbde3383c	-0.1109471
175	0xbd6845ec	-0.056707308
176	0x3dc0072e	0.093763694
177	0x3ba5b898	0.0050574057
178	0x3cd0acb0	0.025472969
179	0x3d61d368	0.055133253
180	0x3dd48f47	0.103788905
181	0x3dfc4913	0.12318625
182	0xbe12ff33	-0.14355163
183	0x3daa3850	0.08311522
184	0xbd916924	-0.07100132
185	0xbdb2eda6	-0.08736734
186	0x3e0406b0	0.12893176
187	0xbd91cb29	-0.07118828
188	0x3dbe5463	0.09293439
189	0x3d1f4d5e	0.038892142
190	0xbda5093d	-0.08058403
191	0x3c6edd8a	0.014579186
192	0x3c421b54	0.011847336
193	0xbd4eacd8	-0.050457805
194	0x3e142c86	0.1447011
195	0x3e6db48c	0.23213404
196	0xbd1628c8	-0.036659986
197	0x3dde17bd	0.108443715
198	0x3c163706	0.009168392
199	0xbc842ffe	-0.016136166
200	0x3d9b7377	0.075903825
201	0x3d5664ba	0.052342154
202	0x3ccdcaff	0.02512121
203	0x3cf5ade8	0.029990152
204	0x3db6606f	0.08905112
205	0xbc7653cd	-0.015034628
206	0xbd529578	-0.051412076
207	0xbd050eca	-0.032484807
208	0x3b980200	0.0046389103
209	0xbd5f1d4a	-0.05447129
210	0x3d784baf	0.060619052
211	0xbd539034	-0.051651195
212	0x3d46cb90	0.048533976
213	0xbd02ac3a	-0.03190253
214	0x3ddc4edd	0.107572295
215	0xbd7530cf	-0.059861
216	0x3e4a3e76	0.1975039
217	0x3cb2b40d	0.02181437
218	0xbde740ae	-0.112916335
219	0xbabba1c0	-0.0014315173
220	0x3d676205	0.056489963
221	0xbbe378c0	-0.0069418848
222	0xbaa29160	-0.0012402944
223	0xbd7303de	-0.05932986
224	0x3de47bf6	0.11156456
225	0x3d82a595	0.063792385
226	0xbd9657e0	-0.073409796
227	0x3c045289	0.008076319
228	0x3db09706	0.086225554
229	0xbdd20817	-0.10255449
230	0x3c0fa106	0.008766418
231	0xbdea8e64	-0.1145294
232	0x3de39164	0.111117154
233	0xbd910fbb	-0.070830785
234	0xba13f3a0	-0.0005643908
235	0xbd82d594	-0.06388393
236	0x3da44743	0.080214046
237	0x3d94b1ac	0.07260451
238	0xbb443d24	-0.002994367
239	0xbdf33ad1	-0.11876453
240	0x3dba9e69	0.091122456
241	0xbcf267da	-0.029590536
242	0x3dfc3d7e	0.12316416
243	0xbd95781c	-0.072983
244	0x3dde8194	0.10864559
245	0xbd98a9fd	-0.07454298
246	0x3dd6d764	0.10490301
247	0xbd25e6d5	-0.04050334
248	0x3da6603b	0.08123823
249	0xbd36f9bb	-0.044671755
250	0x3b06f7c8	0.0020594466
251	0x3d4c430f	0.04986864
252	0x3d5ca6a4	0.05386986
253	0xbd0cc78c	-0.03436999
254	0xbd13f211	-0.036119524
255	0x3d445728	0.04793468

fc1.bias f4 [256]
0	0xbc8fc9a6	-0.017552208
1	0x3e2067b6	0.15664563
2	0x3c5d225a	0.01349696
3	0x3c4d1db2	0.012519287
4	0x3e18ac6d	0.14909525
5	0x3c5fdb0c	0.013663065
6	0xbc9194b4	-0.017771102
7	0xbc3ef936	-0.011656096
8	0x3ce358af	0.027752249
9	0x3d65e808	0.056129485
10	0xbbd1d80c	-0.0064039286
11	0x3c5abd30	0.01335077
12	0xbd7f5248	-0.06233433
13	0xbd99e4fa	-0.07514377
14	0xbd8fc1d7	-0.07019394
15	0x3d8d9042	0.069122806
16	0xbd45d068	-0.048294455
17	0x3e35fb3f	0.17771624
18	0x3e29591c	0.16537899
19	0xbdc60650	-0.09669173
20	0x3c2d0e66	0.010562515
21	0xbdb416da	-0.08793421
22	0x3dd92ae8	0.10603887
23	0xbb6cd160	-0.003613554
24	0x3d862cd8	0.06551522
25	0xbdcbcb35	-0.09950868
26	0x3d432529	0.04764286
27	0xbdba29f3	-0.090900324
28	0x3c9c852a	0.019106466
29	0xbe010ee9	-0.12603344
30	0x3d5c59fa	0.053796746
31	0xbbe07f72	-0.00685113
32	0xbcf88ac0	-0.030339599
33	0xbd39f1ed	-0.045396734
34	0xbb35f7b0	-0.0027766041
35	0x3d3a678f	0.045508917
36	0x3c26922c	0.010166686
37	0x3d92ec5a	0.07173987
38	0xb9d6adc0	-0.00040946715
39	0xbca261f0	-0.01982209
40	0xbd176bec	-0.036968157
41	0xbdc3c2b2	-0.095586196
42	0xbd858391	-0.06519235
43	0xbd8787aa	-0.06617673
44	0x3dc9dcea	0.09856589
45	0x3d842214	0.064518124
46	0x3b9c45e6	0.0047690747
47	0xbbe53048	-0.006994281
48	0xbcef685c	-0.029224567
49	0x3b0c84d0	0.0021441467
50	0x3db9c4ce	0.09070741
51	0x3dd9bfe7	0.106323056
52	0xbdc0734a	-0.0939699
53	0xbd27614d	-0.040864278
54	0x3db662c6	0.08905558
55	0x3d8124e0	0.063058615
56	0xbd8ac4cf	-0.067758195
57	0xbc8436c2	-0.016139392
58	0xbdf9ca9e	-0.12196849
59	0x3cecb007	0.02889253
60	0xbc931a20	-0.017956793
61	0x3d1963be	0.037448637
62	0x3c217519	0.009854578
63	0x3d3f47b8	0.046699256
64	0x3d23f01b	0.040023904
65	0xbb857f6c	-0.0040740278
66	0x3bce0f50	0.0062884465
67	0xbd37f4fb	-0.044911366
68	0xbdb34d3e	-0.08754967
69	0x390a66e0	0.0001319903
70	0xbe12861e	-0.14308974
71	0xba906140	-0.0011015311
72	0x3d0feb1e	0.035136335
73	0xbd345010	-0.044021666
74	0xbdf51c11	-0.11968244
75	0xbcc9a830	-0.02461633
76	0xbd752e3a	-0.05985854
77	0x3d15fbb9	0.036617015
78	0xbdbaa1fe	-0.09112929
79	0x3d8e1d67	0.06939202
80	0xbc960ff0	-0.018318146
81	0x3d81ecfc	0.06344029
82	0xbc97c254	-0.01852528
83	0xbbf7344c	-0.007544076
84	0x3d190324	0.03735651
85	0x3c325548	0.01088459
86	0xbd63ba8d	-0.05559783
87	0xbc81f53c	-0.015864007
88	0x3c297afc	0.010344263
89	0xbd970f24	-0.07375935
90	0xbe18b5a5	-0.14913042
91	0x3d33da5c	0.043909416
92	0x3dff57d4	0.12467924
93	0xbb281d40	-0.00256522
94	0xbd9ac8b5	-0.07557813
95	0xbd8ffec9	-0.07031018
96	0xbc9d26eb	-0.019183597
97	0xbdb61eae	-0.088925704
98	0xbc418e38	-0.011813693
99	0x3bce49c8	0.0062954165
100	0x3dce7c20	0.10082269
101	0x3dd1033a	0.102056935
102	0xbccf90a0	-0.025337517
103	0x3dcd273f	0.10017251
104	0x3d8b269c	0.067944735
105	0xbd88db56	-0.0668246
106	0x3bf15c08	0.0073657073
107	0xbd1510fb	-0.036393147
108	0x3d12dd86	0.035855792
109	0xbd45a6e0	-0.048254848
110	0xbe353309	-0.1769525
111	0xbbcebb20	-0.006308928
112	0xbdf3d40a	-0.119056776
113	0xbd928026	-0.071533486
114	0xbdd6fd8d	-0.1049758
115	0x3dd03099	0.10165519
116	0xbd33b74b	-0.043875974
117	0x3c0ac058	0.00846871
118	0x3d2b72c7	0.041857507
119	0x3b169cd0	0.002298165
120	0xbe1b165d	-0.1514525
121	0x3d047bba	0.032344557
122	0x3d82494e	0.06361638
123	0xbdc1fc6f	-0.09471976
124	0xbcb2e0b8	-0.02183567
125	0xbd4cd38e	-0.05000644
126	0x3a9178a0	0.0011098571
127	0xbd5be00d	-0.05368047
128	0xbde6b2ef	-0.112645976
129	0x3c9e75e4	0.019343324
130	0x3ccd024a	0.025025506
131	0xbb91b6d4	-0.0044468436
132	0x3c9b6d53	0.018973028
133	0x3ccc63e4	0.024949975
134	0x3d82f7ab	0.06394895
135	0xbc01f610	-0.007932201
136	0x3b9f022f	0.004852555
137	0x39b76280	0.00034977868
138	0xbda0dd10	-0.07854664
139	0x3d558a32	0.052133746
140	0x3d8d79fa	0.06908031
141	0x3c6241c7	0.013809628
142	0xbc76cb92	-0.015063183
143	0x3c4ec108	0.012619264
144	0x3d38c0fe	0.045105927
145	0x3db3c7bc	0.08778331
146	0xbddfd530	-0.10929334
147	0x3da6a9a4	0.08137825
148	0xbcdb2703	-0.026752
149	0xbe0d2f77	-0.13787638
150	0x3d204f53	0.03913815
151	0xbd7a409d	-0.061096776
152	0xbbcb4504	-0.0062032957
153	0xbcc61ece	-0.02418461
154	0x3d9d105f	0.07669138
155	0x3d341213	0.04396255
156	0xbd13d477	-0.036091294
157	0xbde1e828	-0.110306084
158	0xbdce19b0	-0.10063493
159	0xbb9eea70	-0.0048497245
160	0xbdbd58a5	-0.09245423
161	0xbbd6f22a	-0.00655963
162	0x3d9cc6a6	0.07655077
163	0x3c31de08	0.010856159
164	0xbd8cef4f	-0.06881582
165	0x3e14ad5e	0.1451926
166	0x3d5c5c72	0.0537991
167	0x3e0e4f5d	0.13897462
168	0x3c83a28e	0.016068723
169	0xbd891df9	-0.0669517
170	0xbcd9b77f	-0.026576756
171	0x3d760189	0.060060058
172	0xbd76d83a	-0.060264803
173	0x3beec06a	0.007286121
174	0x3d21771b	0.03942023
175	0x3d2160f9	0.03939912
176	0xbd18aeb4	-0.037275985
177	0xbd9c7086	-0.0763865
178	0x3d82a572	0.063792124
179	0x3ba83a52	0.0051339054
180	0xbd33c15d	-0.043885577
181	0xbc5bac8c	-0.013407838
182	0x3da411f4	0.08011237
183	0x3da442fc	0.08020589
184	0x3cdb54a4	0.026773758
185	0x39bc8800	0.00035959482
186	0xbd105a65	-0.035242457
187	0xbcf84e33	-0.030310726
188	0xbcc96c96	-0.02458791
189	0xbdcb32fc	-0.09921834
190	0x3d47d465	0.04878654
191	0xbda3d6db	-0.07999965
192	0x3cd8d5f9	0.026469218
193	0xbd0c3671	-0.034231607
194	0x3d584416	0.052799307
195	0xbc5f2dc9	-0.013621756
196	0xbcbb4630	-0.022860616
197	0x3d033754	0.032035187
198	0xbe0a5824	-0.13510185
199	0xbdd45f6c	-0.10369763
200	0x3cd57f36	0.026061635
201	0xbda9b22e	-0.08285938
202	0x3d9cde12	0.07659544
203	0xbd305cde	-0.043057315
204	0x3d88013f	0.06640863
205	0xbd485ca2	-0.048916467
206	0x3dbe2365	0.09284095
207	0x3d41abad	0.047282863
208	0xbd8c6b72	-0.06856431
209	0xbe1a4437	-0.15065084
210	0xbe0d5986	-0.13803682
211	0x3de474c0	0.11155081
212	0x3dd3a729	0.10334618
213	0xbc200d5a	-0.009768808
214	0xbdab0c96	-0.0835201
215	0x3df60703	0.12013056
216	0xbd63b528	-0.055592686
217	0xb9cc2a4c	-0.00038941426
218	0x38a2be80	7.760245e-05
219	0x3de52492	0.11188616
220	0xbd03b83c	-0.03215812
221	0x3d35405c	0.04425083
222	0xbd390e86	-0.045179866
223	0xbd1161e4	-0.035493746
224	0x3ce346d4	0.027743734
225	0x3cce53ee	0.025186505
226	0xbd2522a3	-0.040316235
227	0xbc3fcb44	-0.011706177
228	0x3d079eaa	0.0331103
229	0xbd60241e	-0.054721944
230	0x3cd4aaf6	0.025960427
231	0xbd1dfd18	-0.038571447
232	0xbd882f58	-0.06649655
233	0xbd2dff9e	-0.042480104
234	0x3ceaf0a4	0.0286792
235	0x3e08d9c6	0.13364324
236	0x3d115f94	0.03549154
237	0xbd20ed8f	-0.039289054
238	0xbd348152	-0.044068642
239	0x3d9230f8	0.07138246
240	0x3d989767	0.07450753
241	0x3d488dfe	0.04896354
242	0xbd2517d7	-0.04030594
243	0x3c0d0f7e	0.008609651
244	0x3d7ec4be	0.062199347
245	0x3c1c5c38	0.009543471
246	0x3d8d158c	0.06888875
247	0xbd25f859	-0.040520046
248	0x3e18430e	0.1486933
249	0xbda47072	-0.0802926
250	0xbda5f80a	-0.0810395
251	0xbc74c434	-0.014939357
252	0x3b027fc0	0.001991257
253	0xbc990932	-0.018681142
254	0xbd70a875	-0.058754403
255	0x3ddba09b	0.107239924

fc2.weight f4 [256, 256]
0	0xbc2e2cb8	-0.010630779
1	0x3d17b816	0.037040792
2	0xbd070ed4	-0.032973126
3	0xbdf28112	-0.118410245
4	0x3d6123d4	0.05496581
5	0xbdc87715	-0.09788338
6	0xbd2626cf	-0.040564355
7	0xbd90ae1c	-0.07064459
8	0x3d147970	0.036248624
9	0x3d17c1d0	0.03705007
10	0xbcab14bc	-0.02088391
11	0xbbeb29c2	-0.007176609
12	0xbcd2ac73	-0.025716996
13	0xbe2fa14a	-0.1715137
14	0xbbc00688	-0.0058601536
15	0xbd1bf136	-0.038071834
16	0xbd3e43ba	-0.046451308
17	0x3d7516ce	0.0598362
18	0x3d983eca	0.07433851
19	0xbdb98ca6	-0.0906003
20	0xbd101ca5	-0.035183568
21	0xbd4948dd	-0.049141753
22	0xbded9970	-0.116015315
23	0x3d45a9cf	0.048257645
24	0xbd967249	-0.07346017
25	0xbda0d9d6	-0.07854049
26	0x3bea8868	0.007157374
27	0xbdb042a6	-0.08606462
28	0xbd8b953a	-0.06815572
29	0x3d99d72b	0.07511743
30	0xbdd4bac3	-0.103871845
31	0x3c681e48	0.014167376
32	0x3d47ba29	0.04876152
33	0xbdef8506	-0.11695294
34	0x3d3e247c	0.046421513
35	0xbc4d8dd0	-0.012546018
36	0xbdb92cb1	-0.09041727
37	0x3d3c5a0e	0.04598432
38	0xbcdb38ef	-0.026760546
39	0x3dded696	0.10880773
40	0x3dad1491	0.08451188
41	0x3d63d672	0.055624433
42	0xbd80e788	-0.06294161
43	0x3da7d0b2	0.08194102
44	0xb8a2f000	-7.7694654e-05
45	0x3bd1a578	0.0063978992
46	0x3d020b9a	0.031749345
47	0x3d4e331c	0.05034171
48	0xbced5e46	-0.028975617
49	0xbd547696	-0.051870905
50	0xbd74e748	-0.05979088
51	0xba57a3a0	-0.0008225981
52	0x3c18a628	0.0093169585
53	0x3e5de6e0	0.21670103
54	0x3dbb15c5	0.091350116
55	0xbdbb8a0e	-0.09157191
56	0x3db72927	0.08943396
57	0xbdd91a42	-0.106007114
58	0xbcd852cc	-0.026406668
59	0x3dbad9d0	0.09123576
60	0xbc928584	-0.01788593
61	0xbdce7bf5	-0.10082237
62	0x3c85ada8	0.016318157
63	0x3d4ad140	0.049515963
64	0xbd1911b4	-0.0373704
65	0xbdc482cb	-0.09595259
66	0x3d704aa8	0.058664948
67	0x3c83dade	0.016095575
68	0xbdc60e2d	-0.096706726
69	0x3d1aa0e5	0.037751097
70	0xbd4b0f14	-0.049574926
71	0x3ceec38c	0.029145978
72	0x3c8a8ac5	0.016911874
73	0x3ccf6dd0	0.025320917
74	0xbe08e83e	-0.13369843
75	0x3d739c86	0.059475444
76	0xbe4f836f	-0.20264982
77	0xbde1cb16	-0.11025064
78	0xbd9ca448	-0.07648522
79	0x3d1670e9	0.036728773
80	0xbcbaf222	-0.022820536
81	0xbe10b673	-0.14132099
82	0x3bdcb8a2	0.006735877
83	0xbca15977	-0.01969598
84	0x3d90a168	0.07062036
85	0xbc315940	-0.0108245015
86	0xbda9761e	-0.08274482
87	0x3dcfc590	0.10145104
88	0xbe2c3c9a	-0.16819993
89	0xbd007af0	-0.031367242
90	0x3dac5ea5	0.084164895
91	0xbd02a02b	-0.03189103
92	0x3df0c134	0.117556006
93	0xbc0a69e8	-0.008448102
94	0x3dbe0ec7	0.09280162
95	0xbd0a463e	-0.033758394
96	0xbdcc6052	-0.09979309
97	0xbdf55231	-0.119785674
98	0xbdaf0f4f	-0.08547842
99	0xbc9334ea	-0.017969567
100	0xbdd52410	-0.10407269
101	0xbd930f55	-0.07180659
102	0xbce31167	-0.027718259
103	0xbc4d20d0	-0.01252003
104	0xbc1e8bac	-0.009676855
105	0xbd16dea4	-0.03683342
106	0x3cae7055	0.021293798
107	0x3bb9d6dc	0.005671365
108	0x3d77d466	0.060505293
109	0x3daea9df	0.08528494
110	0xbd4793de	-0.048725
111	0xbdb06116	-0.08612268
112	0x3c942160	0.01808232
113	0xbdb94790	-0.090468526
114	0x3cc2844c	0.023744725
115	0x3c4e26f0	0.012582526
116	0x3d8142d3	0.06311574
117	0xbdaa2549	-0.08307893
118	0x3cc5b7a0	0.02413541
119	0x3cb99881	0.022655727
120	0xbd731fd3	-0.05935652
121	0xbe0b8815	-0.1362613
122	0x3c9b4c09	0.018957155
123	0x3cea8ee1	0.028632583
124	0x3ce835f1	0.028346034
125	0x3d56a586	0.05240395
126	0x3e1144ee	0.14186451
127	0x3d99cce0	0.0750978
128	0x3da6ea77	0.08150189
129	0x3db983fc	0.09058377
130	0xbcf76591	-0.030199798
131	0x3c0661b6	0.008202007
132	0xbe2d9f90	-0.169554
133	0x3d945468	0.07242662
134	0xbc26d50c	-0.01018263
135	0x3d66afdf	0.056320067
136	0xbcb1e64e	-0.021716263
137	0xbdb41534	-0.08793107
138	0xbda69d33	-0.08135452
139	0x3ceb9496	0.028757375
140	0xbd88d169	-0.06680567
141	0xbe16aace	-0.14713594
142	0x3d6b89be	0.057504408
143	0x3ce3a46c	0.027788363
144	0x39c10600	0.000368163
145	0x3d45f8b8	0.0483329
146	0xbc16dc82	-0.009207847
147	0x3c1353ee	0.008992178
148	0xbdc39322	-0.09549548
149	0xbdc2e900	-0.095170975
150	0x3d022762	0.03177584
151	0x3d51118f	0.051042136
152	0xbc431950	-0.01190789
153	0x3dba53a4	0.090979844
154	0xbda886a4	-0.08228806
155	0xbd99499f	-0.07484745
156	0x3db6e046	0.089294955
157	0xbe1c3025	-0.1525274
158	0xbdf7d93b	-0.1210198
159	0xbb95c510	-0.004570611
160	0xbc01aa41	-0.007914127
161	0xbdb0d259	-0.08633871
162	0xbbe9fb48	-0.0071405508
163	0x3ca0f1e1	0.019646587
164	0x3e109660	0.14119864
165	0xbcd0042c	-0.025392614
166	0xbd2311a5	-0.03981175
167	0xbd78d040	-0.060745478
168	0xbc501adb	-0.012701715
169	0x3e189bfe	0.14903256
170	0xbca7fb03	-0.020505434
171	0x3d4ad2c2	0.0495174
172	0x3d744390	0.059634745
173	0xbcd0535e	-0.025430378
174	0x3e279aff	0.1636772
175	0xbd3b3690	-0.04570633
176	0x3bb6e76c	0.005581787
177	0xbc05eaa0	-0.008173615
178	0x3d10f89d	0.035393346
179	0x3d3a7abc	0.045527205
180	0x3d9bd805	0.07609562
181	0xbbde4a80	-0.0067837834
182	0xbe1ef3fd	-0.15522762
183	0xbd99a246	-0.07501654
184	0x3be92a38	0.0071156286
185	0x3c64b4be	0.013959108
186	0xbe14cc0a	-0.1453096
187	0xbd05fa0e	-0.032709174
188	0x3dafa61a	0.08576603
189	0x3db72c4c	0.08943996
190	0xbcd1db91	-0.025617393
191	0x3ca91e03	0.020644194
192	0x3d8549b1	0.06508196
193	0xbc8cc028	-0.017181471
194	0xbc135a7c	-0.008993741
195	0xbdaadccb	-0.08342894
196	0x3c058c7e	0.008151172
197	0xbd423208	-0.047410995
198	0x3c8adb41	0.016950252
199	0x3e166bbe	0.14689538
200	0x3d473014	0.048629835
201	0xbd9b505b	-0.07583686
202	0xbdbb3578	-0.09141058
203	0x3db3a837	0.08772319
204	0x3d2fb59b	0.0428978
205	0x3d218aa0	0.039438844
206	0x3d3038e7	0.043023016
207	0x3d8a05ae	0.067393646
208	0xbd715190	-0.058915675
209	0xbcd5406a	-0.026031692
210	0x3d446d4e	0.047955804
211	0x3cba09d6	0.022709768
212	0xbd6f336c	-0.05839865
213	0x3defbc4a	0.11705835
214	0x3ddf4bcf	0.10903131
215	0x3d1fbc81	0.03899813
216	0x3d9182c8	0.07105023
217	0xbde6109c	-0.11233637
218	0xbc9fb0f8	-0.019493565
219	0x3b9637a4	0.0045842696
220	0x3dda7a30	0.10667837
221	0xbdf720c2	-0.12066795
222	0x3c80ec08	0.015737548
223	0xbe36fabc	-0.17869085
224	0x3d8d12d1	0.068883546
225	0xbc337984	-0.010954265
226	0xbc7c19d5	-0.015387018
227	0x3d87523b	0.06607481
228	0xbcc06941	-0.023487689
229	0x3df9a998	0.121905506
230	0xbcf784e8	-0.030214742
231	0xbe2f1c8e	-0.17100736
232	0xbd3b4ece	-0.04572945
233	0x3cdf2289	0.027238147
234	0x3dd8192c	0.10551676
235	0x3ce0a7a1	0.027423682
236	0x3de52b97	0.11189955
237	0x3e365a29	0.17807831
238	0x3cd14e2e	0.025549974
239	0x3c3df050	0.0115929395
240	0x3de350b3	0.110993765
241	0xbdd5c7a4	-0.10438469
242	0xbccb351e	-0.024805602
243	0xbda0ef8b	-0.07858189
244	0x3d006eb2	0.031355567
245	0xbd47ab16	-0.048747145
246	0xbc53133e	-0.012883006
247	0x3d312a26	0.043253087
248	0x3d620a2f	0.055185493
249	0xbdab01be	-0.08349942
250	0x3c948a82	0.018132452
251	0x3d307ae3	0.043085944
252	0xbdb66b3a	-0.089071706
253	0x3d891d66	0.066950604
254	0x3d43a9c6	0.04776933
255	0x3bd75f10	0.0065726116

fc2.bias f4 [256]
0	0xbd3479ad	-0.04406135
1	0xbdf97a78	-0.12181562
2	0x3dac6374	0.08417407
3	0xbd3b70f6	-0.045762025
4	0xbd21fce3	-0.039547812
5	0xbc883580	-0.016627073
6	0xbbb39478	-0.0054803453
7	0xbba5971c	-0.005053414
8	0x3d32ee4b	0.043684285
9	0x3dab0917	0.08351343
10	0x3dbfe530	0.09369886
11	0x3c4a850c	0.012360822
12	0xbd12409b	-0.035706144
13	0x3e19a38a	0.15003791
14	0x393ec500	0.000181932
15	0x3b0bd955	0.0021339257
16	0xbd0dce7f	-0.03462076
17	0x3c8a3e28	0.016875342
18	0x3c6d1d7c	0.014472362
19	0x3d13163c	0.035909876
20	0x3d308a4c	0.04310064
21	0xbe3f4984	-0.18680388
22	0x3cfba230	0.030716985
23	0x3cecb314	0.028893985
24	0x3d974d77	0.07387822
25	0xbdc0dc84	-0.0941706
26	0xbc13b2b3	-0.009014773
27	0x3ca50d6c	0.020148002
28	0xbcff8f7f	-0.031196354
29	0xbe1a9077	-0.15094171
30	0x3d05d54e	0.032674126
31	0x3da5247c	0.080635995
32	0xbd83d2a0	-0.06436658
33	0x3dbdd420	0.09268975
34	0xbd799132	-0.060929485
35	0x3d3d630e	0.046237044
36	0x3d90e89b	0.07075616
37	0xbbca7c78	-0.0061793886
38	0xbe496714	-0.19668227
39	0xbd38fb6a	-0.045161642
40	0x3c03cee8	0.008044936
41	0x3c61e674	0.013787854
42	0x3e0ced2f	0.13762353
43	0x3bcf5bd0	0.0063280836
44	0x3dc382ba	0.095464185
45	0x3ba5ff34	0.005065823
46	0x3dea5eb7	0.11443847
47	0xbd4a120d	-0.04933362
48	0x3d5021c7	0.050813463
49	0xbcb3408e	-0.021881368
50	0xbd8a4cd0	-0.06752932
51	0xbd1ed26f	-0.038774904
52	0x3d8cdcac	0.06878027
53	0xbd1e706f	-0.038681444
54	0x3da0d19e	0.07852481
55	0x3dc9c3c2	0.09851791
56	0x3c980f87	0.018562092
57	0x3da3d27a	0.079991296
58	0x3c93b002	0.018028263
59	0xbd41b47f	-0.047291275
60	0x3d2cd730	0.042197406
61	0xbdb0ca4c	-0.08632335
62	0xbc38f790	-0.011289492
63	0xbda0ca62	-0.078511015
64	0xbcd64ea0	-0.026160538
65	0x3e10afd4	0.14129573
66	0x3c26889e	0.010164408
67	0x3b4eaf78	0.0031537693
68	0x3d135f14	0.035979345
69	0x3d413f92	0.047179766
70	0x3d61c651	0.05512077
71	0xbcd6f19c	-0.026238255
72	0x3c23a3f7	0.009987823
73	0xbd96d9a9	-0.07365734
74	0xbde8b0d6	-0.11361854
75	0x3c5e1b04	0.013556246
76	0x3d0ca4cd	0.034336854
77	0xbdbc9fd1	-0.0921017
78	0x3d350e1f	0.04420292
79	0xbd88a7f8	-0.066726625
80	0xbcbc2620	-0.022967398
81	0xbe12719b	-0.1430115
82	0xbd811ab7	-0.063039236
83	0xbe371784	-0.17880064
84	0x3d8eb3e5	0.06967906
85	0xba7a2fe0	-0.0009543877
86	0xbd0f7dce	-0.035032086
87	0xbcff51aa	-0.03116687
88	0xbd6b349b	-0.057423215
89	0xbb31fdc0	-0.0027159303
90	0x3c94bbae	0.018155899
91	0x3c782f4e	0.015147997
92	0x3d387dca	0.045041837
93	0x3ddfbbee	0.109245166
94	0xbcf59ee6	-0.029982995
95	0x3d85f757	0.06541317
96	0x3db16898	0.08662528
97	0x3dce75ca	0.1008106
98	0xbb0b52f8	-0.002125917
99	0xbc0f3494	-0.008740563
100	0xbc193eba	-0.009353334
101	0xbda724b6	-0.08161299
102	0xbc155b20	-0.009115964
103	0xbd250644	-0.04028918
104	0xba3fe9a0	-0.00073208846
105	0x3c86e9b8	0.016468868
106	0x3e000f55	0.12505849
107	0xbcd46bc7	-0.025930298
108	0x3bd5a6f8	0.0065201484
109	0x3d77a68c	0.060461566
110	0xbc1a0f0c	-0.0094030015
111	0xbdb8a18e	-0.09015189
112	0xbd839b71	-0.064261325
113	0xbd23fc3a	-0.040035464
114	0x3d4f6421	0.0506326
115	0x3d1d4b1a	0.0384017
116	0xbd3e741d	-0.046497453
117	0x3ca92793	0.020648753
118	0x3d7a9c36	0.06118413
119	0xbd45fd30	-0.04833716
120	0x3d360001	0.044433597
121	0x3d387376	0.045031987
122	0x3dc9d62f	0.098553054
123	0xbe057bad	-0.1303546
124	0xbcbb7e9b	-0.022887519
125	0x3c408e02	0.011752607
126	0xbda03361	-0.078223
127	0x3d2b1357	0.04176649
128	0x3b89c138	0.0042039417
129	0x3c33cf9c	0.010974791
130	0x3d6a477d	0.057197083
131	0xbd54e32a	-0.051974453
132	0xbc3927d8	-0.011301003
133	0x3d02ba28	0.031915814
134	0xbd6a3470	-0.057178915
135	0xbbdec7c8	-0.006798718
136	0x3cf3c9f7	0.02975939
137	0xbcbea966	-0.023274135
138	0x3cd5c85a	0.026096512
139	0xbd9c1b00	-0.07622337
140	0x3d9f3e08	0.077755034
141	0x3cd3a1b9	0.025833951
142	0x3e0f63c0	0.14002895
143	0x3e1f7a45	0.15573986
144	0xbd3656a5	-0.044516224
145	0x3af08070	0.0018348824
146	0xbd3a0d9e	-0.045423143
147	0x3d3a1339	0.04542849
148	0x3ccf0edc	0.02527564
149	0xbe4fdd46	-0.20299253
150	0x3cb4867c	0.022036783
151	0x3db765c9	0.08954961
152	0x3dbac948	0.091204226
153	0xbd95e733	-0.073194884
154	0xbbb260b0	-0.005443655
155	0x3e4942cf	0.19654392
156	0xbd592677	-0.0530152
157	0x3db06036	0.08612101
158	0x3d90bbf7	0.070671014
159	0xbe4af8bc	-0.19821447
160	0xbceea4c7	-0.029131306
161	0x3d65ab6a	0.056071676
162	0x3d035202	0.03206063
163	0x3d7d99f5	0.061914403
164	0x3cef6c7f	0.02922654
165	0xbda7f7a5	-0.08201531
166	0x3bbfdda4	0.005855279
167	0x3c88125e	0.01661032
168	0xbdaf5c5a	-0.085625365
169	0x3de7e308	0.113226
170	0x3d253b4a	0.040339746
171	0x3dcb56a6	0.09928636
172	0x3c9eadde	0.019370016
173	0xbd836a16	-0.06416719
174	0x3da08be4	0.07839182
175	0x3dc1600e	0.09442149
176	0x3d1df6e6	0.03856554
177	0xbc875f49	-0.016524928
178	0xbe1454eb	-0.14485519
179	0xbdff54f8	-0.124673784
180	0x3b4bff90	0.003112767
181	0xbb8afaf0	-0.00424134
182	0x3b079870	0.0020690225
183	0x3bfc8350	0.0077060834
184	0x3bf602a4	0.007507639
185	0x3e02e6f6	0.12783417
186	0x3dc10e95	0.094266094
187	0xbd6ea9d6	-0.058267437
188	0x3d84e6f7	0.064893655
189	0xbd22fbda	-0.039790966
190	0x3de312cd	0.1108757
191	0xbca32d36	-0.01991902
192	0x3da9c4f0	0.08289516
193	0xbe093158	-0.1339773
194	0xbd50695a	-0.05088172
195	0xbde7ebbd	-0.113242604
196	0xbc97a6ce	-0.018512156
197	0x3db64451	0.08899749
198	0x3dba2ece	0.090909585
199	0x3dbcffcf	0.09228479
200	0x3d2dba31	0.042413894
201	0xbd3b5f99	-0.045745466
202	0xbbf915ea	-0.0076014893
203	0x3c742530	0.014901444
204	0x3d6d5c9e	0.057949655
205	0xbd80d4d2	-0.06290592
206	0x3c2a2c50	0.0103865415
207	0xbe260284	-0.16211897
208	0x3cc32b7c	0.023824446
209	0xbd37199d	-0.04470216
210	0x3ca29b6f	0.019849507
211	0xbe1f656a	-0.1556603
212	0x3ddcdbb8	0.107840955
213	0x3dd9ddba	0.10637994
214	0xbd73c4ac	-0.059513733
215	0x3c4e4468	0.0125895515
216	0x3d983324	0.07431629
217	0x3dcabbaf	0.09899079
218	0xbc8906ec	-0.016726933
219	0x3b0f3228	0.0021849964
220	0x3db8cfa1	0.09023977
221	0xbdc8429c	-0.0977833
222	0x3d1ec0ce	0.03875809
223	0xbceeec41	-0.029165389
224	0x3bc5ec6c	0.0060401466
225	0xbe265415	-0.16243012
226	0x3dff43b2	0.12464084
227	0xbd4f3d30	-0.050595462
228	0xbe1607ee	-0.14651462
229	0xbdd4d14b	-0.10391482
230	0xbdefd606	-0.117107436
231	0xbd69cb1e	-0.057078473
232	0xbded758c	-0.11594686
233	0xbe4c8e12	-0.1997607
234	0x3d8c9af5	0.06865493
235	0xbccb35eb	-0.024805984
236	0xbd94954c	-0.072550386
237	0x3da74525	0.08167485
238	0xbe09fcf7	-0.13475405
239	0xbd126b38	-0.035746783
240	0xbdad2007	-0.08453374
241	0xbd9f43b6	-0.07776587
242	0xba41d800	-0.0007394552
243	0x3c9937f6	0.018703442
244	0x3dd97301	0.106176384
245	0xbc3d4d8c	-0.011554133
246	0x3c386b94	0.011256117
247	0xbd97dfe9	-0.07415754
248	0x3d0909c3	0.033456575
249	0x3d63932c	0.055560276
250	0xbdc7784f	-0.09739744
251	0x3d0eb474	0.034840062
252	0xbc7b1af8	-0.015326254
253	0xbdc4d3d6	-0.09610717
254	0x3d71a59c	0.058995828
255	0x3d20404f	0.03912383

fc_mean.weight f4 [7, 256]
0	0x3e17b2ee	0.1481435
1	0x3e20ad27	0.15691052
2	0x3d9f7bb4	0.077872664
3	0xbd6ebf16	-0.058287703
4	0x3e37602f	0.17907785
5	0x3cd6b899	0.02621107
6	0xbd701dea	-0.05862228
7	0xbdc470e2	-0.09591843
8	0xbc8865cc	-0.016650103
9	0xbd051626	-0.032491826
10	0x3d2e4728	0.04254833
11	0xbcedfbaa	-0.029050667
12	0x3d228e66	0.039686583
13	0x3dc8a49e	0.09797023
14	0xbd1fd27d	-0.039019097
15	0xbd170496	-0.036869608
16	0x3d8ca1e6	0.06866817
17	0x3b152280	0.002275616
18	0xba3f6ae0	-0.00073019974
19	0x3d88f1ee	0.066867694
20	0x3c5c5336	0.013447573
21	0x3d51351e	0.051076047
22	0xbd0014b2	-0.031269737
23	0xbd8853fe	-0.06656645
24	0x3dc6b26b	0.09701999
25	0x3e3520e2	0.17688325
26	0xbe1bd818	-0.15219152
27	0xbcaa7d9a	-0.020811845
28	0x3c2ec52e	0.0106671285
29	0x3d910bee	0.070823535
30	0xbe225b8a	-0.15855232
31	0x3d4edddd	0.050504554
32	0xbdfe682c	-0.12422213
33	0x3cf3c368	0.029756263
34	0xbde50d6c	-0.11184201
35	0xbdc81ee0	-0.09771514
36	0xbe0face8	-0.14030802
37	0xbcf2d8c6	-0.029644381
38	0xbc898283	-0.016785866
39	0x3e010ac8	0.12601769
40	0x3d97fcaa	0.07421239
41	0x3d77c5ef	0.0604915
42	0xbdaa19fb	-0.08305737
43	0xbc9493f8	-0.018136963
44	0xbdb346ce	-0.08753739
45	0x3d711096	0.05885371
46	0x3d762976	0.060098134
47	0xbdf10092	-0.11767687
48	0xbd2fc480	-0.042912006
49	0xbd208846	-0.03919246
50	0xbc40d797	-0.011770151
51	0xb9feaef0	-0.00048576994
52	0xbe15bb2c	-0.14622182
53	0x3e255d4d	0.16148873
54	0x3dd7cd30	0.10537183
55	0x3cd3167f	0.025767563
56	0xbca0cf2c	-0.019630037
57	0x3d1cf792	0.03832204
58	0x3d5c5482	0.05379153
59	0xbd79d7d8	-0.06099686
60	0xbd2ac232	-0.041689105
61	0xbb6265b0	-0.0034545474
62	0xbdbf2f3c	-0.09335181
63	0x3d9a4e12	0.07534422
64	0x3da9a2ec	0.08283028
65	0x3cb269b6	0.021778923
66	0x3cf6f976	0.03014825
67	0x3d9e89f8	0.07741159
68	0xbda9777c	-0.08274743
69	0x3de1cbe2	0.11025216
70	0x3e02258b	0.12709634
71	0x3c133f45	0.008987253
72	0x3d4db2c7	0.050219323
73	0xbe161753	-0.14657335
74	0x3d9a6cb5	0.075402655
75	0xbdcda56c	-0.10041317
76	0x3da66339	0.08124394
77	0x3c644aca	0.013933847
78	0x3d071da8	0.032987267
79	0xbd037bf4	-0.032100633
80	0xbc2ee446	-0.010674542
81	0x3cf02a13	0.029316938
82	0x3bafb168	0.0053617246
83	0x3c83cfb6	0.016090255
84	0xbe183267	-0.14862977
85	0xbca74217	-0.020417256
86	0x3db0fefe	0.08642386
87	0xbcbd3a16	-0.023098987
88	0xbdb73310	-0.08945286
89	0x3d8bb531	0.06821669
90	0x3dde8873	0.108658694
91	0x3cea14d6	0.028574388
92	0x3d14aaf4	0.036295846
93	0xbcb10864	-0.021610446
94	0xbd80ad02	-0.062829986
95	0xbdc8e7cd	-0.098098375
96	0x3d156176	0.0364699
97	0xbd48f90e	-0.049065642
98	0xbd8bfcbc	-0.06835315
99	0x3d57c4dd	0.052677978
100	0xbcf4d4b7	-0.029886587
101	0x3db0dcd7	0.08635872
102	0x3d84103a	0.064484075
103	0xbcb36019	-0.021896409
104	0x3e0a70ec	0.13519639
105	0x3d6a78c0	0.057244062
106	0x3d60446e	0.05475276
107	0xbdbc76c8	-0.09202343
108	0xbd890b86	-0.06691651
109	0xbd651e17	-0.0559369
110	0xbd4784ba	-0.048710562
111	0xb9cc66c0	-0.00038986467
112	0xbba21e50	-0.004947461
113	0xbcbd7864	-0.023128696
114	0xbcb3cb64	-0.02194757
115	0xbe36df4b	-0.17858617
116	0x3d2ba2bc	0.041903242
117	0x3ca806c8	0.020511046
118	0xbd42382f	-0.047416862
119	0xbdf495ee	-0.11942659
120	0xbb36fc20	-0.0027921274
121	0x3c7ef4f2	0.015561329
122	0xbd608bed	-0.054820944
123	0x3ca0a7c4	0.019611247
124	0xbd8032ac	-0.06259665
125	0x3bb37658	0.005476754
126	0x3da12fa5	0.078704156
127	0xbdfdb55c	-0.12388107
128	0xbc6dc1b0	-0.014511511
129	0xbceeb9d4	-0.029141344
130	0xbdd6327e	-0.10458849
131	0x3abae7c0	0.0014259741
132	0x3c463743	0.012098136
133	0x3de09510	0.109659314
134	0x3d0a11a4	0.03370823
135	0xbd1f5a35	-0.038904388
136	0xbca02b6e	-0.019551959
137	0x3d0d2b9a	0.03446541
138	0x3d4d281c	0.05008708
139	0x3d7747c9	0.060371194
140	0x3c761d3c	0.015021618
141	0xbc85b608	-0.01632215
142	0x3cabcb51	0.020970972
143	0xbcc26517	-0.023729844
144	0xbceca3a6	-0.028886627
145	0x3d293d32	0.041318126
146	0x3bc5bf40	0.0060347617
147	0xbd5e6b20	-0.05430138
148	0xbd99eaed	-0.07515512
149	0xbd3f331a	-0.046679594
150	0xbcbbb763	-0.022914594
151	0x3d2de1a4	0.042451516
152	0xba615f70	-0.000859729
153	0x3d0fe10a	0.035126723
154	0xbd068709	-0.032843623
155	0xbd85d33b	-0.0653443
156	0x3d76f694	0.06029375
157	0xbd8735fb	-0.06602093
158	0xbc90ea0e	-0.017689731
159	0x3b937a50	0.004500665
160	0x3dbd122a	0.0923198
161	0xbd808095	-0.06274525
162	0x3d8c6968	0.06856042
163	0x3ca835dc	0.020533495
164	0xbd649444	-0.05580546
165	0xbcd7c58c	-0.026339315
166	0x3c97bb69	0.018521981
167	0x3d43fcb2	0.04784841
168	0xb9c37c00	-0.00037285686
169	0x3ca18635	0.019717315
170	0xbcad968a	-0.021189947
171	0xbdd9e7d6	-0.10639922
172	0xbc4943c8	-0.012284227
173	0xbe1fea85	-0.15616806
174	0x3d9d6936	0.07686083
175	0x3dd136a4	0.102155
176	0xbd98da0d	-0.07463465
177	0xbd8c557a	-0.06852241
178	0x3dbb99d1	0.091601975
179	0xb9e02140	-0.00042749383
180	0xbd1f5c96	-0.038906656
181	0x3e1414d2	0.14461067
182	0xbc12f948	-0.008970566
183	0xbb86cf88	-0.004114095
184	0xbdc9af7d	-0.09847925
185	0xbdc17e15	-0.09447876
186	0xbcc693bc	-0.024240367
187	0x3dfaa43d	0.12238357
188	0xbcea2948	-0.028584138
189	0x3cd72c2c	0.02626618
190	0x3e0b29b8	0.13590133
191	0x3df0401e	0.117309794
192	0x3d6a056d	0.05713408
193	0x3d0a101e	0.033706777
194	0xbd725324	-0.05916132
195	0xbdb68e56	-0.08913867
196	0xbdf44d54	-0.11928812
197	0xbdbafda4	-0.09130409
198	0xb9fc17d8	-0.0004808295
199	0x3dbb33aa	0.091407135
200	0x3cd988db	0.026554516
201	0x3aaf5f40	0.0013379827
202	0xbd27f83e	-0.041008227
203	0x3ccf9eb0	0.025344223
204	0x3e03b054	0.12860233
205	0x3d3e3418	0.0464364
206	0xbd000612	-0.03125579
207	0xbd2e8b38	-0.042613238
208	0xbd4515ff	-0.04811668
209	0x3d0a48af	0.033760723
210	0x3cbc2e93	0.022971427
211	0x3d308a7d	0.043100823
212	0xbd07c6b7	-0.033148494
213	0xbd862ffc	-0.06552121
214	0xbce14f40	-0.02750361
215	0xbc895b12	-0.016767059
216	0xbe11b14a	-0.14227787
217	0xbdd336ac	-0.10313162
218	0x3d1f8f93	0.038955282
219	0x3cdf1157	0.027229948
220	0xbd625a8a	-0.055262126
221	0xbd213cf0	-0.039364755
222	0xbd2fe07d	-0.042938698
223	0x3e16c00c	0.14721698
224	0x3d9c0c5c	0.07619545
225	0x3bffe326	0.0078090606
226	0x3ddbc633	0.10731163
227	0x3d79d6c6	0.06099584
228	0xbe03c9dc	-0.12869972
229	0xbdd360b1	-0.10321177
230	0xbdbf4f49	-0.09341294
231	0xbdde698a	-0.10859974
232	0x3db81c0e	0.08989726
233	0x3c9178dc	0.017757826
234	0x3dad9fd2	0.08477749
235	0xbe1573dc	-0.14594978
236	0xbd75fbb3	-0.060054492
237	0xbd999bee	-0.07500444
238	0x3ca98309	0.020692365
239	0xbc8de5d9	-0.017321514
240	0x3cef9351	0.02924505
241	0xbdf05c0a	-0.11736305
242	0x3d456b10	0.048197806
243	0xbde2990d	-0.11064348
244	0x3d1faf22	0.03898538
245	0xbdcfa598	-0.101390064
246	0x3e0e732f	0.13911127
247	0x3c072382	0.008248212
248	0x3d6f7877	0.058464494
249	0x3d8454b8	0.06461471
250	0x3d626747	0.055274274
251	0xbd24c96c	-0.040231153
252	0xbdc12706	-0.09431271
253	0xbd24adfe	-0.040204994
254	0x3d011d2d	0.031521965
255	0x3d8b3321	0.067968614

fc_mean.bias f4 [7]
0	0x3e14a69e	0.14516684
1	0x3bbee009	0.005825047
2	0xbdd3ef02	-0.103483215
3	0x3d6d21af	0.05789345
4	0x3c8463ac	0.016160809
5	0xbdf90042	-0.12158252
6	0xbd547f94	-0.05187948
